checkpoints/checkpoint_actor_600.pth (torch, 542655 bytes, 6 tensors)

fc1.weight f4 [400, 33]
0	0xbc8692fb	-0.016427508
1	0x3dd12d24	0.10213688
2	0xbdc4f861	-0.09617687
3	0x3c1c8d6b	0.009555201
4	0x3ca8d225	0.020608017
5	0x3ce68304	0.028138645
6	0xbdc8eaab	-0.09810384
7	0xbd8a228d	-0.06744871
8	0xbe13b731	-0.1442535
9	0xbdb26b7f	-0.087119095
10	0xbd64f19d	-0.055894483
11	0x3c25f826	0.010129964
12	0xbca7f9a1	-0.020504775
13	0xbc3f290e	-0.011667503
14	0x3ce33f0f	0.02774003
15	0xbc61d469	-0.013783553
16	0xbd98394a	-0.07432802
17	0xbd84fb41	-0.064932354
18	0xbcc328a9	-0.0238231
19	0xbe075eff	-0.13219832
20	0x3c8a5300	0.01688528
21	0xbd96e84f	-0.07368528
22	0xbd361835	-0.04445668
23	0xbd065aab	-0.03280131
24	0xbcf6d418	-0.030130431
25	0xbc806958	-0.015675232
26	0xbdee50b3	-0.11636486
27	0xbd86e2e3	-0.06586244
28	0x3c027378	0.0079621
29	0x3d4b65c9	0.049657617
30	0x3d7ebe17	0.062193003
31	0xbcea4fb7	-0.028602464
32	0x3e97403e	0.295412
33	0xbdbaae81	-0.09115315
34	0xbd5d9e7f	-0.05410623
35	0xbc24ab33	-0.010050583
36	0x3d0b941f	0.034076806
37	0xbd4e85de	-0.050420634
38	0xbdca587e	-0.0988016
39	0x3d4c8404	0.049930587
40	0x3dbb03bb	0.09131571
41	0xbd3c9955	-0.046044666
42	0xbd731941	-0.059350256
43	0x3cc6f678	0.024287447
44	0xbd931052	-0.07180847
45	0x3cd16f7b	0.025565853
46	0x3d2e4e67	0.04255524
47	0x3cc4ad24	0.024008341
48	0xbcbcba0d	-0.023037935
49	0xbc8540e9	-0.016266303
50	0xbd3dbc16	-0.04632195
51	0xbd0cbb85	-0.03435852
52	0x3de3a3e9	0.11115248
53	0xbe01a758	-0.12661493
54	0xbc98a96e	-0.018635478
55	0xbc7a054d	-0.015260053
56	0x3d2f7db1	0.042844478
57	0xbd8534f6	-0.06504242
58	0xbc2aa833	-0.010416078
59	0x3c4c22e2	0.012459489
60	0xbcc6bbfa	-0.024259556
61	0x3d298008	0.041381866
62	0xbd28afc3	-0.041183244
63	0x3d85aeee	0.06527506
64	0xbc3b03ec	-0.011414509
65	0x3da58553	0.0808207
66	0xbca303a1	-0.019899191
67	0x3d48048b	0.048832458
68	0xbd919ceb	-0.07110008
69	0xbccd5960	-0.025067031
70	0xbaac97f0	-0.001316784
71	0xbe0b313e	-0.13593003
72	0x3daa9585	0.083293
73	0x3d620f10	0.055190146
74	0xbdf2414e	-0.11828862
75	0xbbaf24b0	-0.0053449497
76	0xbcdfc9cd	-0.027317906
77	0x3c9fa42e	0.019487467
78	0xbd15c4d9	-0.03656468
79	0xbda90bd4	-0.08254209
80	0x3dd3c80d	0.10340891
81	0x3c7534a9	0.014966168
82	0x3defefa6	0.11715631
83	0x3d9c8fc4	0.076446086
84	0xbbc4971a	-0.005999458
85	0xbdcd6892	-0.10029711
86	0x3dc51f09	0.0962506
87	0xbd327b92	-0.043574877
88	0x3cdba6a0	0.026812851
89	0xbda2202a	-0.07916291
90	0x3d2bcdbe	0.041944258
91	0x3c6245e1	0.013810606
92	0xbda5fb6b	-0.08104595
93	0xbdada806	-0.084793136
94	0x3b19ebd8	0.002348652
95	0xbd0bd4ec	-0.034138605
96	0x3cbee705	0.023303518
97	0x3d3cb22b	0.04606835
98	0xbed88b35	-0.42293707
99	0xbd374a01	-0.04474831
100	0x3d4c34df	0.04985511
101	0x3ccc22ea	0.024918992
102	0xbd4de05a	-0.050262786
103	0x3cf9a150	0.030472428
104	0x3c6a679e	0.014306931
105	0xbd0f7277	-0.03502127
106	0x3d607661	0.054800395
107	0xbe004583	-0.12526517
108	0xbdb3ef71	-0.08785904
109	0xbd170514	-0.036870077
110	0x3cc77fc7	0.024352921
111	0xbd68f93c	-0.056878313
112	0x3daa5609	0.08317191
113	0x3d3a5837	0.045494284
114	0xbca03a14	-0.019558944
115	0xbcd0c3e6	-0.025484037
116	0x3ba41aac	0.0050080623
117	0xbd8482f9	-0.064702936
118	0xbc274dfa	-0.010211462
119	0x3d60e7df	0.05490863
120	0x3d3affb9	0.045654032
121	0xbcbe1cc0	-0.023207068
122	0x3d3d250e	0.046177916
123	0xbd811ba2	-0.06304099
124	0x3d38ba43	0.045099508
125	0xbdf8fa04	-0.12157062
126	0x3b0d3ce5	0.0021551189
127	0x3b3f4974	0.0029188069
128	0xb8545800	-5.0626695e-05
129	0xbd27ec08	-0.04099658
130	0xba080380	-0.000518851
131	0xbefb9922	-0.4914027
132	0x3c7e3a60	0.015516847
133	0x3d4719fd	0.04860877
134	0x3d4d7482	0.05015994
135	0xbdcfb0e7	-0.10141163
136	0x3d61436b	0.054995935
137	0xbd142e79	-0.036177132
138	0x3d0106bb	0.03150056
139	0x3b409847	0.002938764
140	0xbdcc68bd	-0.09980915
141	0x3d11d553	0.035603832
142	0x3d8b77bb	0.06809946
143	0x3d2c0501	0.04199696
144	0x3d6cf427	0.05785003
145	0xbe0fd82f	-0.14047311
146	0xbb86d3c2	-0.004114599
147	0xbe17eb3b	-0.14835827
148	0x3dcedca6	0.10100679
149	0x3d6e85a1	0.058232907
150	0x3e146416	0.14491305
151	0x3d51709f	0.051132794
152	0xbde53ce6	-0.11193256
153	0xbbd9ed0b	-0.006650572
154	0x3c80ed3a	0.015738118
155	0xbc86c6bd	-0.016452188
156	0xbb373621	-0.0027955847
157	0xbd67f2a9	-0.056627903
158	0xbdabe28b	-0.08392819
159	0xbc8c985a	-0.01716249
160	0xbe2aa130	-0.1666305
161	0xbd1b80e0	-0.0379647
162	0xbc079f01	-0.008277656
163	0xbc19c468	-0.009385206
164	0xbd7009d0	-0.058603108
165	0x3c4953ad	0.012288016
166	0x3dea174d	0.114302255
167	0x3d8acce1	0.06777359
168	0xbb9cebb8	-0.004788842
169	0x3da4310b	0.08017167
170	0x3c52d9b0	0.012869284
171	0xbd0a25e6	-0.03372755
172	0xbe033ce9	-0.12816204
173	0xbdd7dbf6	-0.10540001
174	0x3d67b3ed	0.056568075
175	0xbc2b42e7	-0.0104529625
176	0x3d6b34a1	0.057423238
177	0xbd4a8269	-0.049440775
178	0xbd915633	-0.07096519
179	0x3e01b87a	0.12668028
180	0xbd6f5dea	-0.058439173
181	0xbd25cc52	-0.04047806
182	0x3dc56618	0.096386135
183	0x3d519861	0.05117071
184	0x3d442edb	0.047896247
185	0x3d07c55a	0.033147193
186	0x3d87799d	0.06614993
187	0x3d0ebd78	0.03484866
188	0xbd412fcf	-0.047164734
189	0x3e20c30e	0.15699407
190	0xbd76803d	-0.06018089
191	0x3d3ca424	0.046054974
192	0x3dbf23d2	0.09333004
193	0x3dfb2031	0.122619994
194	0x3d402789	0.046912704
195	0xbd42f1fd	-0.04759406
196	0x3a713ec0	0.0009202771
197	0xbd9174dc	-0.07102367
198	0xbcb6bc35	-0.022306541
199	0x3c8b3468	0.016992763
200	0x3c73ebf4	0.014887799
201	0x3d8e6715	0.06953255
202	0xbd062ea6	-0.03275933
203	0x3d383efb	0.044981938
204	0xbc80541c	-0.015665106
205	0xbd19da3b	-0.037561636
206	0xbca86acb	-0.020558735
207	0x3d58df2d	0.052947212
208	0x3da5b59a	0.080912784
209	0x3c88306b	0.01662465
210	0x3c4e057c	0.01257455
211	0xbd802e27	-0.06258803
212	0xbce085af	-0.027407495
213	0xbdb99cf9	-0.09063143
214	0xbce7ef28	-0.02831228
215	0xbd8a9697	-0.06767004
216	0x3d2ae6dc	0.04172407
217	0x3dd00c8c	0.10158643
218	0x3d94bb91	0.07262338
219	0x3c055a6f	0.008139237
220	0x3d1f682f	0.038917717
221	0x3daa5b86	0.08318238
222	0x3b865799	0.004099798
223	0x3b1bb5aa	0.0023759403
224	0x3defc10f	0.11706745
225	0x3c0bc5ae	0.008531017
226	0x3dd6ed58	0.104944885
227	0xbd2f707f	-0.042831894
228	0xbcf0f97f	-0.029415844
229	0x3c2ce8ac	0.01055352
230	0xbf3d2fe7	-0.7390122
231	0x3cf54c4f	0.029943613
232	0x3cbf70c2	0.023369197
233	0xbd36a03e	-0.044586413
234	0xbc651877	-0.013982884
235	0xbc9895db	-0.018626144
236	0xbcdc16b6	-0.026866298
237	0x3d89db84	0.067313224
238	0xbd119172	-0.035539098
239	0xbe222348	-0.15833771
240	0xbb61476c	-0.0034374846
241	0x3cd617d8	0.026134416
242	0xbdd02356	-0.1016299
243	0xbd742f36	-0.059615336
244	0xbb9357e1	-0.00449656
245	0xbd6fb03e	-0.058517687
246	0x3d733a58	0.059381813
247	0x3ba65d43	0.0050770356
248	0x3d8a938f	0.06766426
249	0x3d812bcb	0.06307181
250	0xbb4e0ad9	-0.0031439571
251	0xbb0e6791	-0.002172921
252	0x3d101416	0.035175405
253	0xbbcb47bc	-0.0062036198
254	0x3e1d2456	0.15345892
255	0xbd925238	-0.07144588

fc1.bias f4 [400]
0	0xbd07b436	-0.033130847
1	0xbcd7ac64	-0.02632732
2	0x3e613b5d	0.21995302
3	0x3ac9f737	0.0015408759
4	0xbdf0b16a	-0.11752589
5	0xbe68364e	-0.22676966
6	0xbe097345	-0.13422878
7	0xbe0763d7	-0.1322168
8	0xbe137ad9	-0.14402331
9	0xbd013711	-0.031546656
10	0x3d05ed7d	0.03269719
11	0xbcefe82d	-0.029285515
12	0x3ddee299	0.10883064
13	0xba6b8529	-0.0008984381
14	0xbe0783b2	-0.13233832
15	0xbdda3257	-0.10654133
16	0xbd9ade55	-0.07561938
17	0xbdccbec6	-0.09997325
18	0xbe519c1c	-0.20469707
19	0xbd979c4e	-0.0740286
20	0xbd852a68	-0.06502229
21	0xbc7c2886	-0.015390521
22	0xbdc87d05	-0.097894706
23	0xbe1d1ca9	-0.15342964
24	0x3c27f5c0	0.010251462
25	0xbe2c2fd2	-0.16815117
26	0xbd2eb2af	-0.042650875
27	0x3df40474	0.11914912
28	0x3e304b7a	0.17216292
29	0x3c81905a	0.015815903
30	0xbc8e5bbf	-0.017377732
31	0x3e099b65	0.13438185
32	0x3df1f3b9	0.118140645
33	0x3bdce1a9	0.006740768
34	0xbd8050ca	-0.06265409
35	0x3d0a1aee	0.03371709
36	0xbe01dd58	-0.12682092
37	0x3da918fd	0.08256719
38	0x3d798093	0.060913634
39	0xbdb635ed	-0.08897004
40	0x3de1f7b9	0.110335775
41	0x3dad4926	0.084612176
42	0x3e19bc50	0.15013242
43	0x3d1a8022	0.037719853
44	0x3d6662d1	0.056246582
45	0x3d1aec60	0.03782308
46	0x3d9f9193	0.07791438
47	0x3e166530	0.14687037
48	0x3d67495a	0.056466438
49	0xbd7b7777	-0.061393227
50	0x3b8736e0	0.0041264147
51	0x3e74b6c3	0.23897843
52	0x3df0a6c2	0.117505565
53	0x3dbd7631	0.09251059
54	0xbd89afaa	-0.067229584
55	0x3e49ce1a	0.19707528
56	0x3d38cac4	0.045115247
57	0xbcaf0a5d	-0.021367246
58	0x3cfce610	0.030871421
59	0x3e09146f	0.13386701
60	0xbdf58751	-0.119887
61	0xbda4a5a5	-0.08039407
62	0x3e24842e	0.16066048
63	0xbdcdbbf1	-0.100456126
64	0xbe1ed6f1	-0.15511681
65	0xbd2d5943	-0.042321455
66	0x3d7c5c46	0.061611436
67	0xbe064fb4	-0.13116342
68	0x3c48fc5e	0.0122672
69	0x3d75762d	0.059927154
70	0x3dcd39c7	0.10020786
71	0xbde57a62	-0.11204983
72	0x3d6d2bb8	0.05790302
73	0xbd879c72	-0.066216365
74	0x3dd523b1	0.10407198
75	0x3e0cae1b	0.13738291
76	0xbe0ffa11	-0.14060237
77	0x361fad20	2.3793618e-06
78	0x3dfc0480	0.12305546
79	0xbd9b0db7	-0.07570975
80	0xbd55525f	-0.05208051
81	0xbd6fd244	-0.058550134
82	0xbd5f2c6a	-0.054485716
83	0xbd898b9e	-0.06716083
84	0x3d0bb46e	0.034107618
85	0x3d50141f	0.05080044
86	0x3d92d6c2	0.07169868
87	0x3da08dfc	0.07839581
88	0x3da0f2f3	0.07858839
89	0xbe11afb9	-0.14227189
90	0xbe32be7c	-0.17455477
91	0xbdb4f8dc	-0.08836529
92	0x3d374817	0.044746485
93	0xbb2a26d5	-0.0025963087
94	0xbc293131	-0.01032667
95	0xbdbb96de	-0.09159635
96	0x3d820bc4	0.063499
97	0x3df293bd	0.11844585
98	0xbd972b58	-0.07381314
99	0x3e4c7535	0.19966586
100	0xb9a2336f	-0.0003093737
101	0x3e5ba36d	0.2144906
102	0xbd8f5fb1	-0.070006736
103	0x3e662eee	0.2247884
104	0x3ca77807	0.020442976
105	0x3e1d6530	0.15370631
106	0x3dfb0c47	0.12258201
107	0xbcd6da0e	-0.026227023
108	0xbd56c656	-0.05243524
109	0xbe21de29	-0.15807404
110	0x3dbe2652	0.09284653
111	0xbde9349d	-0.11386988
112	0x3d8512fc	0.064977616
113	0x3982e9cd	0.00024969727
114	0x3e121b53	0.14268236
115	0x3ded39ff	0.115833275
116	0x3d0540ba	0.03253243
117	0xbdc044bf	-0.09388112
118	0xbe1c1629	-0.15242828
119	0xbdb9998a	-0.090624884
120	0xbe22f7fd	-0.15914913
121	0xbdee81d2	-0.11645855
122	0xbdc0ab45	-0.09407667
123	0x3b4ae580	0.0030959547
124	0xbe3f7073	-0.1869524
125	0x3e0d45c0	0.13796139
126	0x3e29bc38	0.16575706
127	0xbd0407f6	-0.032234155
128	0x3d7919ea	0.06081573
129	0x3dc22e22	0.094814554
130	0xbe221852	-0.1582959
131	0x3e32dea7	0.17467748
132	0x3e64c997	0.22342525
133	0x3d2b9849	0.041893277
134	0xbdb55176	-0.08853428
135	0x3e20e5c1	0.15712644
136	0xbcf6aab8	-0.030110702
137	0x3d9331ec	0.07187256
138	0x3e7b230b	0.24525087
139	0x3d203fc6	0.03912332
140	0x3d1fbf3d	0.03900074
141	0xbd689464	-0.05678214
142	0xbd717e0d	-0.058958102
143	0x3e251b89	0.16123785
144	0xbdf2173e	-0.11820839
145	0x3d4f16ef	0.05055898
146	0xbd3a3249	-0.045458112
147	0xbd80ba74	-0.06285563
148	0xbe3a95a6	-0.18221149
149	0xbdbfa597	-0.09357756
150	0xbdecc244	-0.11560491
151	0x3d4e9c0c	0.050441787
152	0x3d39bb15	0.04534443
153	0xbe9fedf9	-0.31236246
154	0xbd123015	-0.035690386
155	0xbe1a85e1	-0.15090133
156	0x3e4f3e10	0.20238519
157	0xbe28aa0d	-0.16471119
158	0xbcfbc3c5	-0.030732999
159	0xbc65ee18	-0.014033817
160	0xbe01bbd5	-0.12669308
161	0x3daeaca4	0.08529022
162	0x3d4cafce	0.049972348
163	0x3d40fd43	0.04711653
164	0x3ddaeeb6	0.10690062
165	0xbc786209	-0.015160092
166	0x3d614370	0.054995954
167	0x3e6b858a	0.2300016
168	0x3cd42d81	0.025900604
169	0x3c7eeb96	0.015559098
170	0x3be494e4	0.006975757
171	0xbe1c8998	-0.15286863
172	0x3c5524ff	0.013009309
173	0xbbe14282	-0.0068743834
174	0xbdf0bfd9	-0.11755342
175	0x3e092c6c	0.13395852
176	0xbe74fc6f	-0.23924421
177	0xbd881379	-0.06644339
178	0x3e1f024a	0.15528217
179	0xbbaeb489	-0.00533158
180	0x3dc703b1	0.09717501
181	0x3daa3c95	0.08312336
182	0xbe18a77d	-0.14907642
183	0xbe371468	-0.17878878
184	0xbcc15b36	-0.023603063
185	0xbdb028b5	-0.08601514
186	0xbdea4db1	-0.114406
187	0xbd5758fa	-0.05257509
188	0x3e035f9f	0.12829445
189	0x3dd7167c	0.105023354
190	0xbc03b270	-0.008038148
191	0xbe0eccbf	-0.13945292
192	0xbdc50972	-0.09620942
193	0x3e23fd99	0.16014709
194	0xbb8ca586	-0.004292193
195	0xbab301df	-0.0013657174
196	0xbdd704d1	-0.104989655
197	0xbe97ce17	-0.29649422
198	0x3e0a63b9	0.13514604
199	0xbcef2a0a	-0.02919485
200	0xbca8b858	-0.020595714
201	0xbcea909a	-0.028633405
202	0xbdbe0ca6	-0.09279756
203	0xbe0cbfce	-0.13745043
204	0xbe21dcb2	-0.15806845
205	0x3de7fb2b	0.11327203
206	0xbc6d9e0d	-0.014503014
207	0xba2fc84d	-0.00067055674
208	0x3c4acf6d	0.012378556
209	0x3cd5dceb	0.026106318
210	0x3cda54c9	0.026651757
211	0x3dedd633	0.11613121
212	0xbdf7f675	-0.12107555
213	0xbe685e28	-0.22692168
214	0x3e005dd9	0.125358
215	0xbd97de62	-0.07415463
216	0xbe06a589	-0.13149084
217	0xbd6690ef	-0.056290563
218	0x3d6e8632	0.058233447
219	0x3e090ca0	0.13383722
220	0xbe3b27af	-0.18276857
221	0xbe23f11a	-0.16009942
222	0xbdbc9cf7	-0.09209626
223	0xbe23b1f6	-0.15985855
224	0x3e1daf78	0.15398967
225	0x3c927ad1	0.017880829
226	0x3e0ae0e0	0.13562346
227	0x3dfe17a0	0.1240685
228	0x3d3c7097	0.04600581
229	0xbdb717cc	-0.08940086
230	0x3d9bc36e	0.07605635
231	0x3dbb9e59	0.09161062
232	0x3ce0f79e	0.027461823
233	0xbe2e27a7	-0.17007314
234	0xbd16dd99	-0.036832426
235	0x3e281aaa	0.16416422
236	0xbd4f95cd	-0.05067997
237	0xbddba475	-0.10724727
238	0xbde727fb	-0.112869225
239	0xbb21e0e1	-0.0024700689
240	0x3dda945a	0.10672827
241	0xbbc2619c	-0.005932046
242	0x3e17330b	0.14765565
243	0x3e0445ff	0.12917326
244	0xbd5d8558	-0.054082245
245	0xbdf768b0	-0.120805144
246	0x3e844940	0.25837135
247	0x3de968ea	0.11396964
248	0xbd5f3669	-0.05449525
249	0xbe6f5b97	-0.23374783
250	0xbd5af552	-0.053456612
251	0x3d69f5b6	0.057119094
252	0xbdb7d984	-0.08977035
253	0xbdc4822d	-0.095951416
254	0x3e59e14c	0.2127735
255	0x3dda9267	0.10672455

fc2.weight f4 [300, 400]
0	0x3d9bbfb6	0.07604925
1	0x3bcd1e6d	0.0062597306
2	0x3d0bd535	0.034138877
3	0xbcdc7a3c	-0.026913755
4	0x3d9a744a	0.07541712
5	0x3d1c2f26	0.0381309
6	0x3e26d069	0.1629044
7	0x3d812919	0.06306667
8	0x3b1029d5	0.002199759
9	0xbca51679	-0.020152317
10	0xbe0ac9bf	-0.13553523
11	0xbd28320b	-0.04106335
12	0x3d1e50b2	0.038651176
13	0x3db0bb23	0.086294435
14	0x3d15d12d	0.03657644
15	0xbda323fa	-0.07965846
16	0x3d2cd8bb	0.042198878
17	0xbbf60874	-0.007508332
18	0x3c4455c2	0.011983337
19	0xbd4be2e4	-0.049776927
20	0x3e1c9929	0.15292801
21	0xbc6f9cd1	-0.01462479
22	0x3d10275c	0.035193786
23	0xbd52c3cb	-0.051456254
24	0xba83935b	-0.0010038422
25	0xbdd8d977	-0.10588353
26	0xbc9b6c55	-0.018972555
27	0xbdb472b5	-0.08810941
28	0xbc148418	-0.009064697
29	0xbc48fbe3	-0.012267086
30	0xbd02123c	-0.03175567
31	0xbb8b2149	-0.0042459113
32	0xbd204415	-0.039127428
33	0xbd1ab64c	-0.037771508
34	0xbe237b8e	-0.15965101
35	0x3debf2a2	0.11520888
36	0x3ced8c2f	0.028997509
37	0xbe1d99fb	-0.1539077
38	0xbdafa8bb	-0.08577105
39	0xbd641fe3	-0.055694472
40	0x3caad772	0.020854685
41	0x3d608ce1	0.054821853
42	0x3d3550f9	0.044266675
43	0xbd887804	-0.06663516
44	0x3d93a4aa	0.072091416
45	0x3d7c658e	0.061620288
46	0x3dd81f6a	0.10552867
47	0x3d2d4294	0.042299822
48	0x3d575efc	0.05258082
49	0x3d99597d	0.07487772
50	0x3d29e21b	0.041475397
51	0x3db01526	0.08597784
52	0x3950a03c	0.00019896118
53	0xbd089d22	-0.03335298
54	0xbb452845	-0.0030083817
55	0x3d29f0ea	0.04148952
56	0x3cc928f5	0.024555663
57	0xbc072db9	-0.008250647
58	0x3d523949	0.051324163
59	0xba91f8f0	-0.0011136811
60	0x3c204b1e	0.009783534
61	0xbd91f81f	-0.071274035
62	0xbd96b27a	-0.073582605
63	0x3d5e3e1a	0.054258443
64	0xbd9a26d1	-0.07526935
65	0x3c35e670	0.011102304
66	0x3d803b7a	0.06261344
67	0xbc245396	-0.010029694
68	0xbc6ef9e6	-0.014585948
69	0x3de64f2d	0.1124557
70	0xbc59e615	-0.013299485
71	0x3c0a1e8a	0.008430133
72	0xbdb83753	-0.08994927
73	0x3d28ed63	0.041242015
74	0x3d7c163d	0.061544646
75	0xbcbd3b15	-0.023099462
76	0xbdd3f3b4	-0.10349217
77	0x3d41d18b	0.047318976
78	0x3dbedbf4	0.093192965
79	0xbcea2a75	-0.028584698
80	0xbd2109ee	-0.03931611
81	0xbd86420c	-0.06555566
82	0xbbf26b2e	-0.0073980307
83	0xbc9777b1	-0.01848969
84	0xbd20acf8	-0.039227456
85	0xbb483a53	-0.0030552342
86	0x3d1ef966	0.038812064
87	0x3da12f2b	0.07870325
88	0xbe1741bb	-0.14771168
89	0x3cf2f6d3	0.02965871
90	0xbd34027f	-0.043947693
91	0x3dc56268	0.0963791
92	0x3cedd865	0.029033849
93	0x3d18513f	0.037186857
94	0x3b298833	0.0025868535
95	0xbd6f3a34	-0.058405116
96	0xbdc84fc0	-0.09780836
97	0x3e07f3bb	0.1327657
98	0x3cd9e4ae	0.0265983
99	0x3ddf2daf	0.10897385
100	0xbd079175	-0.033097703
101	0x3d3dd329	0.046343956
102	0x3bb9bcae	0.0056682443
103	0x3dca5fb5	0.09881536
104	0xbd148fb1	-0.036269847
105	0xbd16231c	-0.036654577
106	0xbd4c6bff	-0.04990768
107	0x3e0b0fe8	0.13580287
108	0xbc64609d	-0.01393905
109	0xbd9cf175	-0.07663242
110	0xbd5e7b4b	-0.0543168
111	0x3d2641cf	0.040590104
112	0x3d4b5410	0.049640715
113	0x3cf9c00c	0.030487083
114	0xbc4f1141	-0.012638391
115	0xbcd76894	-0.026294984
116	0x3bf6914e	0.007524646
117	0x3b31176d	0.002702202
118	0x3d0f3d83	0.03497077
119	0xbc82d73a	-0.015971769
120	0x3bd50e90	0.00650198
121	0x3c1498cf	0.0090696355
122	0x3d9ff977	0.078112535
123	0x3d82d39d	0.06388018
124	0x3c42e52f	0.011895462
125	0x3d246370	0.040133893
126	0x3d8fbb1b	0.070181094
127	0x3ac43e10	0.0014972109
128	0xbc988773	-0.018619275
129	0x3ddba1b2	0.107242
130	0x3d4f2263	0.050569903
131	0x3d89da65	0.067311086
132	0xbd1bb4b8	-0.038014144
133	0x3dd8f289	0.10593135
134	0xbd59073f	-0.052985426
135	0xbd187c0e	-0.037227683
136	0x3d627700	0.05528927
137	0x3e232daa	0.15935388
138	0x3d98b33e	0.07456063
139	0xbc80e7ab	-0.015735468
140	0x3d5c726d	0.053820062
141	0xbb5bf8f1	-0.0033565129
142	0xbbb92dc7	-0.005651209
143	0x3d36cc3a	0.04462836
144	0x3d906389	0.07050235
145	0xbdf11b05	-0.11772732
146	0x3db4865d	0.0881469
147	0xbca616ab	-0.02027448
148	0x3d4f7127	0.05064502
149	0x3d449da1	0.04800189
150	0x3b8a684f	0.0042238603
151	0x3cf9c72c	0.03049048
152	0xbd265d55	-0.040616352
153	0xbda10088	-0.078614295
154	0xbddee308	-0.108831465
155	0x3c04fc7d	0.0081168385
156	0xbca7f374	-0.02050183
157	0xbd142264	-0.03616561
158	0x3caec8b1	0.021335931
159	0xbd271869	-0.040794764
160	0x3cb4052f	0.021975128
161	0x3e08afcc	0.13348311
162	0x3ce470bf	0.027885793
163	0xbd12a8a0	-0.035805345
164	0xbd98a641	-0.074535854
165	0x3db4afc7	0.08822589
166	0x3cd2dbf5	0.02573965
167	0x3e260fdf	0.16216992
168	0xbca911f5	-0.020638445
169	0x3a84f357	0.0010143322
170	0xbd149b65	-0.03628101
171	0x3d12b558	0.035817474
172	0x3def438a	0.11682804
173	0xbbff5af7	-0.0077928263
174	0xbda0a833	-0.078445815
175	0x3a355784	0.0006917643
176	0xbc819ccb	-0.015821835
177	0x3e065cde	0.13121364
178	0xbd064cb3	-0.03278799
179	0x3d70cc3f	0.058788534
180	0xbcca2007	-0.024673475
181	0x3d6d0f63	0.057876002
182	0xbd9493df	-0.07254767
183	0xbe06969e	-0.13143393
184	0xbcd1cf66	-0.02561159
185	0x3d045d22	0.03231538
186	0x3c07f06e	0.008297069
187	0x3d415489	0.04719976
188	0x3d7a4b85	0.061107177
189	0x3d24c674	0.040228322
190	0x3dab222f	0.083561294
191	0xbd805132	-0.06265487
192	0x3d480044	0.04882838
193	0x3d41f21c	0.047350034
194	0xbd9e0fd4	-0.07717863
195	0xbb44f1b1	-0.0030051286
196	0xbd865db5	-0.06560842
197	0x3cb88d34	0.022528268
198	0x3d8b2e59	0.067959495
199	0x3cec0d25	0.028814862
200	0xbc94e2f3	-0.018174624
201	0x3c408e9a	0.011752749
202	0x39513314	0.00019950821
203	0xbdf6d27e	-0.12051867
204	0x3cdc30ff	0.026878832
205	0x3b2431c6	0.0025054081
206	0x3d717c7f	0.05895662
207	0x3d928801	0.07154847
208	0xbe04cbc0	-0.1296835
209	0x3db3e178	0.08783239
210	0x3c615697	0.013753555
211	0x3c34845e	0.011017887
212	0xbdef9a3f	-0.11699342
213	0xbdb6ecc3	-0.089318775
214	0xbcb7c63a	-0.022433389
215	0x3d93dd83	0.072199844
216	0xbd504670	-0.050848424
217	0x3d572a74	0.05253072
218	0xbc19d6ce	-0.009389592
219	0xb90b82a2	-0.00013304738
220	0xbbbfbfcb	-0.005851721
221	0x3d1e9860	0.038719535
222	0xbd35e643	-0.044409048
223	0xbc1cfafb	-0.009581323
224	0xbccd800a	-0.025085468
225	0x3df170d0	0.117890954
226	0x3db5b022	0.08871485
227	0x3de7ea70	0.11324012
228	0xbd894dad	-0.067042686
229	0x3db337b2	0.087508574
230	0xbcd71057	-0.026252909
231	0xbd5ecdef	-0.054395612
232	0x3bd5aa13	0.0065205186
233	0xbc637629	-0.013883152
234	0x3d160e3e	0.036634676
235	0xbc95b507	-0.018274797
236	0xbd952729	-0.0728286
237	0xbcff3430	-0.031152815
238	0x3d7ffa0c	0.062494323
239	0x3d9f9dff	0.07793807
240	0x3d84a952	0.06477608
241	0xbcf5dcba	-0.030012477
242	0x3bef1176	0.0072957827
243	0xbcc8b6c3	-0.02450121
244	0x3d40cc6b	0.04706995
245	0xbe4a3118	-0.1974529
246	0x3d122368	0.035678297
247	0x3d0455ea	0.032308497
248	0xbc9e67c8	-0.019336596
249	0xbcbf29e0	-0.023335397
250	0x3d1754b9	0.036946032
251	0x3df6b76c	0.12046704
252	0x3dc643a9	0.09680874
253	0x3d85f336	0.065405294
254	0xbd3b7a1e	-0.045770757
255	0x3acdc0f5	0.0015697764

fc2.bias f4 [300]
0	0x3d81dc0e	0.063408
1	0x3c966705	0.01835967
2	0x3d3bbb5d	0.04583298
3	0x3d727e0f	0.05920225
4	0x3d805302	0.062658325
5	0x3d4b2eed	0.0496053
6	0x3d25c579	0.040471528
7	0x3dbda8ff	0.09260749
8	0x3db5f835	0.08885232
9	0x3dbedec0	0.0931983
10	0xbca6d0dc	-0.020363264
11	0x3b9fb9fe	0.004874467
12	0xbdf0a5b6	-0.11750357
13	0x3c9b5a63	0.018963998
14	0xbc6c4c9d	-0.014422563
15	0xbc8eb04a	-0.017418046
16	0x3d34356d	0.043996263
17	0x3ceb7aad	0.02874502
18	0x3de570ba	0.112031415
19	0x3d110a2b	0.035410088
20	0x3d5c9939	0.053857062
21	0x3c13051d	0.008973387
22	0x3c5c10e3	0.0134317605
23	0x3c7f49dd	0.015581575
24	0x3db7a95f	0.08967852
25	0xbcf9859d	-0.03045922
26	0x3d715250	0.05891639
27	0xbb723d4c	-0.0036962805
28	0x3d6a6f2c	0.057234928
29	0x3d896155	0.06708018
30	0x3cb0c522	0.021578375
31	0xbb2afd2b	-0.0026090841
32	0x3d99ff17	0.07519358
33	0x3d375ab1	0.044764224
34	0xbd6d67e2	-0.0579604
35	0x3d7b933b	0.061419707
36	0x3cb6eb98	0.022329137
37	0xbc80d327	-0.015725685
38	0x3be81551	0.0070826192
39	0x3dddb59b	0.10825654
40	0x3cf473ac	0.029840313
41	0x3d7a11d3	0.061052155
42	0xbc8b3ccc	-0.016996764
43	0x3d7a2af6	0.061076127
44	0x3dca2be6	0.09871654
45	0x3da48196	0.08032529
46	0x3cb6a41a	0.022295047
47	0xbd7b6c28	-0.061382443
48	0xbc48568b	-0.012227665
49	0x3bbac466	0.005699682
50	0xbd9e163b	-0.07719084
51	0xbb1d531c	-0.0024005836
52	0x3a381bfe	0.0007023214
53	0x3d71fd1b	0.05907927
54	0x3c2db76b	0.010602812
55	0xb9e2eb89	-0.00043281566
56	0xbd691f85	-0.056914825
57	0xbbbfc4c4	-0.0058523137
58	0xbc909380	-0.017648458
59	0x3ce30fcb	0.027717492
60	0x3c5dbd5e	0.013533918
61	0x3d9ec260	0.07751918
62	0xbd0339ad	-0.032037426
63	0x3d165a69	0.036707316
64	0x3d85a423	0.06525447
65	0x3d58356f	0.052785333
66	0x3c8e1091	0.017341884
67	0x3cdc7b14	0.026914157
68	0x3d3edd32	0.046597667
69	0x3d858520	0.06519532
70	0x3dc648b2	0.09681834
71	0xbd46bbb4	-0.04851885
72	0x3d913838	0.07090801
73	0xbb6f4909	-0.0036512038
74	0x3d408569	0.04700223
75	0x3d16b9cc	0.036798283
76	0xbd2b7f31	-0.041869346
77	0x3e01db28	0.12681258
78	0x3ce4907c	0.027900927
79	0xbd039757	-0.03212675
80	0xbc0e2d0d	-0.008677733
81	0xbc21208c	-0.00983442
82	0xbc96b6c7	-0.018397702
83	0x3d217646	0.039419435
84	0x3a2fd9bc	0.0006708165
85	0x3bcb16dd	0.006197794
86	0x3d4a264c	0.04935293
87	0x3cebd33a	0.028787244
88	0xbd0f2ec1	-0.034956697
89	0x3e013266	0.12616882
90	0x3cfd477c	0.030917875
91	0xbd11e2c5	-0.035616655
92	0x3d827c58	0.06371373
93	0x3d102def	0.035200056
94	0x3caf254f	0.021380095
95	0x3dac1e0d	0.08404169
96	0xbb2c094e	-0.0026250663
97	0x3d8d96da	0.06913538
98	0xbd959e08	-0.07305533
99	0x3d5cd937	0.05391809
100	0x3cf7a6f5	0.030230979
101	0x3c559fe5	0.01303861
102	0x3a06965f	0.00051341014
103	0x3b2e3f74	0.0026588114
104	0x3d5c5c71	0.053799096
105	0xbd1288f7	-0.03577515
106	0x3d3ec7e7	0.04657736
107	0x3cb30eb0	0.02185759
108	0xbde5ca7a	-0.1122026
109	0x3cb12dc0	0.02162826
110	0x3d5e432f	0.05426329
111	0x3d6da0d4	0.058014706
112	0x3d8fec03	0.070274375
113	0xbc43c6ff	-0.0119493
114	0x3c1b7a71	0.0094896415
115	0x3bf9348b	0.0076051406
116	0x3dbac704	0.091199905
117	0x3db79ffa	0.0896606
118	0x3ca90865	0.020633886
119	0x3da1b48f	0.07895767
120	0xbd15f33e	-0.036608927
121	0xbc8efcc9	-0.017454522
122	0x3da8165f	0.08207392
123	0x3b254972	0.0025220779
124	0x3d4f6638	0.050634593
125	0xbcf9ae61	-0.030478658
126	0x3d64a82c	0.055824444
127	0x3cfafd29	0.030638294
128	0x3dae6f8c	0.0851737
129	0x3d8f6133	0.07000961
130	0x3d48ed6d	0.049054552
131	0x3c8b9a4e	0.017041352
132	0x3cbe2048	0.023208752
133	0x3c11009a	0.008850241
134	0x3d24619f	0.04013216
135	0x3d273017	0.040817346
136	0x3daf7848	0.08567864
137	0x3dd41ade	0.10356687
138	0x3cbf4f03	0.023353105
139	0x3d257782	0.040397175
140	0xbd0c5efd	-0.034270275
141	0x3bd7417d	0.006569086
142	0x3c10e0a9	0.008842626
143	0x3cee6245	0.029099593
144	0x3c617ee3	0.013763162
145	0x3d67e5b0	0.05661553
146	0xbd0b7c3a	-0.03405402
147	0xbb67f309	-0.0035392663
148	0xbd2cc81b	-0.042183023
149	0x3d8b1155	0.06790415
150	0xbd20fbf0	-0.039302766
151	0x3d9c947d	0.076455094
152	0x3d1ee896	0.03879603
153	0x3dca8e54	0.09890428
154	0x3d232d31	0.03983802
155	0x3dba939d	0.09110186
156	0x3d10e78f	0.03537708
157	0x3d1c595f	0.03817117
158	0xbd201ae6	-0.039088152
159	0x3d870ee8	0.0659464
160	0x3d359407	0.044330623
161	0x3d4501a8	0.048097283
162	0x3c8a8548	0.016909257
163	0x3d00b7d8	0.031425327
164	0xbd5d1f8b	-0.05398516
165	0xbcec521e	-0.02884775
166	0x3c581b93	0.013190168
167	0x3d8aca16	0.06776826
168	0xbdb1e721	-0.086866625
169	0x3cf4f516	0.029902022
170	0x3cea4659	0.028597998
171	0xbd4018e4	-0.046898738
172	0xbceaaaa3	-0.028645819
173	0xbc2870aa	-0.010280767
174	0x3d86d295	0.06583134
175	0x3d17ad55	0.037030537
176	0xbd0d5c7e	-0.034512036
177	0x3c20e545	0.009820287
178	0xbd31f5a1	-0.04344714
179	0x3d2ea292	0.042635508
180	0x3d11895a	0.03553138
181	0x3d342a46	0.043985628
182	0x3de29a28	0.11064559
183	0xbb3254f0	-0.0027211271
184	0x3d3e57f3	0.046470594
185	0x3cde9c6a	0.027174193
186	0x3da4b84d	0.08042965
187	0x3d5b0e99	0.05348072
188	0x3d37e89b	0.044899564
189	0x3b639865	0.0034728285
190	0xbc0cd6e9	-0.00859616
191	0x3d9b9a8d	0.075978376
192	0x3c538255	0.012909492
193	0x3c98cbd0	0.018651873
194	0x3d9a4564	0.075327665
195	0x3d981c76	0.074273035
196	0x3cdf1cbd	0.027235383
197	0x3a89f7fa	0.0010526173
198	0xbd9da652	-0.07697739
199	0x3dbc6dc9	0.09200627
200	0x3d7e060a	0.062017478
201	0xbcc2e719	-0.023791837
202	0xbd4e8cc6	-0.05042722
203	0x3ccc3918	0.024929568
204	0x3d133384	0.0359378
205	0x3d93eb01	0.07222558
206	0x3d260bfa	0.040538765
207	0x3c746847	0.01491744
208	0xbcfd5292	-0.030923162
209	0x3d031c7f	0.032009598
210	0x3cfc015e	0.03076237
211	0x3c41f317	0.011837742
212	0xbd3e35eb	-0.04643814
213	0x3d46187e	0.0483632
214	0xbca410e0	-0.020027578
215	0x3de47a7e	0.11156176
216	0x3a3b8e8d	0.00071547256
217	0x3bd91f47	0.006626043
218	0x3c45c316	0.012070438
219	0x3e0758fd	0.1321754
220	0xbd9e026f	-0.07715308
221	0xbcf17005	-0.02947236
222	0xbc020566	-0.007935857
223	0x3c838f3d	0.016059512
224	0x3d496078	0.049164265
225	0x3c15723d	0.009121475
226	0xbbd86bc9	-0.006604646
227	0x3ce3428d	0.027741695
228	0xbcdf46b4	-0.027255394
229	0x3cf9161c	0.03040605
230	0x3b16d45a	0.0023014755
231	0x3ba266b5	0.0049560913
232	0xbd1069f3	-0.03525729
233	0x3da66abd	0.081258275
234	0x3cc5ad6f	0.024130551
235	0x3ad13aa8	0.0015962915
236	0xbd18d2e8	-0.03731051
237	0x3d51b84b	0.051201146
238	0x3b714cc0	0.0036819428
239	0xbcce0482	-0.025148634
240	0x3c20d3c9	0.0098161185
241	0x3dca31bb	0.098727666
242	0x3d3162a9	0.04330698
243	0xbd0965fa	-0.033544518
244	0xbba38a56	-0.004990856
245	0xbc6d14c7	-0.014470286
246	0x3d176a39	0.036966536
247	0x3d0ef889	0.03490499
248	0x3d330fc5	0.04371621
249	0xbbb3ba46	-0.005484852
250	0x3d82daac	0.063893646
251	0x3d751dc6	0.059842847
252	0x3d35391f	0.044243928
253	0x3d314bb9	0.043285105
254	0xbcba7645	-0.022761473
255	0xbcb9c8f8	-0.022678837

fc3.weight f4 [4, 300]
0	0xbd8ebe26	-0.06969862
1	0xbcc5834b	-0.024110457
2	0x3cd510c6	0.026008975
3	0xbd14d955	-0.036340076
4	0x3ddd4938	0.10804981
5	0xbad6c79e	-0.0016386395
6	0xbe166eba	-0.14690676
7	0xbdcfc97c	-0.10145852
8	0xbdd0eeed	-0.102018215
9	0x3caac0f4	0.02084396
10	0xbd2961cc	-0.041353032
11	0x3c94eb5e	0.018178638
12	0x3ea71215	0.32630983
13	0x3d3f2b3b	0.046672087
14	0xbde5d985	-0.11223129
15	0xbd5bb967	-0.05364361
16	0xbd3fa0bd	-0.04678415
17	0x3e2a62f9	0.16639318
18	0x3d744dab	0.059644382
19	0x3dfc8629	0.123302765
20	0xbcee9a6f	-0.029126374
21	0x3e4e049d	0.20118947
22	0xbdde9fc6	-0.10870318
23	0xbd1f4b13	-0.038889956
24	0xb9c8d493	-0.00038305353
25	0xbd24dc6a	-0.040249266
26	0x3d1396da	0.036032535
27	0xbd3592e0	-0.044329524
28	0x3d14de9d	0.036345113
29	0x3e37ce9f	0.17949913
30	0x3c6409cd	0.013918352
31	0x3da8772e	0.08225857
32	0xbd3997c5	-0.045310754
33	0x3c3ace2f	0.011401697
34	0x3da611d6	0.08108871
35	0x3e01b85b	0.12667982
36	0xbde150ca	-0.110017374
37	0xbccaca91	-0.024754794
38	0xbe551ca1	-0.20811702
39	0xbe0ca81f	-0.13736008
40	0x3c9976b9	0.01873337
41	0x3ca28819	0.019840287
42	0xbc93fef8	-0.018065915
43	0xbcd94366	-0.026521396
44	0xbe6a211a	-0.2286419
45	0xbbaf95a2	-0.005358414
46	0x3e2e2d4d	0.17009468
47	0x3dcfbabb	0.10143038
48	0xbd8cdff7	-0.068786554
49	0x3c076e17	0.008265994
50	0x3edb7736	0.42864388
51	0xbd80e2fe	-0.06293295
52	0x3dd49659	0.10380239
53	0xbc951c61	-0.018202009
54	0x3cca0aca	0.024663348
55	0xbda3df7f	-0.08001613
56	0x3d6408fb	0.055672627
57	0xbd8852ff	-0.06656455
58	0xbd42923a	-0.047502734
59	0x3bdbebee	0.0067114746
60	0xbe54339f	-0.20722817
61	0x3d6a83b6	0.057254516
62	0x3dd055e7	0.101726346
63	0xbd85bdfb	-0.065303765
64	0x3da55577	0.08072942
65	0x3dcccc64	0.09999922
66	0x3c577114	0.0131495185
67	0x3deda002	0.11602785
68	0x3dceb09b	0.100922786
69	0x3da3601b	0.07977315
70	0xbc35dfe0	-0.011100739
71	0x3e0502df	0.12989376
72	0xbdd64250	-0.10461867
73	0x3ae62223	0.0017557781
74	0xbc6b0cbc	-0.014346298
75	0x3e3a7c8b	0.18211572
76	0x3b5869ee	0.0033022123
77	0xbb6a7ec2	-0.003578112
78	0xbacc4bf5	-0.0015586602
79	0x3d902840	0.07038927
80	0xbd501f08	-0.050810844
81	0x3e4fb2e7	0.2028309
82	0x3e5151ab	0.2044131
83	0xbdd0d5e7	-0.10197049
84	0x3e0571fe	0.13031766
85	0xbe690460	-0.22755575
86	0xbc059e09	-0.008155354
87	0x3c592a57	0.0132547235
88	0xbcaea61b	-0.02131944
89	0xbcb654c2	-0.022257213
90	0xbd62b46f	-0.055347856
91	0x3e519838	0.20468223
92	0x3c90ba4c	0.017666958
93	0x3d67c3ec	0.05658333
94	0xbd24a96c	-0.040200636
95	0xbd0195f1	-0.031637136
96	0x3d36dcc3	0.04464413
97	0xbde65f4f	-0.112486474
98	0xbdcd8f19	-0.10037059
99	0x3dd34c3e	0.103172764
100	0xbd467e0c	-0.04846005
101	0x3e577265	0.21039732
102	0xba94c406	-0.0011349923
103	0xbe4598f9	-0.19296636
104	0xbe408260	-0.18799734
105	0x3c89429a	0.01675539
106	0xbde58d42	-0.112085834
107	0x3e4fcb40	0.20292377
108	0x3ec80040	0.3906269
109	0xbbdea7ab	-0.00679489
110	0x3ca208f2	0.019779656
111	0x3e204697	0.15651928
112	0xbda4dc34	-0.08049813
113	0x3d1938de	0.03740775
114	0xbc24b09e	-0.010051874
115	0xbeae4c37	-0.34042522
116	0x3c8fa764	0.017535873
117	0x3c7ca3c9	0.015419909
118	0x3d158822	0.03650678
119	0xbcbf9bad	-0.023389662
120	0x3e07a237	0.13245474
121	0xbe06bc2b	-0.13157718
122	0xbd02da2e	-0.031946354
123	0x3b85f94e	0.0040885573
124	0x3dab8aee	0.08376108
125	0x3e864a59	0.26228598
126	0x3d9ec126	0.07751684
127	0xbcde3d1a	-0.027128745
128	0xbd67bfe7	-0.056579497
129	0xbc7eabee	-0.015543921
130	0xbdcf97d5	-0.101363815
131	0xbd81301c	-0.06308004
132	0xbe7fccbd	-0.24980445
133	0xbe418399	-0.18897857
134	0xbd21fa0e	-0.03954511
135	0x3d35e9e3	0.044412505
136	0x3daa3a39	0.08311886
137	0xbdd469e2	-0.10371758
138	0xbe10c59f	-0.14137886
139	0x3e024f71	0.12725617
140	0xbd166f27	-0.036727097
141	0x3e7ea62b	0.24868076
142	0xbd3b18fc	-0.045678124
143	0xbd3db2f9	-0.04631326
144	0x3e1d1499	0.15339889
145	0xbe0d72bc	-0.13813299
146	0x3d8afaca	0.067861155
147	0xbdc4d544	-0.0961099
148	0x3ca7ae63	0.020468896
149	0xbd24b2d8	-0.04020962
150	0xbddcc511	-0.10779775
151	0x3daedde5	0.08538417
152	0xbe4d958c	-0.20076579
153	0x3d92daa6	0.0717061
154	0x3c0f7ee9	0.008758285
155	0x3da968aa	0.08271916
156	0x3dd9ba5f	0.106312506
157	0xbd4bc750	-0.049750626
158	0x3e25cad6	0.16190657
159	0x3ca5d6f6	0.020244103
160	0xbe311958	-0.17294824
161	0xbdc42b2f	-0.09578549
162	0x3d814d7d	0.06313608
163	0xbc74d371	-0.01494299
164	0x3dc4cb07	0.09609037
165	0xbcba24a7	-0.022722555
166	0xbe86eb95	-0.2635161
167	0xbcb5dfae	-0.022201385
168	0x3d9737a0	0.073836565
169	0x3ddc3ea5	0.10754136
170	0x3e49156f	0.19637083
171	0x3db92aee	0.09041391
172	0xbe027af1	-0.12742211
173	0x3e0dcb60	0.13847113
174	0xbea1dcaf	-0.3161368
175	0xbd098400	-0.03357315
176	0x3e1f090a	0.15530792
177	0x3d82815e	0.06372331
178	0x3d2c7caf	0.042111095
179	0xbd70ff40	-0.058837175
180	0x3d11ab3c	0.035563692
181	0x3c485a7c	0.012228604
182	0xbcd8be03	-0.026457792
183	0xbe198917	-0.14993702
184	0x3cf46b81	0.029836418
185	0xbd1e1511	-0.03859431
186	0x3e86962c	0.26286447
187	0xbe0aa1a9	-0.13538231
188	0xbe519648	-0.20467484
189	0x3e4ac7fc	0.1980285
190	0x3b9b4fb3	0.0047397255
191	0x3dab109f	0.083527796
192	0xbe0409c2	-0.12894347
193	0x3c98981e	0.018627223
194	0xbe2629bb	-0.16226856
195	0x3d1581b9	0.036500666
196	0xbe2e823e	-0.17041871
197	0xbe07459a	-0.13210145
198	0x3cf9b9d0	0.03048411
199	0xbe983f05	-0.2973558
200	0x3d09bf3b	0.033629637
201	0x3e1a5221	0.15070392
202	0x3dfd89cb	0.123797975
203	0xbe6a7175	-0.22894843
204	0xbbad9458	-0.005297225
205	0x3d64972d	0.055808235
206	0x3e01c4a9	0.12672676
207	0xbe777d30	-0.24168849
208	0xbcc5e618	-0.024157569
209	0x3cd86cb6	0.026419025
210	0x3b80c8a2	0.0039301673
211	0x3e3aa357	0.18226372
212	0xbd9cab84	-0.076499015
213	0xbda3fbdc	-0.08007023
214	0x3e2fe0a5	0.17175539
215	0x3d9fb006	0.07797246
216	0x3e4266d4	0.18984538
217	0xbe53a15e	-0.20667025
218	0x3d8ab606	0.067729995
219	0x3d8a7fe3	0.06762674
220	0xbe254fa8	-0.16143668
221	0xbdb801c9	-0.089847155
222	0x3d9edb6e	0.07756697
223	0xbde10b02	-0.10988428
224	0x3e150da6	0.14555988
225	0x3d27e93d	0.040993918
226	0xbdc6629f	-0.09686779
227	0x3d3f6d3b	0.04673503
228	0x3e3a4f2e	0.18194267
229	0xbe9ccd84	-0.30625546
230	0x3dda1242	0.10648014
231	0xbd1a90c8	-0.03773573
232	0x3ebf2aae	0.3733725
233	0xbce822c5	-0.028336892
234	0xbd73c5af	-0.059514698
235	0x3dd77185	0.10519699
236	0xbd913a6c	-0.07091221
237	0xbd2cea85	-0.042215843
238	0xbd42d258	-0.04756388
239	0x3c7297c1	0.014806689
240	0xbc603ec9	-0.013686844
241	0xbdec3647	-0.1153379
242	0xbcb46ef1	-0.022025557
243	0x3b3a2164	0.002840125
244	0xbec6844f	-0.38772818
245	0x3e2885f1	0.16457345
246	0x3e674aab	0.22587077
247	0xbe18c4e7	-0.14918862
248	0xbe22c887	-0.15896808
249	0xbcdb4479	-0.026766049
250	0x3dbe8898	0.09303397
251	0xbce3e46b	-0.02781888
252	0x3e87a420	0.26492405
253	0xbc979385	-0.01850296
254	0x3d828ae3	0.06374147
255	0x3cea2f1d	0.028586918

fc3.bias f4 [4]
0	0xbcbc7e35	-0.023009399
1	0x3c74cb8b	0.014941107
2	0x3d175924	0.036950245
3	0x3d22276a	0.03958837
