checkpoints/checkpoint_actor_1200.pth (torch, 542663 bytes, 6 tensors)

fc1.weight f4 [400, 33]
000000 cd 57 91 bd 97 e7 14 3e a1 02 85 bc 49 4d d7 3d
       -0.07096825 0.1454147 -0.016236605 0.10512788
000010 ce c7 8b bc 8c 96 39 bd bd 5d 9a bd 13 0a d6 bd
       -0.017063048 -0.04530959 -0.075374104 -0.1045114
000020 e1 b0 5f be 21 cd 31 be 47 31 24 be 00 79 ac 3d
       -0.21844818 -0.17363407 -0.16034423 0.084215164
000030 51 98 b8 3c 20 ad 12 bd 10 53 8c 3d be bd 46 3a
       0.022533568 -0.035809636 0.068517804 0.00075813744
000040 60 a6 9e bd 08 ee 9c bb e8 29 99 ba 31 49 83 bd
       -0.07746577 -0.0047891177 -0.0011685463 -0.064104445
000050 fc 46 83 3c 60 2f 5b bd 3f 10 9e bd 85 d6 46 bd
       0.016025059 -0.053511977 -0.077179424 -0.048544426
000060 a2 b9 25 bd 8d b2 8c bd 2b e2 88 bd be 4e 48 bd
       -0.040460236 -0.06869993 -0.06683763 -0.04890322
000070 80 bf 79 3c c9 65 4b 3d 48 47 39 3d b7 4f ea bc
       0.015243411 0.049657617 0.045233995 -0.028602464
000080 bc 58 c8 3e eb a6 3c be 92 69 dc bd 58 75 92 bc
       0.391302 -0.18423049 -0.107623234 -0.01787822
000090 bd 82 08 3d 21 b3 e5 bc 49 31 99 bb bc 6d ef 3c
       0.033327807 -0.028039517 -0.0046750647 0.02922713
0000a0 50 3a aa 3d b0 02 64 bb bd 59 73 bd 19 ad e3 bc
       0.083119035 -0.003479164 -0.059411753 -0.0277925
0000b0 24 db 75 bd e2 c0 74 3d 79 83 ea 3c 20 6e 0c 3d
       -0.060023442 0.05975426 0.028627144 0.03428471
0000c0 75 3f 79 bc b4 2a cf bc fa 0f 87 bc 86 62 4c 3d
       -0.015212883 -0.025288917 -0.01648711 0.049898647
0000d0 75 a2 b4 3d 06 06 da bd 57 d0 1c bd b3 d7 82 bd
       0.08820049 -0.1064568 -0.038284626 -0.063887976
0000e0 10 4f 98 3d b0 42 86 bd 5e 6c 0d bd 91 4a b3 3c
       0.07436955 -0.065556884 -0.034527175 0.021886142
0000f0 93 4e 9f bc 4f 95 0e 3c c3 af 28 bd ea a6 77 3d
       -0.019446647 0.00870259 -0.041183244 0.060461916
000100 ec 03 3b bc 97 e2 61 3e cc 68 82 3d ae 4b f5 bc
       -0.011414509 0.22059093 0.06367645 -0.029943313
000110 86 d9 32 be b5 69 80 bc af 3b 14 3b 52 53 42 bd
       -0.17465791 -0.015675405 0.0022618582 -0.04744274
000120 cd 49 8c 3c 81 cf f8 3a 93 83 96 bd f2 08 65 3c
       0.017125035 0.001898274 -0.073493145 0.0139791835
000130 ae 7e 2b 3d 15 c2 a9 3c 66 52 89 bd 8c 37 8f bc
       0.041868858 0.020722428 -0.067051694 -0.017482542
000140 ad 46 97 3d 30 55 85 3c 5b 39 fe 3d 09 47 ca 3d
       0.07386527 0.016275972 0.124132834 0.0987683
000150 07 c5 84 3d 8a b4 a1 bd 79 d8 21 3e 25 ad d2 bc
       0.064828925 -0.07895763 0.15805234 -0.025717327
000160 77 7f ab 3b 48 25 f1 bd 83 9e 32 3d 47 a7 77 bd
       0.005233701 -0.11774689 0.0436082 -0.060462262
000170 38 e7 8d bd ff 04 37 bd 2d 40 20 bd ec d4 0b bd
       -0.06928867 -0.0446825 -0.039123703 -0.034138605
000180 69 b0 89 bc 2b b2 3c 3d 9d fc a6 be 65 1b bd bd
       -0.016807752 0.04606835 -0.32614604 -0.09233741
000190 ac 7d 3b 3d 44 6e 60 3c a7 ae a7 bd 6b 61 14 be
       0.045774147 0.013698164 -0.08187609 -0.14490287
0001a0 df c6 ee 3c 39 8d ab bb 99 83 39 3d 99 48 3a be
       0.029147564 -0.005235341 0.045291517 -0.18191756
0001b0 ab ce 17 bd 4f b3 32 bd 5c f0 8e 3d 2e b6 98 bd
       -0.03706233 -0.043628033 0.06979439 -0.07456623
0001c0 65 ed 6a 3d 85 72 53 3c c4 61 ac 3c 9c 1e dd bc
       0.057355303 0.012905722 0.021042712 -0.026992135
0001d0 0f d7 55 3c c9 8e 99 bd bd 3c 97 3c 99 7c 89 3b
       0.013051762 -0.07497937 0.01846158 0.0041957614
0001e0 c5 eb 76 3c 57 e5 89 bd 0b 7e 10 3d fa ca 0d bd
       0.01507086 -0.06733196 0.035276454 -0.0346174
0001f0 13 92 b4 3c 19 34 03 be 57 9f 80 bc 2c 77 6a 3d
       0.02204231 -0.12812842 -0.01570098 0.057242557
000200 00 58 54 b8 12 91 bd bc 80 03 08 ba 98 d7 38 bf
       -5.0626695e-05 -0.023140464 -0.000518851 -0.7220397
000210 47 30 74 3d ac 3a 38 3d a0 d0 58 3d 87 0a 9e bd
       0.059616353 0.04497783 0.052933335 -0.07716852
000220 72 1e 1a 3d 0a 54 a8 bd 66 3a 33 bd 2a 40 bd bd
       0.03762669 -0.08219154 -0.043756865 -0.09240754
000230 c7 bf 0b be d0 8d 1c 3d e1 c1 55 3d 0b 12 dc 3d
       -0.13647376 0.03822118 0.05218685 0.10745629
000240 d1 66 82 3d 5f ed b5 bd 36 90 71 bd 07 cb 24 be
       0.06367267 -0.088831656 -0.05897542 -0.16093074
000250 7e b1 19 3e 85 a6 e8 3d ca d2 b8 3d 4d 72 6f bd
       0.15009114 0.11359886 0.0902458 -0.058458615
000260 ed 87 fc bd a9 33 5f 3d 24 e8 02 ba f2 20 7b 3a
       -0.12330613 0.054492626 -0.0004993698 0.00095797994
000270 f4 99 5a 3d 34 91 16 bd eb 61 b0 bd 6c 47 ac bc
       0.053369477 -0.03675957 -0.08612426 -0.02103015
000280 99 e4 04 be e0 80 1b bd 28 80 90 bb 68 c4 19 bc
       -0.12977828 -0.0379647 -0.0044098087 -0.009385206
000290 a6 23 27 bd 4a f6 b9 3d ca a3 ce 3d c3 83 d0 3d
       -0.04080548 0.09080179 0.10089834 0.101813816
0002a0 59 b9 06 3c 40 79 b4 3b 1b b4 a7 b9 0d 10 0d 3d
       0.008222901 0.005507618 -0.0003198691 0.034439135
0002b0 f6 a7 26 be 7a af 36 be 72 04 9d 3d 42 7a 9a 3c
       -0.1627501 -0.17840376 0.076668635 0.018857125
0002c0 12 35 2c bd d7 b4 51 bc 5b 2f 08 be 7a c8 16 3e
       -0.0420428 -0.012799463 -0.13299315 0.14724913
0002d0 df 74 31 be bf 8e 52 bd 53 8a f6 3c b4 06 9c 3c
       -0.17329739 -0.051405665 0.030095255 0.019046165
0002e0 59 58 57 bd f8 50 98 3c 9a bd 85 bd 8e 60 47 3d
       -0.05257449 0.018593296 -0.06530304 0.048676066
0002f0 f8 d6 7e bd 5b bb 31 3e 39 c6 45 bc 83 f0 9d 3d
       -0.06221673 0.17356627 -0.012071186 0.077118896
000300 37 33 d9 3c a7 af 97 3d 89 27 40 3d 17 77 9d 3c
       0.026513679 0.0740655 0.046912704 0.019221826
000310 c0 3e 71 3a f8 a5 67 bd 1c ef 19 bd 51 59 43 3d
       0.0009202771 -0.056554765 -0.037581548 0.0476926
000320 b0 f7 78 3d 59 5b 95 3b 3b 3d 88 bd b7 56 78 3c
       0.06078309 0.0045580086 -0.06652304 0.015157393
000330 08 fd 02 bd ff 0a a0 bd ad 17 0f 3d 39 9a 8e 3d
       -0.03197959 -0.07814597 0.03493469 0.069630094
000340 97 e6 89 3d 71 30 07 ba d6 8d 49 3d d8 d8 57 bd
       0.06733435 -0.00051570596 0.04920753 -0.052697033
000350 60 0c 5f 3c 90 3c b0 bd cb 27 8f bd a4 a1 23 3c
       0.01361379 -0.086053014 -0.06990012 0.009987269
000360 d8 2c e7 3c d8 36 a5 3c b1 90 c2 3d eb 25 9b bc
       0.028219625 0.020167753 0.09500254 -0.01893898
000370 69 c7 51 3d ca be 05 3d ef 3e fb bb dc 81 a4 bc
       0.051215563 0.032652654 -0.0076674144 -0.020081453
000380 8d ba 04 3e 10 e7 8b 3a fc be 09 3d 7f 70 2f bd
       0.12961788 0.001067372 0.033629403 -0.042831894
000390 84 d4 b3 bc ac e8 2c 3c 23 78 6f bf 5e 32 1f bd
       -0.021951921 0.01055352 -0.9354269 -0.038866393
0003a0 ae dc 0c 3e 92 d7 68 bd 86 30 94 3d 5f 4d 86 bd
       0.13756058 -0.05684621 0.072358176 -0.06557726
0003b0 3c 3c a0 bd a6 fd 43 3d ea db ca bc 5a 0b 08 be
       -0.07823989 0.04784932 -0.024763066 -0.1328558
0003c0 30 e3 14 bd 56 c8 a1 3b e0 9b 74 bc a0 fa a8 bc
       -0.036349475 0.004937212 -0.014929742 -0.02062732
0003d0 de 1c 38 bd 60 a4 83 bc 57 6b 47 3d 8a 51 01 3d
       -0.044949405 -0.016069591 0.04868635 0.031571902
0003e0 d3 7d 3b 3c 58 1c c4 3d 80 14 cb 3b ff 77 66 3d
       0.011443573 0.09575719 0.006197512 0.05626678
0003f0 19 d0 17 39 0a ff 89 3c c8 82 1d 3e 61 f9 15 be
       0.00014478005 0.016845245 0.1538192 -0.14645912

fc1.bias f4 [400]
000000 de 2a 4d bd 45 1a ff bc 4e 28 38 3e 70 e6 9e 3c
       -0.05008971 -0.031140456 0.17984125 0.01939699
000010 4a c5 e8 bd 9d ca 23 be c1 ce 01 be 5c 75 30 be
       -0.11365755 -0.1599526 -0.12676527 -0.17232269
000020 f6 53 33 be 37 d9 a2 bc 93 1b ac 3d 15 36 ad bd
       -0.17512497 -0.019878967 0.08403697 -0.08457581
000030 ad a2 9f 3d 98 2a 33 bc 44 21 f4 bd 75 5c ea bd
       0.077947 -0.010935448 -0.119204074 -0.11443416
000040 5d 4e a3 bd 5e 27 08 be 15 4f 5c be 55 a8 a9 bd
       -0.07973931 -0.13296267 -0.21514542 -0.0828406
000050 ee 35 a5 bd 2f 2a 2a bd 9c 78 94 bd 8d 88 11 be
       -0.08066927 -0.041544136 -0.07249567 -0.14212246
000060 73 a4 9b bd e7 eb 1f be da 0c 30 bc e3 4d e1 3d
       -0.075997256 -0.15617333 -0.010745252 0.11001184
000070 d9 c8 40 3e a8 23 c5 bc 91 fa 4c bd 3c d0 58 3d
       0.18826617 -0.024064854 -0.050043646 0.052932963
000080 93 0b 02 3e 67 5b d5 bc 2a db 91 bd 12 cf e9 bb
       0.12699728 -0.02604456 -0.0712188 -0.0071352804
000090 34 78 03 be 71 82 ab 3d e6 86 a7 3d 5b 6b e1 bd
       -0.12838823 0.08374489 0.08180027 -0.110068046
0000a0 6c d1 8f 3d 98 aa a5 3d 3c a3 07 3e 32 db 4a 3d
       0.07022366 0.08089179 0.13245863 0.049525447
0000b0 9b bd 26 bd d7 9a 3d 3d 0b f4 d0 3d 12 40 10 3e
       -0.040708166 0.046290245 0.102027975 0.14086941
0000c0 aa cc c1 3d 34 43 81 bd 62 20 47 bc fe 94 79 3e
       0.09462865 -0.06311646 -0.012153717 0.24373242
0000d0 4d bd 55 3d d0 35 22 3e b6 0b 41 bd 47 02 5e 3e
       0.052182484 0.1584084 -0.04713031 0.21680556
0000e0 26 6d 21 3d 76 3d 21 bd 96 52 99 3d 98 3f 1e 3e
       0.039410733 -0.039365254 0.07486455 0.15453947
0000f0 d0 a9 0f be 37 a4 bc bd 17 f7 29 3e c7 2f ef bd
       -0.14029622 -0.09211009 0.16598164 -0.11679035
000100 7d 4a 1d be 69 1f a0 bd 1b 82 8b 3d df 65 9d bd
       -0.15360446 -0.07818491 0.06811925 -0.07685446
000110 bf 15 18 bb fa 6a a0 3c 9d 12 b3 3d 91 df 19 be
       -0.002320632 0.01958226 0.087437846 -0.1502669
000120 ed 3d 29 3d af b0 ee bd 45 cb 8c 3d 50 ae f9 3d
       0.041318823 -0.116547935 0.06874708 0.121914506
000130 d0 44 01 be 80 e8 89 3c 3f bc 09 3e fa 9c 02 be
       -0.12623906 0.016834497 0.13450716 -0.12755194
000140 4e 16 c8 bd 66 ff 57 bd 35 1f 52 bd 7a ea 20 bc
       -0.09769879 -0.0527338 -0.051299293 -0.009821529
000150 83 1c a6 3c 2b f9 35 3d 03 15 48 3d 4a 74 4f 3d
       0.020277267 0.04442708 0.048848163 0.05064801
000160 a4 ba 84 3d a5 f9 19 be 22 9a 0b be 0b be 26 bd
       0.064809114 -0.15036638 -0.13633016 -0.040708583
000170 45 86 2d 3d 33 4e 01 bd 4e 00 c6 bc 7f 8a ad bd
       0.042364378 -0.031568717 -0.024170067 -0.08473682
000180 74 36 e5 3c 61 e9 be 3d 92 d2 9c bd 6d da 43 3e
       0.027980067 0.09321857 -0.076573506 0.19126292
000190 b7 50 ab 3b 07 94 69 3e 07 e0 ae bd 5f 96 6f 3e
       0.005228128 0.22810374 -0.085388236 0.23397206
0001a0 d2 7a e2 bb a2 10 1f 3e e2 58 c9 3d 04 f7 88 bc
       -0.006911614 0.15533689 0.09831406 -0.016719349
0001b0 75 42 9f bc cc a5 37 be f7 fc 89 3d 4b 2e f4 bd
       -0.019440869 -0.1793434 0.06737702 -0.11922892
0001c0 bc 68 8c 3c ee 0c c5 3c d6 1f 2b 3e 3c 1f ac 3d
       0.017139785 0.024054017 0.16711363 0.08404395
0001d0 8b dc 5b 3b 28 b0 c4 bd 5c 28 4a be f4 62 0c be
       0.0033548202 -0.09603912 -0.19741958 -0.13709623
0001e0 3a 50 7e be a9 4e e4 bd 32 27 e9 bd 5b 68 05 3d
       -0.24835292 -0.11147816 -0.11384429 0.032570224
0001f0 df 70 4a be e2 b0 a5 3d 06 c5 13 3e a4 22 75 bd
       -0.1976962 0.08090378 0.14430627 -0.05984749
000200 21 9d 4b bc 21 e1 eb 3d f8 ad 4a be c0 fe cf 3d
       -0.012427599 0.11517549 -0.19792926 0.101560116
000210 08 27 48 3e 38 4b 41 3d 79 a0 07 be 16 8a 1e 3e
       0.19546139 0.047190875 -0.13244809 0.15482363
000220 3e 74 02 bd 0a 2d 9d 3c 56 58 56 3e 84 06 cf 3c
       -0.03184914 0.019186515 0.20932135 0.025271662
000230 94 33 85 3c 77 8b db bd 29 dc c8 bd 73 e8 1b 3e
       0.016259946 -0.1071996 -0.09807617 0.15225391
000240 0e 8a 0d be 5f 5d d9 3c e4 ab 22 bd b6 e1 97 bd
       -0.13822195 0.02653378 -0.03971471 -0.07416098
000250 25 d2 4f be f0 fb 1b be 04 dc 4e bd ef 9f 65 3d
       -0.20295008 -0.15232825 -0.050502792 0.056060728
000260 13 45 44 3d 5f 8e a5 be d7 19 29 bd 26 91 4e be
       0.047917437 -0.32335183 -0.04128441 -0.20172557
000270 c5 8c 83 3e c8 ab 20 be 9b 23 a5 bc 21 71 39 bc
       0.25693336 -0.1569053 -0.02015858 -0.011318476
000280 fa 47 21 be 5f 8f ad 3d ef d8 63 3d 78 c2 35 3d
       -0.15750113 0.084746115 0.055626806 0.044374913
000290 52 ea 47 3d 95 da 86 3c c0 83 65 3d a5 f1 59 3e
       0.04880745 0.01646165 0.05603385 0.21283586
0002a0 a1 e7 cf bb 0d 8e 8f bc 70 7d 3d bd 2d f8 12 be
       -0.006344751 -0.01752379 -0.046262205 -0.14352484
0002b0 a1 a2 cc 3c 5b 63 53 bd df b8 fa bd 20 7c 04 3e
       0.024979891 -0.051608425 -0.122422926 0.12937975
0002c0 85 49 83 be f3 15 c5 bd 17 d0 45 3e 1d 82 77 bd
       -0.25642028 -0.09623327 0.19317661 -0.06042682
0002d0 23 e1 cd 3d 96 11 e4 3d c4 55 04 be 50 c9 38 be
       0.10052707 0.11136167 -0.12923342 -0.18045545
0002e0 20 1c 95 bd 08 97 b5 bd 5a bc 01 be b5 76 33 bd
       -0.07280755 -0.088666975 -0.12669507 -0.04381438
0002f0 15 8c db 3d 95 28 e5 3d 04 45 82 bd 2e 05 0c be
       0.10720078 0.11189381 -0.0636082 -0.13673851
000300 da 7b f8 bd 66 db 33 3e 8f a5 f9 bb c7 29 ea 3b
       -0.12132998 0.17564163 -0.007618613 0.0071460935
000310 4f 9f 18 be b4 9c b4 be d2 93 f3 3d bb dc 02 bc
       -0.14904521 -0.35275805 0.11893429 -0.007987197
000320 b5 02 26 bd 25 0d 6a bd e5 6b ce bd 25 9e c3 bd
       -0.040529925 -0.05714144 -0.10079173 -0.09551648
000330 67 4f 36 be fc 48 82 3d 29 47 d3 bc 79 c3 b4 bd
       -0.17803727 0.06361577 -0.025790768 -0.08826346
000340 3a ec f3 3c f0 e1 3f bc b0 ca 61 3d 05 d2 c4 3d
       0.029775728 -0.011711583 0.05512494 0.096103705
000350 34 2e 38 be 41 6b 8c be 70 a3 b9 3d 3a 5e e3 bc
       -0.17986375 -0.27425578 0.09064376 -0.027754892
000360 25 38 1d be 45 9c 89 bd b1 b3 2b 3c 99 1a f9 3d
       -0.15353449 -0.06719259 0.0104798535 0.12163276
000370 37 63 71 be cb 13 2e be 24 a0 04 be 38 dc 4f be
       -0.23573004 -0.16999738 -0.12951714 -0.2029885
000380 6a 72 25 3e b2 ae 0a 3c 7c 3a 35 3e 37 c5 e4 3d
       0.16156927 0.008464502 0.17698091 0.11170428
000390 8a 64 7e 3d 02 d5 21 be 67 2e 7d 3d eb d6 c0 3d
       0.0621076 -0.15803912 0.06181183 0.09415992
0003a0 af 7e 15 bb 8e 4d 42 be 34 dd 7f bd 34 a7 17 3e
       -0.0022811105 -0.18974897 -0.062466815 0.14809877
0003b0 4c 62 4b bd 5a e0 a8 bd 7a a6 b4 bd 65 8d 13 3d
       -0.04965429 -0.08245917 -0.088208154 0.036023516
0003c0 79 e8 f1 3d 28 21 da bc d6 d8 d8 3d a6 96 ad 3d
       0.11811919 -0.026627138 0.10588233 0.084759995
0003d0 f4 a7 64 bd 5b b4 0b be e2 58 6f 3e 5c 4c ab 3d
       -0.055824235 -0.13643019 0.2337375 0.08364174
0003e0 f0 7e 95 bd 2e 57 95 be cc 61 f8 bc 6d f4 ad 3d
       -0.07299602 -0.29168075 -0.03032007 0.08493886
0003f0 f5 99 a4 bd 5e d0 a4 bd fa 86 3a 3e a0 77 e8 3d
       -0.080371775 -0.080475554 0.18215552 0.11350942

fc2.weight f4 [300, 400]
000000 db 9e 8f 3d 7f 79 be 3c 4c 1d 02 3d ad db 06 bd
       0.07012721 0.023251293 0.03176622 -0.032924343
000010 07 34 90 3d d7 90 a3 3d f3 cb 08 3e 7f c3 4d 3d
       0.070411734 0.079866104 0.1335905 0.050235268
000020 48 ed 17 bd cc 53 d6 bc f7 81 de bd ff 52 f6 bc
       -0.037091523 -0.026163004 -0.108646326 -0.030068872
000030 33 08 8a 3d bc 76 91 3d e7 a5 bc 3c a1 09 9c bd
       0.06739845 0.07102725 0.023028327 -0.07619024
000040 a5 0b 36 3d 4b 60 cf bc be dc 9e 3d 65 f5 50 bd
       0.0444447 -0.02531447 0.07756947 -0.051015276
000050 bd ae 12 3e c3 e9 38 bc 29 0c 89 3d 48 c0 8f bd
       0.1432447 -0.011286202 0.066917725 -0.070190966
000060 a6 58 80 3d e2 49 b0 bd 85 99 a6 bd 3c 05 43 bd
       0.06266908 -0.08607842 -0.0813475 -0.047612414
000070 a0 c0 42 bd fb b8 34 3d c1 cb 1d 3c 9f 43 29 bd
       -0.047546983 0.044121724 0.009631098 -0.041324254
000080 53 43 08 bd 6f 9f 5f bd 31 a9 15 bd fe b6 02 3e
       -0.03326733 -0.054595407 -0.036538307 0.12765118
000090 84 fb 18 3c 94 ce 00 be b5 1b 90 bd 39 e8 47 bd
       0.00933731 -0.12578803 -0.07036535 -0.04880545
0000a0 24 5e 12 bb 43 6b 96 3d 0a f2 22 3d 10 d7 de bd
       -0.0022333944 0.07344677 0.039781608 -0.10880864
0000b0 d6 df e7 3d ae e6 80 3d 16 1c 84 3d 83 4a 51 3d
       0.1132199 0.06293999 0.064506695 0.05109645
0000c0 4b d3 20 3d 1e e2 dd 3d cf c0 aa 3d c6 ba b7 3d
       0.039264005 0.10834144 0.083375566 0.08971171
0000d0 03 3b 98 3c 38 33 06 bd f9 03 40 bc eb ac 69 3d
       0.018582826 -0.03276369 -0.011719697 0.057049673
0000e0 83 3f 97 3c c1 8f 43 bd 16 cf 08 3d 66 ac 2a 3d
       0.018462902 -0.047744516 0.033400618 0.04166832
0000f0 fe e3 5e 3d 8d 42 3e bd c1 bd 63 bd 0a 44 6b 3d
       0.05441665 -0.046450187 -0.055600885 0.057437934
000100 62 9b 9f bd 50 b3 74 3c 19 a8 6b 3d ee 95 38 3b
       -0.07793309 0.01493533 0.057533357 0.0028165537
000110 dd 7f f4 3c 92 5f 11 3e fc cd 93 bc 29 98 00 3d
       0.029846126 0.14196613 -0.018042557 0.03139511
000120 52 de a7 bd fd 8b a6 3d 78 7b 8e 3d 39 79 14 bd
       -0.08196701 0.081321694 0.069571435 -0.03624842
000130 31 97 b0 bd 38 34 2e 3d cd f1 98 3d cc c0 b7 bc
       -0.086225875 0.04253027 0.07467995 -0.0224308
000140 7b 62 84 bd 0f e7 04 bd 72 e2 60 bc 87 73 69 3c
       -0.06464096 -0.032446917 -0.013725864 0.014248735
000150 d1 3f f1 bc 82 64 91 3d 26 b9 e3 3c 6f 5e 6e 3d
       -0.029449375 0.070992485 0.027798247 0.058195528
000160 95 02 29 be 08 f7 31 3d ed b0 67 bc 5e 15 a0 3d
       -0.16504891 0.043448478 -0.0141413035 0.078165755
000170 2d e5 f1 bb 3f a0 47 bc 1c b0 ad 3c a3 dc be bc
       -0.007382056 -0.012184202 0.02120214 -0.023298567
000180 b7 9d ec bd 34 b2 0a 3e 66 ba 86 3c 7f 45 e1 3d
       -0.11553519 0.13544542 0.016446304 0.109995835
000190 65 eb 78 bc 9b 2f 06 3d d4 1e bb bc 35 b9 9e 3d
       -0.015192841 0.032760244 -0.022841848 0.07750169
0001a0 84 06 98 bd 0a 04 97 bd bd 55 ea bc af a4 e5 3d
       -0.07423118 -0.07373817 -0.028605336 0.112130515
0001b0 57 12 65 bc b5 06 86 bd 7a 10 99 bc 92 bf 91 3c
       -0.013981423 -0.06544248 -0.018684614 0.017791543
0001c0 9f d6 88 3d 5e c1 53 bc 1a 5f 6f 3b 16 54 3b bd
       0.06681561 -0.01292452 0.003652519 -0.045734487
0001d0 3f 99 cb bc f3 2a 70 bc 52 2d 70 3b c6 b4 1f bd
       -0.024853347 -0.014658677 0.0036648107 -0.03899076
0001e0 35 2c b8 3c eb 3a d3 3b 2a 47 9a 3d 1f 15 27 ba
       0.022482017 0.0064462326 0.07533105 -0.0006373692
0001f0 e8 d1 8b bc 15 dc 8c 3d a8 11 82 3d 19 62 04 3d
       -0.017067865 0.06877915 0.06351024 0.032320116
000200 60 72 01 3d 2e 4d b2 3d ce 05 c8 3d 50 a8 f4 3c
       0.031603217 0.08706127 0.09766732 0.029865414
000210 26 d1 25 bd 74 1d eb 3d bf 4b 95 bd 6c 37 1b bd
       -0.040482663 0.11480227 -0.07289838 -0.03789465
000220 04 4f cd 3d 4f 35 2f 3e b6 24 b4 3d 48 4f 2a bc
       0.10024837 0.1711018 0.087960646 -0.010394879
000230 01 89 4f 3d 7b df 06 3d 63 d4 0f 3c c0 ed 73 3d
       0.050667766 0.03292797 0.008778664 0.059552908
000240 18 1e 8b 3d 48 8c d7 bd f0 65 1b 3d ea a9 c6 bc
       0.06792849 -0.105248034 0.037939012 -0.024250943
000250 05 72 0d 3e bb 47 6d 3d f7 61 5d bc f6 0c 54 3b
       0.13813026 0.057929736 -0.013512126 0.0032356358
000260 be b6 18 bd 0d a9 4d bd 11 1a ab bd 91 0f 62 3c
       -0.03728365 -0.050210048 -0.08354581 0.013797657
000270 23 5a 83 3c cf d7 72 bd a6 bd 64 3d 1c 80 1e bd
       0.016034191 -0.059287842 0.055844925 -0.038696393
000280 8d 7c 8f bc 72 c4 e8 3d 51 d2 3a 3d 39 8b df bc
       -0.017515445 0.11365594 0.04561073 -0.027288066
000290 a8 1c f4 bc ed 7a 1c 3d 37 0e be bb 43 46 32 3e
       -0.02979882 0.03820317 -0.0058000344 0.17409615
0002a0 47 bf 1c bd 53 b3 84 bd 81 dd 89 bb 61 68 68 3d
       -0.038268354 -0.06479516 -0.0042073135 0.05674017
0002b0 fa 1c 89 3d 69 b2 4d bc 9c d2 1a bd 44 fc 45 3d
       0.0669498 -0.012554743 -0.03779851 0.048336282
0002c0 e9 d4 a2 bd 67 f3 c6 3d 57 34 60 bd ec c2 2b 3d
       -0.07950766 0.09714394 -0.054737415 0.04193394
0002d0 83 d1 12 bd db 21 2d 3d 30 c3 fd bc 2d d8 0d be
       -0.035844337 0.042268615 -0.030976862 -0.13851996
0002e0 76 2c 95 bd 9f ad cf 3c 43 dd 10 3d c9 c4 94 3c
       -0.07283871 0.025351344 0.03536726 0.01816024
0002f0 75 9c 9d 3d b8 26 91 3d 0a 9e 67 3d 02 e7 bc bd
       0.076958574 0.07087463 0.056547202 -0.09223749
000300 8b de ba 3b 93 c0 29 3d 1b 2e 9b bd 3f b2 d9 bb
       0.0057027987 0.04144342 -0.07577153 -0.006643563
000310 fa 06 b7 bd 99 d3 c7 bb a1 9f 9a 3d 29 5e 13 3d
       -0.089368775 -0.0060982225 0.07549978 0.03597847
000320 af b4 82 bc 82 28 b2 3c 23 b1 2f 3c f7 1a fc bd
       -0.015955297 0.021747831 0.010723385 -0.12309831
000330 31 29 9e 3c c0 1a e7 bc 7c ce d7 3d 8a 25 54 3d
       0.019306751 -0.028210998 0.10537431 0.051793613
000340 e3 2b c3 bd 55 31 82 3d 3b f7 9e 3c 22 56 4d bb
       -0.09529855 0.063570656 0.019404998 -0.0031331857
000350 b6 35 0a be f1 62 db bd 7e 34 07 bd c5 1b 9c 3d
       -0.13497052 -0.10712231 -0.033009045 0.07622484
000360 ed 42 dd bd d9 54 7b 3d 33 17 b2 3b bb 5a 48 bd
       -0.10803781 0.061360214 0.0054348945 -0.048914652
000370 f0 07 f7 3b 42 49 4d 3d 3e 72 94 bd fd 9e 43 3b
       0.007538788 0.050118692 -0.072483525 0.0029849403
000380 8b 57 56 bd a8 58 f8 3d c9 c2 d3 3d 44 5a b8 3d
       -0.05232958 0.12126285 0.10339887 0.09001592
000390 24 17 c2 bd 26 39 8a 3c 9b a7 54 bc da fb 72 bd
       -0.0947707 0.016872954 -0.012979413 -0.059322216
0003a0 42 3b 0e 3c 92 28 3c bd e3 11 ec 3c 3b 8a ea bc
       0.00868112 -0.04593713 0.028817123 -0.028630367
0003b0 f3 f7 39 bd f0 07 c9 bc ca ea 73 3d 5f a1 a6 3d
       -0.04540248 -0.024539918 0.059550084 0.08136248
0003c0 be d5 b5 3d b8 f6 17 bd c7 76 c2 3a 4e 7d c4 bd
       0.08878659 -0.037100524 0.0014836424 -0.095942125
0003d0 94 b6 0f 3d 22 11 73 be d7 1c 3b 3d ad 19 db 3c
       0.03508623 -0.23737004 0.0456818 0.026745642
0003e0 f4 5a 5c bd b6 8e 92 3c 55 f4 23 3d ec e1 1e 3e
       -0.053797677 0.017890316 0.040027935 0.1551587
0003f0 6d cb a9 3d 02 33 5d 3d 18 60 0c 3b f6 10 b2 bc
       0.082907535 0.054003723 0.002141958 -0.021736603

fc2.bias f4 [300]
000000 8d 54 8d 3d 43 9f 87 bc 50 ba 10 3d 26 95 5e 3d
       0.069008924 -0.016555434 0.03533393 0.054341458
000010 2f c3 fe 3d 6b 72 2b 3d 96 2c 14 3d e2 ab d3 3d
       0.12439572 0.041857164 0.036175333 0.103355184
000020 b0 42 b4 3d 2e 66 d5 3d 42 1b 0e bc af 8b ad 3c
       0.08801782 0.1041988 -0.008673491 0.02118477
000030 1c b1 2e be 99 b1 ac 3c cf a7 5d bd 43 0f 63 bc
       -0.1705975 0.021080779 -0.054115113 -0.013858619
000040 9a 09 fc 3c a3 b5 a4 3b 1e d2 08 3e f3 33 9b 3c
       0.030766297 0.0050265356 0.13361403 0.01894567
000050 6c 0b 98 3d 1f 27 52 bb 38 84 d3 3b a0 28 d6 3a
       0.074240535 -0.0032066775 0.0064549707 0.0016339011
000060 67 e7 e7 3d fa d4 43 bd a0 d1 ba 3d d9 fa 68 bc
       0.11323433 -0.047810532 0.09122014 -0.014219963
000070 10 eb 18 3d bc 70 2c 3d 77 0e 77 bc 44 f4 52 3c
       0.037333548 0.0420997 -0.015079132 0.01287562
000080 ca 71 bc 3d 0c 59 a9 3d f3 c8 b9 bd 59 a9 9b 3d
       0.09201391 0.082689375 -0.09071531 0.0760066
000090 5e a7 29 3d 03 b2 d0 bb fa d6 d0 3c bd d0 d9 3d
       0.04141938 -0.006368877 0.025493134 0.10635517
0000a0 78 49 b0 bb 4c ed eb 3c ac 53 06 bd 67 d7 12 3d
       -0.005379852 0.028799675 -0.03279464 0.035849955
0000b0 ef f8 f5 3d ef 6f a6 3d 3a 6f e9 3c 7e 8a cb bd
       0.12010371 0.081268184 0.02849542 -0.09938525
0000c0 8b dd d1 bb 43 1b a1 b9 08 15 a8 bd 5f 3e 1c 3c
       -0.006404584 -0.00030728625 -0.082071364 0.009536355
0000d0 4c a6 a3 3c 52 7a 7f 3d 08 49 94 bc eb 11 6f 3c
       0.019976757 0.062372513 -0.01810123 0.014591674
0000e0 90 3a 8d bd ce 0f b3 3c 2c 88 ab bc 39 df 91 3c
       -0.068959355 0.021858122 -0.020938955 0.017806636
0000f0 c1 c2 33 3d 6b 5b 8a 3d 0e c7 df bc 37 2d 5d 3d
       0.043886904 0.06755718 -0.027316596 0.0539982
000100 29 0c 4c 3d e0 98 7a 3d 91 fb a1 bc d5 9f 51 3c
       0.049816284 0.06118095 -0.019773277 0.012794455
000110 86 ff 58 3d 06 c2 8d 3d 0e 90 bf 3d 5b ee a7 bd
       0.05297806 0.06921773 0.09353648 -0.081997596
000120 28 98 82 3d d1 18 60 3c 26 d8 e2 3c c5 f9 25 3d
       0.06376678 0.013677792 0.027690958 0.040521402
000130 38 4c 8d bc d2 f5 04 3e 0e e3 3c 3c 14 93 63 bd
       -0.017248258 0.12984398 0.011528743 -0.055560187
000140 09 15 5e bc af f2 8e bc 5b a3 98 bb c6 21 29 3d
       -0.01355482 -0.017449705 -0.0046581454 0.041291974
000150 39 12 08 3d 72 f3 4c 3c 45 79 03 39 fd f0 2b 3d
       0.033220503 0.012509214 0.0001253831 0.04197787
000160 a4 c9 6b bd 79 1d f9 3d 8b b1 2c 3d ff a0 50 bd
       -0.057565346 0.121638246 0.042161506 -0.050934788
000170 67 f4 4f 3d 0e ea 2f 3d 59 a3 d3 3c 8b 5b b0 3d
       0.05077019 0.04294782 0.025834726 0.086112104
000180 4e d8 b6 38 21 66 de 3d 6f 1a c8 bd ab b7 6d 3d
       8.718726e-05 0.10859323 -0.09770667 0.058036488
000190 3f b3 17 3d 37 17 16 3d c9 20 f9 bc 3f 3f ce 3c
       0.037036177 0.036643233 -0.030411141 0.025176642
0001a0 d5 23 26 3d 95 ca 9e 3c 68 07 4d 3d db 9a 46 3d
       0.040561516 0.019383708 0.05005589 0.048487525
0001b0 f4 53 2f be c4 44 0d bd 50 f1 2e 3d 7d 74 8b 3d
       -0.1712187 -0.034489408 0.042710602 0.06809328
0001c0 e6 44 a5 3d ff 96 c5 bc 4a 86 a1 b8 c3 a7 2b 3c
       0.08069782 -0.024119852 -7.7020915e-05 0.010477009
0001d0 f5 35 ab 3d 24 75 f6 3d 06 34 12 3c 56 61 97 3d
       0.08359901 0.120340616 0.008923536 0.07391612
0001e0 c2 28 90 bd 43 39 4b bd a1 d5 ae 3d bc b3 92 bb
       -0.07039024 -0.049615156 0.0853684 -0.0044769924
0001f0 cb f0 88 3d 19 5d d3 bd 7d 6b 4b 3d d3 78 17 3d
       0.066865526 -0.10320491 0.049663056 0.03698046
000200 2f be 85 3d ca 24 8b 3d 4e 78 0b 3d 12 88 f0 3a
       0.06530415 0.06794126 0.03405028 0.0018351099
000210 d1 27 56 3d b2 63 7f 3c 53 ed 33 3d 08 5e 91 3b
       0.052284066 0.015587734 0.043927502 0.004436258
000220 14 5d 73 3d 5a cd cc 3d 86 6f e4 bb 23 e2 5a 3d
       0.059414938 0.10000105 -0.0069713024 0.053438317
000230 fb c3 8a bd 75 cf 4a 3b 26 58 ff 3b 2f 2c ce bb
       -0.067756616 0.0030946408 0.0077924905 -0.006291888
000240 35 f9 be 3b 84 b2 2d 3d 56 05 2a bd 4b 2f cc 3b
       0.0058280476 0.042406574 -0.041508995 0.0062312237
000250 55 db 9e bd b1 3a 46 3d 80 95 62 bd 73 82 c1 3d
       -0.07756678 0.048395816 -0.055318356 0.09448709
000260 24 3e 5f 3d 51 a3 ab 3d b2 4f 5d 3d b4 49 cb 3d
       0.05450262 0.083807595 0.05403108 0.09926167
000270 6c b8 26 3d 21 c7 ef 3c 93 14 a6 bc 1a 35 b9 3d
       0.040703222 0.029269757 -0.020273482 0.090433314
000280 39 3b 83 3d 60 ac 30 3d cf 51 4f 3d a5 de 2d ba
       0.0640778 0.04313314 0.050615128 -0.0006632603
000290 72 f4 cc bd 59 e9 35 bd de 55 de 3c 85 45 ab 3d
       -0.10007562 -0.04441199 0.027140554 0.08362869
0002a0 56 b9 e7 bd 4e 83 26 3d 4c ce 2f bd a8 8d 09 bd
       -0.11314647 0.040652566 -0.04292135 -0.03358236
0002b0 18 14 14 39 ca ad b9 3c 59 fa 8f 3d 46 fd 28 3d
       0.00014121865 0.022665877 0.07030172 0.041257165
0002c0 8c ee 46 bd fc 76 f4 3b 6e d3 9a bd 65 30 88 3d
       -0.04856734 0.007460473 -0.07559858 0.066498555
0002d0 2a 46 12 3d 08 6d 7b 3d 58 54 fc 3d b6 b4 74 38
       0.035711445 0.061383277 0.12320775 5.8342433e-05
0002e0 ca e6 46 3d 9f b7 3c 3c 89 ba 9e 3d bd e9 e4 3c
       0.04855994 0.011518388 0.077504225 0.027943486
0002f0 d8 29 3f 3d 8f 60 48 39 aa 54 e9 bc d1 6c 94 3d
       0.046670765 0.00019109457 -0.028482754 0.072473176
000300 3e 24 08 3c ab 62 1a bb 85 34 ab 3d 28 b0 99 3d
       0.008309422 -0.0023557346 0.08359627 0.07504302
000310 59 87 c4 3c 84 bb b5 3c 66 8d d7 bd 2c a6 b6 3d
       0.02399032 0.022184141 -0.105250165 0.089184135
000320 8f 6c 1b 3d 86 db 41 bd 72 c6 a1 bd ae 6e f9 3c
       0.037945326 -0.047328494 -0.078991786 0.030448284
000330 fe 03 26 3d 29 82 c7 3d 0a 3a 93 3b a5 e9 4f 3d
       0.04053115 0.09741623 0.004493003 0.05075993
000340 97 90 61 bd 90 8c 7b 3c 81 11 fd 3b d5 d4 dc 3b
       -0.055069532 0.015353337 0.007723034 0.0067392387
000350 e7 4a 79 bd 02 d3 06 3d 2b e8 ab bc a5 51 fd 3d
       -0.060862448 0.032916076 -0.02098473 0.12369088
000360 78 bf 96 3c ba 4d 0b 3c c9 65 2a 3b d7 f1 08 3e
       0.018401846 0.008502418 0.002600061 0.13373505
000370 b2 e0 a2 bd c5 5d 8c bd 06 75 7d bc 89 cc f2 3c
       -0.079530135 -0.068538226 -0.015469795 0.029638546
000380 ce 1a 53 3d a2 54 3c bb f0 77 11 bd 09 b6 26 3d
       0.051539235 -0.0028736969 -0.035514772 0.040700946
000390 37 a0 22 bd 74 83 5f 3d 5f 25 36 3c ae bf 30 bc
       -0.039703574 0.054568723 0.011117308 -0.0107878875
0003a0 98 95 b7 bd f7 75 aa 3d 3e c2 70 bc b2 55 b5 bb
       -0.089640796 0.08323281 -0.014694748 -0.0055338973
0003b0 69 da a3 bd 69 0f 61 3d 18 f6 15 bc c7 6b 42 bd
       -0.08000643 0.054946337 -0.009152912 -0.047466066
0003c0 bc 7f 01 bd 68 bc a4 3d 09 80 70 3d b4 f9 f6 bc
       -0.031615958 0.08043748 0.058715854 -0.030148365
0003d0 b7 db 1e bd 0f ae 18 bd 2c 1f 2a 3d b2 41 49 3d
       -0.038783755 -0.03727537 0.041533634 0.049134918
0003e0 34 a6 50 3c af f7 72 bb dd ab 61 3d 2a 54 9a 3d
       0.012734938 -0.00370739 0.055095542 0.07535584
0003f0 66 8c 6a 3d a2 f7 44 bb 4d 09 82 bd dd 7a 17 bd
       0.0572628 -0.0030054827 -0.0634943 -0.036982406

fc3.weight f4 [4, 300]
000000 34 cf 56 bd f2 3e 4d 3d a5 b6 6b 3c af 63 06 be
       -0.052443698 0.050108857 0.014386808 -0.13123964
000010 5f c9 08 3e 1e da 5f 3b 58 ea 1d be 16 6e 81 be
       0.13358067 0.0034157108 -0.15421426 -0.252793
000020 5c 66 a8 be a3 7a 03 3e e3 0b a8 bc eb a0 e0 3d
       -0.32890594 0.12839751 -0.02051348 0.10968193
000030 a1 d2 a4 3e 35 a5 30 3d d1 87 77 be 20 c2 38 3d
       0.32191947 0.043126304 -0.24172904 0.045107007
000040 f0 47 33 bd 0c c7 11 3e 06 26 de 3d b0 09 11 3e
       -0.043769777 0.14236087 0.10847096 0.14163852
000050 2c d4 e9 bc ba f1 94 3e 70 3d 6d bd b0 c0 12 be
       -0.028543554 0.29090673 -0.05791992 -0.14331317
000060 c4 51 50 bd 2a 19 a3 bd 98 47 00 bd 31 62 4f bc
       -0.050859228 -0.07963784 -0.031318277 -0.012657688
000070 07 92 09 ba 37 4c 11 3e 1a f4 88 3d 1a a0 2e 3e
       -0.0005247895 0.1418923 0.06687184 0.17053261
000080 12 72 c8 3c 60 be 82 bb b1 57 8d 3d 21 92 0b 3d
       0.024468455 -0.0039899796 0.069014914 0.034074906
000090 4f b0 e5 bd 90 af 71 3d f1 bc 40 be c3 fe dc bd
       -0.11215269 0.05900532 -0.18822075 -0.107907794
0000a0 01 0d 14 be 09 9a 8b 3c c6 fe 83 b7 29 a8 0b bd
       -0.14458086 0.017041223 -1.5735055e-05 -0.034095917
0000b0 2a dd 82 be cf 79 7e 3b e0 f2 5b 3e 36 b3 ab 3d
       -0.2555936 0.0038829928 0.21479368 0.08383791
0000c0 21 d3 a6 bd d4 de 12 3b f9 37 f6 3e fa ab 9c bd
       -0.081457384 0.0022410648 0.4808958 -0.076499894
0000d0 f4 08 5c 3e d0 a8 ca 3b b0 0c a4 bd 50 75 54 bd
       0.2148779 0.006184675 -0.080102324 -0.05186969
0000e0 9f 4d a0 3c bf d5 24 bd 1b 0f 83 bd 04 7a 9a 3d
       0.019568263 -0.040242907 -0.063993655 0.07542804
0000f0 e5 e5 6f be 1b 38 06 3d 14 a6 f6 3d ce 0a 4d bd
       -0.23427542 0.03276835 0.12043396 -0.050059132
000100 83 4c df 3c 74 5e bb 3d a1 f5 30 3e 16 16 b9 3d
       0.027258163 0.09148875 0.172812 0.09037416
000110 2e 72 0d 3e 83 ea 91 3d 55 ee f6 bb 38 4b 07 3d
       0.13813087 0.07124808 -0.0075357356 0.03303072
000120 01 8c 06 be 7f 11 9c 3c 16 cb 2c 3e 14 6d 47 3e
       -0.13139345 0.019051312 0.16874346 0.19475204
000130 41 0d 84 bc bf a8 0c bb 0e 05 16 bd 1b 4e 59 3d
       -0.016119601 -0.0021462885 -0.036625914 0.053053003
000140 f7 f2 26 bc 56 f2 ac 3e 50 40 43 3e 86 55 fa bd
       -0.010189763 0.33778638 0.19067502 -0.122233436
000150 39 db 52 3e 9b fe c3 be 6c 87 9a bd 85 98 a3 3c
       0.2059144 -0.38280186 -0.07545361 0.019970188
000160 18 4d 16 be e3 d1 59 bd 04 a4 4b bc 68 eb d5 3e
       -0.14677846 -0.05317868 -0.012429241 0.41781163
000170 e4 3d 10 be 81 36 c0 3d 0b c1 ec bd 7c 62 c1 bb
       -0.1408611 0.09385396 -0.115602575 -0.005901633
000180 e3 67 24 3e 17 2b ef bd 9d 4c b2 bd 83 93 94 3d
       0.16055255 -0.116781406 -0.08706019 0.07254698
000190 a9 c6 78 bd 09 e6 7d 3e 4c 81 72 bd 9f 78 80 be
       -0.060736332 0.24794783 -0.05920534 -0.25092027
0001a0 57 5a 9c be 90 20 25 3c b7 41 82 be d6 2c 76 3e
       -0.30537674 0.010078564 -0.2544076 0.24040541
0001b0 1a 5c fa 3e 84 e3 f2 3b 4f c0 24 3e fa 8a c1 3e
       0.48898393 0.007412376 0.16088985 0.37801343
0001c0 67 2a c6 bd da a2 fb 3c 8f 4a 37 be 7c 47 a2 be
       -0.09676056 0.030717302 -0.17899536 -0.31695163
0001d0 09 06 a4 3b 48 c6 2b 3d 78 47 96 3c 64 76 99 3c
       0.0050056023 0.041937143 0.018344626 0.01873321
0001e0 de f8 18 3e 14 31 58 be 8f 21 06 3c 48 4c 2d bd
       0.14938685 -0.21112472 0.008186712 -0.042309076
0001f0 d6 b7 93 3d 18 7f 05 3f ef fe 14 3e 50 4a 7d bc
       0.07212798 0.52147055 0.14550374 -0.015459612
000200 de f8 a7 bd c9 cc 81 3c 4d a0 68 be 51 c4 95 bd
       -0.082017645 0.01584472 -0.227174 -0.07312835
000210 f4 ce a5 be ea c9 35 be d9 79 11 bd a5 e5 82 3d
       -0.32384455 -0.17752805 -0.035516594 0.063914575
000220 c9 eb ca 3d 75 03 85 bd f1 07 21 be 7e df c1 3d
       0.09908254 -0.064948 -0.15725686 0.09466456
000230 c5 7f 18 be 7c 1d 90 3e d3 2e ca 3a 0f e7 3f be
       -0.1489249 0.28147495 0.0015425332 -0.18740486
000240 eb ef 32 3e 3b d0 2a be b2 cd ca 3d ba 7e ea bd
       0.17474334 -0.16680996 0.099025145 -0.114499524
000250 7c bb 33 bd 23 3f 44 bc 55 7a 3a be 29 59 f8 3d
       -0.04387997 -0.011977944 -0.18210728 0.12126381
000260 62 e7 5a be 95 05 27 3d b0 a0 cb bc fa 47 ab 3d
       -0.21377328 0.040776808 -0.024856895 0.08363338
000270 7b 43 18 3e 3b a0 f1 bc 46 48 4e 3e d2 22 b2 bc
       0.14869492 -0.02949535 0.20144758 -0.02174512
000280 33 7f 47 be 6c 2f 08 be 41 d0 41 bc 99 db 1b 3e
       -0.19482116 -0.1329934 -0.011829437 0.15220489
000290 26 df ad bc d9 74 64 bd 77 e7 3a be 14 e9 a1 bd
       -0.02122457 -0.055775497 -0.1825236 -0.07905784
0002a0 87 42 2e 3d 5b a6 ca 3d cc 15 5a 3e 46 72 ea 3d
       0.042543914 0.09895011 0.21297377 0.11447577
0002b0 95 a8 c9 be 2e 76 4c 3e 31 a6 c1 be 49 36 3b bd
       -0.3938643 0.19966957 -0.37822106 -0.045706067
0002c0 c2 a7 5a 3e 47 ae 44 3d f6 6b 34 3c a9 cc 87 bb
       0.21353057 0.048017766 0.011012068 -0.0041442704
0002d0 5f 89 8e 3d 39 a9 0d 3d cf e2 a5 bc a3 70 6b be
       0.06959795 0.03458521 -0.020249752 -0.22992186
0002e0 29 a1 65 3d ad ae 00 bd 6e 6c a5 3e ec fe 90 bd
       0.056061897 -0.031416584 0.32309288 -0.070798725
0002f0 8d cd 93 be 1f 25 50 3e 0a 63 f5 3a f0 35 9c 3d
       -0.2886776 0.2032666 0.0018721533 0.07627475
000300 bd a7 79 be 61 92 9a bc 43 da 9e be c7 8b 12 3c
       -0.24380393 -0.018868627 -0.31025895 0.008944458
000310 3d 3e 38 be 6d fe 33 be 48 64 89 bb 92 4b 90 be
       -0.17992492 -0.17577524 -0.0041928627 -0.28182656
000320 40 45 48 bc 20 de 1c 3e 53 1c 61 3e ee 2c 8e be
       -0.012223542 0.15319109 0.21983461 -0.27768654
000330 d7 71 b1 bc d5 89 95 bd fa 38 18 3e ae c4 86 be
       -0.021660728 -0.0730168 0.14865485 -0.2632193
000340 6e ae 00 3d ca c7 6e 3c b0 45 9f 3d 72 2c 57 3e
       0.03141635 0.014574001 0.07776964 0.21013048
000350 50 ab cd bd 20 b5 66 bd 6a 81 25 3e 43 52 ca 3d
       -0.10042441 -0.056325078 0.16162649 0.098789714
000360 55 ad 6a 3e f5 3e 81 be 71 f6 c2 3d 62 ef d0 3d
       0.22917683 -0.25243345 0.09519661 0.10201909
000370 1b 1b 2b be 6e 32 f6 bd 2c 75 4e 3e f0 ae 42 be
       -0.16709559 -0.120213374 0.20161885 -0.19012046
000380 e1 d7 21 3e b2 33 3c bc f0 c5 91 bd b4 8a 8d bd
       0.15805008 -0.0114869345 -0.07117832 -0.06911221
000390 c5 43 65 3e 1b 78 b0 be f8 63 20 3e cb bc 47 3d
       0.22389133 -0.34466633 0.15663135 0.04876403
0003a0 cc 00 d5 3e bb a7 e8 bc 57 5f a1 bd fe 1e 1d 3e
       0.4160217 -0.028400293 -0.07879513 0.15343854
0003b0 5d 0f 1a b9 f9 07 ff 3c 72 6b ce 3c 03 4a 8a bc
       -0.00014692308 0.031131731 0.025197718 -0.016880995
0003c0 45 d4 86 bd 36 2b d0 be 97 c4 99 3d ac bf 98 3c
       -0.06583456 -0.40657967 0.075082 0.018646084
0003d0 69 ec cb be 8b 5a 14 3e 9d 2f 7f 3e d7 1e 6e be
       -0.39828804 0.14487664 0.24920507 -0.23253952
0003e0 d0 a2 79 be 96 3c 00 bd b8 74 ae 3d d7 ef dc bd
       -0.24378514 -0.03130778 0.08518356 -0.10787933
0003f0 4b d4 96 3e 3a 76 42 ba e3 bc 90 3d d5 d6 8f 3c
       0.29458842 -0.000741813 0.07067277 0.017558495

fc3.bias f4 [4]
000000 90 f5 e4 bc c4 50 6d 3c 5f c9 0e 3d 37 10 d7 3c
       -0.027949125 0.014484588 0.03486001 0.026252849
