checkpoints/checkpoint_critic_1000.pth (torch, 543887 bytes, 5 tensors)

fcs1.weight f4 [400, 33]
0	0xbe2907f7	-0.16506945
1	0xbcb1acc7	-0.021688832
2	0xbe3ac8a3	-0.182406
3	0x3dcb69f2	0.09932317
4	0xbe019f95	-0.12658532
5	0xbe14a916	-0.14517626
6	0x3ef5a607	0.4797823
7	0xbd04821d	-0.03235065
8	0xbe9c1773	-0.3048664
9	0x3db6281e	0.088943705
10	0xbe6ff556	-0.23433432
11	0x3e4114a1	0.18855526
12	0x3ed0952c	0.4073881
13	0xbd2b4585	-0.041814346
14	0x3edbceb1	0.4293113
15	0xbe9f6439	-0.3113115
16	0xbe9da5a9	-0.3079045
17	0x3e901cf8	0.281471
18	0x3f6a521f	0.91531557
19	0x3c7673d9	0.015042269
20	0x3e1e732f	0.15473627
21	0x3ef5b5a6	0.4799015
22	0x3e8c82c5	0.2744352
23	0x3e053a8a	0.13010612
24	0x3e8c77d1	0.27435163
25	0x3dff20de	0.12457441
26	0x3e434d49	0.1907245
27	0x3f053c28	0.52044916
28	0x3eaac845	0.3335592
29	0x3c9a7f76	0.018859606
30	0xbf0753ad	-0.52862054
31	0x3c7987e4	0.015230153
32	0x3f288c0c	0.65838695
33	0xbe810b8c	-0.25204122
34	0x3e0c2d27	0.13689099
35	0xbf14a203	-0.5805971
36	0x3e8a6b74	0.27035105
37	0xbe71d685	-0.23616989
38	0x3e736891	0.23770358
39	0x3e9f4e11	0.31114247
40	0xbbf46fe9	-0.00745963
41	0xbe7e25d7	-0.24819122
42	0xbe9903c0	-0.29885674
43	0xbe168b07	-0.14701472
44	0x3d8ef594	0.06980434
45	0xbe1740f1	-0.14770867
46	0xbd6ae73f	-0.05734944
47	0xbe1dbdbc	-0.15404409
48	0x3f19971d	0.59996206
49	0x3eec479c	0.46148384
50	0xbe60a3b0	-0.21937442
51	0xbe1159c6	-0.14194402
52	0x3eceee75	0.40416303
53	0x3e0a4ce7	0.13505898
54	0x3e801dc4	0.2502271
55	0x3dd85bc3	0.10564377
56	0xbdfe9a04	-0.1243172
57	0x3d7a6a6f	0.06113666
58	0x3dc8100d	0.097686864
59	0x3e1d85f5	0.15383132
60	0x3eecbb10	0.46236467
61	0xbefdab9a	-0.49544984
62	0xbcb4bf50	-0.022063881
63	0xbefb3bda	-0.490691
64	0x3d40e6d5	0.04709514
65	0xbfe3527a	-1.7759545
66	0x3e5b9595	0.2144378
67	0xbe864fdc	-0.26232803
68	0x3f59a562	0.8501798
69	0xbe636b9d	-0.2220902
70	0xbe50a35b	-0.20374815
71	0x3e881674	0.2657963
72	0xbca0faf8	-0.019650921
73	0xbd22802b	-0.03967301
74	0xbf5e05f6	-0.86727846
75	0x3d495cd2	0.049160786
76	0x3eb5beea	0.35497218
77	0x3e66c034	0.22534257
78	0x3f131fc3	0.5747034
79	0x3dbe54a4	0.09293488
80	0x3e98b395	0.2982451
81	0xbea8afba	-0.3294657
82	0xbeff5c11	-0.4987493
83	0x3e00e4bc	0.12587255
84	0x3e338505	0.17531212
85	0xbeeb6dad	-0.45982113
86	0x3e914e9a	0.2838028
87	0x3e655a9e	0.22397849
88	0xbe4c6638	-0.19960868
89	0xbe269100	-0.1626625
90	0xbda9cff1	-0.08291615
91	0xbe9ae24e	-0.30250782
92	0xbe2ad708	-0.1668359
93	0x3e288bfe	0.16459653
94	0xbead71b5	-0.33875814
95	0x3c2334e8	0.009961344
96	0xbdfac8c6	-0.12245326
97	0xbd146230	-0.03622645
98	0x3e2ab97e	0.16672322
99	0xbf104255	-0.56351215
100	0xbe7052dc	-0.23469108
101	0xbefdf2dc	-0.4959935
102	0xbd64fb9d	-0.05590402
103	0xbd6122dd	-0.05496489
104	0x3f142abd	0.57877713
105	0xbd47a415	-0.048740465
106	0x3de88f8e	0.11355506
107	0xbd81b0a9	-0.063325234
108	0x3e0f08d8	0.13968217
109	0xbeb60cdc	-0.35556686
110	0x3e0d8c26	0.13822994
111	0xbe3c54e7	-0.18391763
112	0x3ebdbf31	0.3705993
113	0x3ec7629c	0.3894242
114	0x3d583f87	0.05279496
115	0x3e0bd7b9	0.1365651
116	0xbe98d22e	-0.29847854
117	0xbedf2a77	-0.43587086
118	0x3db47692	0.08811678
119	0x3e89b52b	0.26896033
120	0xbea1b1bf	-0.31580922
121	0x3e5b96f9	0.2144431
122	0x3e186ba6	0.14884815
123	0x3e192b33	0.14957885
124	0xbda2f1d9	-0.07956285
125	0xbd928241	-0.0715375
126	0x3f424d49	0.7589918
127	0xbd9d5972	-0.07683076
128	0xbc8a0234	-0.016846754
129	0xbf30f8ad	-0.6912945
130	0xbc406c98	-0.011744641
131	0x3e0a9c0e	0.13536093
132	0x3dbb0cc6	0.09133296
133	0x3e50174c	0.20321387
134	0xbf3319e4	-0.6996138
135	0x3e817592	0.25285012
136	0x3dba1848	0.090866625
137	0xbde8cfff	-0.11367797
138	0xbeee1f08	-0.4650805
139	0xbd1babb7	-0.038005557
140	0x3e72b4fb	0.23701851
141	0xbeb6d5f9	-0.35710123
142	0x3d777d61	0.060422305
143	0x3e3ed80b	0.18637101
144	0xbe7dd4d9	-0.24788226
145	0xbd88c1ca	-0.06677587
146	0x3ee8bf5a	0.4545849
147	0x3d6ac87c	0.057320103
148	0x3e776dce	0.24162981
149	0x3ef5a55e	0.47977728
150	0x3ca7d54f	0.020487456
151	0x3e6a928e	0.22907469
152	0xbe4aa26f	-0.19788526
153	0x3d7c91e0	0.061662555
154	0x3e8bc7ac	0.27300775
155	0x3d37422b	0.044740837
156	0x3d9dabbb	0.076987706
157	0x3d44f738	0.04808733
158	0xbe6bc6d7	-0.2302507
159	0x3f5213c0	0.82061386
160	0x3ebac448	0.36477876
161	0x3c0fadac	0.008769434
162	0xbf5c0f64	-0.85960984
163	0xbc8c526c	-0.017129146
164	0xbf4e7c9e	-0.806589
165	0x3edc1f6a	0.42992717
166	0xbe50ebee	-0.204025
167	0xbe329d93	-0.17442922
168	0x3ddbcf37	0.107328825
169	0x3e98fd56	0.2988078
170	0x3d6bd220	0.057573438
171	0x3dfc68cf	0.12324678
172	0x3d85b5fa	0.0652885
173	0xbdab0300	-0.083501816
174	0xbdfccde2	-0.123439565
175	0x3eafa126	0.34302634
176	0xbd5b53aa	-0.053546585
177	0x3e7b5e86	0.24547777
178	0x3d9c8701	0.076429375
179	0x3e234c7f	0.1594715
180	0x3ed3db0a	0.4137805
181	0xbec72b1c	-0.38900077
182	0xbe639561	-0.22224952
183	0xbc8b5729	-0.017009335
184	0x3e3220ab	0.17395274
185	0x3db772c8	0.0895744
186	0x3e6fbc52	0.23411682
187	0x3e9fe72b	0.31231055
188	0xbc59a723	-0.013284477
189	0x3dc41ccb	0.09575804
190	0xbe81da3e	-0.25361818
191	0xbeb36d50	-0.35044336
192	0x3f76fd98	0.96480703
193	0xbe81583e	-0.25262636
194	0x3d1d04fd	0.038334835
195	0xbf6e2770	-0.93028927
196	0x3d0c75fd	0.03429221
197	0xbe901337	-0.2813966
198	0xbe605ec2	-0.21911147
199	0xbea40a30	-0.32039022
200	0x3f0127c9	0.5045133
201	0x3e4ef8e9	0.20212139
202	0x3e2d43d1	0.16920401
203	0x3d0222a4	0.031771317
204	0x3e63b80d	0.22238179
205	0xbdd55a32	-0.10417594
206	0xbefd504e	-0.4947533
207	0x3e6f611e	0.23376891
208	0xbd40d1e4	-0.047075167
209	0xbe47b93e	-0.19504258
210	0xbe9cc451	-0.30618528
211	0x3d814d35	0.06313554
212	0x3ecbb07b	0.3978308
213	0xbeed618d	-0.46363488
214	0xbe6a61dc	-0.22888893
215	0x3f0b3301	0.543747
216	0xbd725463	-0.05916251
217	0xbd231207	-0.039812114
218	0xbd11d336	-0.035601817
219	0x3daa9817	0.0832979
220	0xbd72a553	-0.059239697
221	0x3d709c0c	0.058742568
222	0x3e23aa48	0.15982926
223	0xbe8ed6af	-0.27898166
224	0xbdbfb024	-0.09359768
225	0x3ee964bf	0.45584676
226	0x3ec65fea	0.38745052
227	0x3c72d164	0.01482043
228	0xbec52e4d	-0.38511887
229	0xbcdfcce7	-0.027319385
230	0x3fb938c7	1.4470452
231	0xbe96295d	-0.29328433
232	0xbe7a9a8c	-0.24473017
233	0x3ef77bb1	0.48336557
234	0xbe933d05	-0.28757492
235	0xbdfb6281	-0.122746475
236	0xbe9da2dc	-0.30788314
237	0xbba3e461	-0.00500159
238	0x3c9a1240	0.01880753
239	0xbd932b6d	-0.07186017
240	0xbea8423c	-0.32863033
241	0xbcc39a48	-0.023877278
242	0xbe2a4562	-0.1662803
243	0x3d70953e	0.05873608
244	0x3eb3a7b6	0.3508889
245	0xbd4bdf58	-0.049773544
246	0xbf043df8	-0.51657057
247	0x3e95778d	0.29192773
248	0x3c9bb9a9	0.019009428
249	0x3dc104dd	0.09424756
250	0x3e31b2b7	0.1735333
251	0xbd0e2d33	-0.034711074
252	0xbe04a59b	-0.12953798
253	0xbd898d70	-0.0671643
254	0x3eadb00b	0.33923373
255	0x3e2b5929	0.1673323

fcs1.bias f4 [400]
0	0xbf130e3d	-0.574436
1	0xbf0bd851	-0.5462695
2	0x3c967c85	0.018369922
3	0xbf35bf21	-0.70994765
4	0xbf7f4a9e	-0.9972323
5	0xbf8a325a	-1.0796616
6	0xbf0eaac3	-0.5572931
7	0x3d81472d	0.06312404
8	0xbf8caf64	-1.0991025
9	0xbf30779f	-0.6893253
10	0xbf08d87e	-0.5345534
11	0xbf6e5018	-0.93090963
12	0xbf3b88ac	-0.7325542
13	0xbf398021	-0.72461134
14	0xbf7af5f6	-0.98031557
15	0xbec0a4d3	-0.3762575
16	0xbfa17b4e	-1.2615755
17	0xbf01c246	-0.5068706
18	0xbf1365fb	-0.57577485
19	0xbf4a515f	-0.7903041
20	0xbf3fd720	-0.7493763
21	0xbf1fd265	-0.6243041
22	0xbf321bd7	-0.6957373
23	0xbf85d722	-1.0456278
24	0xbf190dbd	-0.5978659
25	0xbf826e7e	-1.018997
26	0xbf2b2f1b	-0.6686875
27	0xbf1c659a	-0.6109253
28	0xbf888296	-1.0664852
29	0xbf47012a	-0.7773615
30	0xbf804c3d	-1.0023266
31	0xbe8f9a7c	-0.2804755
32	0xbf65a824	-0.8970969
33	0xbef0b21d	-0.4701089
34	0xbf6a14ce	-0.91437995
35	0xbe1bd76a	-0.15218893
36	0xbfa11d44	-1.2587056
37	0xbf99a3d1	-1.2003118
38	0xbef62c09	-0.4808047
39	0xbf5dd883	-0.86658496
40	0xbeb28d71	-0.34873536
41	0xbe78e9ac	-0.24307889
42	0xbf9e8861	-1.238537
43	0xbf3e32ed	-0.74296457
44	0xbf1a33d6	-0.60235345
45	0xbe7fc74d	-0.24978371
46	0xbf1c0eed	-0.60960275
47	0xbf4fb183	-0.81130236
48	0xbf357d2b	-0.70894116
49	0xbfa54664	-1.2912107
50	0xbf1a7e14	-0.6034863
51	0xbec3c3b5	-0.3823525
52	0xbf7dd233	-0.99148864
53	0xbe808511	-0.25101522
54	0xbf178266	-0.5918335
55	0xbe31883f	-0.1733713
56	0xbf124eaa	-0.5715128
57	0xbf54a198	-0.8305907
58	0xbf451927	-0.76991504
59	0xbef57ea5	-0.47948185
60	0xbf8580ae	-1.0429895
61	0xbf62a015	-0.88525516
62	0xbecb01c9	-0.396498
63	0xbe4f924c	-0.20270652
64	0xbf911f54	-1.1337686
65	0xbf5e5fe1	-0.8686505
66	0xbf3d2fde	-0.73901165
67	0xbf0c726c	-0.54862094
68	0xbf588659	-0.8458
69	0xbee12570	-0.43973875
70	0xbf351a12	-0.70742905
71	0xbdbbdab7	-0.09172576
72	0xbe785d43	-0.24254327
73	0xbf36a442	-0.7134439
74	0xbebca26e	-0.36842674
75	0xbf22ac2f	-0.6354398
76	0xbf6e6621	-0.93124586
77	0xbf55f131	-0.83571154
78	0xbdabb6e5	-0.08384494
79	0xbfa26825	-1.2688032
80	0xbef4fc0e	-0.47848552
81	0xbf299691	-0.6624537
82	0xbef0f075	-0.47058454
83	0xbf593275	-0.84842616
84	0xbf53bf2b	-0.82713574
85	0x3d1a234a	0.03763131
86	0xbf9a03a8	-1.2032366
87	0xbddbb5a3	-0.10728004
88	0xbf3af1a9	-0.73024994
89	0xbfadce4c	-1.3578582
90	0xbedff32a	-0.43740207
91	0xbf92c8e7	-1.146756
92	0xbf976843	-1.1828693
93	0xbfa6d01c	-1.303226
94	0xbf7d5caa	-0.9896952
95	0xbf844f19	-1.0336639
96	0xbf1c541e	-0.6106585
97	0xbf24f51c	-0.6443651
98	0xbf26c6d4	-0.6514714
99	0xbf6385b6	-0.888759
100	0xbf9fcea7	-1.248494
101	0xbf26f534	-0.652179
102	0xbf0872d8	-0.5330024
103	0xbe0d6b23	-0.138104
104	0xbe920982	-0.2852288
105	0xbf0ceebd	-0.55051786
106	0x3d87b777	0.0662679
107	0xbf693d16	-0.91108835
108	0xbf9dff2f	-1.2343501
109	0xbf03b5fa	-0.5144955
110	0xbf363d8f	-0.7118768
111	0xbe0c95b3	-0.1372898
112	0xbfa21ed8	-1.2665663
113	0xbf615adf	-0.88029283
114	0xbef8d9cf	-0.48603675
115	0xbecf16b9	-0.40447024
116	0xbf197623	-0.5994589
117	0xbf2e8fe8	-0.68188334
118	0xbf8a4bdd	-1.0804402
119	0xbf39554f	-0.72395796
120	0xbfbba890	-1.4660816
121	0xbf68f3c4	-0.90996957
122	0xbf0f341a	-0.55938876
123	0xbf8eb1c1	-1.1147996
124	0xbf9e65b9	-1.2374793
125	0xbf14d65c	-0.58139586
126	0xbf1d24b2	-0.6138412
127	0xbc6ffe97	-0.014648101
128	0xbf6a52db	-0.9153268
129	0xbf639ef4	-0.8891442
130	0xbe9d3119	-0.3070152
131	0xbeb2f58f	-0.3495297
132	0xbf15fc30	-0.5858793
133	0xbfb1df06	-1.3896186
134	0xbf26f18f	-0.6521234
135	0xbf4544d8	-0.7705817
136	0xbf21b23a	-0.6316258
137	0xbf221f46	-0.6332897
138	0xbf59e6c7	-0.85117763
139	0xbf0c1250	-0.5471544
140	0xbe8d332e	-0.2757811
141	0xbe471889	-0.19442953
142	0xbf2bf933	-0.6717712
143	0xbeffb17a	-0.4994009
144	0xbf5136ca	-0.81724226
145	0xbe9cfee4	-0.30663216
146	0xbf5c564e	-0.8606919
147	0xbf8fb4c5	-1.1227041
148	0xbfc61db0	-1.547781
149	0xbf7255df	-0.9466228
150	0xbfa94972	-1.3225539
151	0xbf1db6fe	-0.6160735
152	0xbe6cf6b6	-0.23140988
153	0xbf4f855f	-0.81062883
154	0xbf83d0d8	-1.0298109
155	0xbf4e2570	-0.80525875
156	0xbf724157	-0.9463095
157	0xbf206510	-0.6265421
158	0xbf40ca9b	-0.7530915
159	0xbf71863d	-0.94345456
160	0xbf837075	-1.0268694
161	0xbf7342f9	-0.9502407
162	0xbec88c9a	-0.3916977
163	0xbf74ae67	-0.95578617
164	0xbe4cc180	-0.1999569
165	0xbf855158	-1.0415449
166	0xbf86489d	-1.049091
167	0xbed9b178	-0.4251821
168	0xbf4fb0ed	-0.8112934
169	0xbf4001a1	-0.75002486
170	0xbf3b60ef	-0.73194784
171	0xbe579343	-0.2105227
172	0xbfafc43f	-1.3731765
173	0xbf0b311e	-0.5437182
174	0xbf63a153	-0.88918036
175	0xbf349115	-0.7053388
176	0xbf832434	-1.0245423
177	0xbf8107d4	-1.0080514
178	0xbfa1eeab	-1.2650961
179	0xbf431e16	-0.7621778
180	0xbf8828c0	-1.0637436
181	0xbf939e74	-1.1532731
182	0xbf71857f	-0.94344324
183	0xbf0f4a0d	-0.5597237
184	0xbf7492c9	-0.95536476
185	0xbf21be36	-0.63180864
186	0xbed9e498	-0.42557216
187	0xbef44e0a	-0.4771579
188	0xbf278d9d	-0.6545046
189	0xbf3cec29	-0.7379785
190	0xbf5623b2	-0.83648217
191	0xbe3c682b	-0.18399112
192	0xbf04c714	-0.5186627
193	0xbf1e7aff	-0.6190643
194	0xbf09ef77	-0.5388102
195	0xbf845ddd	-1.0341145
196	0xbf83c411	-1.029421
197	0xbf451a67	-0.7699341
198	0xbf547e30	-0.83005047
199	0xbf6ea04e	-0.93213356
200	0xbfa0bbbf	-1.2557296
201	0x3cd9994f	0.026562361
202	0xbf49374e	-0.78600013
203	0xbf769293	-0.96317405
204	0xbfaf2653	-1.3683571
205	0xbebaa627	-0.3645489
206	0xbefaaea3	-0.48961362
207	0xbf20b88a	-0.62781584
208	0xbeae0fa6	-0.33996314
209	0xbe1b348c	-0.15156764
210	0xbf883397	-1.0640744
211	0xbf1a9609	-0.60385185
212	0xbf6699eb	-0.9007861
213	0xbf3b7790	-0.7322931
214	0xbf708daa	-0.9396616
215	0xbea65ec9	-0.3249419
216	0xbe31ba79	-0.1735629
217	0xbdae6e6b	-0.08517154
218	0xbf1677a0	-0.58776283
219	0xbf10c65c	-0.5655267
220	0xbf687e06	-0.90817297
221	0xbf33a739	-0.70177037
222	0xbf5907b6	-0.8477739
223	0xbf1b4c56	-0.60663354
224	0xbed32544	-0.4123937
225	0xbf79bd94	-0.975549
226	0xbf9a35ce	-1.204767
227	0xbf4abe76	-0.7919687
228	0xbfa48fd9	-1.2856399
229	0xbf577a4d	-0.8417099
230	0xbf95e818	-1.1711454
231	0xbf6c68d3	-0.9234745
232	0xbf21ef66	-0.6325592
233	0xbed0a5a3	-0.4075137
234	0xbea2e73f	-0.31817052
235	0xbf641bbd	-0.89104825
236	0xbf2d016a	-0.6758028
237	0xbf5b78cd	-0.857312
238	0xbf9bf4a0	-1.2184029
239	0xbe4c502d	-0.1995246
240	0xbfa75bb2	-1.3074858
241	0xbfa17cf5	-1.2616259
242	0xbefd1dd8	-0.4943683
243	0xbf5725df	-0.8404216
244	0xbf4b9cd4	-0.79536176
245	0xbe8f51e5	-0.27992168
246	0xbea32b4a	-0.31868964
247	0xbf319645	-0.6936992
248	0xbf0baf0b	-0.5456397
249	0xbf2332f0	-0.637496
250	0xbf289a3b	-0.65860337
251	0xbf7938b4	-0.9735215
252	0xbf09575f	-0.5364894
253	0xbf21a5ea	-0.6314379
254	0xbf82a5bc	-1.0206828
255	0xbee78b91	-0.45223668

fc2.weight f4 [300, 404]
0	0xbd09f809	-0.03368381
1	0xbce4fbcd	-0.0279521
2	0xbd981033	-0.07424965
3	0xbd27cce8	-0.0409669
4	0xbd30b46d	-0.043140817
5	0xbd62042f	-0.05517977
6	0xbd4d7000	-0.05015564
7	0xbcbaf1f7	-0.022820456
8	0x3cbcc084	0.023041017
9	0xbe10e6c8	-0.14150536
10	0xbd0932c6	-0.033495687
11	0xbe07ac04	-0.13249213
12	0x3c35212a	0.01105527
13	0xbc2d62c9	-0.010582634
14	0xbd8a6117	-0.067568
15	0xbd421feb	-0.04739372
16	0x3d499763	0.04921664
17	0xbcba3b3c	-0.022733323
18	0x3c826086	0.015915167
19	0x3c68e57a	0.014214868
20	0x3d13c539	0.036076758
21	0x3ca50c8f	0.02014759
22	0xbd4e024a	-0.05029515
23	0xbdc4947c	-0.09598634
24	0x3cac730c	0.021050952
25	0xbde9c72b	-0.114149414
26	0x3d047bac	0.032344505
27	0xbdbdbb70	-0.092642665
28	0xbd6dade4	-0.058027163
29	0xbce704f2	-0.0282006
30	0x3d1b85c2	0.03796936
31	0xbd2d06b1	-0.04224271
32	0xbce6161c	-0.028086714
33	0xbc742ab4	-0.014902759
34	0x3ce7a5b6	0.02827726
35	0x3c588b75	0.013216843
36	0xbd4ce951	-0.050027195
37	0xbd1557fe	-0.03646087
38	0xbdc3a338	-0.09552616
39	0xbd0ee087	-0.034882095
40	0x3d3214a3	0.043476712
41	0xbddc4770	-0.10755813
42	0xbded8059	-0.11596746
43	0xbcaf83c4	-0.021425135
44	0xbd6815fc	-0.05666159
45	0xbd0b1107	-0.033951785
46	0xbcfd48e1	-0.03091854
47	0xbd04d81b	-0.032432657
48	0x3d58b747	0.052909162
49	0xba219e63	-0.0006165264
50	0xbdb64e93	-0.089017056
51	0xbd08bc56	-0.033382736
52	0xbd9832d1	-0.074315675
53	0xbd6f4229	-0.058412705
54	0x3af93ea9	0.0019015867
55	0xbe27ace6	-0.1637455
56	0x3c9bf90b	0.019039651
57	0xbdbc0470	-0.09180534
58	0xbddfaac2	-0.10921241
59	0xbd0dc096	-0.034607492
60	0xbcf3863e	-0.029727098
61	0xbe10235d	-0.1407599
62	0xbd80057f	-0.06251048
63	0xbe0ec4af	-0.13942216
64	0x3d4fa00c	0.050689742
65	0x3c8bdfb0	0.017074436
66	0xbd82dccb	-0.06389769
67	0xbceaeed8	-0.028678343
68	0x3d0ad663	0.03389586
69	0xbd2e04f3	-0.04248519
70	0x3ace62c0	0.0015745983
71	0xbd0832af	-0.03325146
72	0x3be9b1a9	0.0071317744
73	0xbd8fc057	-0.07019108
74	0xbd07dcec	-0.033169672
75	0xbccdabc7	-0.025106324
76	0xbde10d22	-0.10988833
77	0xbd8aa9ac	-0.067706436
78	0xbda82380	-0.08209896
79	0xbd0cc24f	-0.034364995
80	0xbd817a5d	-0.06322167
81	0xbb1d2f3f	-0.002398446
82	0xbd41c4c8	-0.047306806
83	0xbdc7e966	-0.09761314
84	0xbe05dee5	-0.13073309
85	0xbd338e22	-0.04383672
86	0x3b27f680	0.0025629103
87	0xbd9e64f0	-0.07734096
88	0x3ae5426a	0.0017491106
89	0xbd71724d	-0.058946896
90	0xbc800cf4	-0.015631177
91	0xbda3d1df	-0.07999014
92	0x3bba0cb4	0.005677784
93	0xbdbe7814	-0.09300247
94	0xbdb083fc	-0.08618924
95	0xbc9147e0	-0.017734468
96	0xbdf40823	-0.119156145
97	0xbd9aa813	-0.07551589
98	0xbd2c4ff1	-0.042068426
99	0xbc604403	-0.01368809
100	0xbcd964a6	-0.02653725
101	0xbc862f85	-0.016380081
102	0xbe0a98e7	-0.1353489
103	0x3d0b2b29	0.033976708
104	0xbd97126f	-0.07376563
105	0xbdb7f52f	-0.08982312
106	0xbca65a74	-0.020306803
107	0xbde7ca21	-0.1131785
108	0xbd113323	-0.03544916
109	0xbd2e0151	-0.042481724
110	0x3d495a1a	0.049158193
111	0xbdb04c6a	-0.08608325
112	0xbd0b8dc5	-0.03407075
113	0xbdfa96de	-0.12235807
114	0xbdac3e93	-0.084103726
115	0xbd7434de	-0.05962073
116	0xbdb1b3a8	-0.08676845
117	0xbdf74dd7	-0.12075394
118	0xbd9eda36	-0.07756464
119	0xbdd5744c	-0.104225725
120	0xbd0b6cfa	-0.034039475
121	0xbd49c66e	-0.049261503
122	0x3c2d5909	0.01058031
123	0x3c44897b	0.0119956685
124	0xbd5a54de	-0.053303592
125	0xbbdcf7ba	-0.0067433985
126	0xbd4f11f0	-0.050554216
127	0x3d1f185e	0.038841598
128	0xbca3d366	-0.019998264
129	0xbe0dfce5	-0.13866003
130	0xbd108316	-0.035281263
131	0x3cb0eb9d	0.021596724
132	0x3d150d56	0.03638967
133	0xbd898682	-0.067151085
134	0x3ce1ef37	0.027579887
135	0xbd5cd7c2	-0.0539167
136	0xbcff1b38	-0.031140909
137	0x3d26d856	0.040733658
138	0xbd98e973	-0.07466402
139	0xbd81f90b	-0.06346329
140	0xbdccbfcd	-0.099975206
141	0x3b03acb3	0.002009195
142	0xbc8cc179	-0.017182099
143	0xbe05634e	-0.13026163
144	0x3d57a55d	0.052647937
145	0xbdf7a240	-0.120914936
146	0xbce95f98	-0.028487965
147	0xbc6a7bc0	-0.014311731
148	0x3c886b74	0.0166528
149	0xbdd8319d	-0.10556338
150	0xbc3a3067	-0.011364079
151	0xbcd3dc0e	-0.025861766
152	0xbd3e1009	-0.04640201
153	0xbcbf8b29	-0.023381786
154	0xbcbde1a4	-0.023178883
155	0xbd45d3d1	-0.048297707
156	0xbd5f477a	-0.054511525
157	0xbdde05cf	-0.10840952
158	0xbce14379	-0.027497994
159	0x3cd87660	0.026423633
160	0x3c0a26db	0.008432115
161	0xbc04deba	-0.008109743
162	0xbd0b3692	-0.03398759
163	0xbd79f981	-0.06102896
164	0xbd8fd743	-0.0702348
165	0x38526615	5.0162973e-05
166	0x3cdf0fdd	0.027229244
167	0xbd9431a7	-0.07236033
168	0xbd37e880	-0.044899464
169	0xb88b6cbb	-6.648289e-05
170	0x3c1c6e1f	0.009547739
171	0xbdf8b1eb	-0.1214331
172	0xbd56bf4a	-0.05242852
173	0xbd235500	-0.039875984
174	0xbc115ecd	-0.0088727
175	0xbd192c23	-0.037395608
176	0x3d78c84c	0.060737893
177	0x3c66d4e8	0.014088847
178	0xbd5dffb6	-0.054198943
179	0x3d01c192	0.031678744
180	0xbc7ce851	-0.015436248
181	0x3d0789c3	0.033090364
182	0x3cf1145c	0.029428653
183	0xbd1fde36	-0.039030276
184	0x3d19229c	0.03738652
185	0xbd2cf8e8	-0.042229563
186	0xbd2568db	-0.0403832
187	0xbddb975b	-0.10722228
188	0x3d32d319	0.04365835
189	0xbc775507	-0.015095956
190	0xbd5b097f	-0.053475853
191	0x3b8d2a3e	0.004308014
192	0xbd2e7a10	-0.042596877
193	0xbd137a9a	-0.036005594
194	0x3d3e4120	0.046448827
195	0x3dab2cb3	0.08358135
196	0xbcc076ef	-0.023494212
197	0xbd955dd5	-0.07293288
198	0xbd06a0ae	-0.03286808
199	0x3d242501	0.040074352
200	0x3d9954d9	0.074868865
201	0xbcdfc4c4	-0.027315505
202	0xbcceb578	-0.025233015
203	0x3ce38a68	0.027775958
204	0xbd3f4198	-0.046693414
205	0xbd5080cd	-0.050904084
206	0xbe010d77	-0.12602793
207	0xbc20c4d0	-0.009812549
208	0xbdd59ac5	-0.104299106
209	0x3bee9f8a	0.007282202
210	0x3d8db3cc	0.06919059
211	0xbdce3801	-0.10069276
212	0x3d0f9662	0.035055526
213	0xbcf989f1	-0.030461283
214	0x3d3852c8	0.04500082
215	0xbd8b67c9	-0.06806905
216	0xbb6e22ba	-0.0036336617
217	0xbcefe81f	-0.029285489
218	0xbd50adb0	-0.05094689
219	0xbd10680e	-0.035255484
220	0xbb8f3b32	-0.0043710703
221	0xbd493c4a	-0.04912976
222	0xbd7f3b61	-0.062312488
223	0xbc17dc3f	-0.009268819
224	0xbd06b865	-0.032890696
225	0xbd90e084	-0.07074073
226	0x3c63049f	0.013856082
227	0xbda09f8d	-0.07842932
228	0x3b99f020	0.0046978146
229	0xbc7627f5	-0.015024175
230	0xbd195eb2	-0.037443824
231	0xbd74b897	-0.05974635
232	0x3b9f5e86	0.004863563
233	0xbd1b4512	-0.037907667
234	0xbd9880df	-0.07446455
235	0x3bf02765	0.007328915
236	0xbd2aae5f	-0.0416702
237	0xbd99761f	-0.07493233
238	0x3c19993d	0.009374914
239	0xbce56a00	-0.028004646
240	0xbccb60b7	-0.02482639
241	0xbd0b683f	-0.034034964
242	0xbcb6ab31	-0.022298427
243	0xbdbb357f	-0.09141063
244	0xbd43898f	-0.047738608
245	0xbcb23732	-0.021754835
246	0xbdb8a292	-0.09015383
247	0x3d98512d	0.07437358
248	0xbcd3aa37	-0.025838
249	0xbdd80de2	-0.10549523
250	0xbc88e950	-0.016712815
251	0xbd7cdcb8	-0.06173393
252	0xbd81d940	-0.06340265
253	0xbdaaa3e9	-0.08332045
254	0xbc94ae8c	-0.018149637
255	0xbdac2c76	-0.08406918

fc2.bias f4 [300]
0	0xbdbe1f24	-0.09283283
1	0xbbe466e0	-0.0069702715
2	0xbdeb9390	-0.11502755
3	0xbda3a82e	-0.07991062
4	0xbca7d96c	-0.020489417
5	0xbd8c6bee	-0.068565235
6	0xbcd73b30	-0.02627334
7	0xbdd1b03e	-0.10238694
8	0x3ac170be	0.0014758331
9	0xbd967a8c	-0.07347593
10	0xbc2c0a1c	-0.010500457
11	0xbcdc4ca8	-0.026892021
12	0xbdee5349	-0.11636979
13	0xbd3364bb	-0.043797236
14	0x3eb111a2	0.34583765
15	0xbe0bd8b8	-0.1365689
16	0xbda213f4	-0.07913962
17	0xbe1c74cf	-0.15278934
18	0xbd7ab8f1	-0.06121153
19	0xbd8fb304	-0.070165664
20	0xbc2345e8	-0.009965397
21	0xbd9165e4	-0.07099512
22	0xbd94da0b	-0.07268151
23	0xbdb36712	-0.087598935
24	0xbdbaf43f	-0.091286175
25	0x3f5e3026	0.8679222
26	0xbdaa8358	-0.08325833
27	0xbd5a40a3	-0.0532843
28	0xbccc80b2	-0.02496371
29	0xbd832546	-0.06403594
30	0x3f550b2b	0.83220166
31	0xbddcae35	-0.10775415
32	0xbde754a9	-0.112954445
33	0xbdde7aae	-0.10863243
34	0xbd3e2f92	-0.046432085
35	0xbdabd07e	-0.08389376
36	0x3c06539f	0.008198648
37	0xbdefaabf	-0.11702489
38	0xbda29b5a	-0.07939787
39	0xbdb6cde6	-0.08925991
40	0xbdc526e0	-0.096265554
41	0xbe0866c1	-0.13320448
42	0xbd009b4a	-0.031398095
43	0x3da33449	0.07968957
44	0xbd7c1fc1	-0.06155372
45	0xbd9a0594	-0.07520595
46	0xbd9873d3	-0.07443967
47	0xbd48cb50	-0.04902202
48	0x3d992e86	0.07479577
49	0xbd95b250	-0.07309401
50	0xbd48493f	-0.048897978
51	0xbd4e0799	-0.050300214
52	0xbcf31b62	-0.029676143
53	0xbd004f4c	-0.031325623
54	0xbd584754	-0.0528024
55	0xbc05e4c9	-0.008172222
56	0xbcc55639	-0.024088966
57	0xbd74d412	-0.05977256
58	0xbdb348cc	-0.08754119
59	0x3b91e15c	0.0044519138
60	0xbe157bac	-0.14597958
61	0x3d16de0d	0.036832858
62	0xbdcd4d96	-0.10024564
63	0xba6e3353	-0.00090866274
64	0xbd2e8dfd	-0.04261588
65	0xbbb712c4	-0.005586954
66	0xbd5ca00b	-0.053863566
67	0xbdb98935	-0.09059373
68	0xbdce6535	-0.100778975
69	0xbd41dfc0	-0.047332525
70	0xbda25fcb	-0.07928427
71	0xbd643123	-0.055710923
72	0xbdf70892	-0.120621815
73	0xbbde1dc9	-0.006778453
74	0xbdbae114	-0.091249615
75	0xbda4ce48	-0.080471575
76	0xbdc15a0a	-0.09441002
77	0xbe240d6f	-0.1602075
78	0x3eadf821	0.3397837
79	0xbcf996a6	-0.030467343
80	0x3d433e83	0.047667038
81	0xbd1945e0	-0.037420154
82	0xbd4500c9	-0.048096452
83	0xbd8a7d18	-0.06762141
84	0xbdec0944	-0.11525205
85	0xbdee709d	-0.11642573
86	0xbd99e590	-0.07514489
87	0xbd2f6e7f	-0.042829987
88	0xbd88410f	-0.06653034
89	0xbe024208	-0.12720501
90	0xbd84face	-0.0649315
91	0xbce9e4e2	-0.028551523
92	0xbd23f1af	-0.04002541
93	0xbdde0cb0	-0.10842264
94	0xbd3941a6	-0.045228623
95	0xbdd9d94a	-0.10637148
96	0xbd44e57e	-0.048070423
97	0xbda1a388	-0.07892519
98	0xbe91d7d4	-0.28484976
99	0xbdc0ec30	-0.09420049
100	0xbd54d68e	-0.051962428
101	0xbd7e7920	-0.062127233
102	0xbd1b4f90	-0.037917674
103	0xbcf53dc1	-0.029936673
104	0xbd94bfcd	-0.072631456
105	0xbf0ab6dc	-0.5418527
106	0xbe22f552	-0.15913895
107	0xbdce763f	-0.100811474
108	0xbd8aa647	-0.06769996
109	0xbd1c9a39	-0.038233016
110	0x3c1989f9	0.009371274
111	0xbbce4f63	-0.0062960847
112	0xbe041a6e	-0.12900707
113	0xbdb7f75e	-0.089827284
114	0xbdc15cdb	-0.09441539
115	0xbda3978b	-0.07987889
116	0xbdc385e9	-0.09547026
117	0xbd43699d	-0.047708143
118	0x3f07ec91	0.53095347
119	0xbcc6d2fa	-0.024270523
120	0xbdff368b	-0.12461575
121	0xbd877ba3	-0.06615379
122	0x3c85a8b2	0.016315792
123	0xbcfdd4f9	-0.030985342
124	0xbdc95e90	-0.098324895
125	0xbd0dbb46	-0.034602426
126	0xbd9c122d	-0.07620654
127	0xbdab9a8f	-0.08379089
128	0xbd34e292	-0.044161387
129	0xbdd35ab3	-0.10320034
130	0xbd846199	-0.06463928
131	0xbcc800d7	-0.024414463
132	0xbd2eaf32	-0.042647548
133	0xbd2ef873	-0.04271741
134	0xbde7b6b2	-0.11314143
135	0xbd618560	-0.055058837
136	0xbdfd74e1	-0.123758085
137	0xbda94086	-0.0826426
138	0xbe28fdd1	-0.16503073
139	0xbdab6675	-0.083691515
140	0xbd3bbf1d	-0.045836557
141	0xbd82a72f	-0.06379544
142	0xbdf672b1	-0.120335944
143	0xbd3baaba	-0.045817114
144	0xbd310e22	-0.04322637
145	0xbde7a3fd	-0.11310575
146	0xbd885016	-0.066559
147	0xbd84038a	-0.064459875
148	0xbde96cac	-0.11397681
149	0xbd636db8	-0.055524558
150	0xbe11daca	-0.14243618
151	0xbd2789c2	-0.04090286
152	0xbe9307c8	-0.28716874
153	0xbe143345	-0.14472683
154	0xbdac1cdb	-0.08403941
155	0xbdffb00e	-0.12484752
156	0xbddf518a	-0.10904224
157	0xbcdee9a2	-0.027211014
158	0xbde39f8c	-0.111144155
159	0xbe29b241	-0.16571905
160	0xbdb603bb	-0.0888743
161	0xbde9a991	-0.11409295
162	0xbd2992ae	-0.04139965
163	0xbdeb37b0	-0.11485231
164	0xbded7afc	-0.11595723
165	0xbcc833f7	-0.024438841
166	0xbdcb02a4	-0.09912613
167	0xbd5ccf5c	-0.05390869
168	0xbdd4b3a5	-0.10385827
169	0xbdbf057a	-0.093272164
170	0xbd0e6393	-0.03476293
171	0xbd2155e6	-0.03938856
172	0xbc6ced88	-0.014460929
173	0xbe53f81a	-0.20700112
174	0xbde741fb	-0.11291882
175	0xbd833863	-0.06407239
176	0xbdb0f494	-0.086403996
177	0xbd20f53f	-0.039296385
178	0xbcf72307	-0.03016807
179	0xbdccae5a	-0.099941924
180	0xbf04e3c7	-0.5191006
181	0xbdb0158a	-0.08597858
182	0xbe580cfd	-0.21098705
183	0xbd93260b	-0.071849905
184	0x3eeb33fd	0.459381
185	0xbc829032	-0.015937898
186	0xbd3fb8e2	-0.046807177
187	0xbd8899c2	-0.06669952
188	0xbd9cd4b1	-0.07657755
189	0xbd345869	-0.044029627
190	0xbc4503f5	-0.012024869
191	0xbd3deb6a	-0.046367086
192	0xbc96bb1b	-0.018399766
193	0xbd17fa3a	-0.03710387
194	0xbd36df67	-0.044646647
195	0xbd16ecba	-0.036846854
196	0xbdd0c817	-0.10194414
197	0xbd859647	-0.06522804
198	0xbdc6eba9	-0.09712917
199	0xbd552ba3	-0.05204357
200	0xbd7e9572	-0.06215424
201	0x3f08f7ce	0.5350312
202	0xbd025c1a	-0.031826116
203	0xbd829dd2	-0.06377758
204	0xbdf6de75	-0.12054149
205	0xbd5b256a	-0.053502478
206	0xbdb69a04	-0.08916095
207	0xbd8f7d0a	-0.07006271
208	0xbccc5086	-0.02494074
209	0xbd751fe4	-0.059844866
210	0xbded476e	-0.1158589
211	0xbcd34021	-0.025787415
212	0xbd829594	-0.06376186
213	0xbd293099	-0.041306112
214	0xbde86f18	-0.113493145
215	0xbde292b2	-0.11063136
216	0xbda49486	-0.08036141
217	0xbdedcb7e	-0.11611079
218	0xbdd47765	-0.10374335
219	0xbc8cdc8b	-0.017195007
220	0xbd92b8e8	-0.07164174
221	0xbddccb5e	-0.10780977
222	0xbd712534	-0.05887337
223	0xbdc65f7a	-0.096861795
224	0x3e9e3158	0.3089702
225	0xbd50ff30	-0.051024616
226	0xbdbe8d2f	-0.093042724
227	0xbd8858c9	-0.066575594
228	0xbdb6b4d6	-0.089212105
229	0xbd914c2e	-0.07094608
230	0xbdbe7684	-0.09299949
231	0xbccf4d28	-0.025305346
232	0xbc0028fc	-0.007822271
233	0xbd55eacc	-0.052225873
234	0x3c17d81a	0.009267831
235	0x3d515d3a	0.0511143
236	0xbdef7934	-0.116930395
237	0xbcfa3025	-0.030540535
238	0xbdaad20c	-0.083408445
239	0xbdda367a	-0.10654922
240	0xbdb42461	-0.08796001
241	0xbd3cdf9a	-0.04611168
242	0xbd1bb963	-0.038018595
243	0xbc57ecdc	-0.01317903
244	0xbdd0f3d9	-0.1020276
245	0xbd878057	-0.06616276
246	0x3ebab1f6	0.36463898
247	0xbd17d650	-0.03706962
248	0xbd4e9890	-0.050438464
249	0xbd6b3adb	-0.057429176
250	0xbd897e0f	-0.06713497
251	0xbdb01b3f	-0.08598947
252	0xbd926dc4	-0.071498424
253	0xbd20488e	-0.039131694
254	0xbd6fdfec	-0.058563158
255	0xbd97d92a	-0.07414468

fc3.weight f4 [1, 300]
0	0x3c712af8	0.014719717
1	0xbb32c1be	-0.0027276124
2	0x3cd94149	0.026520388
3	0xbcec5e89	-0.028853672
4	0xbc96be79	-0.018401371
5	0x3c950df1	0.018195124
6	0x3be2653c	0.0069090407
7	0x3af1af1c	0.0018439027
8	0xbb90c94b	-0.0044185272
9	0x3b114173	0.0022164255
10	0x3c96744f	0.018366007
11	0xbc7f824e	-0.015595032
12	0x3c88d911	0.016705068
13	0x3bf81c68	0.0075717457
14	0x3cb70378	0.022340521
15	0xbaa760b9	-0.0012769914
16	0x3bd1aea2	0.0063989917
17	0xbc8b60a9	-0.017013865
18	0xbc4f73dc	-0.0126619
19	0x3b7e2220	0.0038777664
20	0xbcbfd013	-0.023414647
21	0xbca35f36	-0.019942861
22	0x3c9a4845	0.018833289
23	0x3c83fe1a	0.016112376
24	0xbc5ca8cd	-0.01346798
25	0x3cb73d42	0.022368077
26	0x3b2be995	0.0026231755
27	0x3c383031	0.0112419585
28	0x3caf5975	0.021404961
29	0x3b8cbae6	0.004294741
30	0x3ca83052	0.020530853
31	0xbb798e7c	-0.0038079312
32	0xbc95918f	-0.018257884
33	0x3b098998	0.0020986553
34	0xbcd57871	-0.026058408
35	0x3a955585	0.0011393285
36	0xbcb1c144	-0.021698602
37	0xbc1c6f21	-0.00954798
38	0xbc50311e	-0.012707023
39	0xbc8a0bd0	-0.016851336
40	0x3cb26d45	0.02178062
41	0x3c3ab801	0.011396409
42	0xbcec9494	-0.028879441
43	0x3d8981bf	0.067142
44	0x3bf3c788	0.0074395575
45	0x3c8114a1	0.015756907
46	0xbac81c36	-0.0015267197
47	0xbc910809	-0.017704027
48	0xbc50ece6	-0.0127517935
49	0xbca83c8b	-0.020536682
50	0xbcdeb906	-0.027187835
51	0x3c2f2c35	0.010691692
52	0x3be57e29	0.007003565
53	0xbce1a64f	-0.027545122
54	0x3c309333	0.0107772825
55	0x3b346cb5	0.0027530615
56	0x3cddd731	0.02708015
57	0xbc86be4d	-0.016448164
58	0x3b9dcc64	0.004815625
59	0xbc00b54b	-0.007855724
60	0x3cbec17c	0.02328562
61	0xbc910e37	-0.017706973
62	0x3b1ce215	0.0023938466
63	0x3b1351c0	0.0022479147
64	0xbbc1d848	-0.0059156753
65	0xbb3a1b7e	-0.0028397734
66	0x39ca12ad	0.00038542357
67	0x3c955450	0.01822868
68	0xbc488d69	-0.012240746
69	0xb9aa33dd	-0.00032463568
70	0xbd0d203a	-0.03445456
71	0xbc3c4548	-0.011491127
72	0x3c5b0195	0.013367076
73	0xbba7cde7	-0.005120981
74	0x3cb18a0d	0.021672273
75	0x3a8d4ff1	0.0010781271
76	0xbcc79d62	-0.024367038
77	0xbc83b0e8	-0.016075566
78	0x3d1d1ddc	0.038358554
79	0xbc5c9074	-0.013462175
80	0x3cde0cc8	0.027105704
81	0xbc95fbcb	-0.01830854
82	0x3c3d05c4	0.011537019
83	0xbcbecc36	-0.023290735
84	0xbcd77425	-0.0263005
85	0xbc625adc	-0.013815608
86	0x3c3c8dad	0.0115083875
87	0x3c483d3a	0.012221629
88	0x3cb111ce	0.021614935
89	0x3c90eaa1	0.017690005
90	0x3cf536d5	0.029933373
91	0x3cefa9af	0.029255716
92	0x3d2c7546	0.04210403
93	0xbc6ca7dc	-0.014444318
94	0xbccfaa08	-0.025349632
95	0x3bc62453	0.0060468107
96	0xbca01299	-0.019540118
97	0xbb2062d6	-0.0024472973
98	0xbd1975bd	-0.0374658
99	0xbab71ee8	-0.0013971003
100	0xbbb7e0e0	-0.005611524
101	0xbaeb5fa8	-0.0017957585
102	0x3c778cf1	0.015109287
103	0x3c28fc3d	0.010314045
104	0xbcdeb07c	-0.027183764
105	0xbc4deedd	-0.0125691565
106	0xbc121c4a	-0.008917877
107	0x3c54b32f	0.012982174
108	0x3cc93a47	0.024563922
109	0x3b883cb7	0.0041576284
110	0xbca27c2b	-0.019834599
111	0xbbeb88d3	-0.0071879416
112	0xbc35c0b5	-0.011093308
113	0xbcb04051	-0.021515043
114	0xbda0463a	-0.07825895
115	0xbce0bbb4	-0.027433254
116	0x3c11a4f6	0.008889427
117	0x3c53bb40	0.012923062
118	0x3ca89f82	0.020583872
119	0xbcbef928	-0.023312166
120	0x3c14dca6	0.00908581
121	0xbc1dd660	-0.0096336305
122	0xbb9fc0fc	-0.0048753005
123	0xba1ccb10	-0.00059811864
124	0xba067868	-0.0005129636
125	0xbb4c1a18	-0.0031143483
126	0x3bd98ee7	0.0066393497
127	0xbc98c106	-0.018646728
128	0x3c8dd92e	0.017315473
129	0x3b92c543	0.004479082
130	0x3bb64fc6	0.005563709
131	0xbca038ae	-0.019558277
132	0xbcb39421	-0.02192122
133	0xbc8be8fb	-0.017078867
134	0xbc403ae5	-0.011732792
135	0xbc7c10b9	-0.015384846
136	0x3c40a02c	0.011756938
137	0x3b4434b1	0.0029938633
138	0x3cb9f526	0.022699904
139	0xbc69be0c	-0.014266502
140	0xbcd1abeb	-0.025594672
141	0xbc33d266	-0.010975456
142	0x3bb19285	0.005419078
143	0xbb756ee0	-0.003745012
144	0xbcbf94bb	-0.02338635
145	0x3ca231d0	0.019799143
146	0xbc792d74	-0.015208591
147	0xbc46988b	-0.01212133
148	0xbbae5734	-0.005320454
149	0xbb99c66f	-0.0046928446
150	0x3c71869f	0.014741569
151	0x3b30ebfe	0.002699613
152	0xbcabb564	-0.020960517
153	0xbbe71efc	-0.007053254
154	0x3c2c1e1f	0.010505228
155	0x3c41f66e	0.011838539
156	0x3be82372	0.0070843035
157	0xbcd54bf0	-0.026037186
158	0x3cc75f18	0.024337336
159	0xbc83cfec	-0.016090356
160	0x3c6abec1	0.014327706
161	0xbbd9c7ad	-0.0066461177
162	0xbb253132	-0.0025206325
163	0x3bebbbc3	0.007194014
164	0xbc9e1c42	-0.019300584
165	0x3c8e0f08	0.017341152
166	0x3b3fa454	0.0029242234
167	0xbbe75b3e	-0.0070604375
168	0xbb42566c	-0.0029653562
169	0x3cc7b96f	0.024380414
170	0x3b63fd8d	0.003478858
171	0xbc9aa9cf	-0.0188798
172	0x3bd012be	0.0063498905
173	0x3d391ae7	0.04519167
174	0xbcf2d066	-0.029640388
175	0xbb1f9c34	-0.002435458
176	0x3c4f4341	0.012650312
177	0x3c66cb49	0.014086553
178	0xbb48951a	-0.003060645
179	0xbbf70d59	-0.007539433
180	0xbc7907c8	-0.015199609
181	0xbc04e7d3	-0.008111912
182	0x3d019d15	0.031643946
183	0x3c8b6d08	0.017019764
184	0x3c97e8dc	0.018543653
185	0xbcab7427	-0.02092941
186	0x3cb1c0a9	0.021698313
187	0xbcbf5524	-0.023356028
188	0x3cd0ab59	0.02547233
189	0xbc563cf1	-0.013076053
190	0x3af3c5fc	0.0018598433
191	0x3cc93c21	0.024564805
192	0x3bf607e9	0.007508267
193	0xbcd2f55f	-0.025751768
194	0xbc40fd92	-0.011779206
195	0x3c63e1ff	0.013908862
196	0x3c203fa0	0.009780794
197	0x3b402909	0.0029321334
198	0x3bff2aea	0.007787098
199	0x3cc4e248	0.02403368
200	0x3c81ab09	0.015828626
201	0x3cd7902b	0.026313862
202	0xbc0ed07e	-0.008716701
203	0x3aaa3720	0.0012986399
204	0xbc9475e8	-0.018122628
205	0xbcdfd2f1	-0.027322264
206	0x3da7818c	0.08179006
207	0xbbe4d5fa	-0.006983516
208	0x3b4bc819	0.003109461
209	0x3c36009a	0.011108542
210	0x3994c378	0.00028374395
211	0xbb736014	-0.0037136124
212	0x3cf4c2e2	0.029878084
213	0x3c1c2b08	0.009531744
214	0xbc2287c1	-0.009920062
215	0xbcad3c43	-0.0211469
216	0x3c07dc1c	0.008292224
217	0xbb3a7e25	-0.0028456536
218	0x3cd336b1	0.025782915
219	0x3c65d11c	0.014026906
220	0x3bc95e3d	0.0061452673
221	0xbccffc0d	-0.025388742
222	0xbde27039	-0.11056561
223	0xbc913ebc	-0.01773011
224	0x3c9de5e1	0.019274654
225	0xba55c386	-0.00081544404
226	0xbb524112	-0.0032082242
227	0x3ce2dd85	0.02769352
228	0xbcdc003a	-0.026855577
229	0xbcf8b871	-0.030361386
230	0x3ce4ac35	0.027914146
231	0xbad8829d	-0.0016518418
232	0x3cc3d24a	0.023903985
233	0xbbd0706f	-0.0063610594
234	0x3c14206b	0.009040932
235	0x3dad0849	0.08448846
236	0xbca3953b	-0.01996862
237	0xbbae0a36	-0.005311276
238	0x3b841703	0.0040310635
239	0x3bc7f047	0.0061016413
240	0x3c9f9e3a	0.019484628
241	0x3ca5d10f	0.020241288
242	0xbcca72a6	-0.024712872
243	0x3b0c6778	0.0021423977
244	0x3c443612	0.011975782
245	0xbc69db5b	-0.01427349
246	0x3cc6a132	0.024246786
247	0xbcf63dce	-0.030058768
248	0xbc4b8edb	-0.012424196
249	0x39bf6a89	0.00036509734
250	0xbc72d1cf	-0.01482053
251	0x3caba7bc	0.020954005
252	0x3bb2c66c	0.0054557826
253	0xbc339dd7	-0.010962925
254	0xbc07a480	-0.008278966
255	0xbb6f73d1	-0.0036537538
