checkpoints/checkpoint_critic_3200.pth (torch, 543887 bytes, 5 tensors)

fcs1.weight f4 [400, 33]
0	0xbe5a0b50	-0.21293378
1	0x3e1f3997	0.15549313
2	0x3f2bdc8f	0.6713342
3	0xbeeeb581	-0.46622851
4	0x3ee03da7	0.43797037
5	0xbd97b4dc	-0.07407543
6	0xbe4ec1ee	-0.20191166
7	0x3e2b4596	0.16725764
8	0xbf85bf6a	-1.044904
9	0x3e49c2ef	0.19703268
10	0xbddcd4af	-0.10782754
11	0x3e98b368	0.29824376
12	0x3e737086	0.23773393
13	0xbebf3b0b	-0.37349734
14	0x3ee45f0e	0.4460377
15	0xbea21250	-0.31654596
16	0xbf06a50a	-0.5259558
17	0xbd172a73	-0.036905717
18	0xbe9dd8ec	-0.3082956
19	0x3dae5e2f	0.08514058
20	0xbcb2ea11	-0.021840127
21	0xbe043d82	-0.12914088
22	0x3e4d542b	0.20051639
23	0xbe87f0c5	-0.2655088
24	0x3eac51e7	0.33656237
25	0xbd84c82c	-0.06483492
26	0x3df2eca3	0.11861541
27	0x3f9d73cf	1.2300967
28	0x3eb9f14f	0.36316916
29	0x3c9a7f76	0.018859606
30	0xbf9e7f87	-1.2382668
31	0x3c7987e4	0.015230153
32	0x40237fd7	2.5546777
33	0xbe9b107a	-0.30286008
34	0xbe949704	-0.29021466
35	0xbf965600	-1.1744995
36	0xbe76e9a6	-0.24112567
37	0xbd180ae9	-0.03711978
38	0x3d70438c	0.058658168
39	0x3e0c2870	0.136873
40	0xbd1692f0	-0.036761224
41	0x3e8bfc28	0.27340817
42	0xbf0e7cc1	-0.5565911
43	0x3da76fde	0.08175634
44	0x3dd874d6	0.1056916
45	0xbdc5f9d5	-0.09666792
46	0x3e5cbb1c	0.21555752
47	0x3eb7a84f	0.35870597
48	0x3fb52c93	1.4154228
49	0x3e0941c9	0.13404001
50	0xbdfab58f	-0.12241661
51	0xbceea534	-0.02913151
52	0xbe813a05	-0.25239578
53	0xbdf1bf06	-0.11804013
54	0x3c35eb0a	0.011103401
55	0x3c6cbbb9	0.014449053
56	0xbdd453e9	-0.10367567
57	0xbd3cb0c8	-0.04606703
58	0x3e0b8c80	0.13627815
59	0xbda17a3a	-0.07884641
60	0x3f0461c3	0.5171167
61	0xbf4fb18c	-0.8113029
62	0xbcb4bf50	-0.022063881
63	0xbf0ba247	-0.5454449
64	0x3d40e6d5	0.04709514
65	0xbe451513	-0.1924632
66	0x3c6cd2d7	0.014454565
67	0xbf188e66	-0.5959228
68	0x3eab449a	0.33450776
69	0x3de44351	0.11145652
70	0x3ded3aff	0.11583518
71	0xbcb2a55a	-0.021807361
72	0x3d86e6a9	0.06586964
73	0xbe9560ab	-0.29175314
74	0xbf56c066	-0.83887327
75	0xbc22bab3	-0.009932208
76	0x3efddc3f	0.49582097
77	0xbe664be0	-0.22489882
78	0xbd914ea7	-0.0709508
79	0xbc6b2d4a	-0.0143540595
80	0x3eac4320	0.33644962
81	0xbdbd8ded	-0.09255586
82	0xbd4febcf	-0.050761994
83	0x3ba452f9	0.005014774
84	0x3d277f46	0.04089286
85	0xbcae2daa	-0.021262009
86	0xbdbe0592	-0.09278406
87	0x3ebc83dd	0.36819354
88	0x3dd837d1	0.10557521
89	0xbeeb7cda	-0.45993692
90	0x3e80d0c1	0.25159267
91	0xbeb302e5	-0.34963146
92	0xbe8088f4	-0.25104487
93	0x3e667207	0.22504435
94	0xbee6cfbe	-0.4508037
95	0x3c2334e8	0.009961344
96	0xbe3b4a83	-0.18290143
97	0xbd146230	-0.03622645
98	0xbf6e1865	-0.93005973
99	0xbef25c1f	-0.47335908
100	0x3f67eefa	0.90599024
101	0xbda49ab0	-0.08037317
102	0xbf24b9df	-0.64346117
103	0x3f514e37	0.8175997
104	0x3e08233f	0.13294695
105	0x3d50b841	0.05095697
106	0xbe60a4b0	-0.21937823
107	0xbf31eb86	-0.69500005
108	0xbde80e8e	-0.11330901
109	0xbea3ac4a	-0.31967384
110	0x3ed894d4	0.42301047
111	0x3eb03de4	0.3442222
112	0x3e7f3436	0.2492226
113	0x3f292257	0.66068023
114	0x3f00d595	0.503259
115	0x3ed32c09	0.41244534
116	0xbe1692e5	-0.14704473
117	0xbe8c8764	-0.27447045
118	0x3d0190b8	0.031632155
119	0x3ee37988	0.44428658
120	0xbcefce78	-0.029273257
121	0x3dd5787f	0.104233734
122	0x3e0563d5	0.13026364
123	0x3d6f21bf	0.058381792
124	0x3e8bb09a	0.27283174
125	0x3e72dab0	0.23716235
126	0x3fae2299	1.3604308
127	0x3e354f07	0.17705928
128	0xbc8a0234	-0.016846754
129	0xbfa5787d	-1.2927395
130	0xbc406c98	-0.011744641
131	0xbe2057d8	-0.1565851
132	0xbe6692ab	-0.22516887
133	0xba30d64b	-0.00067457993
134	0xbf4b9a4d	-0.7953232
135	0x3c334cca	0.010943601
136	0x3daa95af	0.08329331
137	0xbe395b27	-0.18101178
138	0xbb6710fa	-0.0035257922
139	0xbe015e40	-0.1263361
140	0xbe233d0c	-0.15941256
141	0xbea53b0d	-0.32271615
142	0xbcb1b3ab	-0.021692118
143	0x3ee30f47	0.44347593
144	0xbe45a472	-0.19301012
145	0x3e48cd74	0.19609624
146	0x3f1314cf	0.57453626
147	0x3f1accfc	0.6046903
148	0xbe0af652	-0.13570526
149	0xbbd400b2	-0.0064698095
150	0x3d605efa	0.054778077
151	0x3e95a5e7	0.29228136
152	0x3e5e9e55	0.21740086
153	0x3add9a2c	0.0016906909
154	0x3e179e5f	0.14806508
155	0x3e69127b	0.22760956
156	0x3e8f3057	0.27966568
157	0x3ec2cc7e	0.3804664
158	0x3ea0546b	0.31314406
159	0x3fd4bf36	1.6620853
160	0xbe016bd4	-0.1263879
161	0x3c0fadac	0.008769434
162	0xbfd9bd08	-1.7010813
163	0xbc8c526c	-0.017129146
164	0xbfd47b2b	-1.6600088
165	0x3da82126	0.082094476
166	0xbd773881	-0.06035662
167	0xbf18a809	-0.596314
168	0xbcb3b81b	-0.021938374
169	0x3d8d87d1	0.069106705
170	0xbdd5614c	-0.104189485
171	0x3ecc159b	0.39860234
172	0x3e8405b2	0.25785595
173	0xbf1fcb8c	-0.6241996
174	0xbedb6423	-0.42849836
175	0x3e992070	0.2990756
176	0x3e30df6f	0.17272733
177	0x3cd67e52	0.026183281
178	0x3e2362bd	0.15955634
179	0xbd5eca3f	-0.054392096
180	0x3f3e36d0	0.7430239
181	0x3d3419a4	0.043969765
182	0x3d6fb86e	0.058525495
183	0x3bbe681e	0.0058107516
184	0x3df5fe48	0.12011391
185	0x3d14b499	0.036305044
186	0xbcf1e2d5	-0.029527107
187	0x3da27cee	0.07933985
188	0xbd31b7e6	-0.04338827
189	0xbcd04e17	-0.025427861
190	0x3ed99154	0.4249369
191	0xbf209245	-0.6272319
192	0x3fb1228b	1.3838667
193	0xbedbb113	-0.42908534
194	0x3d1d04fd	0.038334835
195	0xbfacb7e5	-1.349362
196	0x3d0c75fd	0.03429221
197	0xc01ee88f	-2.4829443
198	0xbda7f079	-0.082001634
199	0xbf5eb9d5	-0.8700231
200	0x3f25b30a	0.64726317
201	0x3e9f475e	0.31109136
202	0xbf0dd8e6	-0.55409086
203	0x3e958630	0.2920394
204	0xbd827637	-0.06370204
205	0xbe61c37c	-0.22047228
206	0xbe0d7584	-0.1381436
207	0x3e92f9b0	0.2870612
208	0xbe4ca8ba	-0.19986239
209	0xbe319eb1	-0.17345692
210	0x3de5d028	0.11221343
211	0xbdf64f5e	-0.12026857
212	0x3e8f3926	0.27973288
213	0xbe030a11	-0.12796809
214	0xbd5c4b44	-0.053782716
215	0x3c93b568	0.018030837
216	0xbdb44cf6	-0.08803742
217	0xbd2abe9b	-0.04168568
218	0x3d5220c0	0.051300764
219	0x3cc412c1	0.023934724
220	0x3b42592e	0.0029655206
221	0xbc50b5d1	-0.012738661
222	0x3ca615ad	0.020274008
223	0x3e4cdcc4	0.2000609
224	0x3e02b8d7	0.12765823
225	0x3f945f73	1.1591629
226	0x3f1ae70d	0.60508806
227	0x3c72d164	0.01482043
228	0xbf8b51c3	-1.0884327
229	0xbcdfcce7	-0.027319385
230	0x400cef3a	2.2021012
231	0xbef7bb10	-0.48384905
232	0x3cd0ef26	0.02550466
233	0x3f199643	0.59994906
234	0xbe1cb283	-0.15302472
235	0xbe679cb8	-0.22618377
236	0xbceebc08	-0.029142395
237	0xbd1fe672	-0.03903813
238	0xbd49a37f	-0.049228188
239	0xbea69aa5	-0.3253986
240	0xbe988e40	-0.29796028
241	0xbec5ca8e	-0.386311
242	0xbddfbb85	-0.109244384
243	0x3e7a3ffe	0.24438474
244	0x3d998b78	0.07497305
245	0xbe1b5e40	-0.15172672
246	0xbeff65d3	-0.49882373
247	0x3e163131	0.14667203
248	0x3d001696	0.03127154
249	0xbd21b170	-0.03947586
250	0xbdee9bad	-0.116507865
251	0xbe102902	-0.14078143
252	0x3db79e8b	0.089657865
253	0xbb042e0d	-0.002016905
254	0x3e983034	0.29724276
255	0xbda19aef	-0.07890879

fcs1.bias f4 [400]
0	0xbfa45cff	-1.284088
1	0xbf19dc6d	-0.6010197
2	0xbd2c5da7	-0.0420815
3	0xbfa7dba3	-1.3113903
4	0xbfeb5a8c	-1.8387008
5	0xbfbfd661	-1.4987298
6	0xbfa15b6e	-1.2606027
7	0x3f434e79	0.76291615
8	0xbffb748f	-1.9644946
9	0xbff737d5	-1.9313914
10	0xbf7fe8bd	-0.99964505
11	0xbfe1083b	-1.7580637
12	0xbfc913b5	-1.5709139
13	0xbf831491	-1.0240651
14	0xbfc2c755	-1.5217081
15	0xbf83e918	-1.030551
16	0xbff8be9d	-1.943317
17	0xbf8812bd	-1.0630718
18	0xbf9aca4c	-1.2092986
19	0xbfbba0df	-1.4658469
20	0xbfb387f9	-1.402587
21	0xbfac1016	-1.3442409
22	0xbf75c9ad	-0.9601086
23	0xc006806f	-2.101589
24	0xbfb549c6	-1.4163139
25	0xc002b3c2	-2.0422215
26	0xbf9dc7f9	-1.2326652
27	0xbfbbe522	-1.4679301
28	0xbff65aa1	-1.9246408
29	0xbfee99fa	-1.864074
30	0xc0071ec9	-2.111254
31	0xbe2dd608	-0.16976178
32	0xbfd1be8c	-1.6386275
33	0xbf80d9af	-1.0066432
34	0xbf94f319	-1.1636688
35	0xbf46dfa4	-0.77685
36	0xbfe42750	-1.7824497
37	0xbff91b3b	-1.9461435
38	0xbf862afe	-1.048187
39	0xbfb91189	-1.4458476
40	0xbf10647f	-0.56403345
41	0xbe99c270	-0.30031157
42	0xbffecd04	-1.9906316
43	0xbf18d58c	-0.59700847
44	0xbfb4a048	-1.4111414
45	0xbf14ee96	-0.58176553
46	0xbfa9acb7	-1.3255833
47	0xbfc239c9	-1.5173885
48	0xc0065915	-2.0991871
49	0xc005b033	-2.0888793
50	0xbfce05df	-1.6095542
51	0xbf7ba656	-0.98300683
52	0xbfe4beec	-1.7870765
53	0xbf845d9e	-1.034107
54	0xbfb58ab0	-1.4182949
55	0xbf99ee21	-1.2025796
56	0xbe1e732d	-0.15473624
57	0xbfccc472	-1.599745
58	0xbf98ad10	-1.1927814
59	0xbf6cbf26	-0.9247917
60	0xc01b2717	-2.4242609
61	0xbfab8fc1	-1.3403245
62	0xbf48ca33	-0.7843353
63	0x3e8cb746	0.27483577
64	0xbf75bcf7	-0.9599146
65	0xbfc17ec3	-1.511681
66	0xbfa9a636	-1.3253849
67	0xbe6e1269	-0.2324921
68	0xbfb987ec	-1.4494605
69	0xbf9c9039	-1.2231513
70	0xbfc3729f	-1.5269355
71	0xbeeb4655	-0.45952097
72	0xbf96f6cb	-1.1794065
73	0xbfad6c20	-1.3548622
74	0xbfa4ba6f	-1.2869395
75	0xc00d2ac0	-2.2057343
76	0xbf952711	-1.1652547
77	0xbfc5180c	-1.5397964
78	0xbf46c001	-0.77636725
79	0xbfe50650	-1.7892551
80	0xbf72a76f	-0.94786733
81	0xbf9d2640	-1.2277298
82	0xbfae469c	-1.3615298
83	0xbff5213b	-1.9150766
84	0xbfcbc841	-1.5920488
85	0xbd879cbf	-0.06621694
86	0xbfe84f21	-1.8149148
87	0xbf1f71f3	-0.6228325
88	0xbf9a05af	-1.2032984
89	0xbfc77e3e	-1.5585401
90	0xbf637d02	-0.8886262
91	0xc0008948	-2.008379
92	0xbfc81681	-1.5631868
93	0xbfeeabfb	-1.8646234
94	0xbfb1b5c6	-1.3883598
95	0xbfd6b7e1	-1.6774865
96	0xbf9d77b3	-1.2302154
97	0xbf8dc652	-1.1076148
98	0xbfd5f5c8	-1.6715631
99	0xbfdfccdf	-1.7484397
100	0xbfd7dc98	-1.6864195
101	0xbf64c721	-0.89366347
102	0xbf844fda	-1.0336869
103	0xbe8c83c3	-0.27444276
104	0xbf8c5180	-1.0962372
105	0xbf903031	-1.1264707
106	0xbe94d93c	-0.29071987
107	0xbfdecd0b	-1.7406324
108	0xbfe71046	-1.8051841
109	0xbf62ec5e	-0.8864192
110	0xbf9804bd	-1.1876446
111	0xbe17066f	-0.14748548
112	0xbff5c1ff	-1.9199828
113	0xbf8ddcd4	-1.1083016
114	0xbf26e91c	-0.65199447
115	0xbfad6e40	-1.3549271
116	0xbf964ab2	-1.1741545
117	0xc00b35b6	-2.1751533
118	0xbfcde6a0	-1.6086006
119	0xbfac8172	-1.3477004
120	0xc001aa8d	-2.0260346
121	0xc001d0ac	-2.0283613
122	0xbf45be0e	-0.77243125
123	0xbff86161	-1.9404718
124	0xc00741e2	-2.1133962
125	0xbfc47a6c	-1.534986
126	0xbf91a2c6	-1.13778
127	0x3eb20550	0.34769678
128	0xbfc328de	-1.5246847
129	0xbf0960a0	-0.53663063
130	0x3e259444	0.1616984
131	0xbf38bb8c	-0.72161174
132	0xbfa0bd7e	-1.2557828
133	0xbfd56980	-1.6672821
134	0xbfc74f1f	-1.5571021
135	0xbfdea8b3	-1.7395233
136	0xbfb6bd13	-1.4276451
137	0xbfb14516	-1.3849208
138	0xbfe710fb	-1.8052057
139	0xbf201931	-0.6253844
140	0xbfcabd36	-1.5838993
141	0xbf757f38	-0.95897245
142	0xbfb70257	-1.4297589
143	0xbf801c42	-1.0008624
144	0xbfb73e7d	-1.4315945
145	0xbf71a988	-0.9439931
146	0xbfc43d82	-1.5331271
147	0xbffae6f3	-1.960173
148	0xc02694c9	-2.6028311
149	0xbfb25cc6	-1.3934562
150	0xc016a09d	-2.353553
151	0xbfdabb6d	-1.7088448
152	0xbf84785b	-1.034923
153	0xbfc160af	-1.510763
154	0xbfbb4be9	-1.4632541
155	0xbfdd3138	-1.7280645
156	0xc00fe292	-2.2482038
157	0xbfb619df	-1.4226645
158	0xbfa3760f	-1.2770404
159	0xbfc8b5ef	-1.5680522
160	0xbfe970c8	-1.8237543
161	0xbfd25e5d	-1.6435047
162	0xbfb8873f	-1.4416274
163	0xbf3f54bf	-0.7473869
164	0xbf22fa9c	-0.6366365
165	0xbfd16eab	-1.6361898
166	0xbfefdda2	-1.8739512
167	0xbf4e3583	-0.805504
168	0xbfb2c270	-1.3965588
169	0xbfa28cae	-1.2699182
170	0xbf868bde	-1.0511434
171	0xbf978f3f	-1.184059
172	0xbfed3692	-1.8532279
173	0xbf3656e3	-0.7122633
174	0xbff33d5e	-1.9003103
175	0xbf8346ec	-1.0256019
176	0xbfd65ae2	-1.6746485
177	0xbfba741d	-1.4566685
178	0xc016b7ed	-2.354976
179	0xbfd5c438	-1.6700506
180	0xc003190d	-2.048404
181	0xbfa76e8a	-1.3080609
182	0xbf9064a2	-1.1280711
183	0xbfb3c1df	-1.404354
184	0xbfca00e5	-1.5781523
185	0xbfbef5e0	-1.4918785
186	0xbf0fd4a4	-0.5618384
187	0xbfb3f5fb	-1.4059442
188	0xbf9a80c5	-1.2070547
189	0xbfbaf511	-1.4606038
190	0xbfc16bc4	-1.5111012
191	0xbec94cd2	-0.39316422
192	0xbf9184e1	-1.1368676
193	0xbfb58b8f	-1.4183215
194	0xbf579df8	-0.84225416
195	0xbfe9292d	-1.8215691
196	0xbfcf473f	-1.6193618
197	0xbfca344b	-1.5797209
198	0xbfc041be	-1.5020063
199	0xbfccd9d3	-1.6003975
200	0xbff89455	-1.9420267
201	0x3e4f81e3	0.20264392
202	0xbf587a6b	-0.84561795
203	0xbf811914	-1.0085778
204	0xc020f40c	-2.5148954
205	0xbfb52a19	-1.4153472
206	0xbf801dbc	-1.0009074
207	0xbf999c72	-1.2000868
208	0xbf5f730f	-0.8728494
209	0xbe4c5b30	-0.1995666
210	0xbffc2da3	-1.9701427
211	0xbfa04236	-1.2520206
212	0xbf8f3c50	-1.1190281
213	0xbfbc9812	-1.4733908
214	0xbfe70a57	-1.805003
215	0xbf27be54	-0.6552479
216	0x3f1746d3	0.59092444
217	0x3f8c19ae	1.0945337
218	0xbfce4353	-1.6114296
219	0xbf92346f	-1.1422251
220	0xbfd0a3f5	-1.6300036
221	0xbf6d18f9	-0.9261623
222	0xc0098e51	-2.1493113
223	0xbf8a2232	-1.0791686
224	0xbf1ebe6e	-0.6200932
225	0xbfad182a	-1.3522999
226	0xbfa6e637	-1.3039006
227	0xbfe2d918	-1.7722502
228	0xc0083e4e	-2.1288028
229	0xbfa549f2	-1.2913191
230	0xbfccd68a	-1.6002972
231	0xbfb9044e	-1.4454439
232	0xbf72ba90	-0.9481592
233	0xbfa327b5	-1.2746493
234	0xbf5444cb	-0.8291747
235	0xbfd14703	-1.6349796
236	0xbf8f0530	-1.1173458
237	0xbffca507	-1.9737862
238	0xbff1423a	-1.8848336
239	0xbf361fe0	-0.7114239
240	0xbfe8d889	-1.8191081
241	0xc0158e1d	-2.336799
242	0xbfa8d902	-1.3191226
243	0xbfaff59a	-1.3746827
244	0xbfbee7f8	-1.4914541
245	0xbfb2225b	-1.3916734
246	0xbf87b2c3	-1.0601429
247	0xbf945e27	-1.1591233
248	0xbf1785ff	-0.59188837
249	0xbf85e453	-1.0460304
250	0xbfbc81e9	-1.4727145
251	0xbfca2605	-1.5792853
252	0xbfba4627	-1.4552659
253	0xbfec4794	-1.8459344
254	0xc005029f	-2.078285
255	0xbfb0c92e	-1.3811395

fc2.weight f4 [300, 404]
0	0xbc131eb5	-0.008979489
1	0xbdace942	-0.08442928
2	0xbd8dbb72	-0.06920518
3	0xbd27cce8	-0.0409669
4	0xbcbf240e	-0.023332622
5	0xbd5835d8	-0.052785724
6	0xbc7c59e0	-0.015402287
7	0xbd8b6ec7	-0.068082385
8	0x3d1bba2c	0.038019344
9	0xbe10e6c8	-0.14150536
10	0xbd7fc066	-0.062439345
11	0xbe1073c6	-0.14106664
12	0x3d4d93d1	0.050189797
13	0xbd56e95c	-0.052468643
14	0xbd482a15	-0.048868258
15	0xbd421feb	-0.04739372
16	0x3da81790	0.08207619
17	0xbbd97fbe	-0.0066375425
18	0x3c826086	0.015915167
19	0x3cf17ce3	0.029478496
20	0x3d13c539	0.036076758
21	0xbc75997c	-0.014990207
22	0xbdf7552b	-0.120767914
23	0xbd8e8f72	-0.06960954
24	0x3cac730c	0.021050952
25	0xbde9c72b	-0.114149414
26	0x3b26bcc0	0.0025442094
27	0xbdbdbb70	-0.092642665
28	0xbd6dade4	-0.058027163
29	0x3c9c3b8f	0.019071369
30	0x3c32bd9b	0.010909463
31	0xbd2d06b1	-0.04224271
32	0xbce6161c	-0.028086714
33	0xbc742ab4	-0.014902759
34	0x3d2de2c4	0.04245259
35	0xbca168e0	-0.019703329
36	0xbd4ce951	-0.050027195
37	0xbc1fc730	-0.00975208
38	0xbddacb83	-0.10683348
39	0xbd042857	-0.032265034
40	0x3c88b83b	0.01668941
41	0xbe0dd979	-0.1385249
42	0xbe13ecb0	-0.14445758
43	0xbce62377	-0.028093083
44	0xbc9b9356	-0.018991154
45	0xbc8fb42c	-0.017541967
46	0xbcab1e4e	-0.020888474
47	0xbdbcde59	-0.09222097
48	0x3c21b57f	0.009869932
49	0xbbf6de25	-0.007533806
50	0xbdb64e93	-0.089017056
51	0xbd08bc56	-0.033382736
52	0xbd9832d1	-0.074315675
53	0xbd579fed	-0.05264275
54	0x3d0d997c	0.034570202
55	0xbe27ace6	-0.1637455
56	0x3c9bf90b	0.019039651
57	0xbdfc4bf1	-0.12319172
58	0xbddfaac2	-0.10921241
59	0xbdb2197e	-0.086962685
60	0xbd216add	-0.039408553
61	0xbe10235d	-0.1407599
62	0xbdbaed15	-0.09127251
63	0xbe11b5aa	-0.14229456
64	0x3dcc2914	0.099687725
65	0x3c8bdfb0	0.017074436
66	0xbd80f5ad	-0.06296859
67	0xbceaeed8	-0.028678343
68	0x3d22fc4b	0.039791387
69	0xbdb9f7ba	-0.09080453
70	0x3b5aeaae	0.003340404
71	0xbd8a92bd	-0.06766269
72	0xbd19d68b	-0.03755812
73	0xbdb41e80	-0.0879488
74	0xbd07dcec	-0.033169672
75	0xbccdabc7	-0.025106324
76	0xbde10d22	-0.10988833
77	0xbe01450b	-0.12623994
78	0xbdbc868d	-0.09205351
79	0xbd0cc24f	-0.034364995
80	0xbdb835df	-0.0899465
81	0xbd081f1c	-0.033232793
82	0xbd41c4c8	-0.047306806
83	0xbdc7e966	-0.09761314
84	0xbe05dee5	-0.13073309
85	0xbd03111e	-0.031998746
86	0x3b27f680	0.0025629103
87	0xbddd5ed9	-0.108091064
88	0x3ae5426a	0.0017491106
89	0xbd71724d	-0.058946896
90	0xbd0cbcb5	-0.034359653
91	0xbd092333	-0.033480834
92	0x3bba0cb4	0.005677784
93	0xbdf4a281	-0.11945058
94	0xbdd1eabd	-0.10249851
95	0xbc9147e0	-0.017734468
96	0xbdf329c8	-0.118732035
97	0xbd9aa813	-0.07551589
98	0xbd33df1e	-0.043913953
99	0xbc604403	-0.01368809
100	0xbcd964a6	-0.02653725
101	0xbdb39fa8	-0.087706864
102	0xbdeb5ba6	-0.1149209
103	0x3d0b2b29	0.033976708
104	0xbd071db6	-0.03298732
105	0xbdb7f52f	-0.08982312
106	0xbd845721	-0.06461931
107	0xbde7ca21	-0.1131785
108	0xbd113323	-0.03544916
109	0xbd522f8f	-0.051314887
110	0x3d495a1a	0.049158193
111	0xbd9e265d	-0.07722161
112	0xbd0b8dc5	-0.03407075
113	0xbdfa96de	-0.12235807
114	0xbe134001	-0.14379884
115	0xbd87377c	-0.0660238
116	0xbdb1b3a8	-0.08676845
117	0xbd9c817a	-0.07641883
118	0xbd9eda36	-0.07756464
119	0xbdad8529	-0.08472664
120	0xbd0b6cfa	-0.034039475
121	0xbd49c66e	-0.049261503
122	0x3bbcce37	0.0057618874
123	0x3c44897b	0.0119956685
124	0xbbd1cdae	-0.0064026928
125	0xbbdcf7ba	-0.0067433985
126	0xbd3e9908	-0.04653266
127	0x3b91af15	0.00444592
128	0xbca3d366	-0.019998264
129	0xbe0dfce5	-0.13866003
130	0xbd23659f	-0.039891835
131	0xbd0bab99	-0.034099195
132	0x3d63d740	0.0556252
133	0xbdd915fa	-0.10599895
134	0x3da64664	0.08118895
135	0xbca62359	-0.020280527
136	0xbd7f8702	-0.062384613
137	0x3d26d856	0.040733658
138	0xbd32a59a	-0.04361496
139	0xbda0981b	-0.07841512
140	0xbdced040	-0.10098314
141	0x3d2d618c	0.042329356
142	0xbd5c2e74	-0.05375524
143	0xbddc2a66	-0.10750274
144	0x3b15c5f4	0.0022853585
145	0xbe32107a	-0.17389098
146	0xbcb92bc2	-0.022603873
147	0xbc6a7bc0	-0.014311731
148	0x3c886b74	0.0166528
149	0xbd824149	-0.063601084
150	0xbc3a3067	-0.011364079
151	0xbcd3dc0e	-0.025861766
152	0xbd247725	-0.040152688
153	0xbd931da4	-0.07183388
154	0x3c584166	0.013199186
155	0xbd0622f8	-0.032748193
156	0xbd5f477a	-0.054511525
157	0xbe21d3cd	-0.15803452
158	0xbcd9803c	-0.026550405
159	0x3cd87660	0.026423633
160	0x3c0a26db	0.008432115
161	0x3d8101ce	0.06299172
162	0xbd88e0a2	-0.0668347
163	0xbdb5f14d	-0.08883915
164	0xbdb2ebc1	-0.08736373
165	0x3cac9d40	0.021071076
166	0xbc5ddc97	-0.013541362
167	0xbdca63bf	-0.09882306
168	0xbca3ac63	-0.019979661
169	0xbc29d43e	-0.010365544
170	0xbd0c9bea	-0.03432838
171	0xbd8b1bfc	-0.06792447
172	0xbd56bf4a	-0.05242852
173	0xbd235500	-0.039875984
174	0xbc115ecd	-0.0088727
175	0xbcdc6b79	-0.026906716
176	0x3d78c84c	0.060737893
177	0x3d84a7b7	0.064773016
178	0xbd5dffb6	-0.054198943
179	0x3d26c664	0.040716544
180	0xbc7ce851	-0.015436248
181	0x3d0789c3	0.033090364
182	0xbcc72a51	-0.02431217
183	0xbd6e0ad9	-0.058115814
184	0x3db5b5c4	0.0887256
185	0xba1d3fc8	-0.0005998579
186	0x3bfadb27	0.0076555195
187	0xbddb975b	-0.10722228
188	0x3caa7b09	0.02081062
189	0x3c8f4fd6	0.017494123
190	0xbe1096fc	-0.14120096
191	0x3c187293	0.00930466
192	0xbd2e7a10	-0.042596877
193	0xbd353b07	-0.044245746
194	0x3ce11fac	0.027480923
195	0x3dd22aac	0.10262045
196	0x3bd7938b	0.006578868
197	0xbd955dd5	-0.07293288
198	0xbd8cea4b	-0.06880625
199	0x3d242501	0.040074352
200	0x3e06a567	0.13149033
201	0xbcb9871c	-0.022647433
202	0xbd56dafd	-0.052454937
203	0x3cb9d694	0.022685327
204	0xbd3f4198	-0.046693414
205	0xbd55176d	-0.052024294
206	0xbe080d9b	-0.1328644
207	0xbbbb1950	-0.0057098046
208	0xbe331b71	-0.17490937
209	0x3c3d37e2	0.011548968
210	0x3dda2225	0.10651044
211	0xbdce3801	-0.10069276
212	0x3d0f9662	0.035055526
213	0xbd9f4666	-0.07777099
214	0x3bda4bd9	0.006661874
215	0xbe11f7a3	-0.14254622
216	0xbcd048a3	-0.02542526
217	0xbc2a21ef	-0.010384067
218	0xbda85a51	-0.082203515
219	0xbd0cbe73	-0.034361314
220	0xbd07863b	-0.033086997
221	0xbdae73bf	-0.085181706
222	0xbd7f3b61	-0.062312488
223	0xbd1748c7	-0.03693464
224	0xbd06b865	-0.032890696
225	0xbcd50697	-0.026004119
226	0x3c76b9e0	0.0150589645
227	0xbda09f8d	-0.07842932
228	0x3b99f020	0.0046978146
229	0xbc7627f5	-0.015024175
230	0xbd195eb2	-0.037443824
231	0xbdb51342	-0.08841564
232	0xbb18960c	-0.0023282794
233	0xbd516b6b	-0.051127832
234	0xbe1cf083	-0.15326123
235	0x3bf02765	0.007328915
236	0xbd2aae5f	-0.0416702
237	0xbd99761f	-0.07493233
238	0x3c19993d	0.009374914
239	0xbd8efab4	-0.069814116
240	0xbccb60b7	-0.02482639
241	0xbce54711	-0.027987989
242	0x3c078527	0.008271492
243	0xbdbb357f	-0.09141063
244	0xbd43898f	-0.047738608
245	0xbbfd1b15	-0.0077241757
246	0xbdb8a292	-0.09015383
247	0x3d98512d	0.07437358
248	0xbcd3aa37	-0.025838
249	0xbe15a041	-0.14611913
250	0x3c1ecaa0	0.009691864
251	0xbd16b521	-0.03679383
252	0xbdd2cde1	-0.102931745
253	0xbdeacb76	-0.11464588
254	0xbc94ae8c	-0.018149637
255	0xbdae0879	-0.0849771

fc2.bias f4 [300]
0	0xbe08d8fb	-0.13364021
1	0xbbe466e0	-0.0069702715
2	0xbdeb9390	-0.11502755
3	0xbdc1746c	-0.09446034
4	0xbca7d96c	-0.020489417
5	0xbd8c6bee	-0.068565235
6	0xbcd73b30	-0.02627334
7	0xbe07c57d	-0.1325893
8	0xbce8e930	-0.028431505
9	0xbdb08cd2	-0.08620609
10	0xbc2c0a1c	-0.010500457
11	0xbcdc4ca8	-0.026892021
12	0xbdee5349	-0.11636979
13	0xbd3364bb	-0.043797236
14	0x3f88a113	1.0674156
15	0xbe0bd8b8	-0.1365689
16	0xbda213f4	-0.07913962
17	0xbe1c74cf	-0.15278934
18	0xbda6d127	-0.081453614
19	0xbd8fb304	-0.070165664
20	0xbc2345e8	-0.009965397
21	0xbf82de07	-1.0224007
22	0xbdaad453	-0.08341279
23	0xbdd37779	-0.10325522
24	0xbdbaf43f	-0.091286175
25	0x4008a710	2.1351967
26	0xbde8dacf	-0.113698594
27	0xbd5a40a3	-0.0532843
28	0xbccc80b2	-0.02496371
29	0xbd832546	-0.06403594
30	0x3fe29299	1.7700988
31	0xbddcae35	-0.10775415
32	0xbde754a9	-0.112954445
33	0xbdde7aae	-0.10863243
34	0xbd658ae6	-0.056040667
35	0xbdabd07e	-0.08389376
36	0xbcb9ec34	-0.022695638
37	0xbdefaabf	-0.11702489
38	0xbde0d0ba	-0.109773114
39	0xbdb6cde6	-0.08925991
40	0xbdf74321	-0.12073351
41	0xbe0866c1	-0.13320448
42	0xbd8022fc	-0.06256673
43	0x3f0b1711	0.5433207
44	0xbd7c1fc1	-0.06155372
45	0xbd9a0594	-0.07520595
46	0xbd9873d3	-0.07443967
47	0xbd48cb50	-0.04902202
48	0xbe791f4c	-0.24328345
49	0xbd95b250	-0.07309401
50	0xbd48493f	-0.048897978
51	0xbda5a64b	-0.080883585
52	0xbcf31b62	-0.029676143
53	0xbd004f4c	-0.031325623
54	0xbdfe5346	-0.12418227
55	0xbc9fc65a	-0.019503761
56	0xbcc55639	-0.024088966
57	0xbd74d412	-0.05977256
58	0x3e4c8968	0.19974291
59	0x3b91e15c	0.0044519138
60	0xbe157bac	-0.14597958
61	0xbe949fde	-0.2902822
62	0xbe00b12e	-0.12567589
63	0xbcbebd3c	-0.023283593
64	0xbd2e8dfd	-0.04261588
65	0xbc1a3b3f	-0.009413539
66	0xbd5ca00b	-0.053863566
67	0xbe04b7c4	-0.12960726
68	0xbdce6535	-0.100778975
69	0xbd41dfc0	-0.047332525
70	0xbda25fcb	-0.07928427
71	0xbd643123	-0.055710923
72	0xbdf70892	-0.120621815
73	0xbbde1dc9	-0.006778453
74	0xbdedf393	-0.11618724
75	0xbda4ce48	-0.080471575
76	0xbdcf7d59	-0.1013133
77	0xbe240d6f	-0.1602075
78	0x3f633da4	0.8876593
79	0xbcf996a6	-0.030467343
80	0x3ed15168	0.4088242
81	0xbd1945e0	-0.037420154
82	0xbd4500c9	-0.048096452
83	0xbd94e63d	-0.07270477
84	0xbdec0944	-0.11525205
85	0xbdee709d	-0.11642573
86	0xbd99e590	-0.07514489
87	0xbd2f6e7f	-0.042829987
88	0xbd88410f	-0.06653034
89	0xbe024208	-0.12720501
90	0xbdb1e327	-0.08685904
91	0xbd7309d4	-0.059335545
92	0xbd4c5484	-0.049885288
93	0xbdde0cb0	-0.10842264
94	0xbd3941a6	-0.045228623
95	0xbdd9d94a	-0.10637148
96	0xbd44e57e	-0.048070423
97	0xbda1a388	-0.07892519
98	0xbf8b2e9a	-1.0873597
99	0xbdc0ec30	-0.09420049
100	0xbd961903	-0.07328989
101	0xbe0531d2	-0.13007286
102	0xbd1b4f90	-0.037917674
103	0xbcf53dc1	-0.029936673
104	0xbd94bfcd	-0.072631456
105	0xbf799fa8	-0.9750924
106	0xbf9e9187	-1.2388161
107	0xbdce763f	-0.100811474
108	0xbd8aa647	-0.06769996
109	0xbd1c9a39	-0.038233016
110	0x3c1989f9	0.009371274
111	0xbd08bdb2	-0.033384033
112	0xbe041a6e	-0.12900707
113	0xbdf88603	-0.12134936
114	0xbf5b9c8a	-0.85785735
115	0xbda3978b	-0.07987889
116	0xbe1ffed4	-0.15624553
117	0xbd43699d	-0.047708143
118	0x3fc91dda	1.5712235
119	0xbcc6d2fa	-0.024270523
120	0xbdff368b	-0.12461575
121	0xbd877ba3	-0.06615379
122	0x3c85a8b2	0.016315792
123	0xbd6169ec	-0.055032656
124	0xbdc95e90	-0.098324895
125	0xbd0dbb46	-0.034602426
126	0xbd9c122d	-0.07620654
127	0xbdab9a8f	-0.08379089
128	0xbd34e292	-0.044161387
129	0xbe095754	-0.1341222
130	0xbd846199	-0.06463928
131	0xbcc800d7	-0.024414463
132	0xbd2eaf32	-0.042647548
133	0xbd2ef873	-0.04271741
134	0xbde7b6b2	-0.11314143
135	0xbd618560	-0.055058837
136	0xbdfd74e1	-0.123758085
137	0xbde13cc7	-0.109979205
138	0xbe5bf7ef	-0.21481298
139	0xbde6eee4	-0.112760335
140	0xbd7871d5	-0.060655434
141	0xbd82a72f	-0.06379544
142	0xbe2d931b	-0.16950648
143	0xbd719890	-0.058983386
144	0xbd310e22	-0.04322637
145	0xbde7a3fd	-0.11310575
146	0xbd885016	-0.066559
147	0xbdf194ed	-0.117959835
148	0xbde96cac	-0.11397681
149	0xbd636db8	-0.055524558
150	0xbe11daca	-0.14243618
151	0xbd2789c2	-0.04090286
152	0xbf8b2d4e	-1.0873201
153	0xbe143345	-0.14472683
154	0xbdac1cdb	-0.08403941
155	0xbe24b128	-0.16083205
156	0xbddf518a	-0.10904224
157	0xbcdee9a2	-0.027211014
158	0xbde39f8c	-0.111144155
159	0xbf61eddb	-0.88253564
160	0xbdf67c29	-0.120354004
161	0xbde9a991	-0.11409295
162	0xbd2992ae	-0.04139965
163	0xbdeb37b0	-0.11485231
164	0xbded7afc	-0.11595723
165	0x3f65ab39	0.8971439
166	0xbdcb02a4	-0.09912613
167	0xbd5ccf5c	-0.05390869
168	0xbdd4b3a5	-0.10385827
169	0xbdbf057a	-0.093272164
170	0xbd0e6393	-0.03476293
171	0xbd6b7c5f	-0.057491656
172	0xbd36c9a8	-0.044625908
173	0xbe6f2d7c	-0.23357195
174	0xbde741fb	-0.11291882
175	0xbd833863	-0.06407239
176	0xbdd43aa5	-0.10362748
177	0xbd20f53f	-0.039296385
178	0xbcf72307	-0.03016807
179	0xbdccae5a	-0.099941924
180	0xbf8ccfcc	-1.1000915
181	0xbdb0158a	-0.08597858
182	0xbe71dd43	-0.23619561
183	0xbdcfb6d0	-0.101422906
184	0x3f9a260c	1.2042861
185	0xbc829032	-0.015937898
186	0xbd3fb8e2	-0.046807177
187	0xbe0a8d52	-0.13530472
188	0xbddc431e	-0.10754989
189	0xbd8ceeca	-0.06881483
190	0xbd1cf04b	-0.0383151
191	0xbd3deb6a	-0.046367086
192	0xbd36ae91	-0.044600073
193	0xbd17fa3a	-0.03710387
194	0xbd9b563d	-0.07584808
195	0xbd16ecba	-0.036846854
196	0xbe06ea9d	-0.13175435
197	0xbd859647	-0.06522804
198	0xbdc6eba9	-0.09712917
199	0xbd552ba3	-0.05204357
200	0xbd7e9572	-0.06215424
201	0x3f6a688f	0.91565794
202	0xbd7e198c	-0.062036082
203	0xbd829dd2	-0.06377758
204	0xbdf6de75	-0.12054149
205	0xbdad1db1	-0.08452929
206	0xbe159f31	-0.14611508
207	0xbd8f7d0a	-0.07006271
208	0xbccc5086	-0.02494074
209	0xbd751fe4	-0.059844866
210	0xbded476e	-0.1158589
211	0xbcd34021	-0.025787415
212	0xbd829594	-0.06376186
213	0xbd900870	-0.07032859
214	0xbde86f18	-0.113493145
215	0xbde292b2	-0.11063136
216	0xbda49486	-0.08036141
217	0xbe13875e	-0.14407107
218	0xbdd47765	-0.10374335
219	0xbc8cdc8b	-0.017195007
220	0xbd92b8e8	-0.07164174
221	0xbddccb5e	-0.10780977
222	0xbe0ecec4	-0.13946062
223	0xbdc65f7a	-0.096861795
224	0x3f875430	1.0572567
225	0xbd50ff30	-0.051024616
226	0xbdbe8d2f	-0.093042724
227	0xbd8858c9	-0.066575594
228	0xbdb6b4d6	-0.089212105
229	0xbd914c2e	-0.07094608
230	0xbdbe7684	-0.09299949
231	0xbd62b508	-0.055348426
232	0xbc0028fc	-0.007822271
233	0xbd55eacc	-0.052225873
234	0x3c17d81a	0.009267831
235	0x3f5a80ea	0.8535296
236	0xbdef7934	-0.116930395
237	0xbcfa3025	-0.030540535
238	0xbdaad20c	-0.083408445
239	0xbdda367a	-0.10654922
240	0xbdf1d10e	-0.11807452
241	0xbd3cdf9a	-0.04611168
242	0xbd1bb963	-0.038018595
243	0xbc57ecdc	-0.01317903
244	0xbdd0f3d9	-0.1020276
245	0xbd878057	-0.06616276
246	0x3f988065	1.1914183
247	0xbd17d650	-0.03706962
248	0xbd4e9890	-0.050438464
249	0xbd6b3adb	-0.057429176
250	0xbd897e0f	-0.06713497
251	0xbdb01b3f	-0.08598947
252	0xbd926dc4	-0.071498424
253	0xbd20488e	-0.039131694
254	0xbd6fdfec	-0.058563158
255	0xbdce0768	-0.100600064

fc3.weight f4 [1, 300]
0	0x3a33f8e3	0.0006865395
1	0xbb32c1be	-0.0027276124
2	0x3cd94149	0.026520388
3	0xbcdd38fc	-0.027004711
4	0xbc96be79	-0.018401371
5	0x3c950df1	0.018195124
6	0x3be2653c	0.0069090407
7	0x3a6044c6	0.000855517
8	0x3cb2b191	0.021813186
9	0xbcdc3710	-0.026881725
10	0x3c96744f	0.018366007
11	0xbc7f824e	-0.015595032
12	0x3c88d911	0.016705068
13	0x3bf81c68	0.0075717457
14	0x3cbeff1f	0.02331501
15	0xbaa760b9	-0.0012769914
16	0x3bd1aea2	0.0063989917
17	0xbc8b60a9	-0.017013865
18	0xbcb5bb68	-0.022184089
19	0x3b7e2220	0.0038777664
20	0xbcbfd013	-0.023414647
21	0xbc09ef3c	-0.008418854
22	0x396980c6	0.00022268583
23	0xbc171bbe	-0.009222923
24	0xbc5ca8cd	-0.01346798
25	0x3d0b1952	0.033959694
26	0xbcb9cfa9	-0.022682028
27	0x3c383031	0.0112419585
28	0x3caf5975	0.021404961
29	0x3b8cbae6	0.004294741
30	0x3cb3472b	0.021884521
31	0xbb798e7c	-0.0038079312
32	0xbc95918f	-0.018257884
33	0x3b098998	0.0020986553
34	0xbb731840	-0.0037093312
35	0x3a955585	0.0011393285
36	0x3c21df6d	0.009879929
37	0xbc1c6f21	-0.00954798
38	0x3c933a9d	0.017972285
39	0xbc8a0bd0	-0.016851336
40	0x3c9902cd	0.018678093
41	0x3c3ab801	0.011396409
42	0x3b1f5f51	0.0024318288
43	0x3ca273bc	0.019830577
44	0x3bf3c788	0.0074395575
45	0x3c8114a1	0.015756907
46	0xbac81c36	-0.0015267197
47	0xbc910809	-0.017704027
48	0xbce17ca8	-0.027525261
49	0xbca83c8b	-0.020536682
50	0xbcdeb906	-0.027187835
51	0xbcaa7a1e	-0.020810183
52	0x3be57e29	0.007003565
53	0xbce1a64f	-0.027545122
54	0x3cbe973d	0.023265475
55	0xbbe17ed0	-0.0068815723
56	0x3cddd731	0.02708015
57	0xbc86be4d	-0.016448164
58	0x3caa1f6c	0.020766936
59	0xbc00b54b	-0.007855724
60	0x3cbec17c	0.02328562
61	0xbcd74d22	-0.026281897
62	0xbce968cd	-0.028492356
63	0x3cdf5ad0	0.027264982
64	0xbbc1d848	-0.0059156753
65	0xbcd09def	-0.025465934
66	0x39ca12ad	0.00038542357
67	0x3c9ced25	0.019156048
68	0xbc488d69	-0.012240746
69	0xb9aa33dd	-0.00032463568
70	0xbd0d203a	-0.03445456
71	0xbc3c4548	-0.011491127
72	0x3c5b0195	0.013367076
73	0xbba7cde7	-0.005120981
74	0xba2389bd	-0.0006238481
75	0x3a8d4ff1	0.0010781271
76	0x3c1abf98	0.009445094
77	0xbc83b0e8	-0.016075566
78	0x3c82d698	0.015971467
79	0xbc5c9074	-0.013462175
80	0x3ce4c24d	0.027924681
81	0xbc95fbcb	-0.01830854
82	0x3c3d05c4	0.011537019
83	0xbc8d1de0	-0.01722616
84	0xbcd77425	-0.0263005
85	0xbc625adc	-0.013815608
86	0x3c3c8dad	0.0115083875
87	0x3c483d3a	0.012221629
88	0x3cb111ce	0.021614935
89	0x3c90eaa1	0.017690005
90	0xba5bad00	-0.0008379966
91	0xb902fdcd	-0.00012492314
92	0xbb3eebac	-0.002913217
93	0xbc6ca7dc	-0.014444318
94	0xbccfaa08	-0.025349632
95	0x3bc62453	0.0060468107
96	0xbca01299	-0.019540118
97	0xbb2062d6	-0.0024472973
98	0xbcd782cd	-0.026307488
99	0xbab71ee8	-0.0013971003
100	0x3cc11112	0.02356771
101	0xbca5cd08	-0.020239368
102	0x3c778cf1	0.015109287
103	0x3c28fc3d	0.010314045
104	0xbcdeb07c	-0.027183764
105	0xbd207de2	-0.03918255
106	0xbc15af2a	-0.009136001
107	0x3c54b32f	0.012982174
108	0x3cc93a47	0.024563922
109	0x3b883cb7	0.0041576284
110	0xbca27c2b	-0.019834599
111	0x3c928c67	0.017889215
112	0xbc35c0b5	-0.011093308
113	0x3c263946	0.010145491
114	0xbc2bd960	-0.010488838
115	0xbce0bbb4	-0.027433254
116	0xbbfb0b74	-0.0076612774
117	0x3c53bb40	0.012923062
118	0x3d0950f5	0.033524472
119	0xbcbef928	-0.023312166
120	0x3c14dca6	0.00908581
121	0xbc1dd660	-0.0096336305
122	0xbb9fc0fc	-0.0048753005
123	0x3cca5220	0.024697363
124	0xba067868	-0.0005129636
125	0xbb4c1a18	-0.0031143483
126	0x3bd98ee7	0.0066393497
127	0xbc98c106	-0.018646728
128	0x3c8dd92e	0.017315473
129	0xbcdf141a	-0.027231265
130	0x3bb64fc6	0.005563709
131	0xbca038ae	-0.019558277
132	0xbcb39421	-0.02192122
133	0xbc8be8fb	-0.017078867
134	0xbc403ae5	-0.011732792
135	0xbc7c10b9	-0.015384846
136	0x3c40a02c	0.011756938
137	0xbce89339	-0.028390514
138	0xbce51bb3	-0.02796731
139	0x3c8c20fe	0.017105576
140	0xbc11dc14	-0.008902568
141	0xbc33d266	-0.010975456
142	0xbc1300e0	-0.008972377
143	0x3cc45fd5	0.023971478
144	0xbcbf94bb	-0.02338635
145	0x3ca231d0	0.019799143
146	0xbc792d74	-0.015208591
147	0xbc133918	-0.00898578
148	0xbbae5734	-0.005320454
149	0xbb99c66f	-0.0046928446
150	0x3c71869f	0.014741569
151	0x3b30ebfe	0.002699613
152	0xbc4c6b1f	-0.0124767115
153	0xbbe71efc	-0.007053254
154	0x3c2c1e1f	0.010505228
155	0xbceaae26	-0.028647494
156	0x3be82372	0.0070843035
157	0xbcd54bf0	-0.026037186
158	0x3cc75f18	0.024337336
159	0xbc89380d	-0.01675036
160	0xbc8e7bf1	-0.017393084
161	0xbbd9c7ad	-0.0066461177
162	0xbb253132	-0.0025206325
163	0x3bebbbc3	0.007194014
164	0xbc9e1c42	-0.019300584
165	0x3cb46c05	0.022024164
166	0x3b3fa454	0.0029242234
167	0xbbe75b3e	-0.0070604375
168	0xbb42566c	-0.0029653562
169	0x3cc7b96f	0.024380414
170	0x3b63fd8d	0.003478858
171	0xbbb16bef	-0.005414478
172	0xbcccac28	-0.024984434
173	0x3c67d0e5	0.014148925
174	0xbcf2d066	-0.029640388
175	0xbb1f9c34	-0.002435458
176	0xbbee1014	-0.0072651003
177	0x3c66cb49	0.014086553
178	0xbb48951a	-0.003060645
179	0xbbf70d59	-0.007539433
180	0xbc87731c	-0.01653438
181	0xbc04e7d3	-0.008111912
182	0x3b003033	0.001955998
183	0xbc6098e7	-0.01370833
184	0x3d05e783	0.03269149
185	0xbcab7427	-0.02092941
186	0x3cb1c0a9	0.021698313
187	0x3c700f08	0.014652021
188	0xbbc72f56	-0.006078641
189	0x3bc04556	0.0058676405
190	0xbcf1ccf1	-0.029516669
191	0x3cc93c21	0.024564805
192	0xbca9a169	-0.02070685
193	0xbcd2f55f	-0.025751768
194	0x3ca2b8a1	0.019863429
195	0x3c63e1ff	0.013908862
196	0xbcb32872	-0.021869872
197	0x3b402909	0.0029321334
198	0x3bff2aea	0.007787098
199	0x3cc4e248	0.02403368
200	0x3c81ab09	0.015828626
201	0x3c944ead	0.018103922
202	0x3cb66b61	0.022268
203	0x3aaa3720	0.0012986399
204	0xbc9475e8	-0.018122628
205	0x3b66169c	0.003510869
206	0x3cd780da	0.026306558
207	0xbbe4d5fa	-0.006983516
208	0x3b4bc819	0.003109461
209	0x3c36009a	0.011108542
210	0x3994c378	0.00028374395
211	0xbb736014	-0.0037136124
212	0x3cf4c2e2	0.029878084
213	0xbcb107e8	-0.021610215
214	0xbc2287c1	-0.009920062
215	0xbcad3c43	-0.0211469
216	0x3c07dc1c	0.008292224
217	0x3cebd448	0.028787747
218	0x3cd336b1	0.025782915
219	0x3c65d11c	0.014026906
220	0x3bc95e3d	0.0061452673
221	0xbccffc0d	-0.025388742
222	0xbd26efd1	-0.04075605
223	0xbc913ebc	-0.01773011
224	0x3cf0f414	0.02941326
225	0xba55c386	-0.00081544404
226	0xbb524112	-0.0032082242
227	0x3ce2dd85	0.02769352
228	0xbcdc003a	-0.026855577
229	0xbcf8b871	-0.030361386
230	0x3ce4ac35	0.027914146
231	0x3cf643a2	0.030061547
232	0x3cc3d24a	0.023903985
233	0xbbd0706f	-0.0063610594
234	0x3c14206b	0.009040932
235	0x3caf2ec5	0.021384606
236	0xbca3953b	-0.01996862
237	0xbbae0a36	-0.005311276
238	0x3b841703	0.0040310635
239	0x3bc7f047	0.0061016413
240	0xbc0decdb	-0.008662428
241	0x3ca5d10f	0.020241288
242	0xbcca72a6	-0.024712872
243	0x3b0c6778	0.0021423977
244	0x3c443612	0.011975782
245	0xbc69db5b	-0.01427349
246	0x3ca8e520	0.020617068
247	0xbcf63dce	-0.030058768
248	0xbc4b8edb	-0.012424196
249	0x39bf6a89	0.00036509734
250	0xbc72d1cf	-0.01482053
251	0x3caba7bc	0.020954005
252	0x3bb2c66c	0.0054557826
253	0xbc339dd7	-0.010962925
254	0xbc07a480	-0.008278966
255	0x3ce0a4ee	0.027422395
