checkpoints/checkpoint_actor_700.pth (torch, 542655 bytes, 6 tensors)

fc1.weight f4 [400, 33]
000000 fd ba 10 bd dc f2 d3 3d 87 ac 91 bd 78 e6 c8 3c
       -0.035334576 0.10349056 -0.07112985 0.024523959
000010 db be 1a 3c 50 62 85 3c fd cc eb bd 2e 30 8a bd
       0.009444918 0.01628223 -0.11513708 -0.06747471
000020 58 63 2c be 3c f7 87 bd 2d 7d 4a bd 20 e2 3c 3b
       -0.16834772 -0.06638953 -0.049435783 0.0028821304
000030 85 0c 55 bc 72 58 e0 bc 59 7b f1 3c ac 1f 84 bb
       -0.013003473 -0.027385924 0.029477762 -0.004032096
000040 d9 65 b8 bd 3a 58 28 bd 27 6d 08 bc fa 14 19 be
       -0.09003801 -0.041099764 -0.008326805 -0.14949408
000050 e2 e6 b7 3c df 1c 90 bd 19 9d 3c bd ac 7d 06 bd
       0.02244896 -0.07036757 -0.046048257 -0.032834694
000060 a8 5e 28 bd de 0f 4a bc db b9 fd bd 3d 5d 7e bd
       -0.041105896 -0.012332885 -0.12388965 -0.062100638
000070 c4 4b 3b 3c c9 65 4b 3d d5 55 6f 3d b7 4f ea bc
       0.011431638 0.049657617 0.058431465 -0.028602464
000080 61 e8 bf 3e 56 e3 b4 bd 6b c6 7e bd ee a9 df bc
       0.3748198 -0.088324234 -0.062200945 -0.027302708
000090 38 13 38 3d bd fa 5b bc 3d b3 ac bd 1f 43 7a 3d
       0.044940203 -0.01342648 -0.084326245 0.061099168
0000a0 81 d8 c0 3d e4 7c 2c bd f1 6b 81 bd b9 11 80 3b
       0.09416295 -0.042111292 -0.06319416 0.0039083627
0000b0 70 1d 97 bd 03 cc 3d 3d 2f 42 5d 3d 2a b6 d3 3c
       -0.07378662 0.04633714 0.054018196 0.025843699
0000c0 f6 9a 13 bd 1b 5e 4b bd d2 1b 65 bd 93 70 c6 bb
       -0.036036454 -0.049650293 -0.055934735 -0.0060559004
0000d0 3f 9b f5 3d 47 40 ef bd 37 dc c0 bc 07 77 95 bc
       0.119925015 -0.11682182 -0.023542507 -0.018245233
0000e0 35 74 81 3d 9e 5c 87 bd 4d 60 99 bc f8 d0 17 3c
       0.06320993 -0.06609462 -0.018722678 0.009266131
0000f0 1b 06 b6 bc 54 92 0c 3d c3 af 28 bd 69 81 81 3d
       -0.022219708 0.034319237 -0.041183244 0.06323511
000100 ec 03 3b bc 33 7e 88 3d 1f 6d 51 bb 2d cb db 3c
       -0.011414509 0.066646956 -0.003195591 0.02683028
000110 5e a5 e9 bd b7 6f 7a bd 4d 80 dc ba 0f 56 da bd
       -0.114084944 -0.061141696 -0.0016822905 -0.106609456
000120 19 87 de 3d 33 d8 4d 3d df 93 d1 bd 33 be 25 bc
       0.108656116 0.05025501 -0.10233282 -0.010116148
000130 fa ee 0b bd fb 3a be 3c a0 03 8a bd d0 f4 a3 bd
       -0.034163453 0.023221483 -0.06738973 -0.08005679
000140 31 6c aa 3d 68 cd dc 3c fb 19 f6 3d c8 37 9f 3d
       0.08321417 0.026953414 0.12016674 0.07774311
000150 af 12 30 3c 0d 9c ef bd 33 00 01 3e 67 d1 03 bd
       0.010746642 -0.11699686 0.12597732 -0.032182124
000160 54 1b 08 3c 0e f1 d8 bd fa 94 56 3d 75 15 8c bc
       0.008307297 -0.105928525 0.05238817 -0.017100075
000170 67 d0 82 bd 8a 67 b3 bd 64 e8 af bb ec d4 0b bd
       -0.06387406 -0.08759983 -0.0053682793 -0.034138605
000180 3e e4 d5 3c 2b b2 3c 3d 64 82 cc be 65 e2 43 bd
       0.02610981 0.04606835 -0.3994323 -0.04782333
000190 5d b9 50 3d 6b c0 5f 3c 64 6e b5 bd 88 5d a1 bb
       0.050958026 0.013656716 -0.08858946 -0.00492448
0001a0 a1 86 0d 3d 56 4a 3b bb 9b 94 7b 3d 40 71 31 be
       0.03455222 -0.0028578243 0.061421018 -0.17328358
0001b0 ab 0e b4 bd 6b ac 2b bd ec 06 57 3d b3 1d 4e bd
       -0.0879186 -0.041912477 0.052496836 -0.050321292
0001c0 b3 91 91 3d e8 e7 23 3d 2a 28 bb b9 c2 9b 95 bc
       0.07107868 0.040016085 -0.00035697344 -0.018262748
0001d0 57 10 93 3c 9b ab af bd 56 64 6f bc d3 55 97 3d
       0.017952127 -0.08577653 -0.014611324 0.073894165
0001e0 ad 40 4d 3d 9d 1a 23 bb 60 84 0d 3d 1c 8b 5e bd
       0.050110508 -0.002488769 0.03455007 -0.054331884
0001f0 cd 1b 87 3d 13 97 f4 bd e2 2e c2 3b be 32 fc 3b
       0.065970995 -0.119428776 0.005925999 0.0076964786
000200 00 58 54 b8 14 5e 37 bd 80 03 08 ba 5b 63 ee be
       -5.0626695e-05 -0.044767454 -0.000518851 -0.46560177
000210 9a 49 fe 3c 11 db 4a 3d 09 35 67 3d be c5 e0 bd
       0.031040955 0.049525324 0.056447063 -0.10975216
000220 32 a2 1d 3d f5 3c 07 bd 13 3b ab 3c 21 98 50 3b
       0.03848476 -0.033017118 0.020902192 0.0031828957
000230 9b ea d4 bd 0e 8b 11 3d 2f 11 8b 3d 8b 52 8a 3d
       -0.1039631 0.035533004 0.06790387 0.06754025
000240 09 b3 58 3d 11 64 02 be c4 07 c7 bb 91 9f 1c be
       0.052905116 -0.12733485 -0.006073924 -0.15295245
000250 2d b1 d9 3d e3 b9 95 3d 65 c1 ef 3d 02 22 2a 3d
       0.10629497 0.07310846 0.11706809 0.04153634
000260 56 eb 03 be b0 9f 9a bb ac 5e 9c 3c ae fb 39 bc
       -0.12882742 -0.0047187433 0.019088112 -0.011351509
000270 b3 83 0e 3b ba 38 64 bd 92 82 ab bd a3 b5 98 bc
       0.002174598 -0.05571816 -0.08374514 -0.018641299
000280 3f 21 23 be e0 80 1b bd 58 c8 de bb 68 c4 19 bc
       -0.15930651 -0.0379647 -0.006798785 -0.009385206
000290 41 55 dc bd 74 74 2a ba 4d 5f e9 3d 3b d1 8c 3d
       -0.107584484 -0.0006502338 0.1139513 0.06875845
0002a0 cf a7 a2 bb f6 72 1d 3d c8 63 04 3b f4 35 24 bd
       -0.004963852 0.038439713 0.0020201076 -0.040090516
0002b0 46 4b ff bd b1 9c da bd e2 f0 98 3d d5 53 e1 3a
       -0.12465529 -0.10674418 0.0746782 0.0017191122
0002c0 2a 29 3b 3d 73 13 53 bd 87 f0 c2 bd e3 55 05 3e
       0.045693554 -0.05153222 -0.09518533 0.13021044
0002d0 0f 10 da bd 33 ee 23 bd 11 a4 0f 3e fa 37 3e bc
       -0.10647594 -0.040022086 0.1402743 -0.011610026
0002e0 e3 96 83 3c 5e 06 48 3d 85 7d 7d 3d e6 bc ac 3d
       0.01606316 0.048834197 0.061887283 0.08434467
0002f0 b3 a3 2c bd ee 61 33 3e 0a ee 1e bd b7 5e 84 3d
       -0.042148303 0.17517826 -0.03880123 0.06463378
000300 61 5c 44 3d bc 50 ba 3d 89 27 40 3d 2f 73 10 bb
       0.047939662 0.0909743 0.046912704 -0.002204131
000310 c0 3e 71 3a 89 9e 93 bd 09 21 bb bc e5 d7 0a 3d
       0.0009202771 -0.072079726 -0.0228429 0.0338973
000320 b2 b7 78 3c 8b 0f 9b 3d df 44 59 bd f2 91 24 3d
       0.015180515 0.07571324 -0.053044196 0.040178247
000330 1c db 07 bb 17 aa f3 bc 5b 9b 03 bc 8d 0a 1a 3d
       -0.0020729965 -0.029744191 -0.008032645 0.03760772
000340 51 b7 91 3d 9c b9 34 3a ee a3 08 3c 8f a6 96 bd
       0.07115043 0.0006894113 0.008339865 -0.07355987
000350 f2 98 95 bc d7 51 b0 bd 14 74 12 bd 3a 24 96 bd
       -0.018261407 -0.0860936 -0.035755232 -0.073311284
000360 02 5b 36 3d 4e 19 8f 3d f3 af 85 3d c0 53 c4 b8
       0.044520386 0.06987248 0.065277 -9.361608e-05
000370 3b 06 31 3d 06 26 93 3d 43 ad ab bc 3a a6 18 3c
       0.043218832 0.07184987 -0.020956641 0.009316975
000380 15 27 f8 3d 7e ad 58 3c 96 d3 c8 3d 7f 70 2f bd
       0.12116829 0.0132249575 0.09805982 -0.042831894
000390 b6 b6 0b bd ac e8 2c 3c 8f cb 45 bf b6 67 08 3d
       -0.034109794 0.01055352 -0.7726373 0.03330203
0003a0 f1 7f 63 3d e0 e7 60 bd c3 0d 75 3b 52 5a 5a bd
       0.055541936 -0.054908633 0.0037392236 -0.053308792
0003b0 0f 03 39 bd a7 c2 a4 3d bc 25 08 bd 2e 6a 1a be
       -0.045168933 0.080449395 -0.03323911 -0.15079567
0003c0 5c d7 e2 bc c7 4b b2 3c e3 25 b7 bd 20 fc 65 bd
       -0.027690582 0.02176465 -0.08942773 -0.05614865
0003d0 3e db 41 bb 19 9d 1d bd ab 34 36 3d f7 cc 63 3b
       -0.0029580141 -0.038479898 0.04448382 0.003475962
0003e0 ab 61 5f 3d eb 16 96 3d de ee b7 bc 03 7c 99 bb
       0.054536503 0.0732859 -0.022452768 -0.004683973
0003f0 73 ca 2d 3d c1 e9 0b bc 78 67 2a 3e c7 d9 93 bd
       0.0424294 -0.008539618 0.16641033 -0.07219272

fc1.bias f4 [400]
000000 59 1c 17 bd 4a 62 e8 bc 04 1b 64 3e 4b 25 12 bb
       -0.03689227 -0.02836718 0.2227593 -0.002230006
000010 e9 a9 ed bd a2 bb 39 be 9f 41 0e be e9 d1 19 be
       -0.116046734 -0.18137982 -0.1389222 -0.1502148
000020 72 29 20 be fd b9 01 bd 13 bb 5f 3d fc f4 13 bd
       -0.1564081 -0.031671513 0.054621767 -0.036122307
000030 5c 8f ca 3d 9b 0a 52 bc 16 bb 05 be f7 3a f2 bd
       0.09890625 -0.012819911 -0.13059649 -0.11827653
000040 6e bb 9b bd 92 96 e7 bd ed a1 57 be 48 79 9b bd
       -0.07604109 -0.11308016 -0.21057864 -0.07591492
000050 c4 f1 a1 bd 8d 6d d8 bc a3 ea d4 bd 51 0e 1a be
       -0.07907441 -0.026419425 -0.10396316 -0.15044524
000060 d3 36 40 bc 7d b5 24 be 4b 76 0e bd c0 e9 da 3d
       -0.011731821 -0.16084857 -0.03478078 0.106891155
000070 4e d0 39 3e 9e 97 c9 3b bc e8 33 bc ed 07 02 3e
       0.18145868 0.0061521074 -0.010980781 0.12698336
000080 97 9f e4 3d 75 56 ab bb bd df 30 bd ec f6 0d 3d
       0.11163252 -0.0052288123 -0.043182123 0.03465931
000090 b6 d2 fa bd 4f 55 aa 3d 81 00 91 3d 41 d9 b6 bd
       -0.12247221 0.083170526 0.07080174 -0.08928157
0000a0 29 13 e4 3d d8 a4 a1 3d 56 fd 0c 3e b4 ee 3a 3d
       0.11136467 0.078927696 0.13768515 0.0456378
0000b0 11 e5 2c 3d c2 da 2e 3d e5 18 ac 3d a1 49 11 3e
       0.042210642 0.042689092 0.08403186 0.14188243
0000c0 e3 4d 6f 3d 0f 68 5e bd ae 58 43 bc d7 0a 65 3e
       0.058423888 -0.054298457 -0.011922998 0.22367416
0000d0 86 85 c1 3d 58 7f c4 3d ee 2c 78 bd a1 e8 3a 3e
       0.09449296 0.095946014 -0.060589723 0.18252803
0000e0 77 a3 46 3d d2 d3 a9 bc 25 c6 f5 3c 33 79 0a 3e
       0.048495736 -0.020730887 0.03000171 0.13522796
0000f0 7d 37 fc bd 60 cd 9f bd 93 e6 31 3e cc 03 cd bd
       -0.12315271 -0.07802844 0.17373113 -0.1001049
000100 53 a1 12 be 50 0d 62 bd 12 67 3f 3d e6 d0 01 be
       -0.14319353 -0.055188477 0.046729155 -0.12677345
000110 23 c0 26 bb 39 8a 06 3d 7d 48 d2 3d ed 00 ee bd
       -0.0025444112 0.032846663 0.10267732 -0.1162127
000120 fe dc 64 3d 7a ef 89 bd 47 b2 c2 3d 75 15 04 3e
       0.055874817 -0.0673513 0.0950666 0.1289881
000130 f9 cc 13 be 02 fa 3d 3b 46 39 0a 3e 72 cd ca bd
       -0.1443366 0.0028988128 0.1349841 -0.09902467
000140 50 59 90 bd 2d 98 62 bd a9 18 5c bd a7 4f 75 bd
       -0.07048285 -0.055320907 -0.053734455 -0.059890416
000150 39 6d b4 3c a7 38 05 3d 8c 66 77 3d f7 d5 a9 3d
       0.022024738 0.03252473 0.06040053 0.08292764
000160 75 88 a6 3d 70 37 1a be 15 1f 28 be 1c 74 92 bd
       0.08131496 -0.1506021 -0.16418107 -0.07151052
000170 ad c2 81 3d 93 67 9b bb 6f d8 9a bc 15 8b a6 bd
       0.063359596 -0.0047425716 -0.018902032 -0.081319965
000180 b4 ff 82 3d fc 91 d2 3d 50 79 a0 bd 4d 58 49 3e
       0.06396428 0.102817506 -0.078356385 0.1966259
000190 3d 32 cb 39 e9 02 64 3e 08 2e 7d bd 9b 97 6b 3e
       0.00038756608 0.22266735 -0.061811477 0.23007052
0001a0 83 82 ab 3c 25 61 22 3e 21 cb f5 3d fa ad b3 bc
       0.020936256 0.1585737 0.120016344 -0.021933544
0001b0 6d 7f 5d bd 1f e8 37 be 88 ab b9 3d db e2 ec bd
       -0.0540766 -0.17959641 0.0906592 -0.11566707
0001c0 a6 68 87 3d 7e e6 a3 3c cd 9c 15 3e 9f aa f3 3d
       0.06611757 0.020007368 0.14610596 0.11897778
0001d0 36 00 f0 3c b9 d6 af bd f9 e7 27 be 51 59 eb bd
       0.029296976 -0.08585877 -0.16397084 -0.11491645
0001e0 01 8b 21 be 85 28 f7 bd c4 b1 d4 bd 13 72 c2 3c
       -0.15775682 -0.12068275 -0.103854686 0.023736035
0001f0 ec c7 43 be b3 d3 fd 3d ef 17 1f 3e 5a 34 e4 bc
       -0.19119233 0.12393894 0.15536474 -0.027856994
000200 92 93 5d 3d 9d b4 c6 3d 87 5b 1e be cc 08 2f 3e
       0.054095812 0.09702418 -0.15464602 0.170932
000210 08 5e 60 3e 78 3b e5 3c b3 6e b7 bd 63 46 20 3e
       0.2191087 0.027982458 -0.08956661 0.1565185
000220 d9 d0 b1 bc a8 d0 78 3d 5b 82 77 3e 99 81 28 3d
       -0.021706032 0.060745865 0.2417082 0.04113922
000230 56 23 50 3d be 79 98 bd bc 61 80 bd 5b 7a 31 3e
       0.05081495 -0.074450955 -0.06268641 0.17331831
000240 52 4d 07 be 8e 89 48 3d 65 98 45 bd 12 c2 8a bd
       -0.13213089 0.048959307 -0.048241038 -0.06775297
000250 dc 6d 4c be 55 2a c8 bd c3 9b df bd ec f4 69 3d
       -0.19963783 -0.09773699 -0.10918381 0.05711834
000260 6b 80 5f 3d cf 0b 9c be e8 54 33 bd 13 39 37 be
       0.05456583 -0.3047776 -0.043782145 -0.17892866
000270 94 88 52 3e d6 3a 24 be 0f 9c ea bc ca ff a7 bc
       0.20559913 -0.16038069 -0.028638868 -0.020507712
000280 72 d5 02 be 60 b7 bc 3d a1 c2 38 3d 6f f1 68 3d
       -0.12776735 0.092146635 0.045107488 0.056870874
000290 3e 53 c8 3d 91 09 fb bb eb 36 57 3d 95 5b 6b 3e
       0.09781502 -0.0076610525 0.05254261 0.22984155
0002a0 12 75 c7 3c 84 87 1e 3b f2 78 9e bb 9e 12 18 be
       0.024347816 0.002418966 -0.004836195 -0.14850852
0002b0 9c 46 ad 3c 79 f7 59 bb 7d 35 e7 bd b8 af 0c 3e
       0.021151833 -0.0033259077 -0.11289499 0.13738906
0002c0 69 c2 7b be 24 05 76 bd d8 78 26 3e 7a a2 b4 ba
       -0.2458588 -0.060063496 0.16257036 -0.0013781332
0002d0 d7 e7 c7 3d a5 0a ab 3d c0 6c 0d be 95 9a 38 be
       0.09761017 0.0835164 -0.13811016 -0.18027718
0002e0 af 8c eb bc 2a a2 b3 bd 2f 2d e7 bd 53 16 20 bd
       -0.028753607 -0.08771165 -0.11287915 -0.03908379
0002f0 06 f3 ed 3d 8b 24 d5 3d 73 f8 9f bc 89 34 0f be
       0.11618619 0.10407361 -0.01952765 -0.13984884
000300 19 f6 df bd 3d d8 30 3e 22 89 57 3b 79 d0 3d bc
       -0.10935611 0.17269988 0.0032888134 -0.011585348
000310 42 18 d8 bd 7c 7d 91 be 44 d8 10 3e a6 de 13 bd
       -0.10551502 -0.2841605 0.14144999 -0.036101006
000320 f3 9a b3 bc 58 44 0e bd 44 78 ac bd 6e d6 05 be
       -0.021924471 -0.034733146 -0.08421376 -0.1307008
000330 53 4f 38 be e1 35 f1 3d b4 07 cd bc ed 24 42 bc
       -0.1799901 0.11777855 -0.025028087 -0.011849624
000340 41 83 c0 3c c9 b8 6c 3c e1 f2 07 3d a4 fa f3 3d
       0.023500087 0.014448353 0.03319061 0.1191304
000350 f1 f2 ce bd 1c 8e 6a be a3 7b fb 3d 05 8e 92 bd
       -0.10104931 -0.22905773 0.12279441 -0.07155994
000360 5f 03 0a be fa 05 7f bd c5 46 5c 3d 97 03 01 3e
       -0.13477848 -0.06226156 0.05377843 0.12599026
000370 47 d6 47 be 15 b9 36 be 40 23 c2 bd 66 65 2e be
       -0.19515334 -0.1784404 -0.0947938 -0.17030868
000380 7d 7e 32 3e 3e 9d 97 3a 13 c5 17 3e 6a 84 02 3e
       0.17431064 0.0011567248 0.14821272 0.12745824
000390 84 04 13 3d 35 0a d7 bd 56 d7 8f 3d 94 73 bd 3d
       0.03589298 -0.10499994 0.07023494 0.092505604
0003a0 a7 52 9e 3c e5 71 39 be 72 db 27 bd 57 7f 2a 3e
       0.019326521 -0.18109854 -0.040980764 0.16650139
0003b0 1e 80 48 bd 10 bc da bd bd 0e d5 bd 50 aa 21 bc
       -0.048950307 -0.10680401 -0.10403202 -0.009867266
0003c0 73 26 c6 3d f4 06 10 bc 2d 2f 1a 3e b2 4e eb 3d
       0.09675302 -0.00879072 0.15057059 0.11489619
0003d0 f8 18 5b bd 7e 76 02 be ff be 81 3e 66 85 c9 3d
       -0.05349061 -0.12740514 0.2534103 0.09839897
0003e0 e7 dc 56 bd 01 b8 81 be b4 97 b5 bc ae 63 6f 3d
       -0.052456763 -0.25335696 -0.022167064 0.05844467
0003f0 cc be d6 bd 93 ce d0 bd b6 b6 59 3e cf 50 df 3d
       -0.1048561 -0.10195651 0.21261105 0.10904085

fc2.weight f4 [300, 400]
000000 68 fc 97 3d 29 d1 a0 3c cf 51 da 3c 55 e8 50 bc
       0.074211895 0.019630985 0.026650338 -0.012750705
000010 ba 2a aa 3d 1b ed 36 3d f0 1b 1e 3e c7 b6 76 3d
       0.08308931 0.044659715 0.15440345 0.060232904
000020 0d 80 d0 bc b4 a2 b2 bc cb d8 e7 bd 85 21 1f bd
       -0.025451684 -0.021806099 -0.11320647 -0.038850326
000030 27 8f 52 3d c9 0b bb 3d 03 4e 16 3d b6 fe 70 bd
       0.051406052 0.09133107 0.03669549 -0.05883666
000040 d1 f3 51 3d db 42 11 bc 5e cf 41 3c 88 9e 3a bd
       0.051257912 -0.008866037 0.011829225 -0.045561343
000050 fc 3c 20 3e 78 bd d8 bc 6c d3 3f 3d a1 5d 4c bd
       0.15648264 -0.026457533 0.046832487 -0.04989398
000060 7b cc a6 3a 9e 62 d0 bd 53 0b 03 bd 3f 8c 9d bd
       0.0012725735 -0.1017506 -0.03199322 -0.076927654
000070 b3 01 4f bc 66 8f b2 bc d7 d2 00 bd bf 66 eb bb
       -0.0126346825 -0.021796893 -0.031451073 -0.007183879
000080 f5 42 65 bd 6f ee 08 bd 53 84 19 be 2e 25 e4 3d
       -0.05597206 -0.033430513 -0.14991884 0.11139904
000090 0b 3a 10 3d f7 a5 12 be 34 3d 97 bd 8a 5f 4c bd
       0.035211604 -0.14321123 -0.073847204 -0.0498958
0000a0 e9 83 b4 3c 17 58 3c 3d 93 81 5a 3d a1 27 b0 bd
       0.022035556 0.045982447 0.053346228 -0.086013086
0000b0 e3 6a 6c 3d ab 71 98 3d 50 28 d4 3d ef 06 0d 3d
       0.057719123 0.074435554 0.103592515 0.03443044
0000c0 19 5e 6d 3d 89 47 af 3d 3d 35 3c 3d b7 49 c8 3d
       0.057951067 0.08558566 0.04594921 0.09779685
0000d0 fc b9 05 bc dc d3 0c bd de 64 53 ba 61 1a 31 3d
       -0.008162018 -0.034381732 -0.00080640416 0.043238048
0000e0 af b2 c7 3c de 83 39 bc 47 91 3f 3d 9b f8 3f bc
       0.024377195 -0.0113229435 0.046769407 -0.011716987
0000f0 33 bd f6 3b 00 98 9d bd e4 62 81 bd 69 93 1f 3d
       0.0075298785 -0.07695007 -0.0631769 0.03895894
000100 b2 80 a2 bd 02 a3 6b 3c df 61 94 3d 7c 9b ac 3b
       -0.07934703 0.014382126 0.0724523 0.0052675586
000110 8a d0 a9 bc c4 0a e1 3d c6 a0 b3 bb 66 d6 d8 bb
       -0.020729322 0.109883815 -0.005481812 -0.006617355
000120 61 fd a7 bd 9f 00 fc 3c d4 6c 89 3d d1 c0 85 bc
       -0.08202625 0.030762015 0.067102104 -0.016327294
000130 d2 55 d8 bd cf 39 7c 3d 45 48 b8 3d 34 72 f0 bc
       -0.10563244 0.061578568 0.08998159 -0.029351331
000140 2e de 36 bd d6 f6 53 bd c3 fb 6f bb 89 70 cc bc
       -0.04464548 -0.051749073 -0.0036618568 -0.024956005
000150 26 3a 09 bd 9f ff 82 bb 3b 37 3a 3d 9c b2 9b 3d
       -0.03350272 -0.0039977576 0.045462828 0.076024264
000160 b9 7a 23 be 65 88 01 3d 5e 5e 15 bd bf 8f b6 3d
       -0.15964784 0.031624217 -0.03646695 0.08914136
000170 5a 89 d9 3c f6 e1 a2 3c ca 46 13 3c 38 b3 4d bd
       0.026554752 0.019883137 0.008989045 -0.050219744
000180 5c 0b be bd 9d 98 0d 3e b5 c0 1b 3d 7e e3 d3 3d
       -0.092795104 0.13827749 0.038025577 0.10346125
000190 0d d0 49 bd 79 db 53 3d 71 f3 f9 3a 76 c5 db 3d
       -0.04927068 0.051722977 0.0019069744 0.10731022
0001a0 3a af ff bc 90 85 46 bd 7b 32 96 bd b8 2b 07 3e
       -0.031211484 -0.04846722 -0.07333847 0.13200271
0001b0 cd c0 15 3b 23 0f 98 bd 26 ac 48 bd 04 13 74 3d
       0.0022850514 -0.07424762 -0.0489923 0.059588447
0001c0 72 35 5a 3d 81 dd b5 3c f3 e3 db ba 5d 69 c9 bc
       0.053273626 0.022200348 -0.0016776308 -0.024586374
0001d0 d6 16 ce 3b e1 e4 23 3c b9 36 f6 3c 12 29 08 bc
       0.0062893433 0.010003299 0.03005539 -0.008310573
0001e0 78 b1 f4 3c ed 34 21 3c 47 79 aa 3d a0 d1 16 3d
       0.02986978 0.009839279 0.08323913 0.036821008
0001f0 5c 93 0b 3c fb f2 3f 3d 74 1b 96 3d e7 e4 12 bb
       0.00851902 0.046862584 0.07329455 -0.0022414268
000200 c5 b6 e7 ba 64 85 da 3d 69 41 0f 3d 73 05 6e 3d
       -0.0017678371 0.106699735 0.03497449 0.058110666
000210 4b bf 13 bd c3 65 d6 3d ef bc 68 bd 35 e0 f7 bc
       -0.036071103 0.10468628 -0.056820806 -0.030258277
000220 f2 85 99 3d 8d 5e 23 3e 16 74 a8 3d 3b 67 5d bc
       0.07496251 0.15954037 0.08225267 -0.013513382
000230 38 7e 82 3d 1f 46 c5 ba 8e ec ae bc 96 1f 3d 3d
       0.063717306 -0.0015050805 -0.021353032 0.0461727
000240 dd 60 92 3d b3 26 05 be a0 c8 8e 3d 58 08 0a bc
       0.071473815 -0.13003044 0.0697186 -0.008424841
000250 54 89 6d 3d 86 df 34 3d 83 5a 56 bb 41 16 09 3d
       0.057992294 0.04415848 -0.0032707758 0.03346849
000260 32 8b 77 bd 2f fb 94 bd 7e 8e d0 bd f5 1d a7 bb
       -0.06043548 -0.07274472 -0.10183428 -0.0051000067
000270 10 f8 64 bc d5 c8 06 bd f4 ce d8 3c 5b 63 20 bd
       -0.013975158 -0.032906372 0.02646587 -0.039157253
000280 50 70 88 3c 04 30 fb 3d ed 80 19 3d 4c ea 3b bd
       0.016655117 0.12265018 0.03747647 -0.04587774
000290 40 9c 93 bd 7f 33 a3 3d 76 2a 00 3d b9 35 2e 3e
       -0.07207537 0.079688065 0.031290494 0.17012681
0002a0 4a 5b 85 bc 41 59 e9 bb 57 f2 27 bd 83 ed 20 3d
       -0.016278882 -0.0071212356 -0.041002598 0.03928901
0002b0 1c 61 d7 3d 74 49 1e ba 74 af 8a bd 3b d3 67 3c
       0.10516569 -0.0006038167 -0.06771746 0.014149482
0002c0 71 c0 38 bc 72 60 f9 3d c9 df 21 bd b5 d5 83 3d
       -0.01127635 0.121765986 -0.03952006 0.06437246
0002d0 6e c6 6d bc 2e 47 86 3d 70 de 8d bd aa 1b 10 be
       -0.014512641 0.06556545 -0.06927192 -0.14073053
0002e0 b1 40 11 bd 4a c0 e9 3c d8 fd 21 3b 96 0b 24 3d
       -0.035462085 0.028534073 0.0024717953 0.04005011
0002f0 c3 be 8c 3d b1 f8 40 3d 40 6a aa 3d bf b3 7e bd
       0.068723224 0.04711217 0.08321047 -0.062183138
000300 67 4e 0f 3d 53 92 4b 3d 43 d3 b5 bd 6f 74 3a 3c
       0.03498688 0.049700093 -0.088781856 0.011380299
000310 5a 4a 8d bd 4b 12 4c 3c 0d 08 6f 3d 69 bc 07 3d
       -0.06898947 0.012455533 0.058357287 0.033138666
000320 fd 6c ae bc e4 c3 b2 3c 9e ee b4 ba 82 e1 0a be
       -0.021292204 0.021821924 -0.0013804024 -0.13562587
000330 12 28 0a 3d 21 bc c1 ba 83 73 87 3d 49 8c 8a 3d
       0.03372962 -0.0014780798 0.06613829 0.067650385
000340 75 1e 1b be 2d bf b2 3d 41 37 94 3c 7f 96 3e 3c
       -0.15148337 0.0872787 0.018092753 0.011632561
000350 1f 20 0e be 45 93 a2 bd d3 81 68 bc 4c fb 8d 3d
       -0.1387944 -0.07938246 -0.014191109 0.06932697
000360 d2 4f 93 bd 6c 51 4b 3d da 06 04 bb 8d c7 d5 bb
       -0.07192959 0.049638197 -0.0020145685 -0.0065240324
000370 20 0a 8f 3b 4f 76 94 3c 57 87 2b bd 22 36 6f 39
       0.0043652207 0.01812282 -0.041877117 0.00022812982
000380 c8 8a 19 bd f9 c5 e9 3d 18 9c ab 3d f5 24 fb 3d
       -0.037485868 0.114147134 0.08379382 0.12262908
000390 cb 37 8f bd 27 00 62 3d 95 4d 9c bc 41 0e 5d bd
       -0.069930635 0.055175927 -0.019079963 -0.05396867
0003a0 7d f8 5f 3b 13 05 bc bc de 2a 29 3d 8c 3a 53 bc
       0.003417521 -0.022951638 0.041300647 -0.012892377
0003b0 83 f9 99 bd 57 98 19 bd 37 c7 90 3d b3 e3 a5 3d
       -0.07518294 -0.0374988 0.07069247 0.08100071
0003c0 70 0b 8c 3d 76 a6 9b bc 4f 44 da 3b 72 b0 de bc
       0.06838119 -0.019000273 0.006660975 -0.027183745
0003d0 d0 71 7c 3d 41 06 52 be 30 bb 04 3d ea 82 ac 3c
       0.061631978 -0.20510198 0.03240508 0.021058518
0003e0 35 ab 95 bc 23 fe 8a bb 3a bf 29 3d 44 a8 01 3e
       -0.018270114 -0.0042417212 0.041442133 0.12661844
0003f0 3f 13 a7 3d 2a ad 95 3d 34 ba 27 bd c7 58 dc 3b
       0.08157968 0.07308419 -0.04094906 0.0067244503

fc2.bias f4 [300]
000000 41 22 8f 3d 2f 1b 52 3c e8 cd 54 3d 15 1a 75 3d
       0.06988955 0.012823864 0.05195418 0.059839327
000010 87 03 a5 3d f3 73 52 3d 5e 53 2f 3d 5a 4e c4 3d
       0.080573134 0.05138011 0.042804115 0.09585257
000020 a0 1c b6 3d f7 4f c2 3d f4 58 bb bc 0d ef 05 3c
       0.088921785 0.09487908 -0.022869565 0.00817467
000030 0b a6 05 be 0c 07 cb 3c 43 f4 81 bc c2 20 64 bc
       -0.13051622 0.024783634 -0.015863543 -0.013923826
000040 1b b3 36 3d 66 3f 99 3c 48 f4 e7 3d f0 cd 21 3d
       0.044604402 0.018706989 0.1132589 0.039503038
000050 80 cd 64 3d a7 48 49 3c 7b d7 51 3c 29 1a 64 3b
       0.055860043 0.012285388 0.012807722 0.0034805632
000060 f1 ca ba 3d 50 01 11 bd 92 6c 80 3d 21 b3 8a bb
       0.09120739 -0.035401642 0.06270708 -0.0042327796
000070 48 8c 6d 3d fe f0 65 3d d7 31 89 3c a8 36 d3 3a
       0.05799511 0.05613803 0.016747398 0.0016114311
000080 c7 13 9d 3d 08 ea 24 3d 5a 9d 83 bd e5 ff 92 3d
       0.07669788 0.040262252 -0.06426497 0.07177714
000090 43 41 05 3d 1c 04 05 bb 30 87 1d 3c 42 15 da 3d
       0.03253294 -0.0020296639 0.009614751 0.10648586
0000a0 0e 11 a8 3c 1c d7 6b 3d 2c 62 a2 bc ff ae 6f 3d
       0.020515945 0.05757819 -0.019822203 0.0585165
0000b0 e8 e5 c5 3d ff e4 b1 3d 01 86 c6 3c 6d 0c 5f bd
       0.09662992 0.08686256 0.02423382 -0.05445521
0000c0 dd 51 57 bc 69 fb 2e 3c 93 d1 b0 bd 8e 3e 7b ba
       -0.013142076 0.010680058 -0.08633723 -0.00095842115
0000d0 0b ea bb 3b 91 fa 5a 3d 38 65 38 3c 72 8f c8 3b
       0.005734687 0.053461615 0.011254601 0.0061206156
0000e0 f4 c4 82 bd 1f a6 ef 3a 78 4a 89 bc c7 b5 da 3c
       -0.06385222 0.0018283761 -0.016759142 0.026698006
0000f0 89 1a df 3c 8f 83 9d 3d fe 2f 19 bd bd 43 26 3d
       0.027234333 0.076911084 -0.037399285 0.040591944
000100 cc 2d 81 3d 5c 2e 4c 3d f2 18 81 3c 8b 2a c9 3c
       0.06307563 0.0498489 0.015758965 0.024556419
000110 a9 bc 3f 3d d6 cc 8b 3d f1 6b c9 3d 9b 7b 6b bd
       0.04681078 0.06826179 0.09835041 -0.057490926
000120 20 3c 9d 3d 91 5c c7 bb 00 40 2b 3d 45 33 11 3d
       0.076774836 -0.006084033 0.041809082 0.035449285
000130 07 37 1c bd 13 32 02 3e 45 e8 a3 3c 96 92 13 bd
       -0.038138416 0.12714414 0.020008216 -0.036028467
000140 09 78 12 bc 94 fd b6 bc 5d a7 5b bc 4c 78 38 3d
       -0.008939751 -0.022337712 -0.013406602 0.0450366
000150 a9 1b e0 3b d5 4f f4 3a 3c 09 35 3d b9 7f 06 3d
       0.006839235 0.0018639514 0.04419826 0.03283665
000160 fe 8b 28 bd b6 48 00 3e e2 4b 0d 3d b7 b7 1b bd
       -0.041149132 0.12527737 0.034496196 -0.038017
000170 f1 26 69 3d 69 6f 09 3d 02 de 8e 3c b7 2a ab 3d
       0.056921903 0.033553515 0.017439846 0.083577566
000180 25 38 bd bb d4 37 9a 3d 42 de 97 bd db 89 67 3d
       -0.005774515 0.075301796 -0.07415439 0.056527954
000190 92 27 11 3d d1 87 ab 3c fc fe b8 b9 d0 f9 d7 3b
       0.035438128 0.020938786 -0.00035285193 0.0065910593
0001a0 33 35 43 3d b4 7f c6 bc 7f 5f 32 3d 5b e1 12 3d
       0.047658157 -0.024230815 0.043548103 0.035859447
0001b0 39 95 f1 bd 75 be 57 3c 9c 27 5d 3d 96 5a 62 3d
       -0.1179604 0.013167967 0.053992853 0.05526217
0001c0 2c ed 80 3d 23 a1 4c bc 0a c0 bc 3a 4f 39 93 3b
       0.06295237 -0.01248959 0.0014400494 0.0044929157
0001d0 c7 7a bd 3d 19 49 e1 3d 9f 6c ad 3c f0 64 9b 3d
       0.092519335 0.110002704 0.021169959 0.07587612
0001e0 a1 61 29 bd 21 bb 8c bc e7 e6 a8 3d ac e1 0b 3b
       -0.04135287 -0.017179074 0.08247166 0.0021344228
0001f0 83 96 72 3d 7a 71 7e bd f6 60 57 3d 85 bd ed 3c
       0.05922557 -0.06211994 0.052582704 0.029021034
000200 86 51 af 3d 6f 6b 91 3d 05 03 45 3d 49 8e 62 3c
       0.08560471 0.071005695 0.048098583 0.013827869
000210 4b 2b f8 3b 01 c7 0e 3c 3e b8 23 3d cb 43 2c 3d
       0.0075735203 0.008714438 0.03997063 0.04205684
000220 a7 1d 9b 3d c8 62 d1 3d 13 81 14 3c 76 da 0f 3d
       0.07574015 0.10223919 0.009063977 0.03512045
000230 22 ed 1f bd d9 68 02 3b c5 ba 5f 3c 65 4a 61 3c
       -0.039044507 0.001989892 0.013655369 0.013750647
000240 7e de 5e 3c c7 ec 66 3d 0e 72 1b bd ff f6 2f 3b
       0.013602851 0.056378152 -0.037950568 0.0026850102
000250 dc 70 5c bd 94 5a 8f 3d b2 45 12 bd 01 d9 ac 3d
       -0.05381857 0.06999698 -0.035710998 0.08439828
000260 86 9d 58 3d c8 83 c9 3d 6c d3 37 3d c5 1b c0 3d
       0.0528846 0.098395884 0.044879362 0.093802966
000270 bb fa d4 3c bd 2a 19 3d 8a 51 32 bd a5 28 98 3d
       0.025998464 0.037394274 -0.043534793 0.07429627
000280 8c 53 21 3d 67 b6 4c 3d 2c aa bf 3c 4f 16 ef 3c
       0.039386317 0.04997864 0.023396574 0.029185442
000290 68 79 6f bd 06 27 ee bc 0e 32 34 3c a8 77 8a 3d
       -0.05846539 -0.029071342 0.010998262 0.06761104
0002a0 f5 36 c3 bd 4f 9b cf 3c b5 0e 70 3c f0 dc 3c bd
       -0.095319666 0.025342612 0.014651944 -0.04610914
0002b0 da 45 2f bc 8e cd bb 3b d6 93 8d 3d 58 fd ff 3c
       -0.010697806 0.005731291 0.06912963 0.031248733
0002c0 2c ed c6 bc 9a f5 59 3b e9 eb 2c bd fb b0 60 3d
       -0.024283014 0.0033257962 -0.04221717 0.05485628
0002d0 04 4e f0 3c ea 6c 47 3d e6 27 e1 3d 12 fa 4d bb
       0.029334076 0.048687853 0.10993938 -0.003142957
0002e0 02 68 3c 3d ad dd dc 3c ce 0c b0 3d da 01 66 3d
       0.045997627 0.026961172 0.08596192 0.05615411
0002f0 3d 89 2c 3d 8a c9 01 3b 60 53 31 bc 06 f9 9e 3d
       0.042123068 0.0019803965 -0.010823101 0.07762341
000300 8b fc a1 3b 91 6b 71 3c 7f 70 a4 3d 23 22 98 3d
       0.0049434355 0.0147351185 0.080292694 0.07428386
000310 24 d1 fe 3c fd 3c 1c 3c b5 ef ab bd 79 1a cd 3d
       0.031105585 0.009536025 -0.0839533 0.10014815
000320 6e e3 72 3d b6 62 c4 bc 34 f9 6d bd e7 97 0b 3d
       0.059298925 -0.02397285 -0.058098987 0.034080412
000330 c1 d2 07 3d ff e9 98 3d 09 0e 26 3d 3d d9 fc 3c
       0.033159975 0.07466506 0.04054073 0.030865306
000340 e4 c0 19 bd d9 f3 92 3c 9d 8f f0 3c c2 7f 14 3c
       -0.03753747 0.017938541 0.029365355 0.009063663
000350 c2 59 35 bd 94 4d 49 3d a3 3e 90 bc c8 ee ec 3d
       -0.044275053 0.04914625 -0.017607993 0.115689814
000360 47 06 f9 3b d6 3d 83 3c 5e 0f 6f 3c 33 32 05 3e
       0.0075996253 0.016020697 0.014591066 0.1300743
000370 d1 fc a1 bd 1c f5 12 bd e9 74 26 bc d0 8f aa 3c
       -0.07909549 -0.035878286 -0.0101597095 0.020820528
000380 d9 d0 61 3d 4f 59 85 3c ee d1 8d bc 8c a1 01 3d
       0.055130813 0.016277937 -0.017312016 0.031648204
000390 da 88 d0 bc 23 4c 00 3d 05 ce 57 3b c8 f9 71 3c
       -0.02545588 0.03132261 0.0032929194 0.014769025
0003a0 4b f4 4d bd 63 1a a7 3d a3 cd 89 3c 57 8e dc b9
       -0.050281804 0.0815933 0.016821688 -0.0004206772
0003b0 ab b3 29 bd 45 34 5e 3d ca bf 5f 3a 33 77 ed bc
       -0.04143111 0.054249067 0.00085353537 -0.028987503
0003c0 54 82 86 bb 9e 15 ad 3d 89 e0 52 3d 9c 68 0a bd
       -0.004104892 0.08451389 0.051483665 -0.03379117
0003d0 06 19 21 bc 66 b8 92 bc f7 5e 42 3d 6d 41 05 3d
       -0.009832626 -0.017910194 0.047453847 0.032533098
0003e0 b0 e8 3e 3d 12 2a 71 bb 70 a8 80 3d 68 0d 7a 3d
       0.046608627 -0.0036798758 0.06282127 0.06104794
0003f0 e6 ad 15 3d 0f d9 1e 3d c8 f1 d1 bc 4d f9 df bc
       0.036542796 0.038781222 -0.025627986 -0.027340556

fc3.weight f4 [4, 300]
000000 d1 de 8f bd 9f 02 fb bc f5 de 86 3c 71 99 65 bd
       -0.07024921 -0.030640898 0.016463736 -0.056054536
000010 b0 18 c0 3d fb 23 aa 3b 81 a3 28 be e0 5e e7 bd
       0.09379709 0.0051922775 -0.16468622 -0.11297393
000020 78 26 b3 bd 50 e9 a8 3d 04 af 22 bd 5a 9d c1 3c
       -0.08747572 0.08247626 -0.03971769 0.023634601
000030 be fb b5 3e 39 b9 58 3d 68 12 0c be a9 5d a4 bc
       0.35543627 0.052911017 -0.13678896 -0.020064192
000040 52 94 3d bd ec da 29 3e 7b df 57 3d 68 0e 13 3e
       -0.046284027 0.16587418 0.052703362 0.14360964
000050 29 af a1 bc fd 73 67 3e 58 44 c7 bd a4 13 1e bd
       -0.019736843 0.2260284 -0.097298324 -0.03859295
000060 36 36 1f 3c 88 54 da bc 39 9e ce 3b c1 1b 67 bd
       0.009717515 -0.026651636 0.0063054827 -0.056422953
000070 49 3a ef 3c 56 af 26 3e d4 97 83 3c 11 13 d7 3d
       0.029202597 0.16277823 0.016063608 0.105016835
000080 d9 9b 86 bc db d1 cb bb c6 66 6f 3d dd 2e f5 3d
       -0.016431736 -0.006220085 0.05844762 0.11971829
000090 26 44 ab bd a9 3f b5 bb 09 a9 17 be ec 54 07 be
       -0.08362608 -0.0055312705 -0.14810576 -0.13215989
0000a0 ff 56 f2 bc ff 7b 2f 3d 6e 06 ad bb 05 d3 93 bc
       -0.029582499 0.04284286 -0.0052803075 -0.018044958
0000b0 5d 47 79 be 7a 62 9e 3c 3b 63 5a 3e fe 05 c9 3d
       -0.24343629 0.019334067 0.21326916 0.09815596
0000c0 1a 98 5d bd 5b ff 2b bb 86 0a f8 3e 84 1f 7a bd
       -0.054100133 -0.0026244733 0.4844553 -0.061065212
0000d0 69 89 f5 3d a9 90 1f bc 35 76 6b 3c c8 c5 85 bd
       0.119890995 -0.0097390795 0.0143714445 -0.065318644
0000e0 8d 6b 20 3d 9c 3a a5 bd 86 d2 49 bd 02 bf ae 3c
       0.03916507 -0.080678195 -0.049273036 0.021331314
0000f0 6f 8e 57 be c2 5e 69 3d 60 eb 0c 3e 4d 26 59 bd
       -0.21050428 0.056975134 0.13761663 -0.053015042
000100 c9 cf 9b 3d 58 42 da 3d 42 bb 50 3d 21 9d ee 3d
       0.07607991 0.10657185 0.050959833 0.11651064
000110 3d a3 cc 3d 6e ce 9c 3d 5d 42 30 3c da fe 76 3d
       0.09992073 0.07656561 0.01075801 0.06030164
000120 a7 9e bd bd b8 58 4e 3c 8c 58 86 3c a0 78 4c 3e
       -0.09258776 0.012594394 0.016399644 0.1996789
000130 e2 4f f5 b7 1b cf b3 3b 58 e3 55 3c 8e 78 92 3d
       -2.9243474e-05 0.0054873354 0.013054691 0.071519
000140 25 95 25 bd 20 d8 8d 3e 80 3c 60 3e 00 ba ca bd
       -0.04042544 0.27703953 0.21898079 -0.09898758
000150 c8 20 21 3e a4 e7 8a be 55 87 ed bc fe 95 3b 3d
       0.15735161 -0.27129853 -0.028995195 0.04579734
000160 c0 ec 3a bd 66 1f 2c bd ee 78 36 bd d5 78 85 3e
       -0.04563594 -0.04202213 -0.04454892 0.2606875
000170 86 12 c7 3c a1 ea 91 3d dd 16 03 bd e0 1f b5 bc
       0.024300825 0.0712483 -0.032004226 -0.022109926
000180 c0 5b 92 3d 6d b2 0e be ab 00 b5 bd e0 80 ce 3d
       0.07146406 -0.13935252 -0.08838018 0.10083175
000190 45 59 5a bd 05 16 6a 3e bc 5b 26 bc 79 42 46 be
       -0.05330779 0.22859962 -0.010153707 -0.19361295
0001a0 37 ad 55 be 41 2b 4a 3c 72 31 ed bd 1e 12 6e 3e
       -0.20866857 0.012339414 -0.115816966 0.23249099
0001b0 db 89 d3 3e e9 93 de ba 1e bb 95 3d eb 4d 17 3e
       0.41316113 -0.0016981337 0.073110804 0.14775817
0001c0 2a 97 ae bd ad 9f 2c 3d c1 e6 65 bc fe 13 ba be
       -0.08524926 0.042144466 -0.014032067 -0.36343378
0001d0 d2 8d 35 3d 70 c3 31 3d af ae e0 3c 64 29 11 bc
       0.044324704 0.043399274 0.027427046 -0.008859966
0001e0 f1 e4 0f 3e 25 e3 0e be f2 31 95 bc db 27 38 bc
       0.14052178 -0.13953836 -0.018212292 -0.011239971
0001f0 38 61 b1 3d 77 0c ba 3e 92 a1 ba 3d 9f 98 af bc
       0.08661121 0.36337635 0.09112848 -0.02143508
000200 41 70 8b bd cd 72 77 3c c0 22 80 bd 9a 04 9d bd
       -0.0680852 0.015103054 -0.06256628 -0.07666893
000210 36 4e 64 be 21 9a 27 be cd 18 1c bd 48 ea 1f 3d
       -0.2229546 -0.1636739 -0.03810959 0.039041787
000220 1e 00 aa 3d 9c 47 de bd 27 6f 18 be 33 6c fa 3d
       0.083008036 -0.10853502 -0.14886151 0.122276686
000230 69 59 52 bd f3 ff 7a 3e 48 d6 ad bc f3 31 4d bd
       -0.0513548 0.245117 -0.021220341 -0.050096463
000240 08 78 18 3e d5 87 15 be fe 9c a7 3d ad 5c b6 bd
       0.14889538 -0.14602597 0.08184241 -0.08904395
000250 a3 dd ed 3c ec 58 0e bd 04 4e ba bd 03 9a f2 3d
       0.029036349 -0.03475277 -0.090969115 0.11845782
000260 a3 6a 23 be 21 06 bc 3d 60 aa a8 3c ac aa cf 3d
       -0.15958647 0.091808565 0.020589054 0.10139975
000270 fa 63 f2 3d c7 2e 4b bd 51 e4 3b 3e fe c7 4a 3a
       0.11835475 -0.049605157 0.18348815 0.00077354896
000280 ec 21 38 be e2 e5 d5 bd fa ff a6 3d 44 e1 9d 3c
       -0.1798169 -0.10444237 0.081542924 0.019272454
000290 51 18 d5 3d 71 92 d3 bc 8b a4 67 be 41 84 da bc
       0.104050286 -0.025826665 -0.22621362 -0.026674392
0002a0 a1 33 82 3d a6 a9 de 3d 56 fe 54 3e c6 a8 cf 3d
       0.06357504 0.108722016 0.20800146 0.10139613
0002b0 e1 ee 31 be 54 03 40 3e 28 47 a6 be 62 ed 1a bd
       -0.17376281 0.1875127 -0.32476163 -0.037824042
0002c0 ea 69 26 3e 30 b0 02 3d a4 f2 ee 3c a9 37 43 bd
       0.1625134 0.031906307 0.029168434 -0.047660504
0002d0 bd d5 5f 3d 83 9c 45 3d b4 ce 95 bc 5a fe 1d be
       0.054647196 0.048244964 -0.01828704 -0.15429059
0002e0 7c 9e 55 3d db 75 1d bd 92 23 89 3e 19 ef 9b bd
       0.052153096 -0.038442474 0.2678495 -0.07613964
0002f0 4b 2b 60 be 90 88 53 3e 82 55 fb 3b b4 8b 94 3d
       -0.21891515 0.20657563 0.0076701054 0.07253209
000300 e5 96 22 be 24 61 5d 3c 03 0b 36 be 4d 17 49 3d
       -0.15877874 0.01351193 -0.17777638 0.049094487
000310 62 4f 2c be 5c 1c 0e be 57 ab 94 3c 5d 96 9c be
       -0.16827157 -0.13878006 0.018148107 -0.30583468
000320 69 cc 39 3d db 88 10 3e 0c 04 f3 3d 67 e9 82 be
       0.045360956 0.14114706 0.11866006 -0.25568697
000330 29 89 1e bc e2 bb 1f 3d 52 a2 08 3e e9 b7 8d be
       -0.009676256 0.03899754 0.1334317 -0.27679375
000340 75 b1 59 bc a9 5f 22 3d 47 94 29 3b 29 6c 60 3e
       -0.013286938 0.03964201 0.0025875734 0.2191626
000350 7d fb ca bd fa 57 a9 bd 92 a2 33 3e 6c 12 9f 3d
       -0.09911249 -0.08268733 0.17542484 0.077671856
000360 f2 df 6e 3e 69 a1 60 be e2 7f c6 3d 06 f7 ad 3d
       0.23327616 -0.21936573 0.096923605 0.084943816
000370 42 02 18 be 7c b8 ca bd e6 4c ad 3d be fa 02 be
       -0.14844611 -0.09898469 0.08461933 -0.12790963
000380 78 4f 25 3e e0 19 15 3d 60 1e cc bd 63 9c ba 3b
       0.16143596 0.03640163 -0.09966731 0.0056949123
000390 13 0f 3f 3e 1c 50 8e be 44 10 e5 3d 49 2d af bc
       0.18658094 -0.27795494 0.11184743 -0.021383898
0003a0 c6 bb bf 3e 9d 5c ee bc 2f 0a 8d bd cf 71 d3 3d
       0.37447947 -0.029096896 -0.06886708 0.10324442
0003b0 2e df 52 bd 4e 98 4e bc 6d 81 ec bc 7f 81 64 3b
       -0.051482372 -0.012609554 -0.028870309 0.0034867225
0003c0 d8 bc e5 bc a1 5b f8 bd 24 31 b8 3c ab 64 8a 3c
       -0.02804415 -0.12126852 0.02248437 0.016893705
0003d0 a4 72 ca be 4a fd 23 3e 4b b2 81 3e c9 a3 1f be
       -0.3954059 0.16014591 0.2533134 -0.15589823
0003e0 3f 51 18 be 97 d2 c2 bc 3b fd b7 3d e6 63 3a bd
       -0.14874743 -0.023782058 0.08983847 -0.045505427
0003f0 cb d5 82 3e 61 67 5a bc 04 cc 59 3d 55 45 52 3d
       0.25553736 -0.0133303115 0.05317308 0.05133565

fc3.bias f4 [4]
000000 68 3a dc bc 52 36 30 3c 78 3a 2a 3d be c2 19 3d
       -0.026883319 0.0107551385 0.041559666 0.037539236
