checkpoints/checkpoint_actor_900.pth (torch, 542655 bytes, 6 tensors)

fc1.weight f4 [400, 33]
-0.041898917 0.13376164 -0.026056416 0.06620792 0.012261298 0.015076412 -0.09899039 -0.050077476
-0.16429402 -0.10674034 -0.056320984 0.025442205 -0.03373687 -0.02195233 0.040488854 0.007919553
-0.084346876 -0.04870662 0.0014615373 -0.14446218 0.021984497 -0.07201495 -0.044326395 -0.0382352
-0.044279642 -0.052303422 -0.102737464 -0.05876216 0.015106922 0.049657617 0.055092935 -0.028602464
0.45332065 -0.13276772 -0.08081798 -0.02931048 0.03288612 -0.0021717793 -0.007533587 0.07124414
0.104466625 -0.008194704 -0.041834984 0.0042494517 -0.08103551 0.061667465 0.03379461 0.025444346
-0.038214695 -0.037876934 -0.028052785 0.043549396 0.044623952 -0.12673245 -0.029745717 -0.018403325
0.07789796 -0.05005885 -0.01943244 0.01681029 -0.013084665 0.01587344 -0.041183244 0.05410005
-0.011414509 0.109021775 0.025068786 -0.0136070065 -0.15844113 -0.03434006 0.0029852786 -0.06733633
0.018268475 0.032638337 -0.06909525 0.010190682 -0.008566143 0.053826794 -0.059057165 -0.045520127
0.069252715 0.035759818 0.16912393 0.10869747 0.015818542 -0.14030612 0.14421555 -0.014903789
0.0069234753 -0.11073263 0.06272029 -0.0141731845 -0.057730824 -0.07420379 -0.031890817 -0.034138605
0.012713636 0.04606835 -0.34821072 -0.061010968 0.040151443 0.010036964 -0.07407057 -0.061891917
0.047266938 0.002492238 0.046554975 -0.18264201 -0.08481199 -0.048438895 0.050012197 -0.06148025
0.079499215 0.032636732 0.013726049 -0.023000076 0.02828131 -0.075209245 0.032587785 0.058366556
0.063455634 -0.014738734 0.040441997 -0.044715203 0.032035515 -0.12855972 -0.0044823606 0.040375628
-5.0626695e-05 -0.034359016 -0.000518851 -0.5309081 0.050961416 0.049993757 0.04171953 -0.066445395
0.01708915 -0.04434707 0.0007850228 -0.029289668 -0.12591568 0.047981977 0.07341059 0.08461926
0.05967466 -0.112804875 -0.034429226 -0.16573797 0.14136012 0.07558316 0.12117925 -0.008669087
-0.11882921 0.03118244 0.0011649304 -0.008015935 0.01944469 -0.063686974 -0.071535274 -0.026065435
-0.15539666 -0.0379647 0.0006254441 -0.009385206 -0.15196553 0.013310655 0.093644984 0.092358306
-0.021586068 -0.0077089355 -0.002654915 -0.026525583 -0.16883513 -0.120851636 0.056492947 -0.034001462
-0.0057402756 -0.022516003 -0.11559694 0.1284966 -0.16145036 -0.067811966 0.14132436 -0.004659584
-0.0014847057 0.031776704 0.023848837 0.07624504 -0.061424043 0.1776082 -0.012434665 0.07542269
0.009148754 0.082457796 0.046912704 0.036586825 0.0009202771 -0.047554445 -0.039934848 0.04577984
0.039398093 0.039351564 -0.08749867 0.037828397 -0.0007521411 -0.030425318 0.006506287 0.064520754
0.07688809 0.014636769 0.040207133 -0.059223138 0.007852482 -0.09250939 -0.06077575 -0.0647611
0.06530047 0.07667351 0.07171281 0.013464284 0.042385805 0.0516579 -0.010506574 0.012693163
0.13310562 -0.00019882123 0.06903066 -0.042831894 -0.02068586 0.01055352 -0.8312737 -0.0014433269
0.103780806 -0.0389328 -0.009270663 -0.0811274 -0.07471024 0.09063973 -0.009913957 -0.11638723
-0.037993234 0.0049217325 -0.0640232 -0.03204232 -0.017377159 -0.0057820017 0.044813983 -0.027568076
0.049649075 0.11030175 0.023285715 0.025141014 0.047383994 -0.018401146 0.15817638 -0.08607769
00000000: 339e 2bbd d0f8 083e 4474 d5bc 0598 873d
00000010: 9ce3 483c 0e03 773c 79bb cabd 0a1e 4dbd
00000020: b13c 28be ae9a dabd d5b0 66bd 2c6c d03c
00000030: ac2f 0abd 5fd5 b3bc a4d7 253d 03c1 013c
00000040: 0ebe acbd 9880 47bd 0e91 bf3a e5ed 13be
00000050: d518 b43c 937c 93bd 988f 35bd 839c 1cbd
00000060: 925e 35bd 1d3c 56bd 0568 d2bd 97b0 70bd
00000070: 0683 773c c965 4b3d 21a9 613d b74f eabc
00000080: a519 e83e 43f4 07be e683 a5bd 881c f0bc
00000090: 99b3 063d 6954 0ebb 4fdc f6bb 73e8 913d
000000a0: 99f2 d53d 1443 06bc 295b 2bbd fc3e 8b3b
000000b0: f2f5 a5bd 0697 7c3d 386c 0a3d a970 d03c
000000c0: 0387 1cbd d824 1bbd f4ce e5bc da60 323d
000000d0: 9bc7 363d 27c6 01be 4aad f3bc 92c2 96bc
000000e0: f788 9f3d 820a 4dbd c830 9fbc bcb5 893c
000000f0: 1061 56bc 0409 823c c3af 28bd 0498 5d3d
00000100: ec03 3bbc cf46 df3d 0e5d cd3c ecef 5ebc
00000110: 643e 22be 2aa8 0cbd aaa4 433b a1e7 89bd
00000120: c5a7 953c c7af 053d cf81 8dbd d1f6 263c
00000130: 0259 0cbc 7c79 5c3d ede5 71bd 5073 3abd
00000140: 5ed4 8d3d e378 123d d32e 2d3e c79c de3d
00000150: e395 813c 68ac 0fbe 3ead 133e 062f 74bc
00000160: 52de e23b cac7 e2bd 7f73 803d a536 68bc
00000170: 2877 6cbd 28f8 97bd f29f 02bd ecd4 0bbd
00000180: db4c 503c 2bb2 3c3d ad48 b2be a3e6 79bd
00000190: d775 243d 1472 243c 50b2 97bd 6182 7dbd
000001a0: fa9a 413d d154 233b 6eb0 3e3d 8206 3bbe
000001b0: e9b1 adbd dd67 46bd 97d9 4c3d b7d2 7bbd
000001c0: 7cd0 a23d 18ae 053d 39e3 603c a86a bcbc
000001d0: 35ae e73c 4e07 9abd c57a 053d c511 6f3d
000001e0: 07f5 813d bb7a 71bc 82a6 253d 4a27 37bd
000001f0: ac37 033d 29a5 03be c4e0 92bb ea60 253d
00000200: 0058 54b8 0abc 0cbd 8003 08ba 98e9 07bf
00000210: ebbc 503d 41c6 4c3d 19e2 2a3d 8614 88bd
00000220: 8cfe 8b3c 46a5 35bd fdc9 4d3a e3f0 efbc
00000230: 0af0 00be c088 443d 4b58 963d dd4c ad3d
00000240: 6b6d 743d 3e06 e7bd a905 0dbd 37b7 29be
00000250: b5c0 103e 58cb 9a3d d42c f83d c908 0ebc
00000260: bb5c f3bd 5172 ff3c 94b0 983a 4555 03bc
00000270: 784a 9f3c 516e 82bd 1681 92bd 2e87 d5bc
00000280: 4d20 1fbe e080 1bbd d8f4 233a 68c4 19bc
00000290: da9c 1bbe ef14 5a3c f1c8 bf3d 5a26 bd3d
000002a0: 44d5 b0bc 3d9b fcbb 15fe 2dbb 2e4c d9bc
000002b0: 1ee3 2cbe 1081 f7bd 2665 673d 1e45 0bbd
000002c0: ec18 bcbb 7b73 b8bc 17be ecbd 9d94 033e
000002d0: 3e53 25be 00e1 8abd 55b7 103e 6caf 98bb
000002e0: 759a c2ba 4a28 023d a35e c33c 5c26 9c3d
000002f0: c797 7bbd edde 353e c4ba 4bbc 3677 9a3d
00000300: a8e4 153c a2df a83d 8927 403d 11dc 153d
00000310: c03e 713a 73c8 42bd b992 23bd a483 3b3d
00000320: e55f 213d 1b2f 213d 8132 b3bd f3f1 1a3d
00000330: 562b 45ba 843e f9bc b132 d53b 7523 843d
00000340: 8177 9d3d 0fcf 6f3c 3cb0 243d f693 72bd
00000350: b2a7 003c 9075 bdbd feef 78bd 78a1 84bd
00000360: 41bc 853d 0007 9d3d 2ade 923d 4d99 5c3c
00000370: bd9c 2d3d 3c97 533d c423 2cbc fcf6 4f3c
00000380: d74c 083e ab7a 50b9 f25f 8d3d 7f70 2fbd
00000390: 6575 a9bc ace8 2c3c 5ace 54bf 042e bdba
000003a0: 088b d43d 0078 1fbd fbe3 17bc 1f26 a6bd
000003b0: af01 99bd 53a1 b93d 266e 22bc 6e5c eebd
000003c0: cb9e 1bbd 7c46 a13b 981e 83bd cf3e 03bd
000003d0: 8b5a 8ebc f276 bdbb de8e 373d 72d6 e1bc
000003e0: d45c 4b3d e2e5 e13d afc1 be3c 87f4 cd3c
000003f0: b815 423d 00be 96bc fdf8 213e 8049 b0bd

fc1.bias f4 [400]
-0.04023078 -0.037502214 0.2093632 0.008178312 -0.10862231 -0.14258727 -0.12549831 -0.17048876
-0.17338477 -0.03359217 0.07193263 -0.053957846 0.06435493 -0.012080694 -0.1313512 -0.12241079
-0.084927924 -0.11031478 -0.20240796 -0.0863647 -0.08522937 -0.044537425 -0.08877835 -0.13625601
-0.03743242 -0.16828914 -0.0130102 0.10086121 0.1808215 -0.012492692 -0.024725886 0.11375255
0.109352775 -0.027616045 -0.03998023 0.008632689 -0.13331357 0.062204342 0.066338934 -0.107899465
0.111963056 0.086945325 0.13900292 0.041288193 -0.0011164369 0.026582243 0.097611085 0.14879972
0.06056162 -0.049290106 -0.013385818 0.23002711 0.069126196 0.115456626 -0.060054168 0.18802603
0.028123584 -0.043371785 0.06379754 0.15832666 -0.12506166 -0.08653425 0.17555326 -0.10723454
-0.1456366 -0.05778109 0.04585546 -0.09536035 -0.0104542 0.009537853 0.10322143 -0.15275022
0.04007497 -0.075961575 0.07491936 0.13014251 -0.13480616 0.027572405 0.14304408 -0.124521
-0.08441252 -0.05156995 -0.056127105 -0.058516882 0.016307512 0.016803322 0.05804733 0.07681628
0.073253155 -0.14809008 -0.15050027 -0.053468596 0.056617472 -0.01695567 -0.025115317 -0.08108443
0.042905543 0.0956866 -0.07596317 0.19728999 0.010989766 0.2288289 -0.070412256 0.23181117
0.017178297 0.16144979 0.12761827 -0.0070992685 -0.03916257 -0.19042695 0.07978473 -0.11196553
0.05272506 0.021564392 0.14769906 0.11556889 0.0087532895 -0.069130786 -0.19262637 -0.117609814
-0.1863065 -0.103989 -0.10627567 0.03934538 -0.18260625 0.11829024 0.15458633 -0.030489706
0.021489553 0.09718926 -0.1738907 0.13965333 0.20824815 0.027615463 -0.11899327 0.14896262
-0.018990569 0.04452572 0.24069506 0.017612763 0.056578245 -0.06715158 -0.074343644 0.17322548
-0.14031957 0.04793171 -0.04957744 -0.06597511 -0.20259696 -0.11915201 -0.08991765 0.071624175
0.041599672 -0.286234 -0.03451404 -0.19064474 0.22154063 -0.17101797 -0.04457882 -0.0187266
-0.14740531 0.10552737 0.042621903 0.039417606 0.06435247 0.008942523 0.07782321 0.22519895
0.01670988 -0.030574398 -0.023779465 -0.15541461 0.017333454 -0.023716656 -0.11092992 0.123317964
-0.23920861 -0.062247727 0.1810339 -0.0295275 0.09666664 0.10062096 -0.14682427 -0.17671643
-0.041414358 -0.08763946 -0.10529123 -0.038885854 0.11097458 0.108528316 -0.035338238 -0.11551639
-0.107265376 0.19221237 0.0065934164 -0.003393241 -0.1298343 -0.29124388 0.12338916 -0.029709209
-0.033177376 -0.062391613 -0.086335 -0.11503389 -0.18286599 0.104287066 -0.03931551 -0.058414
0.01077318 0.016741995 0.061616827 0.09777761 -0.11881515 -0.25361773 0.11847531 -0.057757188
-0.15214756 -0.07488426 0.05071129 0.11052726 -0.20562012 -0.18404883 -0.12226293 -0.19703731
0.17881754 0.004832258 0.15111905 0.127201 0.061228294 -0.09663723 0.0714661 0.09255682
0.006167497 -0.19119069 -0.041200966 0.16362645 -0.058572385 -0.09772599 -0.098827355 0.015168985
0.10091563 -0.0284638 0.12055673 0.07207527 -0.054765332 -0.16721795 0.2540239 0.09301972
-0.06570975 -0.27798322 -0.038171515 0.074704245 -0.08906425 -0.0884662 0.19258745 0.108020075
00000000: 08c9 24bd ec9b 19bd 4f63 563e 54fe 053c
00000010: 6075 debd 6602 12be a182 00be 9b94 2ebe
00000020: c78b 31be f197 09bd 6a51 933d e702 5dbd
00000030: 84cc 833d 1aee 45bc ee80 06be 82b2 fabd
00000040: b1ee adbd b7ec e1bd 0844 4fbe fadf b0bd
00000050: bc8c aebd e06c 36bd 6cd1 b5bd b286 0bbe
00000060: bd52 19bd fd53 2cbe bc28 55bc 5290 ce3d
00000070: 4529 393e 26ae 4cbc f18d cabc 19f7 e83d
00000080: 59f4 df3d 0b3b e2bc 4fc2 23bd 1f70 0d3c
00000090: 5a83 08be fbc9 7e3d b5dc 873d 65fa dcbd
000000a0: e34c e53d 6410 b23d c856 0e3e cf1d 293d
000000b0: 6855 92ba 01c3 d93c 52e8 c73d f45e 183e
000000c0: 760f 783d 6ce4 49bd 3150 5bbc 3a8c 6b3e
000000d0: 0992 8d3d 8674 ec3d 5cfb 75bd e589 403e
000000e0: 6e63 e63c 9da6 31bd 49a8 823d 6220 223e
000000f0: 2a10 00be de38 b1bd 3cc4 333e c89d dbbd
00000100: c321 15be ddab 6cbd efd2 3b3d 4a4c c3bd
00000110: 1848 2bbc a844 1c3c c265 d33d 8e6a 1cbe
00000120: a725 243d be91 9bbd 526f 993d 1444 053e
00000130: a00a 0abe 86df e13c 267a 123e de04 ffbd
00000140: 79e0 acbd 033b 53bd 89e5 65bd 66af 6fbd
00000150: 5597 853c 1fa7 893c 09c3 6d3d db51 9d3d
00000160: c005 963d eda4 17be be1c 1abe e301 5bbd
00000170: b9e7 673d 9ee6 8abc a3be cdbc 980f a6bd
00000180: b9bd 2f3d 56f7 c33d 9492 9bbd 6306 4a3e
00000190: 6b0e 343c 2052 6a3e 4d34 90bd e85f 6d3e
000001a0: 80b9 8c3c 1853 253e 5dae 023e fba0 e8bb
000001b0: ee68 20bd 48ff 42be 2d66 a33d 2f4e e5bd
000001c0: 3cf6 573d cfa7 b03c 6c3e 173e 62af ec3d
000001d0: f569 0f3c 7194 8dbd d93f 45be 6add f0bd
000001e0: 22c7 3ebe 2ff8 d4bd 0fa7 d9bd 9f28 213d
000001f0: 22fd 3abe 2742 f23d e14b 1e3e 8cc5 f9bc
00000200: dc0a b03c 2a0b c73d 6710 32be 4801 0f3e
00000210: 013f 553e d339 e23c beb2 f3bd a889 183e
00000220: 1c92 9bbc 9a60 363d c478 763e a448 903c
00000230: 97be 673d c486 89bd 7b41 98bd 0562 313e
00000240: efaf 0fbe 0a54 443d b711 4bbd f51d 87bd
00000250: 9475 4fbe f805 f4bd bf26 b8bd b2af 923d
00000260: 6b64 2a3d 438d 92be 985e 0dbd 6038 43be
00000270: 8cdb 623e 561f 2fbe 4898 36bd 8768 99bc
00000280: 6bf1 16be bc1e d83d 4e94 2e3d 5b74 213d
00000290: 3acb 833d a983 123c c661 9f3d 8e9a 663e
000002a0: 29e3 883c 2977 fabc 27cd c2bc 0225 1fbe
000002b0: e3fe 8d3c 6f49 c2bc 3a2f e3bd 218e fc3d
000002c0: 1af3 74be 79f7 7ebd f360 393e a8e3 f1bc
000002d0: 29f9 c53d 5d12 ce3d 1a59 16be 27f5 34be
000002e0: 1aa2 29bd 517c b3bd eea2 d7bd c646 1fbd
000002f0: a446 e33d 1844 de3d d4be 10bd db93 ecbd
00000300: f3ad dbbd 52d3 443e 960d d83b 2361 5ebb
00000310: 48f3 04be eb1d 95be 75b3 fc3d ba60 f3bc
00000320: 00e5 07bd 598e 7fbd 68d0 b0bd e396 ebbd
00000330: 3941 3bbe 7594 d53d 4d09 21bd 8543 6fbd
00000340: fe81 303c 8226 893c ed61 7c3d a13f c83d
00000350: 5b55 f3bd 2fda 81be 2fa3 f23d cd92 6cbd
00000360: 92cc 1bbe eb5c 99bd a4b6 4f3d 1e5c e23d
00000370: 158e 52be 4c77 3cbe fd64 fabd 26c4 49be
00000380: f21b 373e eb57 9e3b f4be 1a3e fb40 023e
00000390: 85ca 7a3d bde9 c5bd d25c 923d 6e8e bd3d
000003a0: b718 ca3b 7ec7 43be 58c2 28bd b18d 273e
000003b0: 99e9 6fbd 9024 c8bd ff65 cabd 5687 783c
000003c0: dbac ce3d ea2c e9bc 72e6 f63d 339c 933d
000003d0: 9d51 60bd 2f3b 2bbe 6c0f 823e 1f81 be3d
000003e0: d592 86bd d153 8ebe bc59 1cbd 8afe 983d
000003f0: 5167 b6bd c42d b5bd a535 453e a139 dd3d

fc2.weight f4 [300, 400]
0.07876966 0.021131823 0.039354432 -0.020550333 0.07308192 0.06142527 0.16420121 0.06110774
-0.041731168 -0.022399692 -0.10363193 -0.057860166 0.06477366 0.08716822 0.02544532 -0.076266244
0.07174666 -0.01949215 0.047636535 -0.052880485 0.15541232 -0.026543101 0.038800724 -0.07125115
-0.027007723 -0.11774649 -0.04474547 -0.080716394 -0.02223303 -0.016905418 0.00935861 -0.029518796
-0.055253193 -0.007712362 -0.090505436 0.12435678 0.046530727 -0.11680049 -0.0581362 -0.0466096
0.01899857 0.03864512 0.042220637 -0.12954709 0.074850224 0.074878916 0.08197362 0.044925522
0.046571445 0.102468155 0.031058777 0.08911386 -0.022222962 -0.011570044 -0.009858701 0.03863134
0.030309888 -0.033913318 0.041820038 0.009527475 0.0024250867 -0.08969455 -0.06942396 0.0713438
-0.08687156 -0.0012772707 0.05701537 0.0020360914 -0.0059486856 0.093517445 -0.00789625 -0.008007183
-0.09317616 0.015304859 0.06600469 -0.008124994 -0.1112974 0.061867107 0.0627625 -0.058005854
-0.049935553 -0.056491815 -0.005067667 -0.014377334 -0.052256573 0.0016573326 0.03457667 0.10101297
-0.17848668 0.048108555 -0.03474023 0.09149104 0.015766636 0.0048653744 0.009314823 -0.055072103
-0.1144275 0.12761638 0.037849642 0.08352661 -0.042649552 0.04166565 -0.017863223 0.101186216
-0.033756286 -0.05121018 -0.07879872 0.12130803 -0.01731682 -0.083413936 -0.030377775 0.08301466
0.03989402 0.0023012385 0.0007527803 -0.022235103 -0.01821548 0.013051658 -0.00019160447 -0.02356912
0.066104956 -0.013229391 0.087121874 0.034757353 0.001933454 0.048451062 0.05528481 0.015987767
0.020683756 0.11605246 0.021204181 0.042871624 -0.049348142 0.090723865 -0.06762882 -0.031989202
0.08676086 0.15249898 0.08574143 -0.014103066 0.076272696 -0.009321955 -0.024504488 0.036090475
0.0834405 -0.154101 0.07424552 -0.022746697 0.061912283 0.024052793 -0.019168844 0.013622161
-0.046093795 -0.067806914 -0.07960934 -0.023964804 0.0021526108 -0.024392255 0.045503013 -0.03991121
-0.027895736 0.11911214 0.042946562 -0.044564225 -0.0409763 0.07633298 0.023255061 0.17523597
-0.03534708 -0.022624083 -0.040559985 0.03866776 0.078866266 -0.008466542 -0.061182622 0.013539968
-0.027505007 0.09999468 -0.056491558 0.062227916 -0.019542562 0.059570298 -0.06343595 -0.14377703
-0.05217871 0.022134583 -0.021492232 0.02196966 0.08057672 0.055821378 0.08354709 -0.07779416
0.029075203 0.056044873 -0.069699936 0.003951947 -0.086383685 0.008578466 0.050495617 0.033032384
-0.029995928 0.028449513 -0.016613249 -0.12537614 0.02543704 -0.0081082005 0.08907174 0.07773365
-0.12249999 0.064752765 0.014219631 -0.0050459453 -0.16267267 -0.07369083 -0.014648123 0.07681736
-0.10151024 0.04918571 -0.007031446 -0.023266288 0.025440011 0.03029216 -0.053943086 0.010274493
-0.048840087 0.10869703 0.10483208 0.110369295 -0.08246852 0.05481899 -0.026204266 -0.06352507
0.029349873 -0.038421772 0.032964125 -0.004104961 -0.07013277 -0.037043873 0.076251194 0.08759876
0.07396428 -0.012053663 -0.00056095544 -0.07026111 0.058086175 -0.1917792 0.03801249 0.02578241
-0.027437614 -0.02373747 0.03665644 0.14016208 0.101649575 0.06573997 -0.025044385 0.002703828
00000000: fd51 a13d a51c ad3c 1d32 213d 2c59 a8bc
00000010: f9ab 953d 1099 7b3d 5d24 283e 1c4c 7a3d
00000020: 4dee 2abd 8f7f b7bc fa3c d4bd c8fe 6cbd
00000030: 0da8 843d 4085 b23d b472 d03c 7a31 9cbd
00000040: eaef 923d 00ae 9fbc 871e 433d 3599 58bd
00000050: 6824 1f3e eb70 d9bc 82ed 1e3d 1fec 91bd
00000060: 4d3f ddbc 1225 f1bd 0747 37bd a34e a5bd
00000070: 0b22 b6bc 3b7d 8abc db54 193c 67d1 f1bc
00000080: 2c51 62bd fbb7 fcbb ea5a b9bd c4ae fe3d
00000090: 0197 3e3d 1835 efbd 3920 6ebd b5e9 3ebd
000000a0: e4a2 9b3c 584a 1e3d 8cef 2c3d fea7 04be
000000b0: 134b 993d 1e5a 993d c9e1 a73d d303 383d
000000c0: b3c1 3e3d d3da d13d fa6e fe3c 5481 b63d
000000d0: ee0c b6bc 4890 3dbc 6486 21bc e53b 1e3d
000000e0: 714c f83c b1e8 0abd 7d4b 2b3d 2019 1c3c
000000f0: 34ee 1e3b c7b1 b7bd 262e 8ebd b31c 923d
00000100: b7e9 b1bd 186a a7ba f388 693d f26f 053b
00000110: 31ed c2bb 1386 bf3d 465f 01bc 8f30 03bc
00000120: 24d3 bebd 3bc1 7a3c 782d 873d b21e 05bc
00000130: e4ef e3bd 5d68 7d3d a089 803d 8c97 6dbd
00000140: 3989 4cbd f663 67bd ac0e a6bb e98e 6bbc
00000150: fd0a 56bd db3a d93a 44a0 0d3d e3df ce3d
00000160: 36c5 36be 7a0d 453d c54b 0ebd a85f bb3d
00000170: 0829 813c b86d 9f3b 339d 183c 4993 61bd
00000180: f758 eabd dead 023e 3a08 1b3d 0010 ab3d
00000190: 4cb1 2ebd 9aa9 2a3d e555 92bc b83a cf3d
000001a0: 0844 0abd c4c1 51bd 3961 a1bd 5870 f83d
000001b0: 01dc 8dbc edd4 aabd d0da f8bc 9703 aa3d
000001c0: e967 233d 60d0 163b 3b56 453a 6426 b6bc
000001d0: a138 95bc 9fd6 553c 6fe9 48b9 0714 c1bc
000001e0: 0962 873d 16c0 58bc f46c b23d ba5d 0e3d
000001f0: f36b fd3a 9f74 463d 5372 623d c7f8 823c
00000200: fb70 a93c eaac ed3d 64b4 ad3c 289a 2f3d
00000210: 4721 4abd 6fcd b93d fb80 8abd 1c07 03bd
00000220: aeaf b13d b128 1c3e 3499 af3d 8c10 67bc
00000230: dc34 9c3d 1dbb 18bc a3bd c8bc 9bd3 133d
00000240: dae2 aa3d a7cc 1dbe 090e 983d 4857 babc
00000250: bc97 7d3d 5d0a c53c fb07 9dbc 7c2f 5f3c
00000260: d9cc 3cbd 5ade 8abd 390a a3bd d651 c4bc
00000270: d112 0d3b 44d2 c7bc 5e61 3a3d f079 23bd
00000280: 9985 e4bc 11f1 f33d bce8 2f3d fa88 36bd
00000290: c4d6 27bd 7754 9c3d 6681 be3c 0f71 333e
000002a0: 1ac8 10bd 2456 b9bc 3a22 26bd 1662 1e3d
000002b0: a384 a13d 40b7 0abc a19a 7abd bed6 5d3c
000002c0: 2e52 e1bc 03ca cc3d b163 67bd b3e2 7e3d
000002d0: b917 a0bc fcff 733d b5ea 81bd 493a 13be
000002e0: 58b9 55bd 9653 b53c 7a10 b0bc b7f9 b33c
000002f0: 6805 a53d f5a4 643d bd1a ab3d 8b52 9fbd
00000300: 1f2f ee3c 4f8f 653d d7be 8ebd 567f 813b
00000310: eee9 b0bd b28c 0c3c 7ed4 4e3d f74c 073d
00000320: 05ba f5bc f40e e93c 8218 88bc 9a62 00be
00000330: 5761 d03c 42d8 04bc 3f6b b63d d232 9f3d
00000340: 46e1 fabd 199d 843d 75f9 683c 7558 a5bb
00000350: aa93 26be 38eb 96bd aefe 6fbc 6c52 9d3d
00000360: 9ae4 cfbd f476 493d 0b68 e6bb f198 bebc
00000370: 9267 d03c 4427 f83c 6df3 5cbd 5956 283c
00000380: 8b0c 48bd 8c9c de3d 34b2 d63d 4c09 e23d
00000390: 41e5 a8bd e189 603d 54aa d6bc 6f19 82bd
000003a0: 256f f03c 2660 1dbd 6405 073d e982 86bb
000003b0: c5a1 8fbd 51bb 17bd 9629 9c3d fb66 b33d
000003c0: 967a 973d ba7c 45bc 150d 13ba 0fe5 8fbd
000003d0: c5eb 6d3d c461 44be fcb2 1b3d a235 d33c
000003e0: d9c4 e0bc 1575 c2bc 1025 163d a686 0f3e
000003f0: a72d d03d ada2 863d e229 cdbc b532 313b

fc2.bias f4 [300]
0.06960059 -0.01611558 0.04851609 0.057639632 0.101269715 0.043125182 0.048604485 0.10033303
0.08090574 0.09105945 -0.019743614 0.024784056 -0.15195383 0.03667638 -0.046751473 -0.030166702
0.038167544 0.014906889 0.11992461 0.031817507 0.0643449 0.0015322971 0.015859086 0.004600727
0.09627219 -0.039810516 0.07926914 -0.013671018 0.054029588 0.052924965 0.004098953 0.0026937828
0.083830096 0.059097316 -0.08830405 0.08107231 0.033588827 -0.00019857842 0.023477023 0.10486934
0.012391723 0.048794113 -0.027614376 0.05236949 0.11230087 0.08497461 0.025666812 -0.0717719
-0.022400588 -0.0025204231 -0.07528264 0.018854665 0.0073831403 0.05151832 0.0006056454 0.007891047
-0.062962174 0.00478048 -0.018489646 0.018375468 0.047168802 0.06876803 -0.038003396 0.04320979
0.060230166 0.06279045 -0.0048514185 0.03221032 0.048521012 0.059472192 0.10152424 -0.07113452
0.06862223 -0.001050122 0.034403875 0.034763724 -0.030536424 0.12864059 0.0140827345 -0.040502124
-0.0048572924 -0.032561004 -0.011201676 0.044661276 0.010096701 9.705482e-05 0.02011124 0.036362074
-0.052879743 0.123279475 0.035251737 -0.0507453 0.04334379 0.036751464 0.011255348 0.08775262
0.0001447793 0.085479856 -0.08283622 0.053674646 0.0375682 0.018813072 -0.00978405 0.017282559
0.041354034 0.003827035 0.040963046 0.0352396 -0.13549134 -0.009709954 0.05054417 0.05306851
0.08690354 -0.02438096 -0.0064171716 0.011848596 0.08862841 0.1151709 0.023551911 0.08043286
-0.048638936 -0.027526068 0.08545037 0.0042914115 0.0700604 -0.08376831 0.056852724 0.045252215
0.07753894 0.071365274 0.054722577 0.016085818 0.015352305 0.02358302 0.042162262 0.030114325
0.059634123 0.10220723 0.00028077295 0.0355971 -0.042352878 -0.009990705 0.0060328734 -0.0002308043
0.009655132 0.05145666 -0.022891328 -0.0038270087 -0.05232427 0.06999216 -0.045713 0.09399351
0.053647343 0.0898464 0.05406303 0.10838327 0.03763465 0.03272288 -0.032459367 0.08110147
0.056839928 0.053543933 0.033487268 0.018805772 -0.07679936 -0.03881996 0.014448656 0.076643474
-0.10231887 0.03186155 -0.0036230625 -0.04251533 -0.0048187347 0.011694459 0.07210972 0.03279197
-0.037530705 -0.013007168 -0.05608914 0.057253085 0.037046153 0.05861443 0.12200876 0.001428309
0.050557405 0.026230522 0.08044652 0.061655987 0.06048185 0.003936793 -0.016728591 0.07676315
0.01426652 0.0049019153 0.09239678 0.06640187 0.032946527 0.017438902 -0.090029694 0.10292467
0.042510603 -0.019992568 -0.0654653 0.031619724 0.037697896 0.091555126 0.02219604 0.04375113
-0.041092634 0.012168585 -0.0012989269 0.014082798 -0.060156293 0.04737172 -0.028568018 0.11398996
0.010265061 0.011870612 0.007131791 0.12972493 -0.0846402 -0.051831976 -0.018788485 0.02404193
0.048604008 0.01999306 -0.029798051 0.03132697 -0.03944108 0.028853077 0.010053696 0.008483339
-0.06216737 0.085223906 -0.01637368 -0.005875787 -0.068350725 0.052607063 -0.009114639 -0.04247881
-0.014578467 0.085725315 0.056012064 -0.026847364 -0.028631244 -0.015904112 0.04878638 0.041314863
0.022498094 0.002181181 0.06849551 0.06529654 0.030461852 0.02256082 -0.035952453 -0.04123718
00000000: c18a 8e3d d204 84bc cfb8 463d 8917 6c3d
00000010: 7f66 cf3d 08a4 303d 7f15 473d 677b cd3d
00000020: e9b1 a53d 607d ba3d 5cbd a1bc ef07 cb3c
00000030: c999 1bbe f939 163d 797e 3fbd 2920 f7bc
00000040: 9255 1c3d 063c 743c 099b f53d 1353 023d
00000050: 42c7 833d 5cd7 c83a eaea 813c b2c1 963b
00000060: 5b2a c53d 5a10 23bd dc57 a23d 68fc 5fbc
00000070: 214e 5d3d d9c7 583d 8350 863b 2d8a 303b
00000080: 1daf ab3d 0710 723d c1d8 b4bd 3d09 a63d
00000090: 7094 093d 7d39 50b9 e352 c03c bdc5 d63d
000000a0: a706 4b3c 56dc 473d 8b37 e2bc 6481 563d
000000b0: 00fe e53d 2b07 ae3d 3543 d23c 25fd 92bd
000000c0: 7081 b7bc af2d 25bb c92d 9abd 1975 9a3c
000000d0: 45ee f13b e004 533d 2dc4 1e3a 7349 013c
000000e0: 50f2 80bd 93a5 9c3b 9977 97bc 2688 963c
000000f0: 1334 413d 41d6 8c3d 73a9 1bbd c0fc 303d
00000100: e8b3 763d 4898 803d a6f8 9ebb f8ee 033d
00000110: f8bd 463d 1d99 733d f1eb cf3d faae 91bd
00000120: d089 8c3d 3fa4 89ba 14eb 0c3d 6864 0e3d
00000130: 8627 fabc 5cba 033e 45bb 663c 8ee5 25bd
00000140: ec29 9fbb b05e 05bd 3c87 37bc beee 363d
00000150: a26c 253c e989 cb38 54c0 a43c 66f0 143d
00000160: 6e98 58bd f379 fc3d 2064 103d 4eda 4fbd
00000170: 4289 313d b488 163d 5a68 383c a5b7 b33d
00000180: e6cf 1739 1010 af3d 09a6 a9bd f2d9 5b3d
00000190: 1de1 193d df1d 9a3c 484d 20bc 2794 8d3c
000001a0: d962 293d fece 7a3b dec8 273d 6657 103d
000001b0: 3ebe 0abe 8016 1fbc 6707 4f3d 5e5e 593d
000001c0: 7cfa b13d 94ba c7bc 2347 d2bb 9d20 423c
000001d0: d082 b53d b9de eb3d f0ef c03c fcb9 a43d
000001e0: 9f39 47bd 597e e1bc 9b00 af3d f89e 8c3b
000001f0: d47b 8f3d b88e abbd 67de 683d 635a 393d
00000200: bccc 9e3d f527 923d c824 603d 68c6 833c
00000210: 3c88 7b3c 2d31 c13c 56b2 2c3d 51b2 f63c
00000220: e942 743d 0652 d13d b534 9339 44ce 113d
00000230: 367a 2dbd 0eb0 23bc 69af c53b 0f04 72b9
00000240: 8f30 1e3c 38c4 523d 9886 bbbc 8dce 7abb
00000250: f951 56bd 0d58 8f3d 8e3d 3bbd ab7f c03d
00000260: 51bd 5b3d 6401 b83d 3271 5d3d 0cf8 dd3d
00000270: ca26 1a3d 6d08 063d 1df4 04bd 8718 a63d
00000280: fcd0 683d e250 5b3d f229 093d 900e 9a3c
00000290: fc48 9dbd ae01 1fbd 0eba 6c3c 41f7 9c3d
000002a0: 8e8c d1bd 4281 023d e770 6dbb 8e24 2ebd
000002b0: 7ae6 9dbb 1e9a 3f3c 43ae 933d df50 063d
000002c0: ccb9 19bd 041c 55bc babd 65bd 3682 6a3d
000002d0: b5bd 173d af15 703d bbdf f93d 1936 bb3a
000002e0: 4815 4f3d 64e1 d63c 25c1 a43d fd8a 7c3d
000002f0: d1bb 773d 3700 813b 660a 89bc 0036 9d3d
00000300: 1fbe 693c 3fa0 a03b 863a bd3d b4fd 873d
00000310: f0f2 063d 07dc 8e3c 7d61 b8bd 2bca d23d
00000320: 991f 2e3d 74c7 a3bc ac12 86bd af83 013d
00000330: 1c69 1a3d 4181 bb3d 78d4 b53c 6334 333d
00000340: c050 28bd bf5e 473c c140 aaba 89bb 663c
00000350: 7266 76bd d908 423d 7a07 eabc 9173 e93d
00000360: c92e 283c f57c 423c cdb1 e93b 9dd6 043e
00000370: d757 adbd c44d 54bd 4fea 99bc 95f3 c43c
00000380: ff14 473d 7cc8 a33c 0b1b f4bc b550 003d
00000390: f88c 21bd 4a5d ec3c 42b8 243c b4fd 0a3c
000003a0: 36a3 7ebd df89 ae3d 1922 86bc ad89 c0bb
000003b0: 77fb 8bbd 817a 573d 9155 15bc 43fe 2dbd
000003c0: 86da 6ebc c190 af3d e86c 653d 01ef dbbc
000003d0: 128c eabc 5749 82bc 3ad4 473d c639 293d
000003e0: ec4d b83c 25f2 0e3b 6047 8c3d 31ba 853d
000003f0: 228b f93c 78d1 b83c e142 13bd 51e8 28bd

fc3.weight f4 [4, 300]
-0.05727783 0.034573648 0.0153480405 -0.0741663 0.09878959 0.0020327822 -0.16488199 -0.15540908
-0.120393455 0.119792275 -0.033364702 0.02931425 0.3555057 0.04852275 -0.18471827 0.007747144
-0.03606537 0.1527639 0.05747048 0.1288082 -0.0010820308 0.23783211 -0.09094507 -0.061005622
0.0059634685 -0.026097257 -0.02884266 -0.030769866 0.02313153 0.15294167 0.011317972 0.08740752
-0.016270839 -0.016109336 0.036649283 0.049147498 -0.087444894 0.014943862 -0.14434437 -0.12217484
-0.020904992 0.0036386114 -0.005422124 -0.0129596125 -0.26159254 0.022818096 0.21242628 0.11132665
-0.05678737 0.0022845624 0.47776854 -0.056092806 0.15854666 0.0024179474 0.0028834625 -0.0561078
0.038850673 -0.055968124 -0.037937712 0.04468916 -0.22006449 0.04639762 0.14607173 -0.058308255
0.060540497 0.108102344 0.09121791 0.10967309 0.10618715 0.07424796 0.006757718 0.04677409
-0.094278865 -0.010544459 0.036696386 0.19374059 0.0021206553 0.0012577339 0.016121238 0.05785695
-0.029261079 0.29339242 0.20884743 -0.10816293 0.16497196 -0.3164937 0.014978563 0.037741538
-0.04123242 -0.051983397 -0.02940151 0.30301234 -0.044998135 0.07240878 -0.06998992 -0.017317845
0.09553883 -0.13371794 -0.095840104 0.084537186 -0.04713776 0.23225614 -0.0053481087 -0.23209238
-0.22858255 0.01775336 -0.13679051 0.22237284 0.41600585 0.00048304957 0.10554362 0.24616991
-0.07854041 0.025908247 -0.054194618 -0.3368969 0.04940906 0.05193914 0.027005883 0.0030982697
0.14028421 -0.13562898 -0.0148210265 -0.019464282 0.08625415 0.5259764 0.09025119 -0.0181241
-0.06861765 0.009511506 -0.10731338 -0.06394102 -0.23702355 -0.16673934 -0.0491639 0.049430765
0.08886612 -0.09282447 -0.15127546 0.10298523 -0.05239362 0.1587995 -0.020811357 -0.08344788
0.16202897 -0.1512737 0.08357812 -0.08321543 0.029801449 -0.027851554 -0.101441145 0.12918435
-0.14518066 0.08368991 0.013476052 0.094395086 0.13260086 -0.039512906 0.18472904 -0.007344371
-0.19599435 -0.13159555 0.05998275 0.087360166 0.09863308 -0.022733612 -0.19774589 -0.049070846
0.06155095 0.10382109 0.17978401 0.105136454 -0.29002175 0.20021826 -0.35016292 -0.043733936
0.19993278 0.020291371 0.022141643 -0.026387753 0.057623558 0.059998635 -0.011357209 -0.17088836
0.052374553 -0.038602304 0.27216712 -0.066759616 -0.23791884 0.18538806 -0.00093823054 0.08024065
-0.20567825 0.0056258435 -0.21542513 0.04148027 -0.17879716 -0.15772144 0.008007564 -0.29537642
0.030632485 0.15048902 0.12387476 -0.2627665 -0.0031807174 -0.051633477 0.12992814 -0.2799876
0.00091852766 0.022815948 0.03451097 0.23914342 -0.099979505 -0.077003606 0.15406516 0.080420636
0.2467354 -0.23410721 0.08166766 0.09107115 -0.14232236 -0.09407724 0.14015633 -0.11797333
0.16732806 0.034971897 -0.09795906 -0.028644638 0.19947991 -0.29694763 0.13514873 -0.016962072
0.38607556 -0.025267152 -0.068602055 0.11246152 -0.032970823 0.025552949 0.0025491435 0.0119649945
-0.020357193 -0.178284 0.02711471 0.020461133 -0.3600679 0.15542468 0.25460947 -0.18856646
-0.168475 -0.015582095 0.08833639 -0.055091158 0.18997595 -0.022154221 0.052939206 0.05691174
00000000: 289c 6abd 199d 0d3d 5976 7b3c 80e4 97bd
00000010: 3252 ca3d 6d38 053b d3d6 28be 8f23 1fbe
00000020: d890 f6bd a755 f53d 6da9 08bd 7024 f03c
00000030: d804 b63e cbbf 463d c926 3dbe c1db fd3b
00000040: 48b9 13bd 246e 1c3e 2b66 6b3d 4ce6 033e
00000050: eed2 8dba 438a 733e 6941 babd 08e1 79bd
00000060: 3369 c33b eac9 d5bc 7147 ecbc 1611 fcbc
00000070: 567e bd3c be9c 1c3e 046f 393c b702 b33d
00000080: 6c4a 85bc baf7 83bc 8f1d 163d e34e 493d
00000090: 4f16 b3bd 1ad7 743c 03cf 13be cd36 fabd
000000a0: f240 abbc c575 6e3b 13ac b1bb 8e54 54bc
000000b0: 75ef 85be 04ed ba3c 4686 593e 3aff e33d
000000c0: e099 68bd 99b8 153b 149e f43e 92c1 65bd
000000d0: 0e5a 223e 6d76 1e3b 79f8 3c3b 4bd1 65bd
000000e0: e221 1f3d d53e 65bd 9364 1bbd fb0b 373d
000000f0: 9658 61be 6e0b 3e3d d493 153e a3d4 6ebd
00000100: 50f9 773d c364 dd3d 75d0 ba3d 499c e03d
00000110: a678 d93d 500f 983d d96f dd3b 3096 3f3d
00000120: 4715 c1bd abc2 2cbc f34e 163d ef63 463e
00000130: b1fa 0a3b 8cda a43a b010 843c 69fb 6c3d
00000140: eeb4 efbc 8837 963e 1adc 553e 8784 ddbd
00000150: 69ee 283e 760b a2be a668 753c df96 1a3d
00000160: 53e3 28bd 8bec 54bd 6fdb f0bc 6f24 9b3e
00000170: f74f 38bd 0e4b 943d e056 8fbd 27de 8dbc
00000180: dda9 c33d 5bed 08be d147 c4bd d521 ad3d
00000190: 8613 41bd 8ed4 6d3e 303f afbb a0a9 6dbe
000001a0: 8b11 6abe 7f6f 913c d012 0cbe b5b5 633e
000001b0: b8fe d43e d141 fd39 4127 d83d f713 7c3e
000001c0: cbd9 a0bd 883d d43c 2dfb 5dbd c07d acbe
000001d0: 2861 4a3d 23be 543d 713b dd3c 570c 4b3b
000001e0: aaa6 0f3e 53e2 0abe e4d3 72bc 8f73 9fbc
000001f0: 04a6 b03d 64a6 063f 9ed5 b83d fe78 94bc
00000200: 6987 8cbd 26d6 1b3c 1ec7 dbbd 82f3 82bd
00000210: 4db6 72be b8bd 2abe 1660 49bd ea77 4a3d
00000220: 71ff b53d c11a bebd f4e7 1abe ece9 d23d
00000230: b19a 56bd 569c 223e 947c aabc b9e6 aabd
00000240: ecea 253e 7ee7 1abe 012b ab3d da6c aabd
00000250: 2b22 f43c f128 e4bc 60c0 cfbd e748 043e
00000260: 3daa 14be 9e65 ab3d a9ca 5c3c 3652 c13d
00000270: 85c8 073e 49d8 21bd 9c29 3d3e 0da9 f0bb
00000280: beb2 48be fcc0 06be 79b0 753d e3e9 b23d
00000290: 2400 ca3d d73b babc e67d 4abe 83fe 48bd
000002a0: d91c 7c3d 27a0 d43d 4d19 383e c851 d73d
000002b0: bb7d 94be 0406 4d3e 8e48 b3be 5b22 33bd
000002c0: 2ebb 4c3e 173a a63c 6462 b53c 212b d8bc
000002d0: ae06 6c3d 21c1 753d 9613 3abc 5cfd 2ebe
000002e0: b386 563d 731d 1ebd 7d59 8b3e 44b9 88bd
000002f0: ffa0 73be 5ed6 3d3e 96f3 75ba 3655 a43d
00000300: 529d 52be ff58 b83b 6898 5cbe 37e7 293d
00000310: 9a16 37be bb81 21be 2832 033c 943b 97be
00000320: faf0 fa3c cb19 1a3e 0db2 fd3d 5589 86be
00000330: 9573 50bb a07d 53bd e20b 053e 895a 8fbe
00000340: 59c9 703a 83e8 ba3c 605b 0d3d 03e2 743e
00000350: 0ec2 ccbd 11b4 9dbd 42c3 1d3e 93b3 a43d
00000360: 34a8 7c3e cdb9 6fbe 6041 a73d 8383 ba3d
00000370: f4bc 11be 91ab c0bd 2485 0f3e 009c f1bd
00000380: 0c58 2b3e b13e 0f3d c29e c8bd 29a8 eabc
00000390: 7644 4c3e 8509 98be 6e64 0a3e 0bf4 8abc
000003a0: b2ab c53e 0ffd cebc 3c7f 8cbd 3a52 e63d
000003b0: 6a0c 07bd 6b54 d13c 880f 273b d308 443c
000003c0: 21c4 a6bc 1590 36be ab1f de3c 1b9e a73c
000003d0: d25a b8be a627 1f3e 2c5c 823e 9117 41be
000003e0: b684 2cbe 0b4c 7fbc b6e9 b43d 44a7 61bd
000003f0: 0e89 423e c57c b5bc c8d6 583d 491c 693d

fc3.bias f4 [4]
-0.027137995 0.020756435 0.04007264 0.02647191
00000000: 8050 debc 6609 aa3c 3523 243d 9edb d83c
