checkpoints/checkpoint_actor_1100.pth (torch, 542663 bytes, 6 tensors)

fc1.weight f4 [400, 33]
000000 4c 3c 64 bd 35 a6 21 3e 60 8d 86 bc 97 ac b6 3d
       -0.055721566 0.15786059 -0.016424835 0.08919638
000010 97 4e 77 3c 5d 56 ac bc d8 45 9e bd f7 fb ab bd
       0.015094421 -0.021037275 -0.077281654 -0.08397668
000020 bb e1 50 be af eb 13 be 60 c9 e3 bd 4e 65 90 3d
       -0.2039861 -0.14445375 -0.111223936 0.07050572
000030 6c 0f 82 3c be 72 cd bc 2e 56 99 3d d4 b5 1c 3a
       0.015876494 -0.025079127 0.074871406 0.0005978022
000040 34 cf 7b bd d9 d2 03 bd 7e 08 b8 bb 0b da ad bd
       -0.0614769 -0.032183502 -0.0056162467 -0.08488854
000050 cb 12 9b 3c 80 0e 8d bd a4 42 7e bd 0f e2 39 bd
       0.01892986 -0.06887531 -0.062075272 -0.045381602
000060 19 a0 5c bd 04 e2 55 bd 1b c9 99 bd 89 53 3d bd
       -0.05386362 -0.0522175 -0.07509061 -0.046222243
000070 9d c8 83 3c c9 65 4b 3d 13 4c 2e 3d b7 4f ea bc
       0.01608687 0.049657617 0.04255302 -0.028602464
000080 36 4f d8 3e 3d e8 29 be 17 0c e4 bd f1 be b2 bc
       0.42247933 -0.16592498 -0.111351185 -0.021819564
000090 f9 bb 88 3c 5e 3a 29 3c d6 ac 15 bb 9c 7c 67 3d
       0.016691195 0.010328857 -0.0022838614 0.05651532
0000a0 15 b5 b9 3d 11 f2 3d 3c 5e 92 52 bd 92 0c bb bc
       0.09067742 0.011593358 -0.051409118 -0.022833142
0000b0 99 14 90 bd 04 96 67 3d c3 07 08 3d c3 7b 8f 3c
       -0.07035179 0.05653955 0.033210527 0.017515069
0000c0 9f 25 af bc 01 e6 39 bd 38 b0 7f bc 1e 5b 80 3d
       -0.021380244 -0.045385364 -0.015605979 0.06267379
0000d0 fb e7 5f 3d fa 48 f9 bd ae 2f 12 bd a1 c9 cd bc
       0.054664593 -0.12172122 -0.035690002 -0.025120558
0000e0 a3 c2 ac 3d c9 47 8f bd 1f 10 99 bc 8b 48 11 3d
       0.084355615 -0.06996114 -0.018684445 0.035469573
0000f0 a8 7a b0 bc fc 20 0e 3c c3 af 28 bd 6f 1e 80 3d
       -0.021542862 0.008674856 -0.041183244 0.06255805
000100 ec 03 3b bc b6 69 4a 3e 3e 5a 33 3d 9e fe 37 bd
       -0.011414509 0.19766888 0.043787234 -0.044920556
000110 f7 e1 42 be 65 1f 88 bc 9d da e9 bb 8e ce 20 bd
       -0.19031511 -0.016616533 -0.0071366564 -0.039259486
000120 18 2e 2d 3c b9 a5 19 3c c0 ee 8a bd aa 28 5c 3b
       0.010570072 0.00937789 -0.06783819 0.0033593574
000130 68 77 e3 3c 41 02 ae 3c b6 7c 7c bd f6 24 a0 bc
       0.027766898 0.02124131 -0.06164237 -0.019548874
000140 0a 0d 76 3d a6 19 8d 3c 24 6b 13 3e 12 51 c0 3d
       0.06007103 0.017224144 0.1439634 0.09390463
000150 ae 5f 5f 3d c7 70 d9 bd 78 ad 2c 3e df c9 04 bd
       0.054534607 -0.10617214 0.16863048 -0.03241908
000160 29 c4 00 3c a6 7c f8 bd 1f e0 42 3d b8 15 47 bd
       0.007859268 -0.1213315 0.04757702 -0.048604697
000170 f4 27 83 bd 35 d4 81 bd 2f f0 3f bd ec d4 0b bd
       -0.06404105 -0.063393034 -0.046859916 -0.034138605
000180 62 68 f9 3a 2b b2 3c 3d 3e fe a4 be b6 d9 b9 bd
       0.0019028301 0.04606835 -0.3222522 -0.09074728
000190 d5 3b 20 3d 19 4c 5a 3b c5 81 af bd 59 fa 08 be
       0.03911956 0.0033309518 -0.085696734 -0.1337675
0001a0 d3 b0 4f 3d 7e 7f e4 bb e0 86 44 3d b3 d6 43 be
       0.050705742 -0.006973206 0.04798019 -0.1912487
0001b0 51 db 65 bd b9 a9 56 bd d2 95 85 3d 42 51 90 bd
       -0.05611736 -0.052407954 0.065227166 -0.07046749
0001c0 ce bd 83 3d 7e a2 50 3c ab 7f 21 3c cf 37 90 bc
       0.06432687 0.012734054 0.009857099 -0.017604737
0001d0 d3 c2 dc 3b 35 c8 bd bd 2f 74 16 3d 63 02 40 3c
       0.006737092 -0.09266702 0.036731895 0.011719319
0001e0 ce 63 81 3c 35 8f 89 bd 5e ba 16 3d af e4 ea bc
       0.01579466 -0.06716768 0.036798827 -0.028673498
0001f0 49 da d8 3c aa 08 01 be 06 f2 88 bc d6 83 52 3d
       0.026471274 -0.12600961 -0.016716968 0.05139526
000200 00 58 54 b8 6e 3e b5 bc 80 03 08 ba 5a e5 27 bf
       -5.0626695e-05 -0.022124495 -0.000518851 -0.6558434
000210 f1 d6 7e 3d e8 f3 13 3d 92 65 1d 3d 22 68 aa bd
       0.062216703 0.03612128 0.038426943 -0.08320643
000220 ea af bc 3c f7 46 84 bd a4 15 dc bc 39 01 a0 bd
       0.023033101 -0.06458848 -0.026865788 -0.07812733
000230 53 5b 13 be 20 de 16 3d c4 86 5f 3d 2b 59 cb 3d
       -0.14390306 0.03683293 0.054571882 0.09929117
000240 02 62 3b 3d 47 d9 ae bd eb c5 74 bd 9d 2e 2c be
       0.045747764 -0.08537536 -0.05975906 -0.16814657
000250 a0 61 11 3e d5 17 db 3d 92 5d c8 3d c4 4e 4f bd
       0.14197397 0.10697905 0.09783472 -0.050612226
000260 de e1 02 be e9 ac 3c 3d 8c be a0 bb 8b 94 f2 3b
       -0.12781474 0.046063337 -0.0049055275 0.0074029616
000270 b6 c7 32 3d d6 5d 3b bd 63 cf 84 bd 2e 9d d9 bc
       0.04364749 -0.045743786 -0.064848684 -0.026564207
000280 a4 37 07 be e0 80 1b bd 34 5c 93 3a 68 c4 19 bc
       -0.13204819 -0.0379647 0.0011242689 -0.009385206
000290 e6 f0 74 bd d2 d6 a5 3d db 04 d6 3d fb 9c dd 3d
       -0.05980005 0.08097614 0.10450145 0.10820957
0002a0 a3 9d bf bc 53 6c de 3c 3b 54 2c 3c 6f c8 dd 3c
       -0.023390597 0.027151262 0.010518129 0.027073113
0002b0 6b a2 2e be 7f a5 21 be e7 23 b5 3d a7 a4 a5 b9
       -0.17054145 -0.15785788 0.088447385 -0.00031593928
0002c0 e0 ca 18 bd d6 ec 76 bc 57 6e 00 be cf e3 12 3e
       -0.03730285 -0.0150711145 -0.12542091 0.14344715
0002d0 ee ba 28 be 3f 84 47 bd 5a 18 9c 3d a9 a0 63 3c
       -0.16477558 -0.048710104 0.07621832 0.013893285
0002e0 41 e3 90 bc 28 ac d9 3c 92 54 67 bd d1 3a 3b 3d
       -0.017686488 0.026571348 -0.056477137 0.04571039
0002f0 df be 96 bd 23 05 32 3e 53 bc b2 3a 85 c9 86 3d
       -0.073606245 0.17384772 0.0013636447 0.065814056
000300 eb 83 95 3c 1f 24 b4 3d 89 27 40 3d 7d 26 e1 3c
       0.01825138 0.08795952 0.046912704 0.027484173
000310 c0 3e 71 3a 80 76 28 bd 6b ae ff bc 39 ae 16 3d
       0.0009202771 -0.041128635 -0.031211099 0.036787245
000320 05 d6 46 3d 7d 0b 7c 3b 1b e8 97 bd 51 46 f9 3c
       0.04854395 0.0038458996 -0.074173175 0.030429037
000330 d8 57 d6 bc c3 64 49 bd 0c e4 b9 3c 6b 20 78 3d
       -0.026164934 -0.04916836 0.022691749 0.06057779
000340 7b 38 98 3d a0 26 28 3c e1 98 23 3d dc c0 29 bd
       0.07432648 0.010263115 0.03994072 -0.04144369
000350 28 ff bc 3b 8b 21 b8 bd 11 8a 96 bd 88 80 0f bc
       0.0057677217 -0.08990773 -0.07350553 -0.008758672
000360 3f 77 49 3d 0f 3e 67 3d 34 10 ca 3d 64 07 03 ba
       0.049185988 0.056455668 0.09866372 -0.00049983547
000370 80 fd 73 3d fb b3 22 3d d7 dd be 3b 72 c6 35 bc
       0.05956793 0.039722424 0.005824785 -0.011094676
000380 43 33 0a 3e ed d6 55 bc 65 7b 1b 3d 7f 70 2f bd
       0.13496117 -0.013051731 0.037959475 -0.042831894
000390 3e 55 00 bc ac e8 2c 3c a7 b5 68 bf 53 10 c6 bc
       -0.007832823 0.01055352 -0.9090218 -0.024177706
0003a0 bb 4b fb 3d 87 e6 85 bd ec 1f 4a 3d f3 b6 81 bd
       0.12270304 -0.0653811 0.04934685 -0.06333723
0003b0 d1 4d 75 bd 63 c9 6c 3d 38 a4 54 bc a0 39 04 be
       -0.059888665 0.057809245 -0.012978606 -0.12912607
0003c0 5a cd 4c bd 96 6b 9c bb 61 06 39 bd 4c bb 18 bd
       -0.050000526 -0.0047735674 -0.0451721 -0.037287995
0003d0 4a 14 f3 bc da a3 87 bc 40 b0 5d 3d fe af a9 3c
       -0.02967276 -0.016557623 0.054123163 0.020713802
0003e0 0f aa d7 3c 11 4a d8 3d 8b ef a4 3c 3b 86 73 3d
       0.026326207 0.10561002 0.020133754 0.059454184
0003f0 e5 f0 ce 3c 89 6c 31 3a 3d 69 24 3e d7 fb f0 bd
       0.025261352 0.0006768187 0.1605577 -0.11766785

fc1.bias f4 [400]
000000 11 26 58 bd 1b ee ed bc 23 51 4b 3e 0d 39 a7 3c
       -0.052770678 -0.029044202 0.1985517 0.020412946
000010 c9 6f dd bd c0 54 1b be f6 b2 e6 bd b7 53 36 be
       -0.10812337 -0.15169048 -0.11264603 -0.17805372
000020 23 5e 41 be 80 53 98 bc 4d e0 9d 3d 02 a6 9d bd
       -0.18883567 -0.018594503 0.077087976 -0.07697679
000030 6c 60 9d 3d 15 10 59 bc 11 fd 02 be 31 c0 e8 bd
       0.07684407 -0.013248463 -0.1279185 -0.113647826
000040 de 81 af bd 9d 65 06 be b9 8f 56 be 6b bb a8 bd
       -0.08569692 -0.131247 -0.20953263 -0.08238872
000050 6e 5d a3 bd 97 4f 5c bd 6c 6e 9d bd 7e 7c 07 be
       -0.07976805 -0.05378684 -0.07687077 -0.13231084
000060 96 97 5a bd e6 fd 23 be fb de 79 bb 59 fd e0 3d
       -0.05336722 -0.16014823 -0.0038127291 0.10985822
000070 1b 58 3d 3e 89 55 ad bc e2 f2 28 bd d4 59 9e 3d
       0.18490641 -0.02115895 -0.041247256 0.07731977
000080 a5 ac f7 3d 8f 08 8d bc 4b 08 39 bd b4 48 9a 3b
       0.12093476 -0.017215995 -0.045173924 0.004708374
000090 7e cb 01 be 78 1c a4 3d f0 1a a8 3d 1f e9 f9 bd
       -0.12675282 0.080132425 0.08208263 -0.122026674
0000a0 59 e6 91 3d d6 b5 a2 3d d6 12 0b 3e c5 7c 41 3d
       0.071240135 0.07944839 0.13581404 0.04723813
0000b0 64 75 1f bd 80 bf 31 3d 71 f7 d0 3d 76 1e 12 3e
       -0.03893031 0.04339552 0.10203446 0.14269432
0000c0 84 73 bc 3d ed b9 49 bd a9 33 ed bb 3e 27 6e 3e
       0.0920172 -0.04924958 -0.0072388244 0.23257157
0000d0 d6 80 5a 3d 1c 0b 1c 3e 10 15 63 bd 3f 24 58 3e
       0.053345524 0.15238613 -0.05544001 0.21107577
0000e0 94 3d 23 3d d1 b4 39 bd 29 dd 81 3d 47 92 2b 3e
       0.039853647 -0.045338456 0.06341011 0.16755019
0000f0 a1 20 0e be 5d 50 cc bd fd ae 2a 3e 42 01 e3 bd
       -0.13879634 -0.099762656 0.16668315 -0.11084224
000100 d7 9b 23 be c2 3e 97 bd 43 05 80 3d 8a c2 9b bd
       -0.15977417 -0.07385017 0.062510036 -0.07605465
000110 e0 be aa bb 08 74 9a 3c 02 5e b7 3d 75 71 2a be
       -0.0052107424 0.018854156 0.089534774 -0.16644843
000120 36 16 2c 3d 5c f7 d5 bd fb 5d a3 3d 7d b7 f9 3d
       0.04201337 -0.10447571 0.0797691 0.12193201
000130 d5 b5 10 be e0 50 b7 3c c4 0c 14 3e e8 30 fe bd
       -0.14131863 0.022377431 0.14457995 -0.12411672
000140 ed 57 bf bd 6f 40 0b bd 3e 7d 5c bd 4d 9b e7 bc
       -0.093429424 -0.033996996 -0.053830378 -0.028272295
000150 3d 9b 84 3c b4 ba f5 3c 28 87 57 3d 8f 25 81 3d
       0.016187305 0.029996254 0.05261913 0.06305992
000160 2c 1f 86 3d 17 42 18 be 88 01 0b be 40 64 f5 bc
       0.06548914 -0.14868961 -0.13574803 -0.02995503
000170 59 fb 24 3d 51 7b a5 bc 25 d5 02 bd bd 69 a4 bd
       0.040278766 -0.020200403 -0.03194155 -0.080279805
000180 17 98 f1 3c 5c 08 bd 3d c4 5c 97 bd 8f a5 4c 3e
       0.029491467 0.0923011 -0.073907405 0.1998503
000190 be 98 77 3c 8e 66 64 3e 55 1d a1 bd 1e b9 70 3e
       0.0151121 0.22304747 -0.07866923 0.23508117
0001a0 14 0b 95 3b ef 21 20 3e 7c a5 e0 3d 90 0b e0 bb
       0.0045484398 0.15637945 0.10969064 -0.006837316
0001b0 fb 33 88 bc ce cd 3e be 51 42 84 3d 6e 58 e4 bd
       -0.016626349 -0.18633196 0.06457961 -0.11149679
0001c0 f2 14 10 3d 2d 88 b9 3c db 27 1c 3e c9 23 d2 3d
       0.035176225 0.022647941 0.15249579 0.10260732
0001d0 31 19 b3 3b a4 60 a4 bd f5 72 42 be a5 ea 04 be
       0.0054656495 -0.08026245 -0.18989165 -0.12980135
0001e0 39 1e 6c be dc 8b da bd 16 44 df bd a8 3e 0f 3d
       -0.23058404 -0.10671207 -0.10901658 0.034971863
0001f0 18 21 47 be 9d e9 c2 3d e3 90 17 3e 6f 0b 80 bd
       -0.19446218 0.095172144 0.14801364 -0.06252181
000200 a9 5c 20 3c be 6a ee 3d 81 8e 40 be 18 e4 fa 3d
       0.009787717 0.11641453 -0.18804361 0.12250537
000210 7e 39 55 3e 67 b2 e5 3c 07 33 09 be 67 dc 19 3e
       0.20822713 0.02803917 -0.13398372 0.15025483
000220 f7 35 e4 bc 38 aa c3 3c c6 65 61 3e 59 2e b2 3c
       -0.027857764 0.023884878 0.2201148 0.021750616
000230 5a c9 ef 3c 67 9a b7 bd f2 fa 94 bd 4b 39 20 3e
       0.029270817 -0.08964997 -0.072744265 0.15646856
000240 d7 b4 10 be 77 93 fb 3c 1d d3 23 bd 7b 01 99 bd
       -0.14131485 0.030709965 -0.039996255 -0.074709855
000250 14 8f 4f be 86 f5 13 be 41 e7 63 bd f3 a4 78 3d
       -0.20269424 -0.14449129 -0.055640463 0.060704183
000260 e5 d6 28 3d 18 2b 98 be 35 7f 22 bd 6e 6f 47 be
       0.041220564 -0.29720378 -0.039672095 -0.19476101
000270 c0 db 78 3e 04 39 1d be 16 aa e1 bc 14 fc 97 bc
       0.24302578 -0.15353781 -0.027546924 -0.018552817
000280 5c e9 1b be 6a cc cd 3d 7f 08 27 3d 13 8b 1c 3d
       -0.15225738 0.100487545 0.040779587 0.03821857
000290 92 08 56 3d 4b fe 83 3c 30 47 88 3d 6a 4a 59 3e
       0.052254267 0.016112467 0.06654203 0.21219793
0002a0 fc 43 3c 3b 26 a7 ec bb 84 8c 20 bd b8 77 16 be
       0.0028727045 -0.007222074 -0.039196506 -0.14694107
0002b0 0f 6a fa 3c 64 1a 20 bd 11 6b e1 bd eb d9 03 3e
       0.03056815 -0.039087668 -0.110067494 0.12876098
0002c0 77 bc 80 be bd 06 c3 bd 17 8e 40 3e 4c 76 69 bd
       -0.25143787 -0.095227696 0.18804203 -0.056997582
0002d0 58 98 dc 3d a3 8a d5 3d c0 97 0c be 95 99 31 be
       0.10771245 0.104268335 -0.13729763 -0.17343743
0002e0 ee 16 87 bd 01 bc a6 bd 75 6d e9 bd b0 75 28 bd
       -0.0659617 -0.08141328 -0.113978304 -0.04112786
0002f0 a8 08 e9 3d 09 98 d8 3d bf 8e 7d bd e7 33 02 be
       0.11378604 0.105758734 -0.06190371 -0.12715112
000300 be 03 e7 bd d6 cf 3d 3e 83 5f d5 3b 7a ef 18 3c
       -0.11280011 0.18536314 0.00651163 0.009334439
000310 1d 56 17 be 3d 19 ad be 02 64 00 3e c6 c3 84 bc
       -0.14778943 -0.33808318 0.1253815 -0.016206633
000320 ca 92 21 bd b9 87 56 bd 5d 75 bb bd a1 c9 cd bd
       -0.03944663 -0.05237553 -0.09153245 -0.10048223
000330 b8 cb 3b be 72 c9 9d 3d fc 43 c0 bc bc e7 9d bd
       -0.18339431 0.07704438 -0.023469917 -0.077102154
000340 c5 0e b1 3b b3 41 b8 3c 33 83 6e 3d f0 2c d0 3d
       0.005403372 0.022492265 0.05823059 0.10164821
000350 de 7d 25 be 10 1e 8b be 5a 61 ca 3d 22 98 25 bd
       -0.16161296 -0.27171373 0.098818496 -0.04042829
000360 d6 9c 2e be a1 6e a7 bd 1e 6c 14 3d ef 71 03 3e
       -0.17052016 -0.08175398 0.03623592 0.12836431
000370 ee b9 77 be 01 df 47 be f9 c5 0d be f3 6a 4b be
       -0.2419202 -0.19518663 -0.13845052 -0.19865017
000380 97 2c 26 3e a1 85 09 3b eb 6b 31 3e 04 77 ed 3d
       0.16227947 0.002098419 0.17326324 0.11594966
000390 44 29 84 3d 37 b5 03 be 6c 7b 68 3d 2d 99 c3 3d
       0.06453183 -0.12862097 0.05675833 0.095507
0003a0 8c 4b 4e bc ae 38 46 be ae 1f 8d bd 9a 84 20 3e
       -0.012591254 -0.19357559 -0.06890808 0.15675583
0003b0 bf 20 3e bd ec 0d b2 bd 87 d2 b4 bd 37 79 de 3c
       -0.046417948 -0.08694062 -0.088292174 0.02715741
0003c0 e3 4c fc 3d 51 b2 dc bc 9e c8 df 3d 3f 3b ae 3d
       0.123193525 -0.026940497 0.109269366 0.08507394
0003d0 96 f1 55 bd 38 fd 15 be c4 4b 75 3e f7 e7 bf 3d
       -0.052232347 -0.14647377 0.23954684 0.09370416
0003e0 85 f4 82 bd 45 c7 93 be fc 0a dd bc 75 fc 9b 3d
       -0.06394295 -0.28862968 -0.026982777 0.07616512
0003f0 da 5f a2 bd 41 25 9f bd 9b 16 42 3e 23 e8 d8 3d
       -0.079284385 -0.077707775 0.18953936 0.105911516

fc2.weight f4 [300, 400]
000000 b5 06 8a 3d d5 97 01 3d a5 29 1a 3d 9c db 8d bc
       0.067395605 0.03163894 0.03763737 -0.017316632
000010 56 9a 9a 3d 21 ee 96 3d d7 b1 02 3e 6e 26 61 3d
       0.075489685 0.07369638 0.12763153 0.05496829
000020 16 2d 33 bd 08 10 ff bc ab d5 e9 bd 16 be 3f bd
       -0.04374417 -0.031135574 -0.11417707 -0.04681214
000030 87 cf 87 3d 0b 84 ae 3d 42 32 e0 3c 52 5e b2 bd
       0.066313796 0.08521279 0.027367715 -0.087093964
000040 f9 fd 65 3d 89 52 e0 bc 2a 90 7b 3d 2e 90 7c bd
       0.05615041 -0.027383106 0.061416782 -0.061660938
000050 1d fa 1b 3e 36 f9 d8 ba fa 1d 37 3d 0a 96 97 bd
       0.1523213 -0.0016553763 0.044706322 -0.074016646
000060 29 21 47 3d 0c f1 d0 bd 61 c1 83 bd 9b 5a 3e bd
       0.04861561 -0.10202226 -0.064333685 -0.046473127
000070 50 5c 15 bd 5a d6 5c 3c e0 0a ad 3c ab 3c 02 bd
       -0.03646499 0.01347884 0.02112335 -0.03179614
000080 64 af 3a bd 72 9a 3c bd 01 65 a2 bd b7 00 0d 3e
       -0.04557742 -0.046045728 -0.07929421 0.13769804
000090 c4 20 c6 3c 87 20 e9 bd 80 b9 83 bd f6 5f 3f bd
       0.024185546 -0.11383157 -0.06431866 -0.046722375
0000a0 79 ff 0e 3c e6 24 97 3d 7f e4 31 3d 00 d2 e4 bd
       0.008727902 0.07380085 0.0434308 -0.11172867
0000b0 9e df eb 3d 9b ed 97 3d 4b 35 92 3d fd 52 47 3d
       0.11517261 0.074183665 0.07139071 0.04866313
0000c0 7b 92 0a 3d 5f 49 d0 3d dc c7 94 3d 36 f4 b8 3d
       0.0338311 0.101702444 0.07264683 0.090309545
0000d0 f4 ed cc 3b 47 8a d2 bc 00 1a fb bb dc 4c 58 3d
       0.006253952 -0.025700701 -0.0076630116 0.052807674
0000e0 4c da 19 3d 35 14 45 bd 9c d0 57 3d 69 a6 e6 3c
       0.0375617 -0.048114974 0.05268918 0.028155522
0000f0 31 f3 38 3d 7d 19 a7 bd 26 b5 67 bd 7f f1 8f 3d
       0.0451538 -0.081591584 -0.05656924 0.070284836
000100 d6 b0 b3 bd 28 c8 0a 3c 18 28 63 3d 48 0b 38 3b
       -0.08773963 0.0084705725 0.05545816 0.0028082896
000110 2f 8f e2 3c 33 24 12 3e f1 fe 6f bc 11 01 71 3b
       0.027656166 0.14271621 -0.014648185 0.0036774317
000120 6a fc a7 bd eb 78 61 3d 8e e7 86 3d 67 82 65 bc
       -0.08202441 0.055046957 0.06587134 -0.014008141
000130 f2 c1 d9 bd ed 6a e9 3c 12 b2 a6 3d 42 0b 15 bd
       -0.10632695 0.028493369 0.08139433 -0.03638769
000140 0e f4 92 bd 2b ec 71 bd 2a 11 62 bc f2 6b 47 3b
       -0.07175456 -0.059063118 -0.013798038 0.003042933
000150 43 c0 0c bd 2e 26 ca 3c eb 73 c0 3c 44 59 94 3d
       -0.034363043 0.024676409 0.023492774 0.072435886
000160 91 d5 37 be d6 89 56 3d 92 c1 9a bc 9e 1c 95 3d
       -0.17952563 0.052377544 -0.01889113 0.07280849
000170 d3 90 56 ba 81 53 ff 3b e5 17 66 3c 9b f1 19 bd
       -0.00081850326 0.007791937 0.014043783 -0.03758393
000180 9d 7f 03 be 6c 24 1b 3e 48 9d 80 3c b4 39 dc 3d
       -0.1284165 0.15150613 0.015699998 0.107531935
000190 4d e1 93 bc 66 5a fa 3c 92 11 b4 bc 97 84 ab 3d
       -0.018051768 0.030560683 -0.021981034 0.08374899
0001a0 5a 8c 4c bd 97 e6 80 bd dc 82 fe bc 6c e6 f0 3d
       -0.049938537 -0.062939815 -0.031068258 0.117626995
0001b0 f6 bb d9 bc 9f 38 a4 bd dc 2f d3 bc c5 a3 df 3c
       -0.026578885 -0.08018612 -0.025779657 0.027299771
0001c0 ab 7b 84 3d 34 25 28 bc eb 4a 07 3c 82 81 07 bd
       0.064689 -0.010262776 0.008257608 -0.033082493
0001d0 6c a9 71 bc e1 62 2e 3c dd a5 8d bb 12 d1 16 bd
       -0.014749866 0.010643692 -0.004322751 -0.03682048
0001e0 24 fa a5 3c 3e 1e 37 bc 66 aa a0 3d e0 4c b2 3c
       0.020260878 -0.011176644 0.07845001 0.021765172
0001f0 c3 ba 31 3b f8 3e 6c 3d 3e 29 7b 3d 09 3f 39 3d
       0.0027119375 0.05767724 0.06131863 0.04522613
000200 a0 3b 16 3d 4c 14 bd 3d 74 18 84 3d 71 3f 10 3d
       0.036677957 0.09232387 0.064499766 0.035216752
000210 d1 dc 29 bd bf 58 e1 3d a4 87 9b bd 3e f2 14 bd
       -0.041470353 0.11003255 -0.07594231 -0.036363833
000220 9b 8f b7 3d a0 a3 1d 3e 42 86 c4 3d c6 1b 82 bc
       0.089629374 0.15394449 0.0959592 -0.015882384
000230 68 d2 83 3d 34 dd 6b 3c b0 7f 7c ba 9b 6a 6c 3d
       0.06436616 0.014396001 -0.0009632064 0.057718854
000240 db d2 9a 3d 93 60 0a be c7 49 54 3d 30 08 97 bc
       0.07559749 -0.13513403 0.051828172 -0.018436521
000250 5a 60 fe 3d ec 23 3e 3d 1e 54 95 bc 31 eb 04 3c
       0.12420721 0.046420977 -0.018228587 0.008112715
000260 52 cf e6 bc 21 94 67 bd 7d 22 a7 bd 79 3b 98 3b
       -0.02817503 -0.05653775 -0.08160875 0.0046457616
000270 9e 67 26 3b 47 92 20 bd f7 f6 2c 3d 5f a2 25 bd
       0.002539135 -0.039202 0.04222771 -0.040438052
000280 60 56 92 bc 88 a5 db 3d 0a 7a 44 3d 35 04 1e bd
       -0.017863452 0.10724932 0.047967948 -0.03857823
000290 81 22 39 bd 36 ee 30 3d b7 5a 5f bc a6 d3 3e 3e
       -0.04519892 0.043195926 -0.013632468 0.18635425
0002a0 cc 2f 40 bd fb d9 1f bd 6d ab ef bc 5f 08 37 3d
       -0.046920583 -0.03902624 -0.029256547 0.044685718
0002b0 cb 2b a1 3d dd 2e 6b bc 4e 5a 52 bd 24 67 f7 3c
       0.07869681 -0.014354435 -0.051355653 0.030200548
0002c0 be de 8f bd 71 5d d0 3d a0 0e 75 bd 1b 46 3d 3d
       -0.070249066 0.101740725 -0.0598284 0.046209436
0002d0 f1 23 f2 bc d4 27 0e 3d b4 9c 81 bd 1a 56 0a be
       -0.029558154 0.03470595 -0.06328717 -0.13509408
0002e0 82 d4 88 bd 83 6a ef 3c 29 19 90 3c 71 6a 50 3c
       -0.06681158 0.029225593 0.017590122 0.01272069
0002f0 a3 93 91 3d 89 9f 6c 3d e8 fa 9b 3d 36 35 c2 bd
       0.071082376 0.057769332 0.07616216 -0.094828054
000300 b7 2d 9f 3c f7 fa 6b 3d 75 4d 83 bd 32 85 76 ba
       0.019430978 0.057612386 -0.06411258 -0.0009404003
000310 05 05 9c bd 62 fc 55 bc 38 f7 68 3d 59 38 14 3d
       -0.07618145 -0.013060661 0.05687639 0.03618655
000320 fa 02 da bc ee 1e 07 3d a0 8b a6 bb ab 32 f4 bd
       -0.026612747 0.03298848 -0.0050825626 -0.11923727
000330 bf ce d6 3c 93 7b 3d bc 3e 90 c1 3d 31 48 8a 3d
       0.026221631 -0.011565107 0.0945134 0.06752051
000340 89 14 c7 bd 3f c0 1c 3d ad 83 81 3c d7 18 2e 3c
       -0.09720714 0.038269278 0.015809858 0.0106260395
000350 2c 66 18 be ad 4e c7 bd 1f ac 9a bc 59 af 8d 3d
       -0.14882725 -0.09731803 -0.018880902 0.069182105
000360 b0 f3 d9 bd c5 f5 87 3d 19 56 48 bc a1 73 0e bd
       -0.10642183 0.06638674 -0.0122275585 -0.03477824
000370 30 ba 05 3c 28 7a 5c 3d 00 e6 69 bd 3d d5 2a 3c
       0.008162066 0.053827435 -0.05710411 0.0104268165
000380 95 8d 82 bd 8c 6b fc 3d d4 50 d3 3d 56 16 c2 3d
       -0.06374661 0.123252004 0.10318151 0.094769165
000390 6c aa bb bd 9f 62 5d 3d a7 9b ba bc 73 a8 7a bd
       -0.09163365 0.05404913 -0.022779299 -0.061195802
0003a0 ef 4e 58 3c 8b 1b 39 bd e8 fe 00 3d 84 ce 7d bc
       0.013202413 -0.045192283 0.031493098 -0.015491132
0003b0 1e 89 81 bd b9 f6 07 bd 6f 6b 88 3d 43 03 93 3d
       -0.06324981 -0.033194277 0.06661116 0.071783565
0003c0 c3 97 b3 3d 50 dc f9 bc d8 e5 21 3a 1a 1d ad bd
       0.087691806 -0.030500561 0.0006175912 -0.08452816
0003d0 2e 32 08 3d 06 60 6c be 2c a5 31 3d de 4b e1 3c
       0.03325098 -0.23083505 0.04337041 0.027501997
0003e0 36 52 39 bd bc 4c bb bc ad 32 39 3d fb 4d 1d 3e
       -0.045244418 -0.022863738 0.045214344 0.15361778
0003f0 43 cb e8 3d 16 8b 6a 3d 1e e5 96 3b 8b d8 93 bc
       0.11366894 0.05726155 0.0046049496 -0.018047592

fc2.bias f4 [300]
000000 d4 76 8e 3d aa 20 38 bc e2 35 18 3d 1b 5d 68 3d
       0.069562584 -0.0112382565 0.03716076 0.056729417
000010 f2 86 02 3e ad d5 0c 3d b8 14 2c 3d 35 76 e7 3d
       0.1274679 0.034383465 0.042011946 0.11301843
000020 46 0a b9 3d 6d f8 df 3d e9 55 2b bc df 3d ca 3c
       0.09035163 0.10936055 -0.010457494 0.024687706
000030 40 8e 1c be 38 22 00 3d bb c9 2d bd 8c cb c2 bc
       -0.15288639 0.031282634 -0.042428713 -0.0237787
000040 d4 d6 08 3d d7 0e 8a 3b d5 73 03 3e 05 d3 aa 3c
       0.033408 0.004213195 0.12837155 0.020852575
000050 69 b3 99 3d 7e 64 2b bb 3b 93 5e 3c 53 61 e3 3a
       0.07504923 -0.0026152427 0.013584907 0.001734773
000060 86 bc e8 3d af ee 44 bd 31 14 b1 3d f1 d5 9f bc
       0.11364083 -0.04807919 0.08646429 -0.019511195
000070 cb c8 2e 3d c5 0d 49 3d b7 d2 50 bc 43 17 e9 3b
       0.04267196 0.049085397 -0.012745551 0.0071133687
000080 dd ed bc 3d ad 84 a8 3d 24 9a b6 bd 90 86 94 3d
       0.09225056 0.08228431 -0.08916119 0.07252228
000090 a3 6b 3a 3d af a4 b6 38 cc 8d cf 3c 5f ed da 3d
       0.045512807 8.709111e-05 0.025336169 0.10689806
0000a0 29 5f 13 3c 52 55 19 3d c7 bb ee bc 9a da 39 3d
       0.008994856 0.037434883 -0.029142274 0.04537449
0000b0 86 49 ed 3d 7d 5a ac 3d b9 59 b5 3c 1f 75 b5 bd
       0.11586289 0.08415697 0.02213751 -0.0886023
0000c0 81 03 98 bb ed fe 0c bb 69 8f ac bd 17 3c a2 3c
       -0.0046390896 -0.0021514252 -0.08425791 0.019804044
0000d0 06 ec 75 3c 01 d7 6d 3d 28 fd 56 bb d1 76 0d 3c
       0.015009886 0.05806637 -0.0032804701 0.008634285
0000e0 ff c7 91 bd 2d b5 4a 3c 23 04 b5 bc 8d ac 71 3c
       -0.07118224 0.012372297 -0.0220967 0.014750612
0000f0 8e 59 41 3d 07 02 79 3d 71 61 cd bc e0 e4 51 3d
       0.047204547 0.06079295 -0.025070878 0.051243663
000100 d0 cf 52 3d bf 02 70 3d b6 d3 42 bc 13 3a 8c 3c
       0.051467717 0.05859637 -0.011891296 0.017117536
000110 a6 89 3f 3d 7d fb 80 3d de fd cb 3d f1 f4 a7 bd
       0.04676213 0.062979676 0.09960531 -0.08201016
000120 7a c0 88 3d 80 45 0d 3c a1 00 09 3d 38 dc 26 3d
       0.06677337 0.008622527 0.033447865 0.04073736
000130 82 59 95 bc 2d b4 f7 3d f0 69 f8 3b 1d 74 4f bd
       -0.018231157 0.12094913 0.007580988 -0.050647844
000140 b8 6a 05 bb 05 dd b2 bc d5 e6 1a bc c2 b2 46 3d
       -0.0020357799 -0.021833906 -0.009454449 0.04851032
000150 06 5b 05 3d 99 b8 a4 3a b6 9f 04 3b 6b 44 35 3d
       0.03255751 0.0012567221 0.0020236797 0.0442547
000160 08 6f 46 bd 12 0d e9 3d 8f 94 38 3d 64 91 68 bd
       -0.04844573 0.11379446 0.04506355 -0.05677928
000170 36 1c 5b 3d 7a f0 25 3d fc cd b0 3c ec 66 ba 3d
       0.0534937 0.04051254 0.021582596 0.09101662
000180 2c ce 8d bb a3 c3 ce 3d 65 cc c8 bd bc 3e 71 3d
       -0.004327556 0.100959085 -0.0980461 0.05889772
000190 25 01 26 3d e2 b7 de 3c 1e 1f ed bc a9 40 d7 3c
       0.040528435 0.027187292 -0.028945502 0.02627595
0001a0 1a 41 38 3d ca 99 45 3c 8f 09 4b 3d bf f4 2c 3d
       0.04498396 0.012060592 0.049569663 0.042225596
0001b0 e7 5a 26 be a5 af f6 bc d8 fc 52 3d b9 1d 88 3d
       -0.16245614 -0.03011305 0.05151066 0.06646294
0001c0 ac c5 9c 3d a6 c6 91 bc 48 6b f0 3a 0b 78 40 3c
       0.076548904 -0.017794918 0.0018342519 0.0117473705
0001d0 0a d0 a5 3d 38 1b f6 3d 86 69 6a 3c de 39 a8 3d
       0.08096321 0.1201691 0.014307385 0.08214162
0001e0 9c 84 7d bd 66 c5 40 bd a7 ee b9 3d f9 1e 88 bb
       -0.061894044 -0.047063254 0.090787224 -0.004154083
0001f0 6c 64 89 3d 1b 7f c5 bd e0 30 47 3d 1d 87 32 3d
       0.06708607 -0.09643384 0.048630595 0.043585885
000200 dc bc 74 3d d6 ba 8c 3d 2e ab 4e 3d 5f d4 63 3c
       0.059750423 0.068715736 0.05045622 0.013905614
000210 af 46 07 3d 95 4e 9a 3c 74 ce 59 3d db bd 3e 3c
       0.033026394 0.018836299 0.053175405 0.011641945
000220 45 d9 75 3d 42 35 ca 3d bf 49 1d bc 70 17 38 3d
       0.060021657 0.09873439 -0.009600102 0.044944227
000230 38 49 6b bd 4a b3 c6 3a 03 79 68 3c ac b7 74 bc
       -0.057442874 0.0015159633 0.014189008 -0.014936369
000240 5c 18 69 3c 14 47 37 3d 57 39 19 bd 57 8a 05 3c
       0.014226999 0.04474552 -0.0374082 0.008150659
000250 7b b4 95 bd 8b 63 46 3d ff 58 46 bd ef af b6 3d
       -0.073098145 0.048434775 -0.048424717 0.089202754
000260 76 ba 42 3d 86 e4 a8 3d 07 cd 5c 3d 08 82 bc 3d
       0.047541104 0.082467124 0.053906467 0.09204489
000270 ab a1 11 3d a5 f1 d0 3c 64 cf c9 bc f1 14 a3 3d
       0.03555457 0.02550585 -0.024635024 0.07962979
000280 c3 2c 6a 3d 31 57 48 3d b8 a7 41 3d f6 e5 13 3c
       0.057171594 0.048911277 0.04727909 0.009026995
000290 f3 0b bb bd c3 6f 22 bd 6d 4f 87 3c 5a 91 a9 3d
       -0.091331385 -0.039657366 0.016517365 0.08279677
0002a0 8e 48 e3 bd 79 0c 20 3d 56 8b 08 bd bc b6 07 bd
       -0.11097823 0.039074395 -0.033336006 -0.033133253
0002b0 77 06 3c 3b f2 07 ac 3c 04 17 8e 3d 82 5c 25 3d
       0.0028690377 0.020999882 0.06937984 0.040371425
0002c0 cb 4b 3c bd b6 01 af ba 99 2c 8e bd 01 4a 80 3d
       -0.04597072 -0.001335195 -0.069421 0.06264115
0002d0 8d f7 1f 3d 71 a1 82 3d d5 1e 00 3e 95 5c b9 3b
       0.039054442 0.06378449 0.12511761 0.0056567886
0002e0 41 eb 42 3d cf a4 89 3c ac 5f 99 3d 0b 6c 2e 3d
       0.047587637 0.01680222 0.07488951 0.042583507
0002f0 a2 65 4f 3d 34 f9 1f 39 57 50 ac bc 45 f4 8b 3d
       0.050634034 0.00015256257 -0.021034403 0.068337
000300 31 21 93 3c be 41 97 bb d0 0b ad 3d 7b c6 8e 3d
       0.017960163 -0.0046159914 0.08449519 0.06971451
000310 ae c5 ae 3c 32 5f 90 3c 39 2e df bd d6 ef cd 3d
       0.021334495 0.017623518 -0.10897488 0.10055511
000320 ba a9 24 3d ac ed 01 bd 73 ef 9f bd 46 c1 10 3d
       0.040200926 -0.031720802 -0.07809343 0.03534057
000330 ad 07 1f 3d ef 5b c3 3d da 74 2c 3c 42 8e 59 3d
       0.03882568 0.09539019 0.010525906 0.053114183
000340 6b 9d 34 bd 1b 35 e1 3c 9a ba 0f 3c d4 6c 77 3c
       -0.044095438 0.027491143 0.008772517 0.01510163
000350 1a bd 79 bd a3 6d 21 3d bf 21 d6 bc 5c f8 f7 3d
       -0.060971357 0.0394112 -0.026139138 0.12107918
000360 92 9d 85 3c 84 90 41 3c a1 44 2e bb 55 10 03 3e
       0.016310487 0.01181424 -0.00265912 0.12799199
000370 2f 35 a8 bd fe 62 89 bd 3f e2 76 bc b0 96 dd 3c
       -0.08213269 -0.067083344 -0.01506859 0.027049392
000380 3b 83 60 3d 09 17 6b 3a 0d 3f 28 bd 41 77 33 3d
       0.05481265 0.0008967971 -0.041075755 0.0438149
000390 79 40 17 bd c4 b1 3e 3d 20 ce 0e 3c 9e 52 ec bb
       -0.03692672 0.04655625 0.008716136 -0.007211997
0003a0 8c f9 a2 bd 74 a9 aa 3d dc 8c 9a bc 0f 13 a4 bb
       -0.079577535 0.08333102 -0.018865995 -0.005007155
0003b0 17 4e a0 bd 69 69 72 3d dc 15 24 bc af 27 21 bd
       -0.078273945 0.05918256 -0.010014977 -0.039344486
0003c0 21 a0 b6 bc bc 83 a5 3d a1 14 70 3d d6 f9 db bc
       -0.022293152 0.08081767 0.058613423 -0.02685253
0003d0 a3 61 34 bd 33 72 03 bd c9 db 48 3d b4 84 51 3d
       -0.044038426 -0.03209133 0.04903773 0.051151946
0003e0 ca 97 7d 3c 69 44 4c b9 39 b6 83 3d 23 1d 8d 3d
       0.015478084 -0.00019480441 0.064312406 0.06890323
0003f0 22 7f 43 3d 77 0f 0e 3c 5a 13 47 bd c7 ac 17 bd
       0.047728665 0.008670679 -0.04860244 -0.037030008

fc3.weight f4 [4, 300]
000000 c5 44 81 bd 3c a1 26 3d 81 43 90 3c 39 05 f8 bd
       -0.06311945 0.04068111 0.017610313 -0.12110371
000010 f5 30 04 3e b6 b3 d1 ba 8c 50 21 be b2 26 71 be
       0.129093 -0.0015998993 -0.15753382 -0.23549917
000020 60 f7 8f be 68 d2 0e 3e 55 93 10 bd 0e 6b 8a 3d
       -0.2811842 0.13947451 -0.035296757 0.067587
000030 2d 78 9c 3e 0e ef 13 3d d6 92 5e be a9 4e 80 3c
       0.30560437 0.036116652 -0.21735701 0.015662508
000040 11 72 13 bd 66 7c 12 3e 55 18 aa 3d bd 83 05 3e
       -0.035997454 0.14305267 0.08305422 0.13038535
000050 ed ea 78 bc 71 70 90 3e 69 61 98 bd 29 42 d5 bd
       -0.015192729 0.28210786 -0.074404545 -0.1041301
000060 98 71 5c bd 64 a6 96 bd 38 b9 3c bd 26 07 e1 bc
       -0.05381927 -0.07355955 -0.046075076 -0.027469229
000070 5d 5d 9c 3b 42 a8 0f 3e 36 99 10 3d 08 1a 1f 3e
       0.004771872 0.14029029 0.035302363 0.15537274
000080 a2 db 69 3c 75 e1 f2 bb 80 ae 6e 3d 22 b3 81 3c
       0.014273556 -0.0074121305 0.058271885 0.015832487
000090 79 23 da bd f2 95 f2 3c 4b eb 2f be e8 83 e8 bd
       -0.10651297 0.029612515 -0.17179601 -0.11353284
0000a0 99 c6 f0 bd b1 c1 3d 3d 8e 32 c8 ba 8c df 9d bc
       -0.117566295 0.046327297 -0.0015273856 -0.019271635
0000b0 e6 6a 83 be ad f6 1b bb dd 33 68 3e 13 a7 b8 3d
       -0.25667495 -0.0023798153 0.22676034 0.09016242
0000c0 87 fe a1 bd 7d 2e 26 3c 56 a6 fe 3e 94 7a 9f bd
       -0.07909875 0.01014292 0.4973628 -0.07787052
0000d0 e3 fa 58 3e c2 dd 8e bc d3 ca 63 bd e6 8f 5b bd
       0.21189456 -0.017439727 -0.05561335 -0.05360403
0000e0 6c 2f b1 3c 5d 5e 30 bd 4b 4b 64 bd ca d7 8c 3d
       0.021629058 -0.04305874 -0.055735867 0.06877096
0000f0 b4 1b 6c be 82 6f 0e 3d e9 66 01 3e a9 47 65 bd
       -0.23057443 0.03477431 0.12636913 -0.055976544
000100 f9 03 17 3d a0 72 e0 3d ee 34 06 3e cc 9f cd 3d
       0.036869023 0.10959363 0.13106129 0.100402445
000110 98 74 05 3e fd 9f 79 3d 02 4f 17 bd ec 23 57 3d
       0.13032758 0.060943592 -0.036940582 0.052524492
000120 eb 44 f9 bd 99 76 08 bc 03 b6 08 3e b3 9f 3d 3e
       -0.12171348 -0.008329057 0.13350682 0.18517952
000130 49 91 71 bc 9f 19 66 bc 4c 0e 3c bc 1c 3e 50 3d
       -0.014744111 -0.0140441945 -0.011478018 0.050840482
000140 20 82 c0 bc b9 a8 9e 3e 81 bb 47 3e ad f6 00 be
       -0.023499548 0.309881 0.19505121 -0.125941
000150 40 7b 57 3e ad bf ae be 80 4a 7d bd 9b 9e ab 3c
       0.2104311 -0.34130612 -0.061838627 0.020949652
000160 9c f7 f9 bd 91 ac 43 bd f5 a2 9d bc a5 00 ca 3e
       -0.12205431 -0.047771994 -0.019242743 0.39453617
000170 44 04 07 be ff 42 aa 3d 62 09 03 be 19 33 8a bc
       -0.13185221 0.0831356 -0.12796548 -0.016870068
000180 f2 bc 0c 3e d8 6b f3 bd 4f 16 c5 bd fd dd 9a 3d
       0.13743952 -0.11885804 -0.09623396 0.07561872
000190 b2 5f 6f bd 6a 1c 76 3e 11 91 36 bd c8 2c 85 be
       -0.05844087 0.24034277 -0.04457194 -0.26010728
0001a0 a5 d7 8b be a8 50 2d 3c 62 66 70 be 49 8b 76 3e
       -0.2731296 0.010578312 -0.23476556 0.2407657
0001b0 83 eb e9 3e 1b 3e 61 bb 00 ea 08 3e 44 b4 ba 3e
       0.45687494 -0.0034369293 0.13370514 0.36465657
0001c0 8c 9f b3 bd a1 b2 c9 3c 50 4c 24 be d3 a8 a3 be
       -0.087706655 0.02462131 -0.16044736 -0.3196474
0001d0 3e 10 4e 3c 74 7a 30 3d 94 53 be 3c 35 5f 4a 3c
       0.012577115 0.04308553 0.023233213 0.012351801
0001e0 4a 70 1c 3e af 2c 3b be 98 ff f9 bb 4d 87 17 bd
       0.1527721 -0.18278764 -0.007629346 -0.036994267
0001f0 d6 f2 99 3d d4 f2 08 3f be a8 e8 3d c9 ec 92 bc
       0.075170204 0.53495526 0.1136031 -0.017935174
000200 dc 4a 86 bd 0d ef c6 3b b5 6f 5a be 87 45 a1 bd
       -0.06557247 0.0060709775 -0.21331675 -0.078745894
000210 bc 65 a4 be 02 b6 3b be a2 93 45 bd 10 d4 7c 3d
       -0.32108867 -0.18331149 -0.048236497 0.061725676
000220 52 a0 bb 3d 5f 37 8e bd 1a 19 25 be f9 0e a9 3d
       0.09161438 -0.06944155 -0.16122857 0.08254809
000230 ec 6a 06 be e8 5a 53 3e f5 7f a9 3c c6 30 07 be
       -0.13126725 0.20640147 0.020690897 -0.132022
000240 3c 3c 2e 3e ce 5f 32 be 18 9e d3 3d 30 9b da bd
       0.17015165 -0.17419359 0.10332888 -0.10674131
000250 59 1f 7e bb 8b 49 90 bc a6 cf 17 be fe 98 fd 3d
       -0.003877601 -0.017613193 -0.14825305 0.123826966
000260 ad 24 66 be 26 f0 52 3d 9f 89 02 bd 2b c7 96 3d
       -0.22474928 0.051498555 -0.031869527 0.07362207
000270 d0 cb 08 3e 9f fd 0c bd a5 12 54 3e ec d9 86 bc
       0.13358998 -0.03442156 0.20710237 -0.016461335
000280 55 d3 52 be 2f ec 05 be da cc 47 ba e2 23 07 3e
       -0.2058843 -0.13078378 -0.0007621773 0.13197282
000290 19 32 fd 3b c4 c4 81 bd db 2a 53 be 98 94 9f bd
       0.0077269194 -0.06336358 -0.20621817 -0.07792014
0002a0 53 a2 35 3d 5b d1 c9 3d 61 89 45 3e 37 e7 f2 3d
       0.044344258 0.098543845 0.19290687 0.11860507
0002b0 4d 82 bb be 1b 3d 51 3e 05 e3 b9 be d1 b2 6a bd
       -0.3662285 0.20433466 -0.36306015 -0.05729944
0002c0 57 66 44 3e 58 f9 1c 3d 4b f3 79 bb 5f 86 45 bc
       0.19179665 0.03832373 -0.0038139399 -0.012055962
0002d0 54 d7 80 3d 34 56 12 3d 11 d6 b9 bc 89 f2 50 be
       0.062910706 0.03572674 -0.022685083 -0.2040502
0002e0 94 52 4c 3d 4a 67 1c bd d2 58 99 3e 76 26 a0 bd
       0.04988344 -0.03818444 0.29950577 -0.07819836
0002f0 4c 0b 8a be e8 42 42 3e 17 a6 46 bb a4 11 a1 3d
       -0.26961744 0.18970835 -0.00303114 0.07864693
000300 2c c5 69 be 84 c5 63 bc 03 e9 88 be 81 d9 dd 3b
       -0.22829121 -0.013902072 -0.26740274 0.0067703133
000310 84 93 44 be aa 11 31 be 89 86 4d 3a 02 fa 92 be
       -0.19196898 -0.17291895 0.00078401767 -0.28706366
000320 f8 42 29 3b 8b 42 1d 3e 6a a8 3b 3e 15 8d 8e be
       0.002582727 0.15357415 0.18325964 -0.27842012
000330 47 f5 f4 bb d7 79 a9 bd 34 ed 0d 3e 77 f5 8a be
       -0.0074755284 -0.08275192 0.13860017 -0.271404
000340 65 af bf 3c 3a 05 2d 3c eb e3 7d 3d 36 6c 5d 3e
       0.023399064 0.010560328 0.061984938 0.2162331
000350 88 78 cf bd b9 eb 89 bd 77 13 23 3e 99 03 be 3d
       -0.101304114 -0.06734414 0.15925394 0.0927803
000360 cd c9 80 3e 45 99 7e be d7 28 e0 3d c6 db b5 3d
       0.25153962 -0.24863155 0.109452896 0.08879809
000370 84 5e 1f be 2e 4f ea bd bb 62 2a 3e b9 55 27 be
       -0.15563399 -0.114408836 0.16639225 -0.16341294
000380 82 b2 24 3e 4c 00 f5 3b 15 fc 8a bd af 78 84 bd
       0.1608372 0.007476842 -0.06786362 -0.06468331
000390 2c 8b 5d 3e 10 0f b4 be c8 66 2d 3e 52 83 3c 3c
       0.21635121 -0.35167742 0.16933739 0.011505919
0003a0 84 cc c4 3e 36 33 da bc 10 e2 a0 bd 2c c0 13 3e
       0.38437283 -0.026635747 -0.07855618 0.14428777
0003b0 3a f8 43 bc 46 9a c3 3c 43 29 21 3a 36 d3 0d bd
       -0.011961037 0.023877274 0.0006147811 -0.034625255
0003c0 5d 5b 31 bd ee d9 b1 be db 55 76 3d 85 08 6c 3c
       -0.04330002 -0.3473658 0.060140472 0.014406328
0003d0 f6 a4 bd be 6f 36 17 3e 5c 14 85 3e d9 8a 61 be
       -0.37039918 0.14766859 0.25992095 -0.22025622
0003e0 c3 ee 78 be ae 0b ec bc 18 2e ab 3d c7 31 c5 bd
       -0.2430983 -0.028814163 0.08358401 -0.09628635
0003f0 0e 76 8b 3e dc f9 8a bc fb e3 73 3d a1 76 0d 3d
       0.27238506 -0.016964845 0.05954359 0.03453696

fc3.bias f4 [4]
000000 8b 3f f5 bc fe 3d 96 3c 30 e9 0a 3d df 03 de 3c
       -0.029937526 0.018340107 0.03391379 0.027101455
