checkpoints/checkpoint_actor_1000.pth (torch, 542663 bytes, 6 tensors)

fc1.weight f4 [400, 33]
00000000: 6857 8cbd 5def 163e cc04 dbbc 2ea6 7a3d
00000010: bfc9 dc3c 740d f33b 8243 b3bd 1935 91bd
00000020: 8379 37be 0a2a f6bd e025 95bd 831b 413d
00000030: f54a 83bc 0d3d cdbc 1b5b 603d a8e9 02b8
00000040: 40bd a1bd 4cdb 41bd 7755 fcbb bf9d f7bd
00000050: e194 093d ce27 86bd d3a0 61bd b0d4 2bbd
00000060: d270 25bd 24bb 41bd 0e4f bbbd 7823 62bd
00000070: 9b77 613c c965 4b3d 021c 533d b74f eabc
00000080: b42d e83e 3d31 1bbe 1fd7 c4bd e67b bbbc
00000090: f8bb 823c e3ac c1ba 1d71 0aba 7bb8 963d
000000a0: 7cae c23d 7370 093c 3400 f0bc cd61 ac3b
000000b0: 6fd3 a0bd cd25 793d 782f f73c dea9 ac3c
000000c0: 8c54 03bd 6bbc 1dbd 0b0b 8bbc 9ad1 413d
000000d0: 688b 0a3d 86f7 01be 5c5d f7bc dc88 babc
000000e0: c6de af3d cc95 83bd 0d4f c1bc c33b ff3c
000000f0: 5825 66bc 752a 883c c3af 28bd 1189 613d
00000100: ec03 3bbc ebba 223e a141 223d d7a7 17bd
00000110: 6c91 3abe daca 8dbc 47af 73bc d8de 37bd
00000120: d8c0 1a3c f752 0e3c 3924 87bd b40a 713c
00000130: 78c8 6b3c 78a3 3f3d 55e9 5cbd 5e9e f9bc
00000140: 4840 773d b2c5 d93c 7e1c 233e 50fb c53d
00000150: 41dd 073d 1723 02be d308 2b3e 4a74 5abc
00000160: 5da9 be3a a775 edbd 4e8d 823d 8e3e ccbc
00000170: 04ca 6fbd bf71 94bd d10d 25bd ecd4 0bbd
00000180: 461a 343c 2bb2 3c3d b5d9 9fbe ba08 a6bd
00000190: 6133 113d 9d11 c23b a14c 9ebd 9250 cbbd
000001a0: c5b9 6f3d 4a0e 423c d435 543d db8d 44be
000001b0: 6806 b7bd 6aca 83bd dd98 763d 9840 96bd
000001c0: 2153 983d 2531 9d3c 8e7d d23b e3cd babb
000001d0: 8c33 b9bb 50c0 bcbd 0fb1 4d3d 6aca 3a3d
000001e0: 7760 363d b671 14bd 367b 1c3d 571e 2bbd
000001f0: 6877 ad3c 90cf fcbd ab57 7dbc 3b7f 393d
00000200: 0058 54b8 a784 bfbc 8003 08ba 8bce 14bf
00000210: 9549 6e3d a488 353d a8e4 1f3d b5ce 89bd
00000220: b31b d23c da80 57bd e200 a8bc fa28 74bd
00000230: 4066 10be 5765 fe3c e4ea 693d abda ec3d
00000240: 4f6d 2c3d 7a67 c9bd 80a3 4abd 2d70 20be
00000250: 95e2 203e 4830 a83d 8757 f43d b49b a4bc
00000260: cc37 01be d7b5 413d ce9c d33b 22b6 5fbc
00000270: 7892 1d3d 5d51 82bd 8059 afbd e176 d1bc
00000280: dac0 08be e080 1bbd 27a7 0739 68c4 19bc
00000290: 7be8 a8bd b597 703d aafd d43d 0eb2 ad3d
000002a0: f60c c5bc 94df c53c 630f 21ba 8529 febb
000002b0: 0e7d 22be fa66 13be 136b af3d f3cc b6bb
000002c0: 0208 a2bc de80 1dbd febb e7bd 7db1 0d3e
000002d0: 5fba 2ebe 4417 41bd 70f8 d93d 648d 9c3c
000002e0: 43b8 25bb 41df f23c b8a5 fdbc f8b8 683d
000002f0: b9a2 76bd aaf3 333e bae0 a63b fe95 963d
00000300: 993b 9c3c 61ba b03d 8927 403d e96e da3c
00000310: c03e 713a 0f9f 6ebd f467 49bd f65b 453d
00000320: 5d64 0d3d 5e04 803c 897c bcbd cf92 123d
00000330: 32fc 36bc d402 31bd ec9d 973b 12f9 813d
00000340: 92f5 8c3d 873c 083c fd82 3c3d efed 49bd
00000350: 8668 af3c c305 cbbd 4c75 5dbd 2f58 1fbd
00000360: d78b 663d 02e5 923d b225 a83d 9b34 d7bb
00000370: 707e 443d 16c4 313d 9908 05bc 3493 6abb
00000380: a96a 043e 3571 41bb 4069 3e3d 7f70 2fbd
00000390: efe7 92bc ace8 2c3c 44c3 5bbf 1395 debc
000003a0: 8f7d d83d aa95 77bd e007 2f3c aa27 99bd
000003b0: feb9 8ebd 386e 903d 2031 b9bb 00e9 fdbd
000003c0: 1969 44bd 2ba7 11bb 34b1 83bd d558 24bd
000003d0: 4b6d 18bd a3b3 31bc 27c5 683d bf24 92bb
000003e0: 749e 4a3d ed35 f33d 8230 1d3d a749 5a3d
000003f0: bfd5 2b3d cd07 a9bc 2358 263e 7e33 c6bd
-0.06852609 0.14739747 -0.026735686 0.061193638 0.026951669 0.007417375 -0.087531105 -0.07090206
-0.17917447 -0.12019737 -0.07282615 0.047145378 -0.016026953 -0.025053525 0.054774385 -3.1212025e-05
-0.07897425 -0.04732828 -0.007700618 -0.120906346 0.033589248 -0.06550561 -0.055085015 -0.04195088
-0.040390797 -0.04729761 -0.09145938 -0.055209607 0.013761426 0.049657617 0.051540382 -0.028602464
0.4534737 -0.15155502 -0.096113436 -0.022886228 0.015958771 -0.0014776256 -0.00052811374 0.073594056
0.095059365 0.008388626 -0.029296972 0.005260682 -0.07852828 0.060827065 0.030174002 0.021077093
-0.032063052 -0.038509768 -0.01697304 0.047319032 0.033824354 -0.12692079 -0.030195884 -0.022770338
0.085874125 -0.06425056 -0.023597265 0.031156426 -0.014046989 0.016621808 -0.041183244 0.055062357
-0.011414509 0.15891616 0.03961337 -0.0370253 -0.18219537 -0.017308641 -0.014873332 -0.044890255
0.009445392 0.008686773 -0.06598706 0.0147120245 0.014391057 0.046786755 -0.05393346 -0.030471023
0.060364038 0.026583526 0.15928838 0.09667075 0.03316999 -0.12708698 0.16702585 -0.01333339
0.0014546324 -0.11594706 0.06374608 -0.024932172 -0.058542266 -0.07248258 -0.04029638 -0.034138605
0.010992592 0.04606835 -0.31220785 -0.08107133 0.03544939 0.00592251 -0.077294596 -0.09927477
0.058526773 0.011844227 0.051809147 -0.19194739 -0.08936769 -0.06435092 0.060204376 -0.07336539
0.074377306 0.019188473 0.0064236587 -0.005700813 -0.005651897 -0.09216368 0.050217684 0.045603193
0.04452559 -0.036241256 0.03820344 -0.04177698 0.021175101 -0.12344277 -0.015462796 0.045287352
-5.0626695e-05 -0.023378683 -0.000518851 -0.5812766 0.058175642 0.044319764 0.039036423 -0.06728879
0.025647974 -0.052613117 -0.020508233 -0.05960939 -0.14101505 0.031054182 0.057108775 0.11565145
0.042096432 -0.0983419 -0.049472332 -0.15667792 0.15711434 0.08212334 0.11930757 -0.020093776
-0.12618941 0.047292557 0.0064579016 -0.013654264 0.03846976 -0.06363175 -0.08561993 -0.025569381
-0.13354817 -0.0379647 0.00012936872 -0.009385206 -0.08247467 0.05873843 0.10399945 0.08481227
-0.024054032 0.024154462 -0.00061439554 -0.0077564144 -0.15868017 -0.14394751 0.08565345 -0.005578631
-0.019779209 -0.038452975 -0.113151535 0.13837238 -0.17063282 -0.04714133 0.10643089 0.019110389
-0.002528683 0.029647471 -0.03096281 0.056817025 -0.06021378 0.17573419 0.0050927075 0.073528275
0.019071387 0.08629299 0.046912704 0.026664214 0.0009202771 -0.05825716 -0.049171403 0.048183404
0.034519542 0.015627082 -0.09203441 0.03578454 -0.0111685265 -0.043215588 0.00462698 0.063463345
0.06882776 0.008315212 0.046023358 -0.049299177 0.021412145 -0.09913208 -0.05406694 -0.038902458
0.056285705 0.07172586 0.08210315 -0.0065675504 0.047972143 0.043399893 -0.008119726 -0.0035793306
0.12931313 -0.002951694 0.046487093 -0.042831894 -0.01793286 0.01055352 -0.85844827 -0.027170694
0.105708234 -0.060445465 0.01068303 -0.074782684 -0.06969069 0.070522726 -0.005651608 -0.12397957
-0.04795179 -0.0022224884 -0.06430283 -0.04012378 -0.037213605 -0.010846051 0.056828644 -0.004459947
0.04946752 0.1187552 0.03837634 0.053292897 0.04195189 -0.020633603 0.16244559 -0.0967779

fc1.bias f4 [400]
00000000: 2556 33bd dfaa 15bd 0da0 543e d7f2 9c3c
00000010: 5979 dfbd 972b 1cbe 1a62 fbbd c105 36be
00000020: 585d 42be 3afe c1bc ed2b 883d 7b9b 8abd
00000030: ff89 8c3d 516a 20bc 84e9 01be 16f1 f3bd
00000040: e033 b9bd 4da1 f6bd ac7d 50be 9afa bebd
00000050: f72c a7bd 4221 44bd 46e6 a6bd bc1d 05be
00000060: 5f06 55bd 78ef 2abe 1596 02bc 47ad d73d
00000070: f85f 393e f57d adbc 4a00 1abd 6271 cc3d
00000080: 33e3 d53d 4043 c8bc 114f 06bd bf51 fb3b
00000090: 742c 02be 2229 9c3d a876 983d 6c8b f8bd
000000a0: 5fa2 d53d 2c29 993d 0f64 103e 37fd 2f3d
000000b0: 474b 09bd a23c 003d 2b81 c63d 9421 173e
000000c0: 2a21 993d 3ac7 39bd 8e27 49bb 93e9 6c3e
000000d0: b06c 893d ca79 0a3e 5154 82bd a221 4c3e
000000e0: 31ec 243d 2f78 2dbd f664 6f3d 88ef 303e
000000f0: 6c8b 0fbe 90b0 cbbd 0d78 2f3e 4c9c d1bd
00000100: 6a9d 1cbe c3f9 88bd bf24 7f3d 509d 9dbd
00000110: 8dd0 f5bb eaff 8c3c 8ad4 bf3d 9900 28be
00000120: 45a8 293d 7c27 abbd 7d3f 953d aabb 003e
00000130: 7a7f 04be 8e5d d43c 38f5 173e f025 f3bd
00000140: 9e67 c3bd 3d39 3cbd a851 5bbd a635 2ebd
00000150: 020c 543c 1959 f03c 32cf 643d 6e60 8f3d
00000160: 1feb 5d3d 57b3 18be e374 0cbe 87e5 2dbd
00000170: c506 6a3d 8861 acbc f509 bfbc 776f a6bd
00000180: 2872 e93c ab3f bf3d 1896 afbd abeb 4f3e
00000190: 95a0 3c3c f8c1 6b3e 2d9b 9ebd 3c69 733e
000001a0: 2b50 863c 832c 243e bd33 f13d 45a4 50bc
000001b0: 3d9d 8bbc d159 42be b8b8 893d 88bb e0bd
000001c0: 6ba4 3e3d e4d2 913c c5d5 143e efed da3d
000001d0: 5472 c43b 3d9c 91bd ef6a 4dbe bd27 fabd
000001e0: eb9f 5bbe 9461 cebd 03b6 cfbd be9c 2b3d
000001f0: bf01 3bbe 201c f83d 9598 223e 2a28 11bd
00000200: 20ee 523c 360e da3d 49b9 37be 5bd4 083e
00000210: 1968 573e 10ba a53c b84c fabd 07cf 143e
00000220: b642 d8bc f7fd 0b3d 6f2b 6c3e 7045 6e3c
00000230: db98 4b3d b2a0 b8bd 5aa2 80bd 1e34 203e
00000240: 7f0a 14be 4af3 293d a141 37bd b1ec 88bd
00000250: fe15 4cbe 0cb9 0bbe f242 89bd 4099 893d
00000260: f6b6 333d ca6d 98be 5c3e 08bd d675 4dbe
00000270: fb02 643e 21c5 20be aec9 51bd e9d4 b4bc
00000280: 68c8 13be f950 e23d 05e6 313d f23a f43c
00000290: f48e 4d3d a536 583c 3b7c b73d dff4 623e
000002a0: e9e2 263c d2c9 27bc 98cd 0bbd a6ed 1bbe
000002b0: 3674 0d3d fbe6 0fbd 27fa dabd 8bf6 fc3d
000002c0: e6de 7dbe 23d4 acbd e888 3e3e aacd 46bd
000002d0: bdf2 c83d 3bab ce3d f50a 12be 1fcd 2fbe
000002e0: ed17 55bd 6e14 a9bd ea40 eabd 5b5a 26bd
000002f0: e3c3 e43d a8e1 ca3d 1f85 55bd 38cc f3bd
00000300: f60e e1bd b500 473e 63c8 493c b948 bd3b
00000310: bcb9 0fbe ef12 9fbe 6e6d 023e dec1 acbc
00000320: 1b29 21bd 517f 83bd 6733 adbd ba13 eabd
00000330: b5fc 38be 5441 ce3d 8d49 0cbd 4763 7cbd
00000340: a52c 1e3c 327c 8b3c d690 7d3d 71ca cc3d
00000350: 2da8 06be aa8e 85be 56f1 de3d 37bb 5ebd
00000360: fb03 2cbe 68f3 a4bd b3d7 613d df04 f83d
00000370: d36e 68be df64 3fbe 9a96 14be d48d 4dbe
00000380: bc9f 293e 430b 7a3b a43c 163e 1a0d ff3d
00000390: b404 703d eb33 d1bd b575 813d e6eb b93d
000003a0: da77 d5ba b1fb 4abe cbbd 80bd 73c9 203e
000003b0: ec8f 56bd ed8e b8bd e05b d6bd f371 c33c
000003c0: 0645 f83d 2858 f0bc 4a1b ff3d 9b25 9c3d
000003d0: 3921 5dbd 97ef 20be 8118 7d3e 8309 bc3d
000003e0: f2bc 74bd efab 92be af6e 19bd 0635 a63d
000003f0: eb3b b3bd f0d1 b0bd 8816 483e ca1a d73d
-0.043783326 -0.03653991 0.2076418 0.019158764 -0.10911817 -0.15251003 -0.12274571 -0.17775632
-0.1898092 -0.023680795 0.06649003 -0.06767937 0.06862258 -0.009790973 -0.12686735 -0.11911218
-0.090430975 -0.120424844 -0.2036044 -0.09325142 -0.08162873 -0.04788328 -0.0814939 -0.12999624
-0.05200803 -0.16692913 -0.007970353 0.10531097 0.18103015 -0.021178225 -0.037597932 0.099825636
0.104437254 -0.02444613 -0.032790247 0.007669657 -0.1271227 0.07625033 0.07444507 -0.121359676
0.104313605 0.07478556 0.1410067 0.042966094 -0.033519056 0.031307824 0.096926056 0.14758903
0.07477029 -0.045356013 -0.0030693742 0.23135976 0.067101836 0.13523021 -0.06363738 0.19934705
0.040264312 -0.042350944 0.058445893 0.17278874 -0.14018029 -0.09945786 0.1713564 -0.102348894
-0.15294424 -0.06688263 0.062290903 -0.076960206 -0.007501668 0.017211873 0.093667105 -0.16406478
0.04142024 -0.083571404 0.072875 0.12571588 -0.12939253 0.025923517 0.14839637 -0.118724704
-0.09541248 -0.045953024 -0.05354467 -0.042531632 0.012942316 0.02933936 0.05586166 0.070008144
0.054179307 -0.14912163 -0.13716464 -0.042455222 0.057135362 -0.0210426 -0.023320178 -0.08126729
0.028496817 0.093383156 -0.0857355 0.20304744 0.011512895 0.23023212 -0.07744441 0.23770612
0.016395649 0.16032605 0.117774464 -0.012734477 -0.01704275 -0.18979575 0.067246854 -0.10973269
0.04654352 0.017800756 0.14534672 0.106899135 0.0059950743 -0.07109878 -0.20060323 -0.12214611
-0.21447723 -0.10077205 -0.10142138 0.041897528 -0.18262385 0.121147394 0.15878518 -0.035438694
0.012874156 0.10647242 -0.17941774 0.13362257 0.21035804 0.020230323 -0.12221664 0.145321
-0.026398998 0.034177747 0.23063444 0.014542922 0.04970632 -0.09015025 -0.06280966 0.15644881
-0.14457129 0.041491784 -0.044740323 -0.0668577 -0.19930264 -0.13644809 -0.06702222 0.06718683
0.043875657 -0.29771262 -0.033262596 -0.20064482 0.22266762 -0.15700199 -0.051217727 -0.02207418
-0.14431918 0.110506006 0.043432254 0.029813264 0.05018516 0.013196622 0.08959242 0.22163723
0.010185936 -0.010240989 -0.034131616 -0.15227374 0.034534656 -0.03513239 -0.10692244 0.12351712
-0.2479206 -0.08438899 0.18606913 -0.04853598 0.09811924 0.10091253 -0.14261992 -0.17168091
-0.05202477 -0.0825585 -0.114381626 -0.040613513 0.11170175 0.09906322 -0.052128907 -0.11904186
-0.10989182 0.19433863 0.012315842 0.0057764915 -0.14035696 -0.31069133 0.12737057 -0.021088537
-0.03934584 -0.06420768 -0.0845707 -0.11429544 -0.1806515 0.10071054 -0.03424983 -0.061618116
0.009654199 0.017026994 0.061905704 0.0999955 -0.13150091 -0.26085407 0.10885875 -0.05437776
-0.16798393 -0.080542386 0.055137347 0.12110304 -0.22698526 -0.18690823 -0.14510575 -0.20073634
0.1656484 0.0038153685 0.1467157 0.12453671 0.058598235 -0.10214981 0.06321279 0.09078197
-0.0016286329 -0.19822575 -0.062862 0.15701847 -0.05238335 -0.09011636 -0.104667425 0.023858046
0.1212254 -0.029338911 0.12456377 0.0762436 -0.05398676 -0.15716396 0.24716379 0.09181502
-0.059750505 -0.286468 -0.03745907 0.08115582 -0.08751663 -0.086337924 0.19539845 0.105031565

fc2.weight f4 [300, 400]
00000000: b071 a03d 0bb7 e93c ba74 3c3d 978b 79bc
00000010: 55d3 933d a592 803d 509b 033e 4176 653d
00000020: f6cb 31bd de51 e5bc 0738 cfbd 52d7 4ebd
00000030: 00bb 7c3d b0cc a73d 45b0 df3c cbaf b4bd
00000040: 6536 823d 0bcb ecbc 83a4 893d 4778 66bd
00000050: 0378 1f3e cffe 9fbc e373 233d a36a 9cbd
00000060: 1d36 a33c 1419 e1bd 2835 51bd 9ab0 8cbd
00000070: 47e7 c7bc eafd 4a3a 7229 ad3c 8695 eebc
00000080: 2fde 4abd e822 d3bc 153c acbd 0b5f 0b3e
00000090: 0c21 1b3d 071a ebbd 780a 7fbd 1477 4fbd
000000a0: c2e2 253c 7e5d 723d dd49 253d 52af f3bd
000000b0: 191e c23d 6bc8 943d e807 8a3d 13f3 523d
000000c0: d957 1d3d ca6d d43d a171 713d 8144 b83d
000000d0: 9518 04bc 9d2a a6bc 67ba d93b 82d0 2c3d
000000e0: 6d3f 153d ca96 2cbd 550d 4b3d 8381 843c
000000f0: 2c61 973c 8baf cbbd 8096 72bd 41a7 903d
00000100: f3b2 bcbd 9856 8a39 e150 5b3d 460c 0e3b
00000110: 1146 a13b e7d9 003e 63d5 73bc 42ae 97ba
00000120: 8ae0 a4bd 25b3 fc3c bd90 763d 4cc6 36bc
00000130: 36d6 f8bd 328d 1c3d 5b92 823d 4971 28bd
00000140: 6609 5dbd de7d 6ebd 6c02 0bbc 6983 4fbc
00000150: e2e2 32bd 5957 a23c 2105 0a3d 451d be3d
00000160: 2476 38be 3472 5c3d 2f40 0cbd 4b69 a63d
00000170: 3ab6 803c 96de 1e3c 00e7 093c ce97 34bd
00000180: d038 07be 797d 0f3e ca5b 043d 3a4a ce3d
00000190: 5c2d 15bd fc3b 1f3d 21fd 4cbc f63f c63d
000001a0: 0214 fabc db87 5bbd efbc 3abd e6aa f73d
000001b0: dcfc debc 9f02 9abd c3ef c4bc e100 573d
000001c0: 4590 563d 985f 9cbb 5bd6 e639 087f cbbc
000001d0: 0f5d 6abc 68ea cc3b 3d7a ee3a f600 9fbc
000001e0: ff4b 0b3d c257 83bc 77a5 a43d 3995 003d
000001f0: aedf 47bc 457e 553d f030 8c3d b6aa 0a3d
00000200: 2d57 d63c 5f20 ca3d 29d9 273d 0b32 193d
00000210: cd65 41bd 6d7f c93d 3b41 98bd 9075 10bd
00000220: 7570 ab3d 97fc 1b3e c4d2 bc3d 4b4f 93bc
00000230: 2923 913d c1e4 20bb e155 47bc 8e42 383d
00000240: b351 a73d 577a 16be 13af 803d 6474 ddbc
00000250: 2b2f cc3d 8bde 193d 92e4 9bbc 6cc3 583c
00000260: 2a8e 1abd fea0 7fbd 1e82 90bd e6c6 07bb
00000270: f7ec e53b 5e95 adbc bc74 463d b6c2 15bd
00000280: 42dc 09bd 70a7 dd3d 56cd 4d3d 7871 09bd
00000290: 8c0e 46bd 7d6e 6e3d d9e0 0a3b 9fe6 3b3e
000002a0: 3916 33bd 67b4 28bd 6884 3cbd cb5e 193d
000002b0: b564 a73d 14fe 22bc e85b 5cbd 37fb a53c
000002c0: 542f 6ebd e9d9 dc3d 6ac0 63bd 65c4 6a3d
000002d0: cabb e3bc c4a2 4a3d f3ca 67bd 5cc5 11be
000002e0: a954 78bd 01ca fc3c 6c65 a7bb 534b 903c
000002f0: 1611 a33d 58b6 643d 22f8 a33d ef53 cbbd
00000300: df2e 243d e5e8 5b3d 6ecb 8ebd bd50 a53b
00000310: 4b81 b0bd 0a69 3cbb 680a 443d 2dde 4b3d
00000320: a6ce ffbc c763 1c3d dbed f3bb 69cd e7bd
00000330: 0885 c93c b700 0bbc 52a2 b63d 43a5 a33d
00000340: a69d c7bd 38a8 3e3d ce5e 803c a3bf cf3b
00000350: 9657 21be 2b68 c1bd 9ab3 70bc 3f1b a13d
00000360: 079b b7bd 9d0e 673d 37b3 24bc fe25 8cbc
00000370: af6e d03b 23d7 303d 604b 59bd 9141 383c
00000380: 6aa2 88bd ff29 f03d 676f cf3d 8c6d d93d
00000390: ddfb a7bd 023d 683d cef5 b3bc 698e 72bd
000003a0: eeb3 343c 72b1 19bd 1fa5 023d fa65 a2bc
000003b0: 0781 82bd 59a6 20bd 4feb 933d a942 ae3d
000003c0: 72d1 8b3d 1088 90bc cf8e e1b9 67cf 9cbd
000003d0: d831 463d 49c8 5ebe b398 323d f731 e23c
000003e0: 100f 05bd b12d 1abd b2d6 243d a68a 123e
000003f0: f076 e33d dc19 833d 7798 1ebc 5d5a 01bc
0.07834184 0.028529665 0.046009757 -0.015231035 0.07218043 0.0627797 0.12852216 0.05602098
-0.043407403 -0.027993139 -0.10118108 -0.050498314 0.061701775 0.08193338 0.027305732 -0.08822592
0.06358031 -0.028905412 0.06720831 -0.05626705 0.15573125 -0.019530682 0.03990544 -0.07637527
0.019923264 -0.109911114 -0.051076084 -0.068696216 -0.024402274 0.00077435246 0.021137927 -0.029124033
-0.049528297 -0.02577348 -0.08409897 0.13610475 0.037873313 -0.11479574 -0.062265843 -0.05065067
0.010124864 0.059171192 0.040353645 -0.11898674 0.09478397 0.07264789 0.06739789 0.051501345
0.038413856 0.10372503 0.058946256 0.08997441 -0.008062501 -0.020283991 0.0066445353 0.042191036
0.03643744 -0.04213599 0.04957326 0.016175037 0.018478952 -0.099455915 -0.05922556 0.07063151
-0.09213819 0.00026385929 0.05354393 0.0021674796 0.0049216826 0.12583123 -0.014882418 -0.0011572319
-0.0805064 0.030847142 0.060196627 -0.011155676 -0.121502325 0.03822059 0.06375571 -0.041123662
-0.05396404 -0.058225505 -0.008484464 -0.012665608 -0.043673404 0.019817041 0.033696298 0.092829265
-0.18013817 0.05381985 -0.034240898 0.08125552 0.015711892 0.009696623 0.008416891 -0.044090085
-0.13205266 0.14012708 0.0323141 0.10072751 -0.03642021 0.038875565 -0.0125115225 0.09680168
-0.030527119 -0.05359636 -0.045590337 0.12093143 -0.027220182 -0.07520031 -0.024040109 0.052491073
0.05238368 -0.004772138 0.00044028726 -0.024840847 -0.014304413 0.0062535293 0.0018194389 -0.019409638
0.034008022 -0.016033057 0.080393724 0.03139231 -0.0121993255 0.052122373 0.068452716 0.03385421
0.026164616 0.098694555 0.040978584 0.03740124 -0.047216225 0.09838758 -0.07434317 -0.035268366
0.08371059 0.15233074 0.09219888 -0.017982146 0.070867844 -0.002455041 -0.012166471 0.044985346
0.0816988 -0.14695106 0.06283393 -0.027033038 0.09969934 0.03756575 -0.01902989 0.013230186
-0.037733234 -0.062409393 -0.07056068 -0.0020717918 0.007016774 -0.021189388 0.04845117 -0.036562644
-0.03365732 0.10822952 0.05024465 -0.033555478 -0.048353717 0.05821084 0.0021191149 0.18349694
-0.043722365 -0.04118767 -0.04602471 0.037443917 0.08173505 -0.009948272 -0.053798586 0.02026139
-0.058150604 0.107837506 -0.055603422 0.057316203 -0.027799506 0.04947163 -0.05659003 -0.14235443
-0.060627613 0.030858042 -0.005108526 0.017614042 0.07962243 0.05583796 0.08006312 -0.099281184
0.040083762 0.053688902 -0.06972395 0.005045025 -0.08618411 -0.0028749132 0.047861487 0.04977243
-0.031226467 0.038181093 -0.007444126 -0.11318476 0.024599567 -0.008484057 0.08917679 0.079905055
-0.09746866 0.046547145 0.015670206 0.0063399835 -0.15756068 -0.094436966 -0.014691258 0.07866525
-0.08965116 0.05641042 -0.010052494 -0.01710796 0.0063608508 0.04317392 -0.0530504 0.011246101
-0.06671603 0.1172676 0.1012867 0.106165975 -0.08202336 0.056698807 -0.021967795 -0.059217844
0.011029227 -0.03752274 0.031895753 -0.019824017 -0.06372266 -0.03922114 0.07222616 0.08508808
0.06827058 -0.017643005 -0.00043021745 -0.07656746 0.04838738 -0.2175609 0.043602657 0.027611716
-0.032485068 -0.03764123 0.040243812 0.14310703 0.1110667 0.06401417 -0.009679905 -0.007895079

fc2.bias f4 [300]
00000000: a30a 913d bc2f 49bc e81f 313d 7f2a 5d3d
00000010: 8a89 ea3d c5c7 173d f1de 343d c7c5 cd3d
00000020: 9b36 a53d 7c81 c43d e884 aabc e4fb e23c
00000030: b57e 1ebe 48ff 0c3d b7ab 6ebd 4c3e b8bc
00000040: 9ba2 193d a43d ee3b bc06 f53d bda0 d23c
00000050: 535a 8a3d a3c2 60bb 1167 823c a2be fc3b
00000060: 9120 cc3d 5084 49bd ac6e a83d d9bc 81bc
00000070: 31dd 413d 72a5 4a3d faed e0bb 8c52 983b
00000080: f182 b53d 3175 9a3d a0f1 bbbd 392c a83d
00000090: 63e9 263d d830 bb3b fa1b a13c bc2e d03d
000000a0: 8c7b 933c 827c 523d 72b8 f2bc 776c 413d
000000b0: 6e99 e53d 58e5 a13d d7c2 af3c ec91 9bbd
000000c0: 3e62 40bc 39d5 e33a e619 9dbd ce69 bc3c
000000d0: e6b6 663c ae55 543d 500b 773a 7649 503c
000000e0: a093 84bd 9a5a 443c bd77 8bbc 103e 903c
000000f0: cd13 3a3d 9a0c 783d cdc4 debc d5b0 463d
00000100: 6d63 603d 3131 723d da41 4e3a 2a39 cf3c
00000110: fc7c 3c3d a7b5 733d 2697 db3d 0f2f a2bd
00000120: 9329 8b3d 04f4 b63b 9af3 073d ca5a 0e3d
00000130: 68a2 a7bc c130 f93d a233 1d3c bd3a 37bd
00000140: 728c b83a bb3d cebc fa4e dfbb b7ac 413d
00000150: bf27 c83c 50fc a5bb 018f 073c 4904 243d
00000160: 822a 43bd a887 ed3d 5a56 2c3d 2162 4abd
00000170: 4911 343d 19a9 0f3d 9e35 293c 49e4 ba3d
00000180: 2150 50bb 5d23 bd3d b873 b9bd 6bb5 703d
00000190: 04f1 223d 7ca0 dc3c 6883 a4bc 46f2 b83c
000001a0: 768e 383d fce8 1f3c feec 393d aa92 243d
000001b0: 7183 18be 05de b5bc 1fe5 563d eee5 7e3d
000001c0: 4809 a33d b6a2 c1bc adf1 acbb 624e 423c
000001d0: 4340 a83d 348d f73d 0574 8f3c 7f9e ad3d
000001e0: 2dea 7abd fbff 0fbd a75a b23d f64e ed3a
000001f0: 3488 8f3d 3355 bfbd cfc7 473d cfff 403d
00000200: 7d80 883d d4a5 8a3d f788 5f3d 1964 363c
00000210: aa68 283d b530 b93c 6a66 413d fd1c df3c
00000220: 7153 7a3d 3e4d ce3d fcaa b3bb c619 3a3d
00000230: 90fa 4cbd 0d98 1b3c f3ee 643c e721 c0bb
00000240: b30c 5f3c c5a0 413d 516b c0bc 96ba 9f3b
00000250: 97e0 6dbd f02a 813d 04e2 34bd 52e2 b93d
00000260: e6dd 4b3d 763f af3d 4416 663d 693f cd3d
00000270: 2017 183d bcaf b03c 1b78 d0bc 90ba 9e3d
00000280: 0048 603d 7a8f 473d 4fe3 283d e013 323c
00000290: ec33 aebd 662c 35bd d794 db3b 40bb a33d
000002a0: 509b d8bd 5404 1c3d 204e 7ebc 482c 0fbd
000002b0: 0ebb f43a 0fd1 8c3c befe 993d 170b 173d
000002c0: 3813 0dbd cbd5 67bc 35cf 86bd bcea 793d
000002d0: 9171 2f3d 3bec 6a3d 5f83 003e 562f 833b
000002e0: c98e 543d 76d6 9c3c 7cca 983d d709 563d
000002f0: b19f 5d3d d0e6 c03a 4db4 9fbc fa34 923d
00000300: 0cce aa3c c4bb fb3b ffb3 aa3d eb1e 873d
00000310: 6410 e13c cd82 973c 85d4 c8bd ad7e c73d
00000320: f4ae 283d a6ed cabc b2c5 8cbd d78c eb3c
00000330: cae3 1b3d 688e b83d a9ff 6a3c 2083 4e3d
00000340: 14d1 2ebd e4cf 813c 33d3 80bb f6b8 673c
00000350: 5384 82bd bdf2 263d 5ee5 e6bc 38de f33d
00000360: 698a 7e3c ef55 e93b 1a55 5c3b 303c 003e
00000370: 4b10 b4bd 181e 87bd 8de9 8cbc 6a49 c53c
00000380: 89fa 703d f294 583c 6ac4 1dbd ddc6 133d
00000390: c4fa 10bd 8b1b 213d 48f0 e43b 87cd 123b
000003a0: 2658 89bd c9d7 b13d 8242 9bbc 69b8 5b39
000003b0: f83e 91bd 338b 403d 68a7 26bc 5742 2abd
000003c0: 67bf a7bc 25f7 a93d a3ab 653d 734b b4bc
000003d0: 2b70 18bd f24d d3bc 56ec 573d 5a25 373d
000003e0: ea34 a43c 5cab a93b 8850 8a3d 34e0 8c3d
000003f0: 5b60 333d cc19 6d3c f8c3 2cbd 351f 24bd
0.07082107 -0.012279447 0.04324332 0.053995606 0.11452015 0.03705575 0.044157926 0.10047489
0.08067056 0.0959501 -0.020815328 0.027708001 -0.15478022 0.034423143 -0.05826923 -0.022490643
0.03750859 0.0072705317 0.11964175 0.025711412 0.06755509 -0.00342957 0.015918287 0.007713155
0.09967149 -0.04919845 0.08224234 -0.01583712 0.047330085 0.049474187 -0.0068643065 0.004648512
0.08862866 0.07541884 -0.09176946 0.0821156 0.04074992 0.0057126097 0.01966666 0.10165164
0.018003248 0.05138827 -0.029628966 0.04722258 0.11210905 0.07905072 0.021455212 -0.07596192
-0.011742173 0.0017382271 -0.07670955 0.02299967 0.014081692 0.051839523 0.0009423988 0.012712827
-0.0647347 0.011984492 -0.01702487 0.017607719 0.04542904 0.060558893 -0.027193451 0.048508484
0.05478232 0.059128944 0.0007868089 0.025295813 0.046017632 0.05949941 0.10722189 -0.07919132
0.06795039 0.005583288 0.0331913 0.034754552 -0.020463184 0.12167502 0.00959483 -0.04473375
0.0014079942 -0.02517592 -0.0068148347 0.047283854 0.024433015 -0.0050654784 0.008273841 0.04004315
-0.04764796 0.1159814 0.04207454 -0.04940999 0.043961797 0.035073373 0.010327725 0.09125573
-0.0031786042 0.09235261 -0.09055275 0.058766764 0.03978063 0.026931994 -0.02008219 0.022576462
0.045057736 0.009760138 0.04539203 0.040178932 -0.14893891 -0.022200594 0.0524646 0.062230997
0.07960755 -0.023637157 -0.0052778334 0.011859508 0.08215382 0.12087479 0.017511377 0.08477496
-0.061258484 -0.03515623 0.08708697 0.0018105197 0.070084006 -0.09342422 0.048774537 0.047118958
0.06665132 0.067699105 0.05457398 0.011132264 0.04111544 0.022606233 0.04721681 0.027235502
0.061114732 0.100733265 -0.0054830294 0.045434736 -0.050043643 0.009496701 0.013972986 -0.0058634165
0.013613868 0.047272462 -0.023488672 0.0048745377 -0.058075514 0.06307018 -0.044160858 0.0907637
0.049772166 0.08557026 0.056173578 0.1002186 0.03713143 0.021568172 -0.025447896 0.07750428
0.054756165 0.048720814 0.041232403 0.010868996 -0.08505997 -0.044231795 0.0067010927 0.079946995
-0.105764985 0.038090065 -0.015521556 -0.03495434 0.0018671469 0.01718953 0.07519291 0.03687581
-0.034442157 -0.014150093 -0.0658249 0.061014876 0.042832915 0.057354193 0.12550114 0.0040034456
0.051893983 0.019145232 0.07460496 0.052255478 0.05410737 0.0014717225 -0.019495154 0.07139011
0.020850204 0.0076822955 0.08335113 0.06597694 0.027473636 0.018494988 -0.0980616 0.09740958
0.041182473 -0.024771523 -0.06873645 0.028753681 0.038059033 0.09011537 0.014343181 0.05041802
-0.04267986 0.0158462 -0.003931427 0.014143219 -0.06372895 0.040758837 -0.028185543 0.11907619
0.015535929 0.00712084 0.003362006 0.1252296 -0.0879217 -0.06597537 -0.01720121 0.024082858
0.05883268 0.013219105 -0.038517393 0.036078323 -0.0353954 0.039332908 0.0069866516 0.0022400336
-0.06706266 0.08683736 -0.018952612 0.00020954166 -0.070920885 0.04700775 -0.010171749 -0.041567173
-0.02047701 0.08299092 0.05607189 -0.022008633 -0.037216347 -0.025794003 0.052715622 0.044713356
0.020044763 0.0051778983 0.06753641 0.06878701 0.043793064 0.0144714825 -0.042179078 -0.040068824

fc3.weight f4 [4, 300]
00000000: 410e 79bd aa29 493d faf7 8e3c cf31 bdbd
00000010: f145 e13d dea4 09bc 5dae 1fbe 5c28 45be
00000020: 4374 4bbe 62a7 fc3d 7988 e4bc a06f 1c3d
00000030: 24fd a53e fea9 383d b22c 5bbe 3ef0 db3c
00000040: 92f4 24bd f3d1 1e3e 1a63 a03d 7d01 ff3d
00000050: b0cc 4cbc 2c9b 803e bf4c aabd cd7e c3bd
00000060: b54d 04bd 477e 4bbd 9d87 52bd dd89 04bd
00000070: f450 9a3c 5edf 183e 2668 8a3c 4408 d13d
00000080: 9c30 9ebc 1e7b 07bc 7076 7f3d 82ee 8c3c
00000090: c924 debd ebc1 763c 28d2 36be 1d4d f3bd
000000a0: f452 7dbd 7f6d 113d 0148 65bc 6395 03bc
000000b0: b59a 8abe 08d9 a83b 3ebe 583e 3697 ce3d
000000c0: 901d a9bd f8c6 23bb ebe3 f63e ad86 8abd
000000d0: 2a54 3e3e f486 dfbc c3cc d9bc 3b4a 6bbd
000000e0: 7906 383d 642a 57bd f5a4 38bd 0fb1 7c3d
000000f0: 2482 62be 9b28 373d c359 103e dc7e 80bd
00000100: 6e9e 5a3d 1af7 dc3d 0165 d33d f11e cf3d
00000110: e4fe f13d f253 743d 37b0 f7bc f73f 263d
00000120: 62f6 a9bd 5023 f0bc 295a 8c3d 04fe 473e
00000130: 446b 0fbc 3c82 4e3a 2903 fa3a 66f4 6b3d
00000140: 9a99 dbbc bd49 943e 1526 553e 18d3 febd
00000150: 7dcb 373e 5d1d 98be afb6 72bc c382 b43c
00000160: fa40 a8bd 0b9b 3dbd 5582 e1bc 7cc5 b03e
00000170: 5e76 b4bd e6e3 a23d f5d9 f1bd 66ef b8bc
00000180: 77d9 e23d 2c02 e6bd e440 cebd 6ef5 a83d
00000190: 002c 68bd a3d1 763e 2c93 dcbc ca7e 83be
000001a0: 59bb 82be c26c 4a3c 1784 35be 4cf4 663e
000001b0: 3c66 dc3e 224c ec38 cc6e de3d 6747 a33e
000001c0: b1be acbd 89a4 c43c 6a0a c3bd fe0c a9be
000001d0: 8e55 dd3c 211c 503d 24e9 ff3c a3f2 bc3b
000001e0: ef3c 143e d430 1bbe e2b3 97bc 268a ccbc
000001f0: 3898 aa3d 5a01 0a3f 3745 bb3d ba54 b7bc
00000200: 22ee 77bd 94ba 1abb f8c7 2cbe 605a 8bbd
00000210: 9f21 94be b245 3bbe 49f6 49bd ceb5 313d
00000220: d70b c33d 5e85 a8bd e2f3 24be 54f3 b43d
00000230: 21d0 bebd 70df 4b3e 58d6 243c cc22 e5bd
00000240: d8d0 2a3e 5181 2abe 6f56 aa3d e8ba b5bd
00000250: 3164 3c3c b324 e4bc df5b edbd 3293 013e
00000260: f755 39be 541f 853d 7891 47bb f6b3 a03d
00000270: 269d 0b3e 1523 00bd 4314 483e fc63 bdbb
00000280: 8c25 56be eb4f 04be da73 b73c 4063 0a3e
00000290: 209a 5b3d b31b 4abd 4ac5 5cbe 9cff 82bd
000002a0: 8bdc 5b3d 4325 cc3d 9d7a 453e 3b72 f33d
000002b0: 73af a5be b4dd 4d3e e8f3 bdbe ac7d 45bd
000002c0: 7a59 4a3e 379a bf3c 4a48 6d3c d4ea e5bc
000002d0: 066d 643d 800d 3e3d dcaa a8bc 3956 3ebe
000002e0: 3aeb 383d c6b0 12bd c5ad 8c3e 0445 a5bd
000002f0: ff8b 83be 370a 433e 7525 fb3a 2277 a83d
00000300: c2d6 6fbe d116 87bc e920 69be ecfb c73c
00000310: db58 3cbe 0de5 2abe 971f 913b 5aab 95be
00000320: a35b e33c 78f5 1b3e 4ca8 123e 19f7 8bbe
00000330: 1eb1 d93a d456 9ebd a89a 153e e228 8bbe
00000340: 09bd ee3b 693a ae3b 65ab 9d3d cd8e 5c3e
00000350: c787 ccbd fcf0 91bd 63b1 253e a242 b53d
00000360: e25a 7f3e 32e6 77be a98b bf3d b700 923d
00000370: b3d9 20be d091 cbbd 9aca 253e 134e eabd
00000380: 77b7 2b3e 2ad4 5d3c 77b7 babd d4b9 42bd
00000390: 60d4 593e 1340 acbe 2f5e 233e 8419 3839
000003a0: 7619 c13e 505b f4bc e22a 8abd 001a 053e
000003b0: 4d6e 09bd f656 023d 5902 763b 824f a2bc
000003c0: 1a68 98bc 330b 80be e1ae dd3c 24c0 733c
000003d0: f24b bcbe 20d4 1c3e 1db6 853e ab67 5abe
000003e0: 0ed8 5ebe fe97 a5bc 8753 b33d 6fdc 9cbd
000003f0: de98 773e 2e9c b0bc 3f63 903d e116 223d
-0.06080461 0.049112 0.017452229 -0.09238016 0.109996684 -0.008401124 -0.15593858 -0.19253677
-0.19868569 0.12336613 -0.027897106 0.03819239 0.32419693 0.045083992 -0.21403769 0.026847955
-0.040272303 0.15509777 0.07831402 0.12451456 -0.012499973 0.25118387 -0.083154194 -0.0954567
-0.03230067 -0.049680974 -0.051398862 -0.03235804 0.01883743 0.14928958 0.016895365 0.10206655
-0.019310288 -0.0082690995 0.06236881 0.017203573 -0.1084686 0.015060882 -0.17853606 -0.118799426
-0.06184669 0.035504814 -0.013994218 -0.008031222 -0.27071157 0.0051528253 0.21166322 0.10087435
-0.08257592 -0.002499042 0.48220763 -0.067639686 0.18586794 -0.02728603 -0.026586896 -0.05744384
0.044928048 -0.05253066 -0.04507919 0.061692294 -0.22119957 0.04471646 0.14096741 -0.062741965
0.053373747 0.107893184 0.10321999 0.101133235 0.11816195 0.05965037 -0.030235393 0.040588345
-0.08298947 -0.029313713 0.06853134 0.19530493 -0.008753601 0.0007877683 0.0019074428 0.057606123
-0.026806641 0.28962508 0.20815308 -0.12442607 0.17948718 -0.29709902 -0.014814063 0.022035008
-0.08215518 -0.04629044 -0.027527967 0.3452567 -0.08811639 0.079536244 -0.1180915 -0.022575092
0.110766344 -0.11230883 -0.10070971 0.08249937 -0.056682587 0.24103408 -0.026925646 -0.2568267
-0.2553356 0.012355031 -0.1772617 0.2255413 0.4304675 0.00011267538 0.108609766 0.31890413
-0.08434809 0.024004238 -0.09523471 -0.33017725 0.027018335 0.050808076 0.0312391 0.0057662292
0.1447637 -0.15155345 -0.018518392 -0.024968218 0.08329815 0.5390831 0.09144061 -0.022379268
-0.060529836 -0.0023609744 -0.16873157 -0.06804347 -0.289319 -0.18288305 -0.04930714 0.043386273
0.09523743 -0.08228563 -0.16108659 0.08835474 -0.09317041 0.19909453 0.010060869 -0.111882776
0.1668123 -0.16650893 0.08317267 -0.0887354 0.011498497 -0.02784953 -0.11589789 0.12653807
-0.18099199 0.06500116 -0.0030451696 0.07846825 0.13634166 -0.031283457 0.19538979 -0.0057797413
-0.2091276 -0.12921111 0.02239411 0.13514423 0.053613782 -0.049342822 -0.21559635 -0.0639641
0.053677123 0.099680446 0.19285055 0.11887022 -0.3236042 0.20104104 -0.37100148 -0.048215553
0.19760695 0.023388965 0.014482567 -0.028066076 0.055768035 0.046399593 -0.020589285 -0.18587579
0.045146205 -0.035813116 0.27476326 -0.08069804 -0.25692746 0.19046865 0.0019160943 0.08225848
-0.23421767 -0.016490372 -0.2276646 0.024412118 -0.1839327 -0.16688938 0.0044288146 -0.29232293
0.027753657 0.15230358 0.14322013 -0.27336958 0.0016608571 -0.07731405 0.14609778 -0.2717963
0.0072857183 0.0053170216 0.076987065 0.21538849 -0.09986835 -0.07126042 0.16180949 0.088506
0.24937013 -0.24208906 0.0935281 0.071290426 -0.15708046 -0.09939921 0.16190568 -0.11440673
0.16769205 0.013539353 -0.091170244 -0.0475405 0.21272421 -0.33642635 0.15953897 0.00017557113
0.37714738 -0.029828697 -0.067464605 0.129982 -0.033552457 0.031821214 0.003753802 -0.019813303
-0.018604327 -0.25008544 0.027060928 0.014877353 -0.36776692 0.15315294 0.26115504 -0.21328609
-0.21762106 -0.020214077 0.08756166 -0.07659232 0.24179408 -0.021558847 0.0705018 0.0395726

fc3.bias f4 [4]
00000000: 3ad1 d5bc d61b a53c dac8 0d3d 2873 c73c
-0.026100744 0.020154875 0.034615375 0.024346903
