checkpoints/checkpoint_actor_2000.pth (torch, 542663 bytes, 6 tensors)

fc1.weight f4 [400, 33]
00000000: b411 69bd 3a83 1e3e b95e 70bb 6a0c b53d
00000010: f386 55bc e360 20bd 5226 38bd 499d 0fbe
00000020: 16ab ffbd 4953 37be 5021 77be 44bd 0f3e
00000030: c903 8f3d 0bae edbb ec84 a13d 4d30 393a
00000040: 282d 873b 37b6 f83c 3624 56bd 5112 04bd
00000050: 773a 283c 5d18 83bd 9cc6 91bd 74c5 2fbd
00000060: f545 04bd 1936 dfbd bb5a 5bbd fb09 ffbc
00000070: 2b62 b2bc c965 4b3d 32fb e03c b74f eabc
00000080: 41ac a93e 6aaa 8bbe 4849 ccbd a018 093c
00000090: f6e5 5e3d 1a71 ba3c eadd 4c3d bda4 f2bd
000000a0: e02a d53d f1ab b23d 848e 19bc 92f3 87bd
000000b0: 1844 8dbd 9e9b 723d 903e b9bc 22f6 803d
000000c0: d096 223c 4e64 2dbc ca72 813c ffca 91bd
000000d0: af8e 823d a20a b0bd 8ae6 f0bc e231 85bc
000000e0: 7a72 a23d 8516 a5bd f838 24bd 8b4c 98bd
000000f0: 9e73 d9bc 95ac 6dbc c3af 28bd d05c 8a3d
00000100: ec03 3bbc 6353 ad3e baaa 343e 4ead 853d
00000110: e66e 16be 79ad a1bc 516b 76bc a21d d73d
00000120: 98e3 1b3d 5cff 233c 6a73 f6bc 633f 28bd
00000130: cefb 313d eb68 b0bb efa9 9bbc 9a1d 55bd
00000140: 74db b13d 3b1e 623d a3f1 003d 593e 65bc
00000150: b9ff c93d 9a94 23bd 3168 443e 341e 4bbd
00000160: d4b1 51bd e575 febd 8dbf e93c 218a 85bd
00000170: 026d d2bd 853a 9f3a bf57 d4bb ecd4 0bbd
00000180: 3d6b 80bd 2bb2 3c3d 73cc 05bf 5420 d8bd
00000190: 61a2 833d 2787 8a3d e784 4e3c ddc8 18bd
000001a0: 3cd2 3d3d d097 5d3d 4240 7d3c b3e9 14be
000001b0: d22e 2ebd 9579 b1bd 7a8c 4e3d a564 81bd
000001c0: 5084 a53d 76d7 3c3b 98e7 573d 2ed0 9dbc
000001d0: 3aa8 433d bfe7 71bd 1a77 b43c 81e3 ba3c
000001e0: d8e8 ba3b 07e7 55bb 3943 ad3d 3746 36bc
000001f0: ae44 3d3d 553a 88bd 5132 88bc 70fd 903d
00000200: 0058 54b8 d7fd b5bc 8003 08ba a4ff 60bf
00000210: ce26 2d3e 3af4 283e 6795 2d3e bc47 a6bd
00000220: 5c1a 1bbc 7fcd 6dbc 445a adba 0c14 6dbb
00000230: 2308 8cbd b944 87bc 50e3 853d 4cab 003e
00000240: 7bfb 113d 6748 9abd aee9 00bd ca14 1abe
00000250: d463 063e 0f0d 823d 319b 9f3d cd8f b6bc
00000260: a719 72bd 88b3 1b3e 490c 113d 3d21 bdba
00000270: 7f3a f23c 157d 94bd 3eac e7bd e9d8 843c
00000280: bd19 12be e080 1bbd 86a0 2abd 68c4 19bc
00000290: 5c7c 93bd cdd9 b23d 0421 4fbb ad42 dd3d
000002a0: 1f24 373d 0e96 d7bd f65d 13bd ae33 9a3c
000002b0: 17c9 debd 4af1 1abe 1425 163c ed6e 4ebd
000002c0: 0a90 d3bb f0e1 96bd 31a1 45be 4e4b 3f3e
000002d0: 08c8 44be df76 883b 137f c53c 6484 ac3d
000002e0: 1513 503c 2641 24bc 9770 04bd 6f17 b83d
000002f0: b8b2 66bc f28d 103e bf93 94bc 4783 833d
00000300: cf02 fc3c b7ce d03d 8927 403d d34e 753c
00000310: c03e 713a b680 94bd 8850 e83c cc0f 973d
00000320: 16a9 543c 0865 1cbd 0388 e4bb 570e 2bbd
00000330: 7027 88bd 8440 6abd a108 dbbc 3b40 7d3d
00000340: 6fab 0f3d 2983 4c3d 1ea1 873d 5e9a 91bd
00000350: cfac 313c 4f08 01be 809d f2bc 1fdc 943d
00000360: d4ab 1e3d 10a5 bcbc f12b 0c3c 2f9e 89bd
00000370: cab1 3b3d 64ee 37bd b1e3 3f3d b963 29bd
00000380: c45e 093e a042 f03c 128a 10bd 7f70 2fbd
00000390: 4dac 4dbd ace8 2c3c 6c86 90bf f393 d0bc
000003a0: 6fb9 2b3e ecf9 9f3d 4957 0b3e 0acd 563c
000003b0: 1122 a2bc 3e53 7c3d 429e 4d3d df90 87be
000003c0: 2a57 4c3d 8b9c 743d b151 5d3e 5c5d 513b
000003d0: f671 5fbd 82c3 01bd ec13 5b3d dbfb 053e
000003e0: 59d0 aabd 03da d33d f0d5 9cbd 2a32 883d
000003f0: e296 2c3e 56ed 163d ea74 a33d b303 52be
-0.05690165 0.15479746 -0.0036677553 0.088402584 -0.013032663 -0.0391549 -0.04495842 -0.14024843
-0.12483804 -0.17902865 -0.24133801 0.14037043 0.06983144 -0.0072534136 0.07886681 0.00070643873
0.004125256 0.030360324 -0.052280627 -0.03224403 0.010267845 -0.06401131 -0.0711796 -0.042912915
-0.03229328 -0.1089899 -0.053553324 -0.031132689 -0.021775326 0.049657617 0.02746353 -0.028602464
0.33139232 -0.27278453 -0.09974915 0.008367687 0.054418527 0.02275901 0.05001632 -0.118478276
0.104085684 0.087242015 -0.009372357 -0.06638254 -0.068977535 0.05923044 -0.02261284 0.06296946
0.009923652 -0.0105829965 0.015801806 -0.071187966 0.06374871 -0.08595778 -0.029406805 -0.016259138
0.07931991 -0.08060936 -0.040093392 -0.074364744 -0.026544388 -0.014506479 -0.041183244 0.06755984
-0.011414509 0.33852682 0.17643252 0.06527196 -0.14690742 -0.019736039 -0.015040235 0.10503699
0.038058847 0.010009613 -0.03008433 -0.041076075 0.04345303 -0.005383601 -0.01900193 -0.052030183
0.086844355 0.05520461 0.031480443 -0.013991916 0.09863228 -0.03993664 0.19180371 -0.04958935
-0.05119498 -0.1242483 0.028533721 -0.065204866 -0.10274698 0.0012148177 -0.0064801867 -0.034138605
-0.06270454 0.04606835 -0.5226509 -0.10553041 0.06427456 0.067640595 0.012604929 -0.037300933
0.046343073 0.054099858 0.015457215 -0.14542274 -0.04252512 -0.08665768 0.050426938 -0.063180245
0.08081877 0.0028814948 0.0527111 -0.019264307 0.047767855 -0.0590589 0.022029448 0.02281356
0.0057040267 -0.0032638924 0.08460087 -0.011125139 0.046208076 -0.06651751 -0.016625555 0.07079589
-5.0626695e-05 -0.022215767 -0.000518851 -0.87890077 0.16909334 0.16499415 0.16951524 -0.08119151
-0.009466734 -0.014514326 -0.0013225754 -0.003617528 -0.068374895 -0.016512262 0.06537497 0.12565345
0.03564022 -0.07533341 -0.031472854 -0.15046993 0.13124019 0.06350147 0.07793272 -0.022285366
-0.059106495 0.15205204 0.035412107 -0.0014429461 0.029568909 -0.0725042 -0.113121495 0.016216712
-0.14267631 -0.0379647 -0.041656993 -0.009385206 -0.07201454 0.087329485 -0.0031605372 0.10803733
0.044712182 -0.105266675 -0.03597828 0.01882347 -0.108781986 -0.15131107 0.009164114 -0.050398756
-0.00645638 -0.07367313 -0.19299771 0.1868107 -0.19216931 0.004164561 0.024108445 0.08423689
0.012699862 -0.010025298 -0.032333937 0.089888446 -0.014080696 0.14116648 -0.018136857 0.064215235
0.030763058 0.10195678 0.046912704 0.014972406 0.0009202771 -0.07251112 0.028358713 0.0737606
0.012979766 -0.03818229 -0.0069742217 -0.041761722 -0.06648147 -0.057190433 -0.026737513 0.061828833
0.0350756 0.04992977 0.066225275 -0.07109521 0.010844423 -0.12600826 -0.029616117 0.07268547
0.038738087 -0.023027927 0.008555398 -0.06719624 0.04582385 -0.04490508 0.046848003 -0.04135487
0.13415056 0.029328644 -0.035287924 -0.042831894 -0.050213147 0.01055352 -1.1291022 -0.025461173
0.16769956 0.07811341 0.13607515 0.013110409 -0.019791635 0.061602823 0.050199755 -0.26477715
0.049887814 0.059719604 0.21613194 0.0031946516 -0.05455204 -0.03168059 0.053485796 0.13084356
-0.083405204 0.10344317 -0.07657993 0.06650193 0.16854432 0.036847435 0.07981284 -0.20509224

fc1.bias f4 [400]
00000000: 3dfa 8abd fdf4 c4bc 6328 093e 3c79 a63c
00000010: 7b86 1abe db24 28be 0cc0 1ebe f826 35be
00000020: 1c55 27be 7209 aebc 27ec 913d ffb7 9bbd
00000030: b3ad 9c3d 2dd5 eabc 8966 17be 85f9 f7bd
00000040: 7fa1 afbd 2fff 24be 444d 6ebe 64ec a3bd
00000050: 9fea c4bd 9d00 95bd c97c 42bd dd77 1bbe
00000060: d9f3 e4bd a922 efbd 9e83 b63c c9a7 a83d
00000070: b2b4 1d3e a9f2 0a3b b069 a9bd 524d 84bc
00000080: 131b fe3d 75b8 88bd 3714 e0bd c8c2 2fbb
00000090: 0e7f aebd 9694 b33d e49f e33d 2025 f6bd
000000a0: 5d76 d23d d2de 6f3d 5a72 f23d 5635 2e3d
000000b0: 8dcc a8bd d89c 813c b16d ca3d 1315 013e
000000c0: fddf c13d 6557 97bd 0a03 833c 9da7 7c3e
000000d0: 0e17 563d 598b 163e 9eff 40bd e134 303e
000000e0: 1a12 10bb 03b3 93bd 8420 343d 9c89 1a3e
000000f0: 5ea9 41be b8df 94bd 45f4 293e 15a7 bcbd
00000100: 0b3f 2dbe 0f01 e8bd 9630 9b3d 7960 0dbe
00000110: a9e3 863d 7e30 4e3d 965b 8b3d 8de4 fdbd
00000120: 6d9c 323d 1792 3ebe 0063 ea3c c042 f83d
00000130: dfbe 25be ca7c fb3b 5ea8 eb3d 032d 12be
00000140: 54c5 f2bd c1ab 51bd a707 cabd 591d 063d
00000150: 2012 1dbd 7152 5d3d 6265 ad3c 89b3 a73c
00000160: 1e1c 933d ccdf f8bd d942 0abe c403 08bd
00000170: ad93 bb3d 62ed 6ebd 87fd 4dbd 4e4b a4bd
00000180: 7544 9dbb 5afd 873d cc31 a8bd 5557 2c3e
00000190: eeb4 71bd 4e2a 693e 9cd6 eebd 53eb 613e
000001a0: 39df e43a b97a dd3d 5aae c33d 29ac b0bc
000001b0: b792 a0bd d833 52be 3d65 ab3c 4a6e 0abe
000001c0: 117a 6c3c be98 a83c 92a2 fa3d f09f b73d
000001d0: eb9c a4bc ead6 5bbd 80b6 46be af6a 0cbe
000001e0: 0e47 9bbe 74c2 04be d63b e1bd da80 2c3d
000001f0: 93b9 34be c695 703d 0193 f33d f059 94bd
00000200: cecb 3abd fdac a63d b6e3 5ebe cf68 e73d
00000210: 13f7 ef3d 62d1 fa3c 5227 44be 2105 023e
00000220: 0ae1 e3bc a9c3 f23c 1655 343e bd42 623b
00000230: d090 9f3c 5f12 0cbe 7ed5 e5bd 5781 1b3e
00000240: 217c 0abe e549 dd39 1afb 40bd ea52 a5bd
00000250: 54bd 5fbe 4ff0 40be 4f3a b7bd f23a da3b
00000260: 183a 983d 3e79 b1be a3e5 46bd 84ea 7cbe
00000270: 43f8 663e 03a9 0dbe 8977 05bd d3b5 c7bc
00000280: cbf9 3dbe c5d3 493d 614d 503d 393e 343b
00000290: f052 d23a 5075 213c 4236 e73c 1de2 373e
000002a0: fb80 abbb be52 c4bc c27c e1bd eaa2 1ebe
000002b0: 885c 0d3d 82bd 9ebc a882 1cbe d823 c93d
000002c0: 6e79 93be 06b6 0bbe b775 3f3e 9692 d4bd
000002d0: 4e70 a03d 7d91 b33d be0c 30be 4c39 1cbe
000002e0: 2715 7b3c cdde 1abe 9cf5 22be eee1 0cbc
000002f0: 2f2a cb3d de3e 043e 585b 9cbd 4215 bebd
00000300: 3461 f8bd fe8b 293e a419 563d cb13 933c
00000310: c3f3 40be 8a97 cfbe d908 f13d cc84 5d3c
00000320: ebcc 4fbd 7e7f f3bd 8027 13be 5843 07be
00000330: b332 49be 9b80 d63c 9754 7dbd 8077 cbbd
00000340: 0745 b53c 1ded fdbd 2588 113d 1b77 d63d
00000350: 857a 24be 471f a8be ba1a 313d 2a19 0dbd
00000360: c033 0cbe 8ab1 b6bd f0c7 dd3b 216c a93d
00000370: 79d3 8dbe b0b5 28be 75a5 17be 09c6 52be
00000380: 17f3 253e 70cb 21bd 18d8 2e3e 5d8a 813d
00000390: 0bbd 403d 3a8a 50be 1218 853d 5853 603d
000003a0: 4c60 44bc 5d0d 58be f687 52bd 42b8 263e
000003b0: a631 87bd 3671 d5bd 15ed a8bd f419 213d
000003c0: 5a2c f43d bfc3 cfbc 24ba 9e3d 647d bd3d
000003d0: 5f5a a2bd 9c4d 08be 04c4 443e 31f6 883d
000003e0: a53f fbbd 4538 99be ce4b 6ebc cb41 1d3d
000003f0: e4ec a5bd b393 97bd f2c3 333e 4657 f83d
-0.067860104 -0.0240426 0.13394313 0.02032148 -0.15090363 -0.16420309 -0.15502948 -0.17690647
-0.1634106 -0.021244738 0.071251206 -0.07603454 0.07650318 -0.028666103 -0.14785208 -0.12108139
-0.08575725 -0.1611297 -0.23271662 -0.08004072 -0.09615063 -0.072755076 -0.047482286 -0.15182443
-0.11179323 -0.11676533 0.022279557 0.082351275 0.15400961 0.0021201766 -0.082721114 -0.01615015
0.12407508 -0.066758074 -0.10941356 -0.002681898 -0.085203275 0.08768575 0.11114481 -0.120188
0.10276482 0.058562107 0.11838217 0.042531334 -0.0824214 0.01582186 0.09884203 0.12605695
0.094665505 -0.07389716 0.01599266 0.24673314 0.05226808 0.14701594 -0.047118776 0.17207672
-0.0021983446 -0.07211878 0.04397632 0.15091556 -0.18912265 -0.072692335 0.16597088 -0.09211556
-0.1691858 -0.11328327 0.075776264 -0.13806333 0.065863915 0.050339215 0.06804578 -0.12397108
0.04360621 -0.18610416 0.02861166 0.121221066 -0.16186093 0.007674788 0.11506723 -0.14274983
-0.118540436 -0.051189188 -0.09864741 0.03274283 -0.038347363 0.0540337 0.021166507 0.020471351
0.07183097 -0.12152061 -0.13502063 -0.033206716 0.09159026 -0.058331855 -0.05029061 -0.08022176
-0.0047994205 0.0664012 -0.08212623 0.1683019 -0.05901044 0.22770044 -0.11662027 0.22062425
0.0017461545 0.10814423 0.09554739 -0.021566467 -0.07840484 -0.2052759 0.020922298 -0.13518634
0.0144334 0.020580646 0.12238039 0.089660525 -0.020094356 -0.053671755 -0.19405556 -0.13712572
-0.30327648 -0.12964803 -0.10997741 0.04211507 -0.17648916 0.058736585 0.11893273 -0.07243717
-0.04560452 0.08138464 -0.21766552 0.112992875 0.117170475 0.03061742 -0.19155625 0.12697269
-0.027817268 0.029634314 0.17610583 0.0034524642 0.019478232 -0.13678883 -0.11222361 0.15186058
-0.13523914 0.0004220746 -0.04711447 -0.08072455 -0.21849567 -0.1884167 -0.08946668 0.006659859
0.074329555 -0.34662813 -0.048558842 -0.24698836 0.22555642 -0.13834004 -0.0325847 -0.024378693
-0.1855232 0.049274225 0.050855044 0.0027502908 0.0016046446 0.00985463 0.028224114 0.17957349
-0.0052338815 -0.023965236 -0.11010124 -0.15491834 0.034512073 -0.019377474 -0.15284216 0.0982129
-0.2880358 -0.13643655 0.18697248 -0.103795215 0.078339204 0.08767984 -0.17192361 -0.15256232
0.015324867 -0.15124054 -0.15914005 -0.008598788 0.09920155 0.12914607 -0.0763461 -0.09281398
-0.12127915 0.16557309 0.052270547 0.017953774 -0.18842988 -0.40545303 0.11769266 0.013520431
-0.050732534 -0.118895516 -0.14370537 -0.13209283 -0.19648246 0.02618437 -0.06184825 -0.09934902
0.022127641 -0.123987414 0.03553023 0.10471936 -0.16062362 -0.32836363 0.04323838 -0.034447826
-0.13691616 -0.08920582 0.006768219 0.08272577 -0.27700403 -0.16475558 -0.1480921 -0.20583357
0.16206013 -0.039500654 0.1707462 0.06325219 0.047055285 -0.20365229 0.06498732 0.054766983
-0.01198585 -0.21098848 -0.051399194 0.16281226 -0.066012666 -0.10421984 -0.08248345 0.03933139
0.11922522 -0.025361894 0.07750347 0.09252432 -0.07927393 -0.13310856 0.19215399 0.06687582
-0.122679986 -0.29925743 -0.01454444 0.038392823 -0.08101824 -0.07401218 0.17555216 0.12126021

fc2.weight f4 [300, 400]
00000000: ee7a b13d 6e7a 963c f8f1 373d 46d2 97bd
00000010: 2ff0 c13d 8cc6 22bd 2b51 453e 649d 6c3d
00000020: 7e3e aebd 43f5 c3bc 1aa3 9abd 9726 00bc
00000030: 44af b438 a738 a53d f2de 5c3d ed40 c3bd
00000040: 996b 503c f824 acbd a646 113e aec2 e2bd
00000050: 45ef 143e 3270 85ba 5444 243d a9df d6bd
00000060: 4ae4 d03c 6251 f3bc 310f c5bd 437d bb3b
00000070: 36ef 7abd ba37 ca3b 0b1a 7c3b 46d5 7f3c
00000080: eeb8 01be 6269 b1bc 4a4f 8e3c 27f3 433e
00000090: 3aaa c73c d5ae adbd 4c28 83bd 49dc 9bbd
000000a0: 5e3f 183d 421f 2b3d a623 593c 6abc 35be
000000b0: 6fdc d03d 4a03 c03d 53f1 6abc db76 23bc
000000c0: 41b2 083c 4bc6 353e ad2a 9a3b aae4 403d
000000d0: 06ce 0abe 2321 ac3c c6db 62bd 9a3c f43d
000000e0: 5936 c63d 5803 05be e2ee 3a3d 72b0 0c3d
000000f0: 5b9a b73c ecbc a3bd c285 a8bd eda7 e2bd
00000100: 5a5d cbbd 6a4d 723d c12c 0d3d 5081 a1bd
00000110: 3c8e 87bd da16 a83d 8fd5 d6bc a60e bcbc
00000120: d96e efbd 08d9 053c d9b5 473d 0e3a d33c
00000130: 8db6 5bbd 87f2 493e 23da bbbd 7a82 6fbe
00000140: a0f5 20be 33e2 f23d 020b e13a f3c5 76bd
00000150: 93db 5dbc abd2 a33c d0a9 00bc 5721 cfbd
00000160: 545b e2bd c6be 4d3c c0e8 eebb ac8f 683d
00000170: 2514 2a3d ae4d bebd ea7a fa3c efcb f9bc
00000180: 8100 85bc 50c4 003e f504 54bd a8de ff3d
00000190: 0243 063b 88ed 183d 80e3 3fbc b011 163d
000001a0: 14d0 0fbe 6fd5 fdbd ac50 bcbd c3b2 c03d
000001b0: 4b67 ddbd c33d 19be 9df9 9ebd 3510 cf3d
000001c0: 2ca8 813d 553b 8bbb 4348 c03b f88d 6ebd
000001d0: f3ea b0bd eddb b03c 35fd b9bc f3d3 4cbc
000001e0: 7660 c638 4ac9 053d a412 2f3d 788c e6bc
000001f0: 68c1 d1bc be60 fd3d d76b d83c a952 a3bc
00000200: ac86 503d 2f7f d83d db6d ec3d 44dd 54bc
00000210: 64db d7bd 9048 cc3d 019a cdba efe6 92bc
00000220: 00ed 003e 5c1c 033e f723 c23d cd9f cdbc
00000230: a6d7 a63d fcb1 a3bd 6df4 ba3d 620c b63d
00000240: 572d 4c3d 12bc 53be 8d20 8c3d 32b6 c3bc
00000250: 4fea 823d 8b8f bbbd d04b 90bd 33de 95bd
00000260: 06b2 97bd 147c b9bd 819e 7bbd c7c4 193d
00000270: 7600 403c 485a 823c 4e3d 873c a408 7bbc
00000280: 337c a3bd cc60 5e3e 56ab 413d 5bc3 86bd
00000290: d444 6abd bfe5 e53d c73d b93d 0a20 453e
000002a0: d2f4 22bd 8924 29be d3a0 28bd 60ab d03d
000002b0: d101 a93c 49d3 2cbc 2d92 aebd 6a22 9f3d
000002c0: 6fee 0ebe a69f fd3c a6b5 8fbd 0a4e f53d
000002d0: 9438 7dbd 69e3 513d c1e0 e9bc 8a73 3dbe
000002e0: 9386 b8bd e80a 9ebc bc1d 053e 44c4 b83d
000002f0: df3a da3d 2850 013e 7ba8 bcbc 20b2 28be
00000300: 5469 d6bc 0bc4 883d a2a3 e5bd b421 65bd
00000310: b0ee 6abe 1eaf c3bc e356 8e3d 90af cb3d
00000320: 3664 46bc 3822 9abd d70a 6a3c 0166 0cbe
00000330: a0b9 cfbd c31d ecbd b941 be3d af34 3d3d
00000340: 5fa3 87bd 4869 303e 78b2 163d 7559 7dbd
00000350: 9419 76be d4d1 95bd 45ac afbd ae36 8c3d
00000360: 612a 9cbd 5584 8d3d 7243 fb3c 526e fdbd
00000370: 959a 1a3e 787a 803d 0009 aebd 7a74 603c
00000380: 0272 2cbe 18c1 df3d 94ad de3d af41 4c3d
00000390: ecca 7ebe 7004 213d a7d1 b1bd d1d7 67bd
000003a0: d625 ab3d 5a39 74bd 36df 093d 380e 5b3c
000003b0: d873 aebd e2dd 1e3d 08d0 a33d 3dbb 933d
000003c0: deec df3d 8524 b4bd 6860 c33d 55fd e2bd
000003d0: d224 d53d ff3a 8abe 1e98 5dbb 8dad f83c
000003e0: f331 10bd e442 56bd 21d3 133c 41e4 803e
000003f0: 1826 653d f32d 8f3d a276 e03b 6f28 cdbc
0.08666025 0.018368926 0.044908494 -0.07413153 0.094696395 -0.03974013 0.19269244 0.057767287
-0.08508013 -0.02392066 -0.075506404 -0.007821701 8.6157146e-05 0.08067446 0.053923555 -0.09533868
0.012720966 -0.08405489 0.14187106 -0.110722885 0.14544399 -0.0010180532 0.040104225 -0.104918785
0.025499482 -0.029701892 -0.09622038 0.0057217195 -0.061263286 0.006171194 0.0038467671 0.015614813
-0.12668201 -0.021656696 0.017371792 0.19135724 0.024373163 -0.08480612 -0.064041704 -0.076103754
0.037169807 0.041777857 0.013253128 -0.17747656 0.10198294 0.09375627 -0.014339763 -0.009977068
0.00834328 0.17751424 0.0047047944 0.04709307 -0.13555154 0.021011895 -0.055385374 0.11925621
0.09678335 -0.12989557 0.045637973 0.03434796 0.02241247 -0.07995018 -0.08228637 -0.110671856
-0.09929915 0.05915586 0.03446651 -0.078859925 -0.06618926 0.082074836 -0.02622488 -0.022956204
-0.116910644 0.00816942 0.048757408 0.025784519 -0.05364089 0.19721423 -0.09172466 -0.23389617
-0.15718699 0.1185955 0.0017169418 -0.060247373 -0.01354112 0.019997915 -0.007852986 -0.10113781
-0.11052576 0.012557691 -0.0072909296 0.05677764 0.041523118 -0.0929216 0.030576188 -0.03049275
-0.016235592 0.12574887 -0.05176254 0.1249364 0.0020486717 0.037335902 -0.011711955 0.036637962
-0.1404422 -0.12394225 -0.091950744 0.09409096 -0.10810717 -0.14964966 -0.07762454 0.10110513
0.06330904 -0.0042490163 0.0058679893 -0.05824086 -0.08638563 0.021589244 -0.022703746 -0.0125017045
9.459343e-05 0.032662667 0.042742386 -0.028143153 -0.025604919 0.12371968 0.02641861 -0.019936876
0.050909683 0.10571133 0.11544391 -0.012992207 -0.10539892 0.09974778 -0.0015686156 -0.017932383
0.12590408 0.12803787 0.09479516 -0.025100613 0.081466004 -0.07992932 0.09128652 0.088890806
0.049847927 -0.20677212 0.06842146 -0.023890588 0.06392347 -0.09158238 -0.0704571 -0.07317772
-0.07407002 -0.09056869 -0.061430458 0.037541177 0.01171886 0.01591219 0.016508725 -0.015321884
-0.079826735 0.21716613 0.04728254 -0.0658023 -0.057194546 0.11225461 0.09044986 0.19250503
-0.03978426 -0.16517843 -0.041169 0.10188937 0.020630749 -0.010548421 -0.085239746 0.07770236
-0.13958143 0.030959915 -0.070170686 0.119777754 -0.061821535 0.051242266 -0.028549554 -0.18501106
-0.09010043 -0.01929231 0.12999624 0.0902181 0.1065576 0.12628233 -0.023029556 -0.164742
-0.026173271 0.06678017 -0.11212851 -0.055940345 -0.22942615 -0.023887213 0.06950166 0.09945595
-0.012108853 -0.07526058 0.014284811 -0.13710786 -0.10142827 -0.11529114 0.09289879 0.04619282
-0.066229574 0.17227662 0.036791295 -0.06185289 -0.24033195 -0.07315412 -0.0857778 0.06846367
-0.07625271 0.06910006 0.030671809 -0.123745576 0.15098031 0.06273359 -0.0849781 0.013699645
-0.16840366 0.109255016 0.10872951 0.04986733 -0.24882096 0.039310873 -0.08682566 -0.056602303
0.08356826 -0.059625007 0.033660136 0.013370089 -0.08518189 0.038785823 0.07998663 0.07213447
0.10933851 -0.08796028 0.095398724 -0.110834755 0.104074135 -0.26998135 -0.0033812593 0.030356193
-0.035203885 -0.052309886 0.009022505 0.25174144 0.055944532 0.06991186 0.0068500796 -0.025043694

fc2.bias f4 [300]
00000000: 918a 853d 05c1 35bc 95af 903b 497b 213d
00000010: 55d5 0d3e 5e9a 713c a989 2a3d ae77 ff3d
00000020: cdf2 9e3d 0491 c73d 1736 e5bb 6e07 123d
00000030: b1ea 33be c6e2 ecbb cdff 5dbd 82ff 7cbc
00000040: 33f4 893c f8f7 f13a 700b fb3d 24e2 b5ba
00000050: e90b 2a3d b942 363b da66 9c3a 5e8d 01bc
00000060: 19f3 d23d 668f 3fbd 31af 9f3d 37e8 93bd
00000070: 1c72 c93c bdb6 a73c 2c4f eabc be21 c83b
00000080: 0734 d03d 9081 b03d 74b1 bebd 5aee b43d
00000090: 0c6f 3f3d f38c 9fbb 827d 133d e396 eb3d
000000a0: 2420 fd3b 6850 573c 08b7 c5bd ed93 25bb
000000b0: 255e f53d 6bd2 453d 2a8c 223d f4eb 1bbe
000000c0: e16c 083c 667f 113c 4f81 dcbd ded3 94bc
000000d0: ec8d dc3c 3be5 5f3d 129a 8b3c 30dc 943c
000000e0: 6d12 b8bd 78ca 453c 2162 8abc 5064 8cbc
000000f0: 889d 133d 3647 993d 5c84 c2bc 0431 803d
00000100: 3aef 9b3c 47eb f73c 2025 e7bc 8e04 46bc
00000110: 1565 8d3d a0db 8d3d cf1d 7b3d 8af1 d3bd
00000120: 5e2c 5d3d 64ca dbbb 3a85 203d 78bf 443c
00000130: 6e25 d0bc b17e 243e a5c7 f7bc 8990 c1bd
00000140: 059c 5bbd 1cf5 b6bc 0173 27bd 8174 ef3c
00000150: b2b0 273d 4687 af3b c771 cebc 142c 8cbb
00000160: ffce 64bd 0764 f43d 2af2 f33c 888e 31bd
00000170: 8e85 193d 739a 183d e0be 0e3d 2cdb 9f3d
00000180: 962c 18bc d7f0 d83d 5664 fcbd 7347 f73b
00000190: eab7 063d 4b2c ca3c db75 2dbd 6a50 083d
000001a0: 7fc8 413d 6cf2 133c 6ff8 243d 97f0 653d
000001b0: ed12 84be c5ca 33bd 2b9f 993d fc45 8e3d
000001c0: a67e b13d afcc f13b 4b39 2c3b eef5 69bc
000001d0: a06a 923d 6184 d83d 9891 7db6 2cd3 ae3d
000001e0: 89bb d7bd 5deb 6dbd 5ef5 743d 261d 5ebc
000001f0: d7a9 803d 17b4 02be 9817 153d 6be0 503d
00000200: 8342 b33d eaae 863d 71ca bd3c 4a43 963c
00000210: a43b 793d 5608 f2ba 71de 153d 12c6 cabb
00000220: b65a 453d 62e8 b33d 6753 3dbd 1979 3c3d
00000230: 1085 d8bd 07d1 84bb 8051 ae3c 1fd0 a13a
00000240: ebca d7bc ee77 403d 9c01 05bd df7b 4ebc
00000250: b3af f2bd a2f7 123d dc5c 72bd 271f 913d
00000260: ff87 4b3d 7d18 873d 8b5d 503d 1238 b43d
00000270: e47d 153c e6bf 373d 870a 13bd ecd0 a63d
00000280: 0c6d b03d 20f5 5b3d b199 413d a075 be3c
00000290: 06e5 dcbd 5f87 d3bc 4417 493d a0b7 c03d
000002a0: 5331 f3bd 8f33 0e3d c967 41bd 0ec8 4ebd
000002b0: 2646 82bc 0e30 d93c 539c 9e3d e563 2e3d
000002c0: ca4e adbd a9b8 a93c f29d debd 6cd2 863d
000002d0: dd69 303d 4e78 173d 42a6 f43d 3991 02bc
000002e0: fc26 3a3d a152 88ba 0928 6e3d 2dbc 353d
000002f0: 1018 563d b9bd 9e3c 548c a2bd 488f 913d
00000300: c12f b2ba 645b cd3c 20f3 bd3d a6c1 6e3d
00000310: 0a3e 17bd ddbe 523b 3610 edbd b6c3 b43d
00000320: 9d94 15bd ea35 4fbd 1801 b7bd bfe4 0e3d
00000330: d0ea f73c 6ebf cf3d 0214 72bc 5ced 113d
00000340: 358a 83bd c690 20bb 68b0 5f3b 81f6 7cbb
00000350: 85f9 eabd 26a2 863c 5bf8 17bd df3a fc3d
00000360: 35eb 593d 1b06 93bb 6931 c23c c5a9 0c3e
00000370: 2b1b b3bd e619 d8bd 5b1b 9c3a 5e79 32bc
00000380: 9122 ec3c d524 013c 1d25 18bd ee8b 293d
00000390: b95a 22bd ba66 853d 2236 253c dbbe 3bbc
000003a0: 6e2f e3bd d03d 933d be95 2bbd cd07 f7bc
000003b0: 5bba e0bd 2a42 1e3d 347e 40bc fb1c 08bd
000003c0: 9988 6fbd 53b7 903d 169f 5d3d 5415 06bd
000003d0: db5c 96bd 0c27 99bd 293c 2e3d b29e 983d
000003e0: a14d 65bc 29b5 44bc f1b7 1c3d 399d 9c3d
000003f0: 3e11 593d c8a5 dbbc 2ff1 aebd ca49 8dbd
0.0652057 -0.011093383 0.0044154623 0.039424215 0.13850911 0.014746277 0.04163519 0.12473999
0.07761154 0.097444564 -0.0069949734 0.035651617 -0.17569996 -0.007229182 -0.05419903 -0.015441777
0.016840076 0.0018460741 0.12258041 -0.0013876599 0.041515265 0.0027810766 0.0011932508 -0.00790724
0.103002734 -0.046767615 0.07797087 -0.07222026 0.024590544 0.020472879 -0.028602205 0.006107538
0.101661734 0.08618462 -0.0931119 0.088345245 0.046736762 -0.0048690974 0.036008365 0.11503389
0.0077247787 0.013141729 -0.09654051 -0.0025265173 0.11980847 0.048296373 0.039684452 -0.15226728
0.00832674 0.008880472 -0.10766851 -0.018167432 0.026923142 0.05466197 0.01704124 0.0181714
-0.089878894 0.012072198 -0.016892495 -0.017137676 0.036038905 0.074842855 -0.023744754 0.06259349
0.01903497 0.030263556 -0.028215945 -0.012086047 0.069040455 0.06926656 0.061307725 -0.10348804
0.05399739 -0.0067074765 0.039189555 0.01200854 -0.025408473 0.16063954 -0.030246565 -0.09451396
-0.05361559 -0.022333674 -0.04088116 0.029230358 0.040939994 0.005356702 -0.025200738 -0.0042777155
-0.05586147 0.11933141 0.029778559 -0.04334882 0.037480883 0.03725667 0.03485 0.078054756
-0.009287974 0.105928116 -0.12323825 0.007546359 0.032890238 0.024679324 -0.042348724 0.033279814
0.04731035 0.009029966 0.040275987 0.056137647 -0.2579569 -0.043894548 0.07501062 0.06946942
0.086667344 0.0073791365 0.0026279266 -0.014279826 0.07149243 0.10572124 -3.7784685e-06 0.085363716
-0.10533816 -0.058085788 0.059804313 -0.013556754 0.062823944 -0.12764011 0.036399454 0.05099527
0.087529205 0.06576331 0.02316782 0.018342633 0.060847893 -0.0018465619 0.03658909 -0.0061881626
0.04818221 0.08784558 -0.046222117 0.046013925 -0.10572255 -0.0040532383 0.021279097 0.001234535
-0.026341876 0.046989374 -0.032472238 -0.012602775 -0.11849918 0.035880692 -0.05917059 0.0708602
0.049690243 0.06596468 0.05087046 0.08799757 0.009124253 0.044860743 -0.03589871 0.081453174
0.08614549 0.053700566 0.047265712 0.023249447 -0.1078587 -0.025821386 0.049094453 0.09410024
-0.11874642 0.03471714 -0.047218118 -0.050483756 -0.01590259 0.026512172 0.0774466 0.042575736
-0.084622934 0.020717936 -0.108699694 0.065831035 0.04306971 0.036979966 0.11945774 -0.007969194
0.045447335 -0.0010400602 0.05814365 0.04436891 0.05226904 0.019377576 -0.07936922 0.07107407
-0.0013594554 0.025067993 0.09274888 0.058290146 -0.0369244 0.003215722 -0.115753576 0.088263914
-0.03651868 -0.050588526 -0.089357555 0.034886118 0.030263335 0.10143934 -0.014775278 0.035626754
-0.06422845 -0.0024500354 0.0034132246 -0.0038599076 -0.11473373 0.01643474 -0.037102085 0.12315916
0.053202827 -0.004486812 0.023705201 0.13736637 -0.08745416 -0.10551815 0.0011910008 -0.010893194
0.028825076 0.007882317 -0.03714477 0.041393213 -0.0396373 0.06513734 0.010083707 -0.011459078
-0.11093031 0.07189524 -0.041890852 -0.030155087 -0.109730445 0.038637318 -0.011748839 -0.033230763
-0.05847988 0.07066216 0.054106794 -0.032735184 -0.073419295 -0.07478151 0.042537842 0.07452144
-0.013995559 -0.012006083 0.038261358 0.07647175 0.05299496 -0.02681245 -0.08542096 -0.0689884

fc3.weight f4 [4, 300]
00000000: 43db 673d d2b5 413d b022 fd3c d8f0 81be
00000010: 43d5 203e 1d35 0e3e b8b7 0ebe bbbd e5be
00000020: fda5 00bf 7d4d 003e ed3a fcbb 56a2 f2bc
00000030: c59c ae3e ebd0 b43b 714a 12bf 29a1 f23d
00000040: 36c5 2dbd 80ae 0a3e bea1 263e 610a 6c3e
00000050: 9173 53be bfab ac3e 8d63 bbbd 88b6 00be
00000060: 889b 94bd 215d d43d 6db2 89bb babd 1d3d
00000070: 8c22 d6bd 02aa e83e 39bc 1b3e 533f 5c3e
00000080: 0ac8 073e 7bcc 1abc 149a 613d 4436 f23d
00000090: 52ee 17be d5d3 743d 6fac cebd 1a32 e5bd
000000a0: 3fbc b4be 5513 933b a665 3ebd 43e1 febd
000000b0: f72d 40be 7189 83be 44af 753e ed5b cc3e
000000c0: fe11 16be 7f99 76bd 90e5 1d3f 8ad4 b6bd
000000d0: 0ce4 8d3e dfd6 8f3d ef44 83be 3c06 66bd
000000e0: f955 10be 4477 9bbd 47eb b6bd 23a1 553d
000000f0: c4fe 83be a1f4 133d 9b69 1b3e c321 48bd
00000100: 6f80 1fbd 3567 663e c83f 463e 2a2c 083d
00000110: 5180 673e b091 663d 1681 4a3d fefb 663e
00000120: ce78 c3be 41e6 0a3c 577f 503e aeab 813e
00000130: e835 d9bd d5d3 b23d 602e 25be 60b9 bc3d
00000140: eb34 d0bc b770 b23e 3941 d73e 63f2 9dbe
00000150: 736b 3a3e 8ee6 03bf bf42 bfbd ee34 2dbd
00000160: 23fe 94be 2017 12bd 8d52 3fbc 6492 4d3f
00000170: f2aa 6cbe 4fb4 933c 77ee 53be 353d cdbd
00000180: 9f2f 313e 902b dabd d679 c2be e67e 0b3e
00000190: 1a20 31be c446 b53e eda2 0abe d377 93be
000001a0: 379d 05bf acf2 62bc fe51 a1be 68a3 b53e
000001b0: ac89 423f cde4 db3d 14b5 7f3d 1557 ec3e
000001c0: 36d9 91bc b30c 5e3c fd5b f6bd d1e9 f0be
000001d0: d611 27bd 093f 87bc 5365 1f3c 1639 aabd
000001e0: 3175 d03e 5ba0 a8be fa48 f23c 7fab 053d
000001f0: c2af 133d a085 183f 7573 f83d 75ac 6cbd
00000200: 2517 003e 4a1c 233e 62e7 d7be 62bc 04be
00000210: bc4f 6bbe 8206 2abe c023 873b 9098 5e3b
00000220: 9b39 ef3e c2bf 62be d127 95be d122 133e
00000230: 44b3 8abe 040f 4b3f e2a8 82bc 118a 89be
00000240: 1696 a63e 40ff 75be aefd c3bd 9cef 74be
00000250: 878c 14be 5bdb 25be 24d3 babe c711 c13d
00000260: b5d3 4bbe 0e4d 6abc 7cb5 a63d 38f9 e93d
00000270: e0f7 a43e 4020 bbbd baba 9a3e b380 24be
00000280: abd4 56be 72cd 1cbe 544c 47bd 98e7 3b3e
00000290: 56f9 313e 685d e7ba 4cee 4ebe bbc0 9fbd
000002a0: 4e92 ff3d 05ef 0b3e 39da b93e 89db 643e
000002b0: 8289 cbbe 32f1 503e 3a05 06bf 335e 53bd
000002c0: 5220 f53e 22c5 263d 83cf 183e 61e7 79bd
000002d0: 3c03 98bd 7a18 90bc be4b 24bc f022 a8be
000002e0: 0336 f7ba cc70 14bd 178c 603f a2fa 8c3c
000002f0: 6ac9 d8be 8501 d53e 05ee 113e bfc3 953d
00000300: e5a8 2fbf 7a33 89bd 235c b7be 99dd d63c
00000310: 98c5 dbbe ac2e 50be eb5a 32bd 5b8b 8ebe
00000320: 8f1b 02bc b2af a73e c871 b13e f21a b0be
00000330: 77e4 79bd 2388 94bc 4b46 dd3e 081c 96be
00000340: ff6f a33d ed3a 08bc 2064 fb3d a5d1 8d3e
00000350: a67c 25be a9f3 1b3d 3305 213e a9c6 bf3d
00000360: 0369 5d3e 5d66 9ebe df6e e13d 4e4e 823e
00000370: 021e 17be 2fb4 7ebe 680b d83e 4462 bbbe
00000380: ea2d 293e 844e 43bd b5c2 353e 7b2d 9cbe
00000390: 1773 903e 78db 02bf 322f e13d c851 dfbc
000003a0: b6fe 413f 2d66 e2bd 8a1e 093d ca7c f63d
000003b0: 9daa 5cbe 9020 77bd bc6e 03be 4621 f33d
000003c0: acbd e7bd 7ef3 3abf 99b3 0dbe 8aac 06be
000003d0: 8848 0dbf f5e7 403e 7965 9e3e 1a2d dcbe
000003e0: 80bd d1be 814b cfbd 5a4b 103e 1ac3 efbd
000003f0: fc87 f03e 63ad cd3e d52e 723e e4eb f53c
0.05660559 0.047292538 0.03090033 -0.25379062 0.15706353 0.13887449 -0.1393727 -0.44871315
-0.5025328 0.1252956 -0.007697454 -0.029618423 0.3410398 0.005518069 -0.5714484 0.11847145
-0.042424403 0.13543129 0.16272637 0.23050834 -0.20649554 0.33724782 -0.09149847 -0.1256963
-0.07256228 0.103693254 -0.004202178 0.038511015 -0.10455808 0.45442206 0.1520852 0.21508531
0.13259903 -0.009448166 0.05507858 0.118267566 -0.14837006 0.05977233 -0.10091483 -0.11191197
-0.3529987 0.0044883885 -0.04648366 -0.12445309 -0.18767534 -0.25690797 0.2399264 0.39913884
-0.14655301 -0.06020498 0.6167841 -0.08927257 0.27713048 0.07023405 -0.2563853 -0.05615829
-0.14095296 -0.075911075 -0.08931594 0.052155625 -0.25780308 0.03612197 0.15177004 -0.048860323
-0.038940843 0.22500308 0.19360268 0.033245243 0.22607543 0.056291282 0.049439512 0.22557065
-0.38178104 0.008477748 0.20361076 0.25326294 -0.10605985 0.0873181 -0.16130972 0.09215045
-0.025415858 0.3485162 0.42041948 -0.3084899 0.18205051 -0.51523674 -0.09338903 -0.042286806
-0.2910014 -0.035666585 -0.0116773965 0.803015 -0.23112085 0.018030314 -0.20696436 -0.1002144
0.17303322 -0.1065284 -0.37983578 0.13622627 -0.17297402 0.35405552 -0.13538714 -0.28802356
-0.52193016 -0.013851803 -0.31507868 0.35476232 0.7599132 0.10737 0.06242855 0.46160188
-0.01780377 0.013552832 -0.12029264 -0.47053388 -0.040788494 -0.01650955 0.009728747 -0.083116695
0.4071441 -0.32934842 0.029575814 0.032634255 0.036056288 0.59578896 0.12131397 -0.057781655
0.12508829 0.1592876 -0.4216872 -0.12962487 -0.22979635 -0.16604045 0.004124135 0.0033965446
0.46723637 -0.22143462 -0.2913194 0.1436875 -0.27089894 0.7931979 -0.01594967 -0.2686315
0.3253638 -0.24023151 -0.0956987 -0.23919529 -0.14506732 -0.16196959 -0.36489213 0.09427219
-0.19904979 -0.014300598 0.08140084 0.11424488 0.32220364 -0.091370106 0.30220586 -0.1606472
-0.20979564 -0.15312746 -0.048656777 0.18350065 0.1738027 -0.0017651739 -0.2020809 -0.07800432
0.12479077 0.13665397 0.36299303 0.22349371 -0.39753348 0.20404509 -0.52351725 -0.051603507
0.4787622 0.040715344 0.1492291 -0.061011676 -0.07422492 -0.017589796 -0.010027824 -0.32839155
-0.0018860701 -0.036240384 0.8771376 0.017209355 -0.42341167 0.41602722 0.14250953 0.07312726
-0.6861709 -0.066992715 -0.35812482 0.026228713 -0.4292419 -0.20330304 -0.043543737 -0.27840695
-0.007941141 0.32751232 0.3465712 -0.34395558 -0.061008897 -0.018131321 0.43217692 -0.2931826
0.07980346 -0.00831483 0.12274957 0.2769901 -0.16160831 0.03807417 0.1572464 0.09364063
0.2162209 -0.30937472 0.11007475 0.25450367 -0.14757541 -0.24873422 0.42196202 -0.36598408
0.16521421 -0.0476823 0.17750056 -0.3050345 0.28212807 -0.5111613 0.1099533 -0.027260676
0.75779283 -0.11054645 0.03347639 0.120355204 -0.21549459 -0.06033379 -0.1283521 0.11871581
-0.11315474 -0.7302779 -0.13838042 -0.13151756 -0.551888 0.18838485 0.30936792 -0.4300316
-0.4096489 -0.10121823 0.14091244 -0.117071345 0.46978748 0.40171346 0.23650678 0.030019708

fc3.bias f4 [4]
00000000: 7445 5fbd 98a0 203d eafc 073d 6513 ce3b
-0.054509595 0.039215654 0.033200182 0.006288933
