checkpoints/checkpoint_actor_3800.pth (torch, 542663 bytes, 6 tensors)

fc1.weight f4 [400, 33]
0.009975362 0.20914 -0.03685788 -0.052164044 0.1666602 0.0017065251 0.17535903 -0.20606452
-0.024115408 -0.16605374 -0.22161472 0.01832546 0.012139218 0.009941922 -0.0036499293 -0.005088033
0.014349728 0.03259378 -0.12780412 0.024997016 0.053074937 -0.09832437 -0.07894613 -0.08765252
-0.078463845 -0.056828104 -0.011190468 0.057606123 0.0034491094 0.049657617 -0.061275113 -0.028602464
0.436033 -0.26591524 -0.061086725 -0.034781776 -0.013394565 -0.011166031 0.0020620797 -0.05985231
0.07563802 0.07675205 -0.034744304 -0.10369225 0.017020868 -0.0089896815 0.014897793 0.0902365
0.01419956 0.025066316 -0.04413731 0.012838995 0.015041625 0.10006278 -0.035429507 0.056720626
-0.043207206 -0.0023370099 0.004503846 -0.10372559 0.017960323 0.023812238 -0.041183244 0.023055563
-0.011414509 0.40514007 0.17873567 0.058001768 -0.14304183 -0.024090443 0.0619785 0.024665188
0.09801912 0.019407598 0.039105233 0.050751492 0.07083219 -0.017208604 0.010187223 -0.04795188
0.04777228 0.06290035 0.070011295 0.030828979 -0.03776359 -0.03703765 0.058502384 0.050478354
0.006471164 -0.19132935 -0.013854572 -0.07962998 -0.04656273 0.06028619 0.037752174 -0.034138605
-0.12177558 0.04606835 -0.75732374 -0.07362769 0.17927419 0.012906444 -0.037784472 0.05344424
0.061244715 -0.02597858 -0.002155931 -0.09927555 -0.013736458 -0.021903617 0.07498294 -0.07188171
0.090311326 0.03694614 0.046506975 0.013972714 0.033381805 -0.029093327 0.011346851 0.003960052
-0.014139798 -0.02543064 0.044825193 0.06456182 0.023136713 -0.024550227 0.07221236 0.13024785
-5.0626695e-05 -0.1110534 -0.000518851 -0.99301565 0.21321313 0.24686646 0.30583167 -0.031595055
0.050921302 -0.07624704 -0.05061922 0.13298713 -0.13464688 -0.05108082 0.033355843 0.095095605
-0.053397253 -0.03646238 -0.07340028 -0.12585728 0.10208416 -0.0077832625 0.11499714 -0.026607795
-0.111718856 0.08787916 -0.023048708 -0.031819496 0.024680747 -0.036422282 -0.05631749 0.04815619
-0.077802464 -0.0379647 -0.073597655 -0.009385206 -0.10389157 0.07528183 -0.05588434 0.1179856
0.11178788 -0.108447835 0.011265027 -0.065433934 -0.115263954 -0.027121065 0.02748935 -0.049907222
0.012101554 -0.06359105 -0.17007162 0.2503137 -0.22085422 -0.100673564 0.030360484 0.0540751
0.0080307275 -0.035404455 -0.06702529 0.07960057 0.013485137 0.10855128 -0.12241306 0.06602184
0.017886903 0.06192683 0.046912704 0.027848434 0.0009202771 -0.02260747 0.0386031 -0.00463784
0.09978519 0.0077378605 -0.084607676 0.040254124 0.062371556 -0.014416579 0.021508258 0.008486857
-0.018160965 -0.009731671 -0.058063716 -0.0737445 -0.000718539 -0.12669708 0.050338037 0.013685512
0.043705728 -0.039535135 -0.017612256 -0.04410955 0.0031234466 -0.055976264 0.010840644 -0.046356805
0.12380832 -0.03995254 -0.06260754 -0.042831894 0.019067578 0.01055352 -1.2645152 0.040592726
0.3221128 0.068500794 0.121374235 -0.0056920853 -0.124692775 0.07515343 -0.026227625 -0.27588665
-0.050049584 0.012596996 0.32429993 -0.028655287 -0.052437555 -0.02512821 0.041470293 0.16373162
-0.11059486 0.045796223 0.007973541 0.05721275 0.12483343 0.028298613 0.023247093 -0.13048646
00000000: b36f 233c cc28 563e 4af8 16bd f7a9 55bd
00000010: f9a8 2a3e 7bad df3a 5191 333e 9402 53be
00000020: ad8d c5bc fe09 2abe f8ee 62be 461f 963c
00000030: 92e3 463c 71e3 223c a733 6fbb 84b9 a6bb
00000040: 1f1b 6b3c 0e81 053d 15df 02be 8bc6 cc3c
00000050: 1b65 593d 4a5e c9bd 82ae a1bd 2a83 b3bd
00000060: a7b1 a0bd 96c4 68bd 3a58 37bc 66f4 6b3d
00000070: 740a 623b c965 4b3d 9dfb 7abd b74f eabc
00000080: b83f df3e 0b26 88be 1336 7abd 5677 0ebd
00000090: e174 5bbc baf1 36bc f523 073b b227 75bd
000000a0: 1be8 9a3d 2e30 9d3d 0b50 0ebd 9a5c d4bd
000000b0: 596f 8b3c 7549 13bc df15 743c eacd b83d
000000c0: 45a5 683c e057 cd3c 53c9 34bd a65a 523c
000000d0: 2671 763c b7ed cc3d 881e 11bd e353 683d
000000e0: 0afa 30bd 8528 19bb 0095 933b 156e d4bd
000000f0: 8721 933c e211 c33c c3af 28bd 05df bc3c
00000100: ec03 3bbc 856e cf3e 7c06 373e 4393 6d3d
00000110: 8f79 12be 5259 c5bc 2bdd 7d3d a60e ca3c
00000120: 40be c83d affc 9e3c cf2c 203d cce0 4f3d
00000130: 7810 913d 0ff9 8cbc 4fe8 263c 3169 44bd
00000140: deac 433d e6d1 803d 1562 8f3d 0e8d fc3c
00000150: ffad 1abd cab4 17bd 32a0 6f3d 64c2 4e3d
00000160: 0f0c d43b d7eb 43be 49fe 62bc 0b15 a3bd
00000170: 90b8 3ebd a7ee 763d 06a2 1a3d ecd4 0bbd
00000180: 7a65 f9bd 2bb2 3c3d f8df 41bf 1dca 96bd
00000190: a793 373e 8d75 533c e4c3 1abd 59e8 5a3d
000001a0: bddb 7a3d 08d1 d4bc 854a 0dbb fb50 cbbd
000001b0: e10e 61bc 376f b3bc a890 993d b836 93bd
000001c0: 25f5 b83d d654 173d 197e 3e3d cfed 643c
000001d0: 5cbb 083d 2155 eebc 24e8 393c 53c3 813b
000001e0: 9caa 67bc eb53 d0bc 9f9a 373d fd38 843d
000001f0: 3489 bd3c 8f1d c9bc 13e4 933d b15f 053e
00000200: 0058 54b8 f76f e3bd 8003 08ba 4636 7ebf
00000210: 8b54 5a3e 90ca 7c3e f895 9c3e d169 01bd
00000220: db92 503d 6827 9cbd 1956 4fbd c72d 083e
00000230: dfe0 09be 1f3a 51bd 23a0 083d 7cc1 c23d
00000240: 14b7 5abd 9459 15bd e352 96bd bbe0 00be
00000250: 8011 d13d bd0a ffbb 9f83 eb3d 97f8 d9bc
00000260: dbcc e4bd fdf9 b33d a5d0 bcbc 2955 02bd
00000270: 472f ca3c 882f 15bd 2bad 66bd 6d3f 453d
00000280: e656 9fbd e080 1bbd 5eba 96bd 68c4 19bc
00000290: 1ac5 d4bd 5c2d 9a3d fae6 64bd 6fa2 f13d
000002a0: 0bf1 e43d e619 debd f390 383c 3a02 86bd
000002b0: 820f ecbd ff2c debc 5831 e13c 846b 4cbd
000002c0: 9945 463c 063c 82bd 4127 2ebe 1e29 803e
000002d0: 9c27 62be f12d cebd 8db6 f83c da7d 5d3d
000002e0: 5093 033c 4304 11bd 8e44 89bd a005 a33d
000002f0: c4f0 5c3c 2250 de3d b3b3 fabd 7536 873d
00000300: 8e87 923c fda6 7d3d 8927 403d 6622 e43c
00000310: c03e 713a 4d33 b9bc 491e 1e3d 06f9 97bb
00000320: 2d5c cc3d e18d fd3b ca46 adbd 82e1 243d
00000330: 5179 7f3d 8433 6cbc 1632 b03c 750c 0b3c
00000340: 4ec6 94bc 9671 1fbc 38d4 6dbd 5b07 97bd
00000350: 565c 3cba e1bc 01be 422f 4e3d 3339 603c
00000360: c704 333d 98ef 21bd 9447 90bc 37ac 34bd
00000370: bdb2 4c3b 5e47 65bd f59c 313c a2e0 3dbd
00000380: 378f fd3d 46a5 23bd 6238 80bd 7f70 2fbd
00000390: 9c33 9c3c ace8 2c3c a2db a1bf 8f44 263d
000003a0: f8eb a43e 254a 8c3d 0e93 f83d ac84 babb
000003b0: ed5e ffbd 0bea 993d 51db d6bc 0441 8dbe
000003c0: cb00 4dbd a163 4e3c a40a a63e 7ebe eabc
000003d0: c3c8 56bd add9 cdbc c1dc 293d 43a9 273e
000003e0: 8f7f e2bd d294 3b3d 74a3 023c eb57 6a3d
000003f0: aba8 ff3d 7ed2 e73c b070 be3c 3e9e 05be

fc1.bias f4 [400]
-0.15659767 -0.06854671 0.07487233 -0.06851664 -0.1828408 -0.1513289 -0.08574697 -0.25055206
-0.1930901 -0.10184656 0.04148253 -0.09664665 -0.0024664046 -0.07092995 -0.16105616 -0.1756376
-0.12249132 -0.21388222 -0.28844243 -0.16621104 -0.17281018 -0.0822989 -0.13592333 -0.20370793
-0.15114594 -0.13556015 -0.0035820915 0.116915986 0.08656286 -0.0401823 -0.19636382 -0.022424493
0.07117038 -0.113829605 -0.19990599 -0.01971731 -0.058819182 0.019925673 0.121142894 -0.17834465
0.03657129 0.018339975 0.06584712 0.021343427 -0.13242643 0.018767437 0.06170896 0.028825928
0.026617741 -0.13742559 -0.023738649 0.13818821 0.13274617 0.086237326 -0.20008759 0.105002224
-0.11457093 -0.15231766 -0.012222816 0.095285974 -0.2697299 -0.1038555 0.09940837 -0.07678471
-0.25630242 -0.20837995 -0.01278206 -0.15990472 0.029095124 -0.061148696 -0.0105128735 -0.13927045
0.094555564 -0.20178685 -0.018519422 0.104518145 -0.1994889 -0.057593778 0.08017459 -0.16542768
-0.22756623 -0.17543608 -0.1948695 0.025352042 -0.048497807 0.09466602 0.00078425364 -0.028281046
0.002396178 -0.23850177 -0.20805414 -0.055275287 0.008775769 -0.09245707 -0.13441165 -0.15631567
-0.03833538 -0.0046917456 -0.117674164 0.10511149 -0.096590504 0.13226213 -0.17332731 0.20910415
-0.05885496 0.0764045 0.007618225 -0.11725431 -0.16484305 -0.2188149 0.09720782 -0.2017583
-0.04325923 0.0067985887 0.06930922 0.04470028 -0.14617294 -0.022034852 -0.18856679 -0.22915013
-0.3507468 -0.1605837 -0.16338046 0.0017943737 -0.20562777 0.037552137 0.028369453 -0.09647448
-0.00085373456 0.023267167 -0.2770748 0.12436049 0.059974052 -0.01998391 -0.22821549 0.08796075
-0.043416623 -0.016681058 0.15820992 -0.018997107 -0.08204261 -0.18888134 -0.13423824 0.14984111
-0.13251619 -0.06881423 -0.07817591 -0.16921616 -0.24834771 -0.15617998 -0.055930953 -0.06225779
0.037566096 -0.34468165 -0.028187267 -0.2173182 0.21746275 -0.17949712 -0.058273755 -0.029539041
-0.19922802 0.012067474 0.011082017 -0.03279536 -0.0031420155 0.009959151 -0.0066205063 0.13714519
-0.077583 -0.04485495 -0.08391019 -0.21469548 0.07073325 -0.10899115 -0.2320405 0.035495136
-0.33449176 -0.20421861 0.10510425 -0.23086837 0.014738433 0.03584788 -0.14953251 -0.15231305
-0.05940647 -0.22374962 -0.25026175 -0.060513843 0.012275286 0.08569842 -0.14907335 -0.15141173
-0.2471902 0.14716046 0.045161463 -0.022468401 -0.22184777 -0.45351264 0.08231015 -0.07159247
-0.14789686 -0.17285076 -0.16914687 -0.20737764 -0.22081436 -0.11477436 -0.13616236 -0.115452066
0.011218761 -0.17002122 -0.098641336 0.10185613 -0.095312685 -0.35884333 0.06470853 -0.031586528
-0.18169999 -0.12442284 -0.06507154 0.07352297 -0.30477366 -0.22944698 -0.18305944 -0.24456653
0.17775208 -0.08922786 0.07505337 0.043293845 0.06719531 -0.2270007 0.011611837 -0.036558885
-0.038025044 -0.2512225 -0.16425651 0.07493786 -0.19926432 -0.13780838 -0.1300374 -0.0715738
0.04088193 -0.11734665 0.007925456 0.020326087 -0.16255373 -0.11403712 0.15964712 0.012520503
-0.18939915 -0.3380384 -0.014122228 -0.043395087 -0.116568 -0.08462431 0.17023669 0.073301554
00000000: 245b 20be 3862 8cbd aa56 993d 7452 8cbd
00000010: 9e3a 3bbe f7f5 1abe 1b9c afbd 5c48 80be
00000020: 69b9 45be ee94 d0bd 96e9 293d aeee c5bd
00000030: 67a3 21bb b943 91bd e8eb 24be 58da 33be
00000040: bbdc fabd f103 5bbe baae 93be 3a33 2abe
00000050: 27f5 30be 538c a8bd 7c2f 0bbe d098 50be
00000060: 00c6 1abe 48d0 0abe 86c1 6abb a671 ef3d
00000070: de47 b13d 3296 24bd 9913 49be 92b3 b7bc
00000080: c7c1 913d 7f1f e9bd 28b4 4cbe 3286 a1bc
00000090: 62ec 70bd 2a3b a33c c419 f83d fb9f 36be
000000a0: c7cb 153d b73d 963c dbda 863d 69d8 ae3c
000000b0: cb9a 07be 2bbe 993c 89c2 7c3d 5a24 ec3c
000000c0: 730d da3c 4bb9 0cbe 8e77 c2bc 3681 0d3e
000000d0: 9dee 073e 329d b03d c3e3 4cbe 680b d73d
000000e0: 2aa4 eabd 29f9 1bbe 3542 48bc 4b25 c33d
000000f0: 0a1a 8abe 31b2 d4bd 9e96 cb3d 4d41 9dbd
00000100: 123a 83be 8e61 55be d86b 51bc 10be 23be
00000110: e658 ee3c 0e77 7abd 303e 2cbc ea9c 0ebe
00000120: 59a6 c13d 36a1 4ebe 0bb6 97bc 9c0d d63d
00000130: d146 4cbe 74e7 6bbd 9332 a43d e065 29be
00000140: 1f07 69be 84a5 33be df8b 47be 16af cf3c
00000150: a3a5 46bd 42e0 c13d 5f96 4d3a a7ad e7bc
00000160: 3209 1d3b cf39 74be 250c 55be 5768 62bd
00000170: 3ec8 0f3c 225a bdbd 35a3 09be 3711 20be
00000180: 8f05 1dbd 37bd 99bb 27ff f0bd b144 d73d
00000190: 3ed1 c5bd b96f 073e b77c 31be 661f 563e
000001a0: e611 71bd f679 9c3d 4ea2 f93b 0723 f0bd
000001b0: 9ecc 28be 0311 60be e514 c73d ba99 4ebe
000001c0: 9730 31bd b2c6 de3b fef1 8d3d a417 373d
000001d0: 5cae 15be 6f82 b4bc a717 41be 55a6 6abe
000001e0: 1695 b3be 0e70 24be 354d 27be 3131 eb3a
000001f0: 1690 52be 45d0 193d 0e67 e83c 6a94 c5bd
00000200: 28cd 5fba c99a be3c c0dc 8dbe b6b0 fe3d
00000210: 5aa7 753d 4cb5 a3bc 52b1 69be c424 b43d
00000220: a1d5 31bd b7a6 88bc c801 223e d29f 9bbc
00000230: f505 a8bd 1c6a 41be c075 09be f36f 193e
00000240: 53b2 07be 7aee 8cbd b11a a0bd 0047 2dbe
00000250: dd4e 7ebe a5ed 1fbe db17 65bd 0602 7fbd
00000260: e8de 193d 1d7a b0be fce8 e6bc aa88 5ebe
00000270: 8eae 5e3e 18ce 37be 76b0 6ebd dcfb f1bc
00000280: 6e02 4cbe a8b6 453c 5991 353c 6d54 06bd
00000290: 46ea 4dbb b52b 233c d5f0 d8bb ca6f 0c3e
000002a0: d6e3 9ebd d3b9 37bd 1bd9 abbd 22d9 5bbe
000002b0: 98dc 903d c136 dfbd 069c 6dbe 5963 113d
000002c0: 8142 abbe af1e 51be e640 d73d c268 6cbe
000002d0: 7879 713c 3ad5 123d 0d1f 19be f4f7 1bbe
000002e0: 3354 73bd 9f1e 65be 4f22 80be 5ddd 77bd
000002f0: 481e 493c a782 af3d afa6 18be ad0b 1bbe
00000300: 6e1f 7dbe 3bb1 163e 3afb 383d a70f b8bc
00000310: 102c 63be cf32 e8be 3992 a83d 139f 92bd
00000320: 4672 17be caff 30be d634 2dbe ce5a 54be
00000330: 291d 62be d20e ebbd 256e 0bbe 2272 ecbd
00000340: e5ce 373c 0b1a 2ebe 7804 cabd f299 d03d
00000350: 4c33 c3bd 50ba b7be e885 843d e060 01bd
00000360: 900f 3abe 67d1 febd 3a44 85bd 3693 963d
00000370: 4b0b 9cbe 26f4 6abe ef73 3bbe a66f 7abe
00000380: a404 363e 19bd b6bd 95b5 993d e354 313d
00000390: b29d 893d df72 68be 933f 3e3c c5be 15bd
000003a0: 26c0 1bbd 3ca0 80be dc32 28be 0579 993d
000003b0: f20b 4cbe a41d 0dbe 8628 05be 4995 92bd
000003c0: d073 273d 7153 f0bd c6d9 013c e582 a63c
000003d0: 7c74 26be 4b8c e9bd 897a 233e cc22 4d3c
000003e0: daf1 41be 5f13 adbe eb60 67bc 0cbf 31bd
000003f0: 34bb eebd 834f adbd 8752 2e3e 201f 963d

fc2.weight f4 [300, 400]
0.19741964 0.015789015 0.042004067 -0.18653801 0.02331818 -0.06270933 0.12057702 0.06609273
-0.20810482 0.0015871407 -0.13211907 -0.023505308 -0.018389275 0.045668725 0.033503994 0.032629088
0.014868034 0.050962713 0.2307831 -0.009785853 0.20910478 -0.12524763 0.030125773 -0.23280412
-0.06527021 -0.054493114 -0.1342308 -0.0026145377 0.012757175 0.028226467 -0.12855393 0.119922355
-0.05591046 -0.0072028195 0.24364416 0.21911 0.0041273865 -0.1404638 -0.10713775 -0.037696056
-0.080817126 0.030495364 -0.14982374 -0.28507274 0.062143102 0.114424415 0.026693441 0.11189084
0.0460048 0.17153393 0.0060377615 -0.09502355 -0.27222607 0.03786531 0.024468737 0.13994157
0.19485523 -0.060825873 0.115213096 -0.03379698 0.13496827 -0.099017076 -0.04170844 -0.035259042
-0.18608528 0.019350491 0.02472036 -0.077457316 0.0037090364 0.057016514 -0.12826483 -0.09610634
-0.1394847 -0.032755505 0.102710195 0.035208378 0.08682295 -0.026171649 -0.10183398 -0.18026504
-0.07314033 0.03029574 0.013162323 -0.037267536 0.08532275 0.10634911 -0.08747026 -0.18380216
-0.009623605 0.03210745 0.083940245 -0.058502223 0.08950174 -0.11610942 -0.005889541 -0.05785748
0.08840023 0.12873894 0.04179866 0.09549936 -0.10578407 0.004314238 -0.17555377 0.0011482628
0.021168154 -0.17198487 -0.031104721 0.17507347 -0.09096565 -0.12266568 0.025137424 0.058393
0.11444756 0.0038925402 -0.059346758 -0.014314402 -0.089052245 0.007520335 0.13110761 0.083135314
-0.018358557 -0.010528192 -0.053106286 -0.07549318 -0.16027215 0.12927906 0.019898415 -0.0424119
-0.11974961 0.060007017 0.13014166 0.03939245 0.0043716645 0.106302515 0.041345593 0.004917558
0.056118112 0.052687112 0.10721653 -0.08644323 -0.0064887716 -0.0953519 0.23729382 0.002942578
-0.07834202 -0.116046846 0.06020052 -0.13855459 0.19220687 -0.023866136 0.10931188 0.034208644
-0.08625916 -0.037913933 -0.12585983 0.14524853 0.021522155 0.08893723 -0.023427246 0.071907274
-0.09559306 0.13158564 0.025447657 0.06887654 -0.11680629 0.12971884 0.13614148 0.22501731
0.04647931 -0.117953494 0.04843059 0.20528036 0.0005954515 0.060017284 -0.13282385 0.14388986
-0.19614378 0.14677595 -0.16160521 0.118595645 -0.14019413 -0.015189055 0.053447507 -0.24052155
-0.10176524 0.009304747 0.20628928 0.14546522 0.07786608 -0.008455144 0.10591003 -0.14150381
-0.16636355 0.048687495 -0.13266496 -0.22416513 -0.24762395 -0.040294774 -0.009281738 0.009087911
-0.094557345 -0.17166506 0.042884536 -0.35104853 -0.04093522 -0.09862409 0.013491055 0.04499119
-0.116590165 0.10600542 -0.05544532 0.16528776 -0.20357808 -0.15244256 -0.06497636 0.10459101
-0.056734126 0.108454324 -0.0425596 -0.09939466 0.061118834 0.23617686 -0.008194218 0.0045618373
-0.22960676 0.100165635 0.07751368 0.003376837 -0.20873456 -0.0607318 -0.058155097 -0.05102248
0.12575966 -0.12815265 0.058112565 -0.0476145 -0.08393168 0.053641994 0.009268709 -0.01681745
0.08189957 -0.131025 0.02596292 -0.12789242 0.036493924 -0.27747995 0.025542777 -0.041900028
-0.13655737 -0.008283477 -0.047292937 0.43164176 0.13384259 0.035988912 -0.03785619 -0.103189036
00000000: 6028 4a3e f757 813c 750c 2c3d d203 3fbe
00000010: c505 bf3c c06d 80bd 16f1 f63d a05b 873d
00000020: 6e19 55be 9b07 d03a 394a 07be 348e c0bc
00000030: 1ba5 96bc 210f 3b3d 7c3b 093d 14a6 053d
00000040: 0e99 733c 47be 503d 6852 6c3e d854 20bc
00000050: 901f 563e ea40 00be 53ca f63c 3464 6ebe
00000060: 63ac 85bd 2c34 5fbd cd73 09be aa58 2bbb
00000070: 7803 513c 313b e73c a4a3 03be da99 f53d
00000080: 5e02 65bd a105 ecbb db7d 793e 5f5e 603e
00000090: 073f 873b bed5 0fbe 096b dbbd 2e67 1abd
000000a0: 7383 a5bd 6ad1 f93c 656b 19be 0ef5 91be
000000b0: c489 7e3d 5957 ea3d 34ac da3c 0627 e53d
000000c0: 876f 3c3d 97a6 2f3e 6ad8 c53b b59b c2bd
000000d0: 3761 8bbe a818 1b3d a972 c83c d84c 0f3e
000000e0: 2188 473e 8d24 79bd d8f4 eb3d b46e 0abd
000000f0: 1f35 0a3e 77c9 cabd 78d6 2abd c96b 10bd
00000100: 248d 3ebe ec84 9e3c 5a82 ca3c f1a1 9ebd
00000110: 4e13 733b 268a 693d db57 03be 67d3 c4bd
00000120: 14d5 0ebe a32a 06bd b959 d23d a936 103d
00000130: 3bd0 b13d ed65 d6bc 558e d0bd 6697 38be
00000140: 99ca 95bd c62e f83c c9a6 573c d8a5 18bd
00000150: b2bd ae3d 90cd d93d 9c23 b3bd a236 3cbe
00000160: 53ac 1dbc 1a83 033d dde8 ab3d 07a0 6fbd
00000170: b04c b73d c7ca edbd 0dfd c0bb f7fb 6cbd
00000180: 2e0b b53d 24d4 033e 1235 2b3d 2b95 c33d
00000190: 52a5 d8bd 745e 8d3b 5ec4 33be 4e81 963a
000001a0: d668 ad3c cd1c 30be 54cf febc 7646 333e
000001b0: 334c babd 2538 fbbd 00ed cd3c 802d 6f3d
000001c0: 7b63 ea3d fd19 7f3b 9615 73bd f486 6abc
000001d0: 0661 b6bd 246d f63b 1341 063e d942 aa3d
000001e0: af64 96bc 707e 2cbc fa85 59bd 2b9c 9abd
000001f0: 621e 24be bb61 043e 0002 a33c 1ab8 2dbd
00000200: 493f f5bd ebc9 753d db43 053e fa59 213d
00000210: 2e40 8f3b 22b5 d93d ff59 293d 7723 a13b
00000220: 1bdc 653d 71ce 573d 5794 db3d 2609 b1bd
00000230: c39f d4bb db47 c3bd 27fd 723e 44d8 403b
00000240: c871 a0bd f8a9 edbd d294 763d 41e1 0dbe
00000250: e1d1 443e ea82 c3bc e8de df3d 5d1e 0c3d
00000260: a4a8 b0bd a44b 1bbd 66e1 00be 08bc 143e
00000270: 3b4f b03c b924 b63d 7fea bfbc 1f44 933d
00000280: 4bc6 c3bd 63be 063e 9b77 d03c 250f 8d3d
00000290: 2338 efbd 04d5 043e ac68 0b3e f06a 663e
000002a0: 1761 3e3d 9a91 f1bd 285f 463d 0435 523e
000002b0: 1318 1c3a afd4 753d fa02 08be dd57 133e
000002c0: ead9 48be 6f4c 163e d67b 25be 46e2 f23d
000002d0: 0d8f 0fbe 84db 78bc c6eb 5a3d 484b 76be
000002e0: 4b6a d0bd f072 183c 7f3d 533e d6f4 143e
000002f0: 4078 9f3d 7287 0abc 5ce7 d83d 60e6 10be
00000300: 355b 2abe 8a6c 473d 53d9 07be 8b8b 65be
00000310: 2291 7dbe 220c 25bd 6e12 18bc 76e5 143c
00000320: 48a7 c1bd f7c8 2fbe b2a7 2f3d a2bc b3be
00000330: b0ab 27bd 6dfb c9bd 9609 5d3c af48 383d
00000340: d3c6 eebd 5f19 d93d a21a 63bd 3241 293e
00000350: c676 50be e719 1cbe 5312 85bd d033 d63d
00000360: 0b62 68bd 4d1d de3d fa52 2ebd 6d8f cbbd
00000370: be57 7a3d 59d8 713e 0b41 06bc 777b 953b
00000380: 091e 6bbe a423 cd3d 7ebf 9e3d ec4d 5d3b
00000390: 83be 55be e8c1 78bd 0a34 6ebd f3fc 50bd
000003a0: 24c7 003e 733a 03be 7107 6e3d 6c07 43bd
000003b0: 5fe4 abbd b5b7 5b3d c9db 173c c0c4 89bc
000003c0: f6ba a73d 6b2b 06be 31b0 d43c 3bf6 02be
000003d0: a77a 153d da11 8ebe 163f d13c 5d9f 2bbd
000003e0: b2d5 0bbe 6cb7 07bc 3db6 41bd 2600 dd3e
000003f0: 080e 093e 1c69 133d 180f 1bbd c654 d3bd

fc2.bias f4 [300]
0.034518458 -0.028366359 -0.015903382 0.0056351405 0.103859164 -0.04682193 0.07038863 0.10723452
0.06808269 0.087442614 -0.02315438 0.018984424 -0.2112421 -0.092508174 -0.074668445 -0.022624657
-0.0044644168 -0.050253052 0.12900826 -0.021657139 -0.000586904 -0.055826392 -0.057405364 -0.017721143
0.06871583 0.012150357 0.101228036 -0.0942399 0.017620454 0.0010208861 -0.092628665 -0.028397111
0.11123699 0.06250534 -0.123866536 0.10516431 0.051615786 0.013890444 0.0024846923 0.06714465
-0.030642327 0.04140678 -0.11284775 -0.044442605 0.10503922 0.057017602 0.0013540972 -0.23058435
-0.014774726 0.0088049425 -0.14247853 -0.028541144 -0.002911015 -0.017822897 -0.006188374 0.0056419647
-0.107186235 -0.03711181 -0.0075994823 0.015177943 0.005949284 0.08229076 -0.07182102 0.03479776
0.020605415 0.05343192 -0.034780417 -0.042447604 -0.006433933 0.06729752 0.03862196 -0.07633837
0.08911783 -0.01660334 0.051655278 0.014129802 0.0009168416 0.13717972 -0.028914485 -0.15650849
-0.11526005 -0.009641265 -0.028034141 0.039135817 0.011017655 -0.032008793 -0.0721259 -0.04529265
-0.053697046 0.1295597 0.009086908 -0.128414 0.003946645 0.05981201 0.059273638 0.02483976
-0.0003402838 0.1255864 -0.124054804 0.012143438 0.03454867 0.014558682 -0.015632143 0.02124288
0.04739571 -0.022987477 0.035250347 0.017745456 -0.29911217 -0.0785511 0.010769788 0.025148474
0.056897115 0.02327141 -0.035626985 -0.0012924521 0.03856531 0.13349724 -0.010697757 0.059541415
-0.12402402 -0.062935606 0.08170978 -0.033777744 0.045755617 -0.20219675 0.052305046 0.05338512
0.006196455 0.04507779 0.028885862 0.0070132744 0.023947766 0.023563633 0.026237765 -0.041958515
0.020668248 0.09665155 -0.04367418 -0.048205167 -0.1712887 0.0035609219 0.05203751 -0.009279181
-0.04594743 0.063471645 -0.07419403 -0.0018751413 -0.14952283 0.032689136 -0.05796249 0.069611356
0.064318724 -0.0013935114 0.061622262 0.08765128 -0.008825739 0.036801066 -0.04745653 0.051365677
0.05227993 0.030883942 0.031559456 0.002511176 -0.11163721 -0.065029815 0.066103496 0.10837421
-0.140232 0.034308955 -0.042075634 -0.08615989 -0.075323746 -0.012942298 0.08435566 0.04542562
-0.09629178 -0.009014823 -0.1612967 0.057318866 0.03881597 -0.08339397 0.100745186 -0.030221775
0.02263932 -0.07965637 0.08268514 0.04096237 0.054305494 -0.010606277 -0.09500382 0.04093082
-0.05571292 0.00036344002 0.105934165 0.07082806 -0.05632527 -0.021441968 -0.13446094 0.089426495
-0.05210681 -0.065043 -0.11764854 0.026333809 0.043806028 0.09887916 -0.031361442 0.03405767
-0.07912314 0.0035320758 -0.007234998 -0.053654324 -0.12828906 0.007543449 -0.084124506 0.07485044
0.073624454 0.020443182 0.06143395 0.06987744 -0.10828326 -0.11370113 -0.05025963 -0.06460717
-0.0039396123 0.027424933 -0.090840496 -0.0013926392 -0.049806245 0.068540186 -0.043179024 -0.08093144
-0.23555666 0.093064755 -0.11648364 -0.11548095 -0.09693537 0.051075514 -0.026305057 -0.012233651
-0.071075805 0.08905621 0.023139166 -0.045737106 -0.080691256 -0.109061554 0.039246667 0.10750385
-0.044329952 -0.036442555 0.024312455 0.071429215 0.053030662 -0.08900303 -0.11334303 -0.0915101
00000000: 3a63 0d3d 9160 e8bc cf47 82bc fca6 b83b
00000010: 1db4 d43d 5ac8 3fbd ea27 903d c69d db3d
00000020: f06e 8b3d 1d15 b33d 41ae bdbc 3985 9b3c
00000030: d94f 58be ed74 bdbd c5eb 98bd 5857 b9bc
00000040: 3e4a 92bb 25d6 4dbd be1a 043e 506a b1bc
00000050: 76da 19ba 37aa 64bd e321 6bbd ee2b 91bc
00000060: e3ba 8c3d 4a12 473c a550 cf3d d900 c1bd
00000070: c558 903c 41cf 853a 19b4 bdbd 0fa1 e8bc
00000080: 38d0 e33d cd02 803d bdad fdbd 6360 d73d
00000090: 136b 533d bf94 633c 38d6 223b 2283 893d
000000a0: 9e05 fbbc 289a 293d b91c e7bd 7309 36bd
000000b0: cd1e d73d 4a8b 693d f67b b13a 4e1e 6cbe
000000c0: b111 72bc 9b42 103c e4e5 11be 1ecf e9bc
000000d0: bac6 3ebb 5301 92bc d8c7 cabb 3be0 b83b
000000e0: 7584 dbbd 8e02 18bd 1405 f9bb e8ac 783c
000000f0: 36f2 c23b 0f88 a83d e616 93bd 1988 0e3d
00000100: b0cc a83c 6edb 5a3d e975 0ebd 8add 2dbd
00000110: bed3 d2bb 48d3 893d 0f32 1e3d 4b57 9cbd
00000120: 6983 b63d ba03 88bc 7c94 533d af80 673c
00000130: 3358 703a d778 0c3e 12de ecbc c343 20be
00000140: 760d ecbd 65f6 1dbc dba7 e5bc e14c 203d
00000150: 6583 343c a71b 03bd beb6 93bd c984 39bd
00000160: 6ff1 5bbd 4cab 043e 41e1 143c f67e 03be
00000170: dc52 813b 70fd 743d eac8 723d c17c cb3c
00000180: 1e68 b2b9 b999 003e 7210 febd 45f5 463c
00000190: e882 0d3d 8a87 6e3c fb0e 80bc 8c05 ae3c
000001a0: 0122 423d 3c50 bcbc ab62 103d eb5e 913c
000001b0: 3b25 99be 66df a0bd c473 303c 2c04 ce3c
000001c0: f30c 693d afa3 be3c 9aed 11bd 7f67 a9ba
000001d0: a9f6 1d3d 80b3 083e a545 2fbc b3e1 733d
000001e0: 4e00 febd 62e4 80bd 7557 a73d 885a 0abd
000001f0: 3e6a 3b3d aa0c 4fbe d13d 563d 5baa 5a3d
00000200: a20b cb3b 7da3 383d 0ba2 ec3c 9ccf e53b
00000210: 1b2e c43c 8508 c13c 95f0 d63c b1dc 2bbd
00000220: 7550 a93c 3ff1 c53d b2e3 32bd c872 45bd
00000230: 4e66 2fbe 5b5e 693b 4925 553d b507 18bc
00000240: 5f33 3cbd 6cfd 813d 0af3 97bd 4dc7 f5ba
00000250: 831c 19be 0be5 053d 136a 6dbd 6690 8e3d
00000260: 89b9 833d 7ca6 b6ba a067 7c3d 8482 b33d
00000270: d599 10bc b7bc 163d c761 42bd d164 523d
00000280: 7b23 563d 5200 fd3c 7d44 013d 8b92 243b
00000290: 0da2 e4bd 5a2e 85bd 4561 873d 4cf3 dd3d
000002a0: fa98 0fbe 8c87 0c3d 8057 2cbd 9974 b0bd
000002b0: 5643 9abd ef0b 54bc a9c2 ac3d 3710 3a3d
000002c0: a034 c5bd e8b2 13bc f62a 25be 30c7 6a3d
000002d0: 7ffd 1e3d 75ca aabd 7e53 ce3d a893 f7bc
000002e0: 1876 b93c e122 a3bd d456 a93d 28c8 273d
000002f0: 706f 5e3d f3c5 2dbc 5d91 c2bd 13a7 273d
00000300: 3b33 64bd 188c be39 03f4 d83d 4d0e 913d
00000310: 54b5 66bd 11a7 afbc 21b0 09be 3d25 b73d
00000320: f36d 55bd 4435 85bd b8f1 f0bd 00ba d73c
00000330: f36d 333d 2881 ca3d db74 00bd 0e80 0b3d
00000340: 500b a2bd 667a 673b 9013 edbb a3c4 5bbd
00000350: 355e 03be 092f f73b 7849 acbd 304b 993d
00000360: 6bc8 963d 7678 a73c 2aa2 7b3d e71b 8f3d
00000370: 9dc3 ddbd 23dc e8bd 0bdd 4dbd c450 84bd
00000380: dd17 81bb 41aa e03c 950a babd 3889 b6ba
00000390: a201 4cbd cc5e 8c3d 7ddc 30bd 62bf a5bd
000003a0: c435 71be bc98 be3d fa8e eebd 4781 ecbd
000003b0: 0d86 c6bd 8f34 513d b47d d7bc a76f 48bc
000003c0: 3190 91bd 1a63 b63d 598e bd3c d556 3bbd
000003d0: 7541 a5bd aa5b dfbd 1dc1 203d fa2a dc3d
000003e0: 5393 35bd ca44 15bd ea2a c73c 7b49 923d
000003f0: ae36 593d 3847 b6bd 6420 e8bd a669 bbbd

fc3.weight f4 [4, 300]
-0.030792475 0.053141825 -0.0026100746 -0.3394392 0.16032803 0.3139331 -0.12500396 -0.32671168
-0.35617197 -0.18432432 0.076234885 0.02838968 0.36715108 0.21726364 -0.77094334 0.15260912
-0.30854025 0.25263306 0.060974997 0.1306326 -0.18785088 0.5101791 -0.16118291 -0.32700914
0.20669447 0.38667822 0.6131788 0.112393 -0.17509833 0.42415434 0.40965173 0.2012741
0.18783282 0.008921191 0.06550955 0.39464697 -0.12471197 0.080689415 -0.18714376 -0.16230753
-0.29490432 0.4682628 0.15209036 -0.1771329 -0.181476 -0.3363308 0.20077059 0.41634774
0.055530205 0.021328915 0.9149807 -0.09723491 0.27121997 0.43396312 0.14760754 -0.23773016
-0.295963 0.03292802 -0.17920789 0.19082113 -0.18592605 0.028370082 0.2707092 -0.0194625
-0.13935985 0.42928675 -0.11982006 -0.008268003 0.45446017 0.075757 0.1129302 0.32447964
-0.46424475 0.08322285 0.13715142 0.4351689 -0.3762534 0.0944331 0.020590924 0.1919414
0.23982827 0.53706765 0.48487738 -0.48436153 0.19018945 -0.6667487 -0.1199544 0.07590519
-0.23549543 0.01750409 -0.07266363 1.1480066 -0.32026926 -0.3020736 -0.17202598 0.23746072
0.33857656 -0.07926904 -0.28656834 0.24379486 -0.2209376 0.41612685 0.0056999647 -0.3520302
-0.65647346 -0.066600434 -0.27553535 0.64090055 0.6635508 0.31768703 0.5236695 0.43281072
0.01265516 -0.014727997 -0.09072365 -0.517685 0.37415037 -0.011320014 -0.038774278 -0.12529323
0.7727292 -0.48524517 -0.008565254 -0.14978287 0.11267951 0.5557297 0.30370358 -0.13742074
0.4355195 0.27554587 -0.44179675 -0.31795976 -0.065302975 0.054862466 -0.018235456 0.10892197
0.49121705 -0.30060205 -0.64347273 0.3590013 0.25246486 0.90768445 -0.044749074 -0.3871237
0.5155222 -0.20919006 -0.40634534 -0.10461564 -0.2799815 -0.29101098 -0.35350895 0.14935693
-0.11941784 0.40265045 0.18453075 0.3775299 0.5934668 -0.07589301 0.4008159 -0.36650276
-0.18183887 -0.22204782 -0.058660455 0.3878654 0.25745884 -0.015750572 -0.107824706 -0.10213645
-0.026146064 -0.0657251 0.4161505 0.21259485 -0.51942456 0.2530387 -0.56221163 -0.04902231
0.5594832 -0.018828737 0.11551448 -0.31006938 -0.085069075 0.16772099 -0.0449437 -0.47812775
-0.50045556 0.13912006 1.0654548 0.6733119 -0.534604 0.3559816 0.5130255 -0.00849548
-0.8720303 -0.15067242 -0.32305074 0.24435031 -0.57263154 -0.28448218 0.13922837 -0.27033177
0.04801591 0.4709944 0.6084661 -0.3794352 -0.05657309 0.034778886 0.52680165 -0.092823364
-0.052224714 0.0040141772 0.369354 0.39190364 0.21121146 0.10856976 0.66597927 0.14106578
0.15780973 -0.3869756 0.46413717 0.32661882 -0.20970812 -0.12536874 0.48036918 -0.5665933
0.24952908 -0.053773947 0.32855397 0.10291494 0.24509202 -0.3678692 0.38914847 -0.06022797
0.7713062 -0.43171814 0.009496954 0.030047046 -0.118584506 -0.06306401 0.053301692 0.33419767
0.07686306 -0.68893194 0.21262662 -0.35353577 -0.5214054 0.10829518 0.3604353 -0.23173575
-0.3887048 -0.19703113 0.15790388 -0.19031593 0.60662544 0.88300323 0.1249574 0.34385988
00000000: 8040 fcbc 3eab 593d c90d 2bbb faca adbe
00000010: 082d 243e d7bb a03e 0a01 00be c146 a7be
00000020: 2c5c b6be 84bf 3cbe 0921 9c3d 7991 e83c
00000030: 3afb bb3e 5c7a 5e3e 8b5c 45bf 9145 1c3e
00000040: fdf8 9dbe 1f59 813e ebc0 793d 8dc4 053e
00000050: fb5b 40be 199b 023f 220d 25be be6d a7be
00000060: b7a7 533e b0fa c53e 49f9 1c3f 4d2e e63d
00000070: fa4c 33be c22a d93e dfbd d13e cc1a 4e3e
00000080: 3f57 403e 302a 123c df29 863d 2b0f ca3e
00000090: fd68 ffbd 7e40 a53d 9da2 3fbe f233 26be
000000a0: b3fd 96be 24c0 ef3e 93bd 1b3e 5462 35be
000000b0: d8d4 39be 8d33 acbe ce96 4d3e 882b d53e
000000c0: a473 633d fab9 ae3c 2d3c 6a3f 1923 c7bd
000000d0: 58dd 8a3e 6a30 de3e 6e26 173e 896f 73be
000000e0: 7688 97be 88df 063d 4682 37be 9d66 433e
000000f0: 6663 3ebe 6068 e83c 659a 8a3e d26f 9fbc
00000100: 59b4 0ebe 79cb db3e 3864 f5bd 8576 07bc
00000110: 01af e83e 7c26 9b3d f347 e73d 3222 a63e
00000120: 7db1 edbe be70 aa3d 6c71 0c3e 75ce de3e
00000130: 49a4 c0be 2466 c13d 4cae a83c 498c 443e
00000140: 8b95 753e 447d 093f d941 f83e 3cfe f7be
00000150: 06c1 423e 0bb0 2abf a7aa f5bd 2e74 9b3d
00000160: b725 71be bd64 8f3c abd0 94bd e1f1 923f
00000170: 55fa a3be 64a9 9abe 9427 30be e728 733e
00000180: e859 ad3e ce57 a2bd 16b9 92be 5ca5 793e
00000190: 773d 62be 940e d53e c5c6 ba3b 4d3d b4be
000001a0: a50e 28bf cf65 88bd f812 8dbe 0f12 243f
000001b0: 77de 293f e0a7 a23e 340f 063f 5e99 dd3e
000001c0: 9757 4f3c b24d 71bc 52cd b9bd 0187 04bf
000001d0: a390 bf3e 9477 39bc c7d1 1ebd de4c 00be
000001e0: 95d1 453f 0e72 f8be 4755 0cbc ae60 19be
000001f0: 84c4 e63d 4d44 0e3f 097f 9b3e 06b8 0cbe
00000200: 69fc de3e 5914 8d3e 2f33 e2be 9fcb a2be
00000210: 91bd 85bd 77b7 603d 8662 95bc 7b12 df3d
00000220: cd80 fb3e 83e8 99be a1ba 24bf 05cf b73e
00000230: 1343 813e 025e 683f ce4a 37bd 1435 c6be
00000240: 43f9 033f eb35 56be 7f0c d0be ba40 d6bd
00000250: bc59 8fbe 64ff 94be 20ff b4be 06f1 183e
00000260: 5791 f4bd 3328 ce3e a1f5 3c3e 994b c13e
00000270: 71ed 173f cb6d 9bbd be37 cd3e 40a6 bbbe
00000280: f833 3abe 8160 63be f245 70bd 4b96 c63e
00000290: a5d1 833e 5807 81bc 33d3 dcbd ea2c d1bd
000002a0: 4530 d6bc e29a 86bd ae11 d53e 77b2 593e
000002b0: 02f9 04bf 4a8e 813e 1aed 0fbf 9ecb 48bd
000002c0: 4a3a 0f3f b93e 9abc db92 ec3d 6ac1 9ebe
000002d0: b238 aebd 0dbf 2b3e e316 38bd 29cd f4be
000002e0: db1d 00bf 7d75 0e3e d360 883f 2b5e 2c3f
000002f0: cfdb 08bf 3843 b63e a455 033f a030 0bbc
00000300: 613d 5fbf df49 1abe e866 a5be f836 7a3e
00000310: fb97 12bf a6a7 91be e291 0e3e ed68 8abe
00000320: 55ac 443d 2e26 f13e 6fc4 1b3f 5545 c2be
00000330: 2fb9 67bd 4e74 0e3d 79dc 063f 2d1a bebd
00000340: 95e9 55bd 5c89 833b f81b bd3e 98a7 c83e
00000350: d147 583e d359 de3d 9e7d 2a3f 8c73 103e
00000360: e098 213e aa21 c6be 63a3 ed3e 953a a73e
00000370: babd 56be aa60 00be f3f2 f53e 420c 11bf
00000380: 8d84 7f3e 1242 5cbd 3a38 a83e 11c5 d23d
00000390: 67f9 7a3e 5a59 bcbe 783e c73e 9bb1 76bd
000003a0: 5374 453f 290a ddbe 1d99 1b3c 3925 f63c
000003b0: 6fdc f2bd b427 81bd e052 5a3d f51b ab3e
000003c0: 616a 9d3d d85d 30bf cbba 593e a402 b5be
000003d0: d37a 05bf ddc9 dd3d fa8a b83e 234c 6dbe
000003e0: 5104 c7be 87c2 49be 8eb1 213e 2ee2 42be
000003f0: ce4b 1b3f 800c 623f aae9 ff3d 670e b03e

fc3.bias f4 [4]
-0.07821503 0.041586854 0.013022344 0.007044403
00000000: 342f a0bd fa56 2a3d ab5b 553c bcd4 e63b
