checkpoints/checkpoint_critic_3600.pth (torch, 543887 bytes, 5 tensors)

fcs1.weight f4 [400, 33]
000000 a3 8b 6f be d3 18 15 3e 03 d6 21 3f 42 36 2a bf
       -0.23393111 0.14560251 0.6321718 -0.6648904
000010 63 7f 91 3e 98 22 b1 be 08 c8 80 3c 7d 2d 6e 3e
       0.284175 -0.34596705 0.015720382 0.2325954
000020 52 2c a3 bf 2f 9f 1a 3f c7 1f 4d be 7a f5 b0 3e
       -1.27479 0.60399145 -0.20031653 0.34562284
000030 81 26 4d 3e f7 91 a6 be 83 c3 89 3e ff 7b dc be
       0.2003422 -0.32533237 0.26906976 -0.43063352
000040 e6 3d 34 bf cc 17 48 3e f3 fa 85 be 22 5a 7e bd
       -0.7040695 0.19540328 -0.26168022 -0.062097676
000050 f4 1f 21 bd 32 ce cf be 05 3d 03 bd 35 60 97 be
       -0.039337113 -0.40587002 -0.032040615 -0.29565588
000060 87 c4 c9 3e dc 0a d7 bd 8b b4 c6 b8 1a 1c 9a 3f
       0.3940775 -0.10500118 -9.4750045e-05 1.2039826
000070 1a 8a a4 3e 76 7f 9a 3c d2 27 9b bf e4 87 79 3c
       0.32136613 0.018859606 -1.2121527 0.015230153
000080 c4 7d 32 40 77 c6 4e be 21 47 8a be a8 80 87 bf
       2.7889261 -0.20192896 -0.27007392 -1.0586138
000090 b3 22 b1 bd d4 f5 64 be 62 ce 93 3d ec e1 25 3e
       -0.086491965 -0.22359401 0.07217099 0.16199464
0000a0 98 cf b3 3d 5a 97 bd 3d 22 9e a0 be f5 9f 5f 3d
       0.0877983 0.09257384 -0.31370646 0.054595906
0000b0 71 82 f8 3b 70 97 bf bd 07 7d 57 3e 3f 38 96 3e
       0.007583909 -0.09355056 0.21043788 0.29339787
0000c0 ae 2d c9 3f 23 f8 37 3d aa 84 b2 3d 41 9d 81 be
       1.5717065 0.044914376 0.0871671 -0.25315288
0000d0 49 3e f7 bc c1 cb 65 3c ec 93 18 bd 04 30 24 bd
       -0.030181067 0.0140256295 -0.037250444 -0.040084854
0000e0 ba 95 8c bd 81 44 7a 3d 72 fa 1a 3e 85 30 32 be
       -0.068644956 0.061100487 0.151346 -0.17401321
0000f0 cb 5c df 3e c2 c0 70 bf 50 bf b4 bc 07 de ed be
       0.43625483 -0.94044125 -0.022063881 -0.46458456
000100 d5 e6 40 3d 55 e7 6d be 6c 9c 58 be 1c f0 f0 be
       0.04709514 -0.23232777 -0.2115342 -0.4705819
000110 34 9c c1 3e 5b bd 04 3c 85 8a 41 be ce 51 b3 bd
       0.37814486 0.0081017865 -0.18900497 -0.087558374
000120 2f 73 6f be 30 71 ab be ff c5 91 bf 9a 3a a1 be
       -0.23383783 -0.33484793 -1.1388549 -0.31490022
000130 6c b9 94 3e fb 65 bb be 17 c9 35 bd d6 2c 35 be
       0.29047716 -0.36601242 -0.044381227 -0.17692885
000140 76 0f b6 3e 0d de 6f bc 0a 30 45 3e 3f bb 1a be
       0.3555867 -0.014640343 0.19256607 -0.15110491
000150 22 c2 3d be d7 4d e2 3d b9 fc 8f bd 57 68 91 3e
       -0.18531087 0.11050003 -0.07030625 0.28399917
000160 8a 23 d4 3d b4 65 db be e4 d3 c4 3e f0 be 02 bf
       0.10358341 -0.4285103 0.3844291 -0.510726
000170 e2 3c b9 bd 81 db cb 3e ea 25 f3 be e8 34 23 3c
       -0.090448156 0.39815906 -0.47489864 0.009961344
000180 69 47 b6 be 30 62 14 bd d0 9c 5c bf fb d1 31 be
       -0.35601357 -0.03622645 -0.86176777 -0.17365257
000190 94 77 79 3f 16 c6 57 be fa 54 ae be 64 c7 4a 3f
       0.97448087 -0.21071658 -0.34049207 0.79210496
0001a0 a4 a5 0f 3f 38 22 6b 3c 65 a9 cb be 8b 73 8c be
       0.5611212 0.01435142 -0.39777675 -0.27431902
0001b0 80 e1 de bb 77 93 61 3c c7 5a e2 3e 47 4a 61 3d
       -0.006801784 0.0137680685 0.44209883 0.055002477
0001c0 55 88 b0 3e 40 5f c5 3e 58 fb f4 3e a0 8b e9 3e
       0.34479013 0.38549232 0.4784801 0.45614338
0001d0 e9 84 71 3d be 99 29 bf a3 7b 02 be 6d d2 ce 3e
       0.058964644 -0.66250217 -0.12742476 0.40394917
0001e0 fd 0a ce be 43 c7 e7 bd a7 67 20 3d 9f 51 34 3e
       -0.40242758 -0.11317303 0.03916135 0.17609261
0001f0 84 f9 fb 3e e2 3d 6d 3e 19 31 c0 3f 67 60 01 3e
       0.49213803 0.23168138 1.5014983 0.12634431
000200 34 02 8a bc fd 86 b7 bf 98 6c 40 bc bb 1c 0b be
       -0.016846754 -1.433807 -0.011744641 -0.13585179
000210 bb bc ee be 2b dd 59 3c c3 5e 05 bf b1 cc 79 be
       -0.46628365 0.013297359 -0.5209772 -0.2439449
000220 95 6d 0f bd 9c 5d 19 3d f6 4a 7e be 3e 56 2e be
       -0.035016615 0.03744279 -0.24833283 -0.17025086
000230 b3 57 a7 be 23 df 45 be a5 d6 a1 3d b0 e1 c2 3e
       -0.32684097 -0.19323401 0.07902268 0.3806281
000240 12 78 7e be 2f ab 1b 3e 39 11 f8 3e 95 17 e6 3e
       -0.2485049 0.1520202 0.4845064 0.44939867
000250 c1 5a e4 3d 6e 31 4c 3a 18 c8 18 3d e9 f6 3a 3e
       0.111501224 0.0007789348 0.0373002 0.18258251
000260 d7 e8 93 3e f8 6d 88 be 5e 2e 55 bd a5 bf 1e 3f
       0.2888858 -0.266464 -0.052046172 0.62011176
000270 94 3e b1 3e f7 1f 14 3f fb 60 b4 3e 08 3a db 3f
       0.34618056 0.57861274 0.3523024 1.7127085
000280 dc cb a7 be ac ad 0f 3c da 37 e0 bf 6c 52 8c bc
       -0.3277272 0.008769434 -1.7517045 -0.017129146
000290 dc 4b f5 bf bf 44 5b 3e d0 52 cb bc 6f 8b 23 bf
       -1.9163775 0.21412943 -0.024819762 -0.63884634
0002a0 13 c7 b9 3d bc 32 25 3e 05 ab 06 be 06 e9 44 bd
       0.090711735 0.16132635 -0.13151176 -0.04807379
0002b0 50 fe 7c 3e 10 ab 1d bf b7 7f 8c be 25 d5 8d 3e
       0.24706388 -0.61589146 -0.2744119 0.2770168
0002c0 43 23 bf 3d 44 c4 89 3d 63 1b f2 3d ac d0 f0 bb
       0.093328975 0.06726888 0.1182163 -0.0073490944
0002d0 8b 8f 3d 3f cd 44 79 3e 6a 6c fe 3d 83 7c 43 be
       0.74047154 0.24342652 0.12423022 -0.19090466
0002e0 04 29 45 3e 49 d3 cb 3d fe f2 ff 3d 19 c4 15 3e
       0.19253927 0.09952409 0.12497519 0.14625587
0002f0 f1 d3 07 be e6 d8 00 3d 17 5e f9 3e c2 d9 21 bf
       -0.13264443 0.03145685 0.48704597 -0.632229
000300 fb 95 b4 3f 9e 59 01 bf fd 04 1d 3d 55 2b b0 bf
       1.410827 -0.5052737 0.038334835 -1.3763224
000310 fd 75 0c 3d 75 12 28 c0 cf 6a 03 be b4 01 58 bf
       0.03429221 -2.6261265 -0.12833713 -0.843776
000320 da b1 1f 3f 2a 22 58 3e a5 fe 2b bf 53 7b fe 3d
       0.62380755 0.21106783 -0.6718543 0.12425866
000330 3a 69 4a be fe f3 9d be 14 d5 c4 bd dd ba ce 3c
       -0.19766703 -0.30850214 -0.09610954 0.025235588
000340 a4 7f 96 be 8c 20 6d be 12 63 08 3b 31 73 29 be
       -0.29394257 -0.23156947 0.0020811004 -0.16547848
000350 36 47 45 3e 6f 7f 84 be fa b6 03 be 5c 18 26 be
       0.19265446 -0.25878474 -0.12862769 -0.1622023
000360 67 ed 2f bd 14 00 f3 bc e6 48 69 3d ea 80 02 be
       -0.042951014 -0.029663123 0.056954287 -0.1274449
000370 6e cd 13 bd 90 53 b1 bc d5 9e 68 bd 03 5d cd 3d
       -0.036084585 -0.021646291 -0.0567921 0.10027506
000380 70 5d 60 3e 73 c7 90 3f 5f fd 26 3f 64 d1 72 3c
       0.21910644 1.1310867 0.65230364 0.01482043
000390 c3 b9 87 bf e7 cc df bc 04 b7 1b 40 9c 28 e3 be
       -1.0603565 -0.027319385 2.4330454 -0.4436692
0003a0 37 dc cf bd 08 17 25 3f c5 80 c9 bc 63 b9 30 be
       -0.101494245 0.6448827 -0.024597535 -0.1725822
0003b0 2f a2 55 bd a3 a9 e8 bd 2f 32 80 bd 28 36 98 be
       -0.052156623 -0.11360481 -0.06259572 -0.29728818
0003c0 76 74 94 3b f9 a5 c3 be 29 75 0e be c6 6c 40 3e
       0.004530485 -0.38212565 -0.1391188 0.18791494
0003d0 19 47 89 3d c7 82 3c be f9 7e e9 be d8 c6 40 3e
       0.06703014 -0.18409263 -0.45604685 0.18825853
0003e0 7d ab 42 3e cb a8 72 bd 7f 02 e3 bc c6 d9 92 bd
       0.1901073 -0.059243005 -0.027711151 -0.07170443
0003f0 3d 78 9a bc 67 be cf 3c c4 89 3e 3e 53 ea cb bd
       -0.018856162 0.025359346 0.18607241 -0.09956803

fcs1.bias f4 [400]
000000 45 05 a1 bf f7 28 05 bf 24 5b 5c be 22 ea b9 bf
       -1.2579733 -0.5201563 -0.21519142 -1.4524577
000010 5c d5 f1 bf cd 49 c3 bf 6d c3 9d bf 93 b1 58 3f
       -1.8893237 -1.5256897 -1.2325264 0.84645957
000020 6b b1 fa bf e7 27 04 c0 f7 9d 86 bf f6 68 ee bf
       -1.9585394 -2.0649354 -1.0516957 -1.8625782
000030 97 e0 c3 bf b8 eb a8 bf 69 ee cb bf 9a 64 97 bf
       -1.5302914 -1.3196936 -1.5932132 -1.1827576
000040 f2 97 02 c0 fc b7 84 bf c2 dd 95 bf d5 01 c7 bf
       -2.040524 -1.0368648 -1.17083 -1.5547434
000050 d8 0c b8 bf 71 57 b7 bf f8 6f 7a bf 11 d2 15 c0
       -1.437892 -1.432356 -0.978271 -2.3409464
000060 1a 57 c5 bf f4 17 07 c0 05 91 b4 bf 36 ea d3 bf
       -1.5417206 -2.110837 -1.4106756 -1.655585
000070 bf 0e 02 c0 73 d4 ee bf 79 29 0e c0 36 52 26 be
       -2.03215 -1.8658584 -2.2212813 -0.16242298
000080 f4 8a ea bf 6e 84 87 bf f8 17 b0 bf cc 26 58 bf
       -1.8323655 -1.0587289 -1.3757315 -0.844342
000090 55 fb f4 bf 29 cc f8 bf db fd 8a bf 9a ff af bf
       -1.91392 -1.9437305 -1.085872 -1.3749878
0000a0 eb 6e 1b bf c2 2c 95 be c6 09 fc bf f3 8a 2f bf
       -0.6071612 -0.2913571 -1.9690483 -0.68571395
0000b0 9a f2 9f bf 1e 02 41 bf 90 3c ad bf 7e e3 d0 bf
       -1.2495911 -0.75393856 -1.3534107 -1.6319425
0000c0 63 02 09 c0 92 b6 0c c0 c4 83 c8 bf 62 7b 9b bf
       -2.1407707 -2.1986432 -1.5665212 -1.2147028
0000d0 34 48 01 c0 12 f7 8e bf 2e 29 c2 bf e8 e7 af bf
       -2.020032 -1.116915 -1.5168817 -1.3742647
0000e0 2a 8b 4c bd 4c 42 df bf 0b 58 98 bf a3 e2 6f bf
       -0.049937405 -1.7442107 -1.1901869 -0.93705195
0000f0 42 1e 1c c0 6d 50 99 bf 35 c3 4a bf e1 ca b8 3e
       -2.4393468 -1.1977669 -0.7920411 0.36092284
000100 b6 fa 86 bf 8a c2 dc bf ca 91 b4 bf 9c 63 77 be
       -1.0545261 -1.7246869 -1.4106991 -0.24159092
000110 22 07 d4 bf d9 30 9c bf d9 37 d2 bf 6d 6c fb be
       -1.6564677 -1.2202407 -1.6423293 -0.4910616
000120 4b 58 a5 bf f1 d8 b3 bf 02 1a b0 bf aa ef 14 c0
       -1.291757 -1.405058 -1.3757937 -2.327128
000130 35 1a a0 bf e7 8d d0 bf a6 20 46 bf 9c 3d da bf
       -1.2507998 -1.6293305 -0.7739357 -1.7050052
000140 84 02 89 bf 54 d7 97 bf a0 e9 b3 bf 43 85 00 c0
       -1.0703893 -1.1862588 -1.4055672 -2.0081336
000150 db 0d da bf 0c 33 ad bc be 87 02 c0 69 e6 37 bf
       -1.7035478 -0.021142505 -2.039535 -0.71835953
000160 35 01 9d bf cf e6 cd bf 7e 9d 97 bf 72 76 07 c0
       -1.2265993 -1.6086062 -1.1844938 -2.1166043
000170 3d 47 cf bf b2 67 f9 bf d6 de c8 bf 6c b5 de bf
       -1.6193615 -1.948477 -1.5693004 -1.7399116
000180 a2 c7 af bf 26 36 8f bf 7e 6d d7 bf 50 01 f2 bf
       -1.3732798 -1.11884 -1.6830289 -1.890665
000190 f8 83 e1 bf 5e 03 69 bf 74 94 87 bf 3c 43 d8 be
       -1.7618399 -0.9102076 -1.0592179 -0.42238796
0001a0 e0 0e 94 bf ef 68 a8 bf d6 24 c7 be 46 70 dc bf
       -1.156704 -1.3157023 -0.3889529 -1.7221763
0001b0 84 86 f1 bf 43 79 64 bf d0 42 a6 bf 47 c8 8f bd
       -1.8869176 -0.8924753 -1.298914 -0.07020622
0001c0 3d 57 00 c0 08 20 80 bf 45 72 37 bf 05 f5 af bf
       -2.0053246 -1.0009775 -0.71658736 -1.3746649
0001d0 6c 0f aa bf 2b 5a 0c c0 8e 7f f0 bf 45 0d c0 bf
       -1.3285956 -2.1930034 -1.8788927 -1.500405
0001e0 69 05 05 c0 92 c1 00 c0 8c 28 5f bf 59 e2 f9 bf
       -2.0784552 -2.0118146 -0.87171245 -1.9522201
0001f0 e3 fd 0e c0 df c4 d5 bf 4c 15 92 bf 92 62 e1 3e
       -2.234246 -1.6700705 -1.1412749 0.44020516
000200 db a1 cc bf dd 24 e5 be 1d d7 7d 3e bf ed 45 bf
       -1.5986894 -0.44754687 0.2478909 -0.77315897
000210 51 8c a7 bf 02 4b e6 bf 8a 74 d0 bf 9e 1a d4 bf
       -1.3089696 -1.799164 -1.6285565 -1.6570623
000220 ef bd cf bf a6 56 b6 bf 05 19 01 c0 84 78 13 bf
       -1.6229838 -1.4245193 -2.017152 -0.5760577
000230 9b 9e db bf c2 51 9c bf 16 f7 ce bf 14 8f 9c bf
       -1.7157778 -1.221245 -1.6169155 -1.2231164
000240 c3 76 c7 bf 89 48 85 bf c4 ae ca bf f8 fd 04 c0
       -1.5583118 -1.0412761 -1.5834584 -2.078001
000250 38 f5 28 c0 27 54 b8 bf 7c 7b 18 c0 0c 23 f0 bf
       -2.639967 -1.4400681 -2.382537 -1.8760695
000260 1d 4d 9d bf da 90 c9 bf 02 26 ce bf 30 2d d9 bf
       -1.2289158 -1.574733 -1.6105349 -1.6966915
000270 a0 a7 13 c0 50 cd c9 bf 9a 46 ad bf 19 8e ce bf
       -2.307106 -1.5765781 -1.3537171 -1.6137115
000280 fb b7 fc bf ee e4 d6 bf f1 3f ce bf ac 99 39 bf
       -1.9743646 -1.6788614 -1.6113263 -0.7250011
000290 fb fa 4c bf e2 d1 e3 bf 34 79 f3 bf 69 bc 56 bf
       -0.80070466 -1.7798426 -1.9021363 -0.8388124
0002a0 44 40 c0 bf 9c a9 9b bf 1e 0c 88 bf 8e f6 a6 bf
       -1.5019612 -1.2161136 -1.0628698 -1.3043993
0002b0 3c 94 fa bf 94 cf 66 bf 2a 53 06 c0 df 54 9e bf
       -1.9576488 -0.9016049 -2.098826 -1.2369651
0002c0 38 cb db bf ca f1 c6 bf 1c aa 1e c0 06 fb e9 bf
       -1.7171392 -1.5542538 -2.4791327 -1.8279731
0002d0 7a 42 00 c0 b3 5a 95 bf ae b9 93 bf b3 b8 b3 bf
       -2.0040574 -1.1668304 -1.154104 -1.4040741
0002e0 95 16 c7 bf 9a 37 d2 bf ab 99 18 bf 7e df bd bf
       -1.5553766 -1.6423218 -0.5960948 -1.4833829
0002f0 84 3c 9f bf 8c d4 d6 bf 78 2b c9 bf c4 5d 00 bf
       -1.2440343 -1.6783614 -1.5716391 -0.50143075
000300 3a 36 96 bf bd f3 b2 bf b1 54 67 bf b2 20 e6 bf
       -1.1735299 -1.3980633 -0.90363604 -1.7978728
000310 d6 22 ce bf ce e4 d8 bf ff c7 c7 bf 92 7b e6 bf
       -1.6104381 -1.6944826 -1.5607909 -1.8006461
000320 51 58 04 c0 e9 1b a6 bc cf ea 6c bf 32 08 7d bf
       -2.0678904 -0.02027698 -0.9254579 -0.9884063
000330 97 75 24 c0 4f c3 d0 bf 76 d2 8e bf de 86 8c bf
       -2.569677 -1.6309603 -1.1157978 -1.0978658
000340 e9 28 4b bf e6 bd 5e be 50 08 02 c0 2f f9 ae bf
       -0.793593 -0.21752128 -2.0317574 -1.3669795
000350 66 ee 9e bf 89 41 d9 bf 4f 21 e3 bf 8c 59 34 bf
       -1.2416503 -1.6973125 -1.774454 -0.7044914
000360 13 fa 2a 3f 57 ce 9d 3f 8d f7 d5 bf 4a 63 8f bf
       0.6678783 1.2328595 -1.6716172 -1.1202176
000370 93 62 da bf 61 b2 69 bf ab 1d 1c c0 a8 6b 88 bf
       -1.7061332 -0.9128781 -2.4393108 -1.0657854
000380 a8 d8 11 bf 0d d1 bd bf 59 73 ad bf fe dc 02 c0
       -0.56971216 -1.4829422 -1.3550826 -2.0447383
000390 e4 c2 0c c0 b8 b2 a8 bf c7 30 d9 bf 2c 2c bb bf
       -2.1993952 -1.3179541 -1.6968011 -1.4622855
0003a0 f3 e6 83 bf 45 f0 b1 bf 04 52 7f bf e0 28 e4 bf
       -1.0304855 -1.390145 -0.9973452 -1.7824974
0003b0 61 e6 89 bf df 1f 05 c0 24 b2 07 c0 ae 30 5b bf
       -1.0773431 -2.0800703 -2.1202478 -0.85621154
0003c0 0b e2 ea bf dc 7d 20 c0 d5 ea c9 bf 24 e3 ae bf
       -1.8350233 -2.5076818 -1.577479 -1.3663068
0003d0 71 c8 b5 bf 6a df c4 bf 39 05 92 bf 94 80 81 bf
       -1.4201795 -1.538068 -1.1407844 -1.0117364
0003e0 68 79 12 bf a2 ad 9a bf 0a 3e d4 bf ac cd d6 bf
       -0.572165 -1.2084239 -1.6581433 -1.6781516
0003f0 b4 f9 c7 bf 5a dc f4 bf d9 b9 0d c0 48 2d bb bf
       -1.5623078 -1.9129746 -2.2144682 -1.4623194

fc2.weight f4 [300, 404]
000000 b5 1e 13 bc 42 e9 ac bd 72 bb 8d bd e8 cc 27 bd
       -0.008979489 -0.08442928 -0.06920518 -0.0409669
000010 0e 24 bf bc d8 35 58 bd e0 59 7c bc c7 6e 8b bd
       -0.023332622 -0.052785724 -0.015402287 -0.068082385
000020 2c ba 1b 3d c8 e6 10 be 66 c0 7f bd c6 73 10 be
       0.038019344 -0.14150536 -0.062439345 -0.14106664
000030 d1 93 4d 3d 5c e9 56 bd 15 2a 48 bd eb 1f 42 bd
       0.050189797 -0.052468643 -0.048868258 -0.04739372
000040 90 17 a8 3d be 7f d9 bb 86 60 82 3c e3 7c f1 3c
       0.08207619 -0.0066375425 0.015915167 0.029478496
000050 39 c5 13 3d 7c 99 75 bc 2b 55 f7 bd 72 8f 8e bd
       0.036076758 -0.014990207 -0.120767914 -0.06960954
000060 0c 73 ac 3c 2b c7 e9 bd c0 bc 26 3b 70 bb bd bd
       0.021050952 -0.114149414 0.0025442094 -0.092642665
000070 e4 ad 6d bd 8f 3b 9c 3c 9b bd 32 3c b1 06 2d bd
       -0.058027163 0.019071369 0.010909463 -0.04224271
000080 1c 16 e6 bc b4 2a 74 bc c4 e2 2d 3d e0 68 a1 bc
       -0.028086714 -0.014902759 0.04245259 -0.019703329
000090 51 e9 4c bd 30 c7 1f bc 83 cb da bd 57 28 04 bd
       -0.050027195 -0.00975208 -0.10683348 -0.032265034
0000a0 3b b8 88 3c 79 d9 0d be b0 ec 13 be 77 23 e6 bc
       0.01668941 -0.1385249 -0.14445758 -0.028093083
0000b0 56 93 9b bc 2c b4 8f bc 4e 1e ab bc 59 de bc bd
       -0.018991154 -0.017541967 -0.020888474 -0.09222097
0000c0 7f b5 21 3c 25 de f6 bb 93 4e b6 bd 56 bc 08 bd
       0.009869932 -0.007533806 -0.089017056 -0.033382736
0000d0 d1 32 98 bd ed 9f 57 bd 7c 99 0d 3d e6 ac 27 be
       -0.074315675 -0.05264275 0.034570202 -0.1637455
0000e0 0b f9 9b 3c f1 4b fc bd c2 aa df bd 7e 19 b2 bd
       0.019039651 -0.12319172 -0.10921241 -0.086962685
0000f0 dd 6a 21 bd 5d 23 10 be 15 ed ba bd aa b5 11 be
       -0.039408553 -0.1407599 -0.09127251 -0.14229456
000100 14 29 cc 3d b0 df 8b 3c ad f5 80 bd d8 ee ea bc
       0.099687725 0.017074436 -0.06296859 -0.028678343
000110 4b fc 22 3d ba f7 b9 bd ae ea 5a 3b bd 92 8a bd
       0.039791387 -0.09080453 0.003340404 -0.06766269
000120 8b d6 19 bd 80 1e b4 bd ec dc 07 bd c7 ab cd bc
       -0.03755812 -0.0879488 -0.033169672 -0.025106324
000130 22 0d e1 bd 0b 45 01 be 8d 86 bc bd 4f c2 0c bd
       -0.10988833 -0.12623994 -0.09205351 -0.034364995
000140 df 35 b8 bd 1c 1f 08 bd c8 c4 41 bd 66 e9 c7 bd
       -0.0899465 -0.033232793 -0.047306806 -0.09761314
000150 e5 de 05 be 1e 11 03 bd 80 f6 27 3b d9 5e dd bd
       -0.13073309 -0.031998746 0.0025629103 -0.108091064
000160 6a 42 e5 3a 4d 72 71 bd b5 bc 0c bd 33 23 09 bd
       0.0017491106 -0.058946896 -0.034359653 -0.033480834
000170 b4 0c ba 3b 81 a2 f4 bd bd ea d1 bd e0 47 91 bc
       0.005677784 -0.11945058 -0.10249851 -0.017734468
000180 c8 29 f3 bd 13 a8 9a bd 1e df 33 bd 03 44 60 bc
       -0.118732035 -0.07551589 -0.043913953 -0.01368809
000190 a6 64 d9 bc a8 9f b3 bd a6 5b eb bd 29 2b 0b 3d
       -0.02653725 -0.087706864 -0.1149209 0.033976708
0001a0 b6 1d 07 bd 2f f5 b7 bd 21 57 84 bd 21 ca e7 bd
       -0.03298732 -0.08982312 -0.06461931 -0.1131785
0001b0 23 33 11 bd 8f 2f 52 bd 1a 5a 49 3d 5d 26 9e bd
       -0.03544916 -0.051314887 0.049158193 -0.07722161
0001c0 c5 8d 0b bd de 96 fa bd 01 40 13 be 7c 37 87 bd
       -0.03407075 -0.12235807 -0.14379884 -0.0660238
0001d0 a8 b3 b1 bd 7a 81 9c bd 36 da 9e bd 29 85 ad bd
       -0.08676845 -0.07641883 -0.07756464 -0.08472664
0001e0 fa 6c 0b bd 6e c6 49 bd 37 ce bc 3b 7b 89 44 3c
       -0.034039475 -0.049261503 0.0057618874 0.0119956685
0001f0 ae cd d1 bb ba f7 dc bb 08 99 3e bd 15 af 91 3b
       -0.0064026928 -0.0067433985 -0.04653266 0.00444592
000200 66 d3 a3 bc e5 fc 0d be 9f 65 23 bd 99 ab 0b bd
       -0.019998264 -0.13866003 -0.039891835 -0.034099195
000210 40 d7 63 3d fa 15 d9 bd 64 46 a6 3d 59 23 a6 bc
       0.0556252 -0.10599895 0.08118895 -0.020280527
000220 02 87 7f bd 56 d8 26 3d 9a a5 32 bd 1b 98 a0 bd
       -0.062384613 0.040733658 -0.04361496 -0.07841512
000230 40 d0 ce bd 8c 61 2d 3d 74 2e 5c bd 66 2a dc bd
       -0.10098314 0.042329356 -0.05375524 -0.10750274
000240 f4 c5 15 3b 7a 10 32 be c2 2b b9 bc c0 7b 6a bc
       0.0022853585 -0.17389098 -0.022603873 -0.014311731
000250 74 6b 88 3c 49 41 82 bd 67 30 3a bc 0e dc d3 bc
       0.0166528 -0.063601084 -0.011364079 -0.025861766
000260 25 77 24 bd a4 1d 93 bd 66 41 58 3c f8 22 06 bd
       -0.040152688 -0.07183388 0.013199186 -0.032748193
000270 7a 47 5f bd cd d3 21 be 3c 80 d9 bc 60 76 d8 3c
       -0.054511525 -0.15803452 -0.026550405 0.026423633
000280 db 26 0a 3c ce 01 81 3d a2 e0 88 bd 4d f1 b5 bd
       0.008432115 0.06299172 -0.0668347 -0.08883915
000290 c1 eb b2 bd 40 9d ac 3c 97 dc 5d bc bf 63 ca bd
       -0.08736373 0.021071076 -0.013541362 -0.09882306
0002a0 63 ac a3 bc 3e d4 29 bc ea 9b 0c bd fc 1b 8b bd
       -0.019979661 -0.010365544 -0.03432838 -0.06792447
0002b0 4a bf 56 bd 00 55 23 bd cd 5e 11 bc 79 6b dc bc
       -0.05242852 -0.039875984 -0.0088727 -0.026906716
0002c0 4c c8 78 3d b7 a7 84 3d b6 ff 5d bd 64 c6 26 3d
       0.060737893 0.064773016 -0.054198943 0.040716544
0002d0 51 e8 7c bc c3 89 07 3d 51 2a c7 bc d9 0a 6e bd
       -0.015436248 0.033090364 -0.02431217 -0.058115814
0002e0 c4 b5 b5 3d c8 3f 1d ba 27 db fa 3b 5b 97 db bd
       0.0887256 -0.0005998579 0.0076555195 -0.10722228
0002f0 09 7b aa 3c d6 4f 8f 3c fc 96 10 be 93 72 18 3c
       0.02081062 0.017494123 -0.14120096 0.00930466
000300 10 7a 2e bd 07 3b 35 bd ac 1f e1 3c ac 2a d2 3d
       -0.042596877 -0.044245746 0.027480923 0.10262045
000310 8b 93 d7 3b d5 5d 95 bd 4b ea 8c bd 01 25 24 3d
       0.006578868 -0.07293288 -0.06880625 0.040074352
000320 67 a5 06 3e 1c 87 b9 bc fd da 56 bd 94 d6 b9 3c
       0.13149033 -0.022647433 -0.052454937 0.022685327
000330 98 41 3f bd 6d 17 55 bd 9b 0d 08 be 50 19 bb bb
       -0.046693414 -0.052024294 -0.1328644 -0.0057098046
000340 71 1b 33 be e2 37 3d 3c 25 22 da 3d 01 38 ce bd
       -0.17490937 0.011548968 0.10651044 -0.10069276
000350 62 96 0f 3d 66 46 9f bd d9 4b da 3b a3 f7 11 be
       0.035055526 -0.07777099 0.006661874 -0.14254622
000360 a3 48 d0 bc ef 21 2a bc 51 5a a8 bd 73 be 0c bd
       -0.02542526 -0.010384067 -0.082203515 -0.034361314
000370 3b 86 07 bd bf 73 ae bd 61 3b 7f bd c7 48 17 bd
       -0.033086997 -0.085181706 -0.062312488 -0.03693464
000380 65 b8 06 bd 97 06 d5 bc e0 b9 76 3c 8d 9f a0 bd
       -0.032890696 -0.026004119 0.0150589645 -0.07842932
000390 20 f0 99 3b f5 27 76 bc b2 5e 19 bd 42 13 b5 bd
       0.0046978146 -0.015024175 -0.037443824 -0.08841564
0003a0 0c 96 18 bb 6b 6b 51 bd 83 f0 1c be 65 27 f0 3b
       -0.0023282794 -0.051127832 -0.15326123 0.007328915
0003b0 5f ae 2a bd 1f 76 99 bd 3d 99 19 3c b4 fa 8e bd
       -0.0416702 -0.07493233 0.009374914 -0.069814116
0003c0 b7 60 cb bc 11 47 e5 bc 27 85 07 3c 7f 35 bb bd
       -0.02482639 -0.027987989 0.008271492 -0.09141063
0003d0 8f 89 43 bd 15 1b fd bb 92 a2 b8 bd 2d 51 98 3d
       -0.047738608 -0.0077241757 -0.09015383 0.07437358
0003e0 37 aa d3 bc 41 a0 15 be a0 ca 1e 3c 21 b5 16 bd
       -0.025838 -0.14611913 0.009691864 -0.03679383
0003f0 e1 cd d2 bd 76 cb ea bd 8c ae 94 bc 79 08 ae bd
       -0.102931745 -0.11464588 -0.018149637 -0.0849771

fc2.bias f4 [300]
000000 fb d8 08 be e0 66 e4 bb 90 93 eb bd 6c 74 c1 bd
       -0.13364021 -0.0069702715 -0.11502755 -0.09446034
000010 6c d9 a7 bc ee 6b 8c bd 30 3b d7 bc 7d c5 07 be
       -0.020489417 -0.068565235 -0.02627334 -0.1325893
000020 30 e9 e8 bc d2 8c b0 bd 1c 0a 2c bc a8 4c dc bc
       -0.028431505 -0.08620609 -0.010500457 -0.026892021
000030 49 53 ee bd bb 64 33 bd a1 a1 97 3f b8 d8 0b be
       -0.11636979 -0.043797236 1.18462 -0.1365689
000040 f4 13 a2 bd cf 74 1c be 27 d1 a6 bd 04 b3 8f bd
       -0.07913962 -0.15278934 -0.081453614 -0.070165664
000050 e8 45 23 bc c2 1f 8c bf 53 d4 aa bd 61 91 11 be
       -0.009965397 -1.0947192 -0.08341279 -0.14215614
000060 3f f4 ba bd 31 fd 0d 40 cf da e8 bd a3 40 5a bd
       -0.091286175 2.2185786 -0.113698594 -0.0532843
000070 b2 80 cc bc 46 25 83 bd 6a 09 e5 3f 35 ae dc bd
       -0.02496371 -0.06403594 1.7893498 -0.10775415
000080 84 d4 13 be ae 7a de bd bc f4 b1 bd 7e d0 ab bd
       -0.14436537 -0.10863243 -0.086892575 -0.08389376
000090 34 ec b9 bc bf aa ef bd ba d0 e0 bd e6 cd b6 bd
       -0.022695638 -0.11702489 -0.109773114 -0.08925991
0000a0 21 43 f7 bd c1 66 08 be fc 22 80 bd 84 15 10 3f
       -0.12073351 -0.13320448 -0.06256673 0.5628283
0000b0 c1 1f 7c bd 85 50 d9 bd d3 73 98 bd 50 cb 48 bd
       -0.06155372 -0.10611061 -0.07443967 -0.04902202
0000c0 c1 0b 89 be 50 b2 95 bd 3f 49 48 bd 4b a6 a5 bd
       -0.2676678 -0.07309401 -0.048897978 -0.080883585
0000d0 62 1b f3 bc 4c 4f 00 bd 46 53 fe bd 5a c6 9f bc
       -0.029676143 -0.031325623 -0.12418227 -0.019503761
0000e0 39 56 c5 bc 12 d4 74 bd 9a e5 a5 3e 5c e1 91 3b
       -0.024088966 -0.05977256 0.32401735 0.0044519138
0000f0 ac 7b 15 be 7d 68 cc be 2e b1 00 be 3c bd be bc
       -0.14597958 -0.39923468 -0.12567589 -0.023283593
000100 fd 8d 2e bd 3f 3b 1a bc 0b a0 5c bd c4 b7 04 be
       -0.04261588 -0.009413539 -0.053863566 -0.12960726
000110 35 65 ce bd c0 df 41 bd cb 5f a2 bd 23 31 64 bd
       -0.100778975 -0.047332525 -0.07928427 -0.055710923
000120 92 08 f7 bd c9 1d de bb 93 f3 ed bd 48 ce a4 bd
       -0.120621815 -0.006778453 -0.11618724 -0.080471575
000130 ec 9c fb bd 6f 0d 24 be 05 6f 6d 3f a6 96 f9 bc
       -0.1228579 -0.1602075 0.9274753 -0.030467343
000140 60 a7 c9 3e e0 45 19 bd c9 00 45 bd 3d e6 94 bd
       0.3938551 -0.037420154 -0.048096452 -0.07270477
000150 44 09 ec bd 9d 70 ee bd 90 e5 99 bd 7f 6e 2f bd
       -0.11525205 -0.11642573 -0.07514489 -0.042829987
000160 0f 41 88 bd 08 42 02 be 27 e3 b1 bd d4 09 73 bd
       -0.06653034 -0.12720501 -0.08685904 -0.059335545
000170 84 54 4c bd b0 0c de bd a6 41 39 bd 4a d9 d9 bd
       -0.049885288 -0.10842264 -0.045228623 -0.10637148
000180 7e e5 44 bd 88 a3 a1 bd 16 5d 9c bf 30 ec c0 bd
       -0.048070423 -0.07892519 -1.2215908 -0.09420049
000190 03 19 96 bd d2 31 05 be 90 4f 1b bd c1 3d f5 bc
       -0.07328989 -0.13007286 -0.037917674 -0.029936673
0001a0 cd bf 94 bd c8 08 58 bf 77 2d a5 bf 3f 76 ce bd
       -0.072631456 -0.843884 -1.29045 -0.100811474
0001b0 47 a6 8a bd 39 9a 1c bd f9 89 19 3c b2 bd 08 bd
       -0.06769996 -0.038233016 0.009371274 -0.033384033
0001c0 6e 1a 04 be 03 86 f8 bd 9c 49 7c bf 8b 97 a3 bd
       -0.12900707 -0.12134936 -0.9854982 -0.07987889
0001d0 d4 fe 1f be 9d 69 43 bd 99 61 de 3f fa d2 c6 bc
       -0.15624553 -0.047708143 1.7373534 -0.024270523
0001e0 8b 36 ff bd a3 7b 87 bd b2 a8 85 3c ec 69 61 bd
       -0.12461575 -0.06615379 0.016315792 -0.055032656
0001f0 90 5e c9 bd 46 bb 0d bd 2d 12 9c bd 8f 9a ab bd
       -0.098324895 -0.034602426 -0.07620654 -0.08379089
000200 92 e2 34 bd 54 57 09 be 99 61 84 bd d7 00 c8 bc
       -0.044161387 -0.1341222 -0.06463928 -0.024414463
000210 32 af 2e bd 73 f8 2e bd b2 b6 e7 bd 60 85 61 bd
       -0.042647548 -0.04271741 -0.11314143 -0.055058837
000220 e1 74 fd bd c7 3c e1 bd ef f7 5b be e4 ee e6 bd
       -0.123758085 -0.109979205 -0.21481298 -0.112760335
000230 d5 71 78 bd 2f a7 82 bd 1b 93 2d be 90 98 71 bd
       -0.060655434 -0.06379544 -0.16950648 -0.058983386
000240 22 0e 31 bd fd a3 e7 bd 16 50 88 bd ed 94 f1 bd
       -0.04322637 -0.11310575 -0.066559 -0.117959835
000250 ac 6c e9 bd b8 6d 63 bd ca da 11 be c2 89 27 bd
       -0.11397681 -0.055524558 -0.14243618 -0.04090286
000260 2d 19 94 bf 45 33 14 be db 1c ac bd 28 b1 24 be
       -1.1570183 -0.14472683 -0.08403941 -0.16083205
000270 8a 51 df bd a2 e9 de bc 8c 9f e3 bd 54 18 81 bf
       -0.10904224 -0.027211014 -0.111144155 -1.0085549
000280 29 7c f6 bd 91 a9 e9 bd ae 92 29 bd b0 37 eb bd
       -0.120354004 -0.11409295 -0.04139965 -0.11485231
000290 fc 7a ed bd 0d 33 7e 3f a4 02 cb bd 5c cf 5c bd
       -0.11595723 0.9929665 -0.09912613 -0.05390869
0002a0 a5 b3 d4 bd 7a 05 bf bd 93 63 0e bd 5f 7c 6b bd
       -0.10385827 -0.093272164 -0.03476293 -0.057491656
0002b0 a8 c9 36 bd 7c 2d 6f be fb 41 e7 bd 63 38 83 bd
       -0.044625908 -0.23357195 -0.11291882 -0.06407239
0002c0 a5 3a d4 bd 3f f5 20 bd 07 23 f7 bc 5a ae cc bd
       -0.10362748 -0.039296385 -0.03016807 -0.099941924
0002d0 9d 44 96 bf 8a 15 b0 bd 43 dd 71 be d0 b6 cf bd
       -1.1739689 -0.08597858 -0.23619561 -0.101422906
0002e0 a8 f9 a2 3f 32 90 82 bc e2 b8 3f bd 52 8d 0a be
       1.2732439 -0.015937898 -0.046807177 -0.13530472
0002f0 1e 43 dc bd ca ee 8c bd 4b f0 1c bd 6a eb 3d bd
       -0.10754989 -0.06881483 -0.0383151 -0.046367086
000300 91 ae 36 bd 3a fa 17 bd 3d 56 9b bd ba ec 16 bd
       -0.044600073 -0.03710387 -0.07584808 -0.036846854
000310 9d ea 06 be 47 96 85 bd a9 eb c6 bd a3 2b 55 bd
       -0.13175435 -0.06522804 -0.09712917 -0.05204357
000320 72 95 7e bd 6d 9a 77 3f 8c 19 7e bd d2 9d 82 bd
       -0.06215424 0.9672001 -0.062036082 -0.06377758
000330 75 de f6 bd b1 1d ad bd 31 9f 15 be 0a 7d 8f bd
       -0.12054149 -0.08452929 -0.14611508 -0.07006271
000340 86 50 cc bc e4 1f 75 bd 6e 47 ed bd 21 40 d3 bc
       -0.02494074 -0.059844866 -0.1158589 -0.025787415
000350 94 95 82 bd 70 08 90 bd 18 6f e8 bd b2 92 e2 bd
       -0.06376186 -0.07032859 -0.113493145 -0.11063136
000360 86 94 a4 bd 5e 87 13 be 65 77 d4 bd 8b dc 8c bc
       -0.08036141 -0.14407107 -0.10374335 -0.017195007
000370 e8 b8 92 bd 5e cb dc bd c4 ce 0e be 7a 5f c6 bd
       -0.07164174 -0.10780977 -0.13946062 -0.096861795
000380 82 cd 96 3f 30 ff 50 bd 2f 8d be bd c9 58 88 bd
       1.1781466 -0.051024616 -0.093042724 -0.066575594
000390 d6 b4 b6 bd 2e 4c 91 bd 84 76 be bd 08 b5 62 bd
       -0.089212105 -0.07094608 -0.09299949 -0.055348426
0003a0 fc 28 00 bc cc ea 55 bd 1a d8 17 3c 5b a6 77 3f
       -0.007822271 -0.052225873 0.009267831 0.96738213
0003b0 34 79 ef bd 25 30 fa bc 0c d2 aa bd 7a 36 da bd
       -0.116930395 -0.030540535 -0.083408445 -0.10654922
0003c0 0e d1 f1 bd 9a df 3c bd 63 b9 1b bd dc ec 57 bc
       -0.11807452 -0.04611168 -0.038018595 -0.01317903
0003d0 d9 f3 d0 bd 57 80 87 bd 24 64 ae 3f 50 d6 17 bd
       -0.1020276 -0.06616276 1.362431 -0.03706962
0003e0 90 98 4e bd db 3a 6b bd 0f 7e 89 bd 3f 1b b0 bd
       -0.050438464 -0.057429176 -0.06713497 -0.08598947
0003f0 c4 6d 92 bd 8e 48 20 bd ec df 6f bd 68 07 ce bd
       -0.071498424 -0.039131694 -0.058563158 -0.100600064

fc3.weight f4 [1, 300]
000000 e3 f8 33 3a be c1 32 bb 49 41 d9 3c fc 38 dd bc
       0.0006865395 -0.0027276124 0.026520388 -0.027004711
000010 79 be 96 bc f1 0d 95 3c 3c 65 e2 3b c6 44 60 3a
       -0.018401371 0.018195124 0.0069090407 0.000855517
000020 91 b1 b2 3c 10 37 dc bc 4f 74 96 3c 4e 82 7f bc
       0.021813186 -0.026881725 0.018366007 -0.015595032
000030 11 d9 88 3c 68 1c f8 3b 7d cd 8d 3c b9 60 a7 ba
       0.016705068 0.0075717457 0.017309899 -0.0012769914
000040 a2 ae d1 3b a9 60 8b bc 68 bb b5 bc 20 22 7e 3b
       0.0063989917 -0.017013865 -0.022184089 0.0038777664
000050 13 d0 bf bc 62 30 14 bc c6 80 69 39 f1 bb e2 bb
       -0.023414647 -0.0090447385 0.00022268583 -0.006919377
000060 cd a8 5c bc e2 4c da 3c a9 cf b9 bc 31 30 38 3c
       -0.01346798 0.026647989 -0.022682028 0.0112419585
000070 75 59 af 3c e6 ba 8c 3b 2c 23 b3 3c 7c 8e 79 bb
       0.021404961 0.004294741 0.021867357 -0.0038079312
000080 c0 46 56 3c 98 89 09 3b 02 01 e4 3c 85 55 95 3a
       0.013078392 0.0020986553 0.027832512 0.0011393285
000090 6d df 21 3c 21 6f 1c bc 9d 3a 93 3c d0 0b 8a bc
       0.009879929 -0.00954798 0.017972285 -0.016851336
0000a0 cd 02 99 3c 01 b8 3a 3c 51 5f 1f 3b 0b b6 4e 3c
       0.018678093 0.011396409 0.0024318288 0.012616645
0000b0 88 c7 f3 3b 06 62 82 bc 36 1c c8 ba 09 08 91 bc
       0.0074395575 -0.015915882 -0.0015267197 -0.017704027
0000c0 7b c4 0e bd 8b 3c a8 bc 06 b9 de bc 1e 7a aa bc
       -0.034855347 -0.020536682 -0.027187835 -0.020810183
0000d0 29 7e e5 3b 4f a6 e1 bc 3d 97 be 3c d0 7e e1 bb
       0.007003565 -0.027545122 0.023265475 -0.0068815723
0000e0 31 d7 dd 3c 4d be 86 bc d8 e3 a9 3c 4b b5 00 bc
       0.02708015 -0.016448164 0.020738527 -0.007855724
0000f0 7c c1 be 3c e4 e1 b8 bc cd 68 e9 bc d0 5a df 3c
       0.02328562 -0.02256865 -0.028492356 0.027264982
000100 48 d8 c1 bb ef 9d d0 bc ad 12 ca 39 25 ed 9c 3c
       -0.0059156753 -0.025465934 0.00038542357 0.019156048
000110 69 8d 48 bc dd 33 aa b9 3a 20 0d bd 48 45 3c bc
       -0.012240746 -0.00032463568 -0.03445456 -0.011491127
000120 95 01 5b 3c e7 cd a7 bb bd 89 23 ba f1 4f 8d 3a
       0.013367076 -0.005120981 -0.0006238481 0.0010781271
000130 c9 14 b5 3c e8 b0 83 bc b2 73 93 3c 74 90 5c bc
       0.022104638 -0.016075566 0.017999504 -0.013462175
000140 be 6b b3 3c cb fb 95 bc c4 05 3d 3c e0 1d 8d bc
       0.021901961 -0.01830854 0.011537019 -0.01722616
000150 25 74 d7 bc dc 5a 62 bc ad 8d 3c 3c 3a 3d 48 3c
       -0.0263005 -0.013815608 0.0115083875 0.012221629
000160 ce 11 b1 3c a1 ea 90 3c 00 ad 5b ba cd fd 02 b9
       0.021614935 0.017690005 -0.0008379966 -0.00012492314
000170 ac eb 3e bb dc a7 6c bc 08 aa cf bc 53 24 c6 3b
       -0.002913217 -0.014444318 -0.025349632 0.0060468107
000180 99 12 a0 bc d6 62 20 bb 46 fd cb bc e8 1e b7 ba
       -0.019540118 -0.0024472973 -0.024901044 -0.0013971003
000190 12 11 c1 3c 08 cd a5 bc f1 8c 77 3c 3d fc 28 3c
       0.02356771 -0.020239368 0.015109287 0.010314045
0001a0 7c b0 de bc 4d 21 68 bd da a7 0e bc 2f b3 54 3c
       -0.027183764 -0.056672383 -0.008707011 0.012982174
0001b0 47 3a c9 3c b7 3c 88 3b 2b 7c a2 bc 67 8c 92 3c
       0.024563922 0.0041576284 -0.019834599 0.017889215
0001c0 b5 c0 35 bc 46 39 26 3c d6 6c 07 bc b4 bb e0 bc
       -0.011093308 0.010145491 -0.008265695 -0.027433254
0001d0 74 0b fb bb 40 bb 53 3c 0c ea 0c 3d 28 f9 be bc
       -0.0076612774 0.012923062 0.034402892 -0.023312166
0001e0 a6 dc 14 3c 60 d6 1d bc fc c0 9f bb 20 52 ca 3c
       0.00908581 -0.0096336305 -0.0048753005 0.024697363
0001f0 68 78 06 ba 18 1a 4c bb e7 8e d9 3b 06 c1 98 bc
       -0.0005129636 -0.0031143483 0.0066393497 -0.018646728
000200 2e d9 8d 3c 1a 14 df bc c6 4f b6 3b ae 38 a0 bc
       0.017315473 -0.027231265 0.005563709 -0.019558277
000210 21 94 b3 bc fb e8 8b bc e5 3a 40 bc b9 10 7c bc
       -0.02192122 -0.017078867 -0.011732792 -0.015384846
000220 2c a0 40 3c 39 93 e8 bc b3 1b e5 bc fe 20 8c 3c
       0.011756938 -0.028390514 -0.02796731 0.017105576
000230 14 dc 11 bc 66 d2 33 bc e0 00 13 bc d5 5f c4 3c
       -0.008902568 -0.010975456 -0.008972377 0.023971478
000240 bb 94 bf bc d0 31 a2 3c 74 2d 79 bc 18 39 13 bc
       -0.02338635 0.019799143 -0.015208591 -0.00898578
000250 34 57 ae bb 6f c6 99 bb 9f 86 71 3c fe eb 30 3b
       -0.005320454 -0.0046928446 0.014741569 0.002699613
000260 d5 62 45 bc fc 1e e7 bb 1f 1e 2c 3c 26 ae ea bc
       -0.012047489 -0.007053254 0.010505228 -0.028647494
000270 72 23 e8 3b f0 4b d5 bc 18 5f c7 3c b2 54 88 bc
       0.0070843035 -0.026037186 0.024337336 -0.016641948
000280 f1 7b 8e bc ad c7 d9 bb 32 31 25 bb c3 bb eb 3b
       -0.017393084 -0.0066461177 -0.0025206325 0.007194014
000290 42 1c 9e bc 49 06 8a 3c 54 a4 3f 3b 3e 5b e7 bb
       -0.019300584 0.0168487 0.0029242234 -0.0070604375
0002a0 6c 56 42 bb 6f b9 c7 3c 8d fd 63 3b ef 6b b1 bb
       -0.0029653562 0.024380414 0.003478858 -0.005414478
0002b0 28 ac cc bc e5 d0 67 3c 66 d0 f2 bc 34 9c 1f bb
       -0.024984434 0.014148925 -0.029640388 -0.002435458
0002c0 14 10 ee bb 49 cb 66 3c 1a 95 48 bb 59 0d f7 bb
       -0.0072651003 0.014086553 -0.003060645 -0.007539433
0002d0 51 1f 0d bc d3 e7 04 bc 33 30 00 3b e7 98 60 bc
       -0.008613423 -0.008111912 0.001955998 -0.01370833
0002e0 8a cb 0a 3d 27 74 ab bc a9 c0 b1 3c 08 0f 70 3c
       0.033885516 -0.02092941 0.021698313 0.014652021
0002f0 56 2f c7 bb 56 45 c0 3b f1 cc f1 bc 21 3c c9 3c
       -0.006078641 0.0058676405 -0.029516669 0.024564805
000300 69 a1 a9 bc 5f f5 d2 bc a1 b8 a2 3c ff e1 63 3c
       -0.02070685 -0.025751768 0.019863429 0.013908862
000310 72 28 b3 bc 09 29 40 3b ea 2a ff 3b 48 e2 c4 3c
       -0.021869872 0.0029321334 0.007787098 0.02403368
000320 09 ab 81 3c 80 27 a7 3c 61 6b b6 3c 20 37 aa 3a
       0.015828626 0.020404577 0.022268 0.0012986399
000330 e8 75 94 bc 9c 16 66 3b da 80 d7 3c fa d5 e4 bb
       -0.018122628 0.003510869 0.026306558 -0.006983516
000340 19 c8 4b 3b 9a 00 36 3c 78 c3 94 39 14 60 73 bb
       0.003109461 0.011108542 0.00028374395 -0.0037136124
000350 e2 c2 f4 3c e8 07 b1 bc c1 87 22 bc 43 3c ad bc
       0.029878084 -0.021610215 -0.009920062 -0.0211469
000360 1c dc 07 3c 48 d4 eb 3c b1 36 d3 3c 1c d1 65 3c
       0.008292224 0.028787747 0.025782915 0.014026906
000370 3d 5e c9 3b 0d fc cf bc d1 ef 26 bd bc 3e 91 bc
       0.0061452673 -0.025388742 -0.04075605 -0.01773011
000380 c7 93 b5 3c 86 c3 55 ba 12 41 52 bb 85 dd e2 3c
       0.022165192 -0.00081544404 -0.0032082242 0.02769352
000390 3a 00 dc bc 71 b8 f8 bc 35 ac e4 3c a2 43 f6 3c
       -0.026855577 -0.030361386 0.027914146 0.030061547
0003a0 4a d2 c3 3c 6f 70 d0 bb 6b 20 14 3c c0 52 8f 3c
       0.023903985 -0.0063610594 0.009040932 0.017495513
0003b0 3b 95 a3 bc 36 0a ae bb 03 17 84 3b 47 f0 c7 3b
       -0.01996862 -0.005311276 0.0040310635 0.0061016413
0003c0 db ec 0d bc 0f d1 a5 3c a6 72 ca bc 78 67 0c 3b
       -0.008662428 0.020241288 -0.024712872 0.0021423977
0003d0 12 36 44 3c 5b db 69 bc e0 b4 cc 3c ce 3d f6 bc
       0.011975782 -0.01427349 0.024988592 -0.030058768
0003e0 db 8e 4b bc 89 6a bf 39 cf d1 72 bc bc a7 ab 3c
       -0.012424196 0.00036509734 -0.01482053 0.020954005
0003f0 6c c6 b2 3b d7 9d 33 bc 80 a4 07 bc ee a4 e0 3c
       0.0054557826 -0.010962925 -0.008278966 0.027422395
