checkpoints/checkpoint_actor_300.pth (torch, 542655 bytes, 6 tensors)

fc1.weight f4 [400, 33]
0	0xbd2cdc25	-0.042202134
1	0x3da81a47	0.08208137
2	0xbda93c33	-0.08263435
3	0x3d88f338	0.06687015
4	0xbbc5c0fc	-0.0060349684
5	0xbb44e5fb	-0.0030044306
6	0xbddcb300	-0.10776329
7	0xbd6ec5e7	-0.058294203
8	0xbd5fc938	-0.054635257
9	0xbd1cc446	-0.03827312
10	0xbd98be62	-0.07458188
11	0x3cf5a905	0.029987821
12	0xbd0a5403	-0.033771526
13	0xbcd911b3	-0.026497697
14	0xbac8fd4f	-0.0015334281
15	0x3c637196	0.0138820615
16	0xbddb104d	-0.106964685
17	0xbd82f56c	-0.06394467
18	0xbc9ebcb5	-0.019377092
19	0xbd09327e	-0.03349542
20	0x3c21af95	0.009868522
21	0xbd920122	-0.07129122
22	0xbc89e9f1	-0.016835185
23	0xbcd477d9	-0.025936054
24	0x3c877dbd	0.016539449
25	0xbcbdc84d	-0.0231668
26	0xbddd2ea1	-0.107999094
27	0xbd337761	-0.04381502
28	0x3c929e71	0.017897816
29	0x3d4b65c9	0.049657617
30	0x3d246fb7	0.040145602
31	0xbcea4fb7	-0.028602464
32	0x3e4c6c3a	0.1996316
33	0xbd2eeb70	-0.042705
34	0xbd57b0f3	-0.052658986
35	0xbc65e54f	-0.014031722
36	0x3d8f0e28	0.06985122
37	0xbc71b4ad	-0.014752549
38	0xbd106a69	-0.03525773
39	0x3bb67494	0.0055680964
40	0x3c5c525c	0.01344737
41	0xbc9f30d0	-0.019432455
42	0xbc60fed2	-0.013732629
43	0x3d316e22	0.04331792
44	0xbd4fe0d6	-0.05075153
45	0x3d0e23d6	0.034702145
46	0x3b83d372	0.004023009
47	0x3c8067f5	0.01567457
48	0xbd5c2b47	-0.05375221
49	0x3b1473a4	0.0022651935
50	0xbb6434c3	-0.0034821487
51	0xbd81e841	-0.06343127
52	0x3d92cd19	0.071680255
53	0xbdbd32c0	-0.092381954
54	0xbdadb6ba	-0.08482118
55	0xbd1f9dce	-0.038968854
56	0x3c60a0ef	0.013710245
57	0xbd986c85	-0.074425735
58	0x3c975270	0.018471926
59	0x3cb001f4	0.021485306
60	0xbc801608	-0.015635505
61	0x3cd4e417	0.025987668
62	0xbd28afc3	-0.041183244
63	0x3d680a5f	0.056650516
64	0xbc3b03ec	-0.011414509
65	0x3d128278	0.035768956
66	0xba6662de	-0.0008788536
67	0x3c66a1f4	0.014076699
68	0xbda6b32e	-0.081396446
69	0x3c16b493	0.009198326
70	0xbc5c68c7	-0.013452715
71	0xbe038d8c	-0.12846965
72	0x3b18531e	0.00232429
73	0x3d7f944e	0.062397294
74	0xbd917cdd	-0.07103894
75	0xbca2da76	-0.01987956
76	0x3d15ac6f	0.0365414
77	0xbc17f0fe	-0.009273766
78	0xbc89e974	-0.016834952
79	0xbd58c872	-0.052925535
80	0x3d67f812	0.056633063
81	0xbb7e6dd9	-0.0038822799
82	0x3dad1706	0.08451657
83	0x3d1f6354	0.038913086
84	0x3d54fffd	0.052001942
85	0xbdee0797	-0.116225414
86	0x3d812bb3	0.06307163
87	0x3cd59cb8	0.026075706
88	0x3c847abc	0.016171806
89	0xbcece8c9	-0.028919594
90	0x3c5d3144	0.013500515
91	0x399f3084	0.0003036299
92	0xbdec43ef	-0.11536395
93	0xbda5e713	-0.081007145
94	0xbc83dc6b	-0.016096314
95	0xbd0bd4ec	-0.034138605
96	0x3c9fe338	0.019517526
97	0x3d3cb22b	0.04606835
98	0xbeb8a21f	-0.3606119
99	0xbc2e5c88	-0.010642178
100	0x3d29fedb	0.041502815
101	0x3d908b17	0.07057779
102	0xbd51ecc2	-0.05125118
103	0xbd3acf24	-0.0456077
104	0x3d40f372	0.047107168
105	0xbd00c131	-0.03143424
106	0x3b2ba88c	0.002619299
107	0xbdf6d06b	-0.12051471
108	0xbd56af74	-0.05241342
109	0x3be0fcd8	0.006866079
110	0x3d414254	0.047182396
111	0xbcd060ae	-0.025436725
112	0x3da1ac60	0.07894206
113	0x3c92ff84	0.017944105
114	0x3c85c0d1	0.016327294
115	0xbd5c13ca	-0.05372981
116	0xbcfff279	-0.03124355
117	0xbd079f94	-0.03311117
118	0xbc2eafbc	-0.0106620155
119	0xbc99f0dc	-0.018791609
120	0xbc0ac5e1	-0.00847003
121	0xbb89c138	-0.0042039417
122	0x3d858c9e	0.06520961
123	0xbd54128a	-0.051775493
124	0x3ce3bfa9	0.027801352
125	0xbe0bf1d0	-0.13666463
126	0xbcb73141	-0.022362353
127	0x3c2dbc04	0.010603908
128	0xb8545800	-5.0626695e-05
129	0xbc86ff18	-0.01647906
130	0xba080380	-0.000518851
131	0xbe9ac5c2	-0.30229002
132	0xbdcfbf20	-0.10143876
133	0x3d47c435	0.048771102
134	0x3d7fc490	0.062443316
135	0xbd0a0973	-0.033700418
136	0x3d654910	0.05597788
137	0xbd50cb59	-0.050975177
138	0x3d6f6e6d	0.05845492
139	0x3d28f952	0.041253395
140	0xbd72d626	-0.05928626
141	0x3d378fbb	0.044814806
142	0x3c35119a	0.01105156
143	0x3d6793e6	0.05653753
144	0x3d511415	0.051044542
145	0xbdbaf207	-0.09128194
146	0xbc9b7a10	-0.018979102
147	0xbd48c6f5	-0.049017865
148	0x3dc0d846	0.09416251
149	0x3c8ca752	0.017169628
150	0xbc371588	-0.011174567
151	0xbd013612	-0.031545706
152	0xbd9737aa	-0.07383664
153	0x3d21e94b	0.039529126
154	0x3cdd47f3	0.027011847
155	0xbcdf9541	-0.02729285
156	0x3c2f6a3d	0.0107064815
157	0x3cd8855c	0.026430778
158	0xbc52e3b3	-0.012871671
159	0x3ca5274f	0.020160345
160	0xbe02ca78	-0.12772548
161	0xbd1b80e0	-0.0379647
162	0xbd3ac75d	-0.045600284
163	0xbc19c468	-0.009385206
164	0x3dd0be7c	0.10192582
165	0x3dbc0359	0.09180326
166	0x3da2eb53	0.07955041
167	0xbc37ec0c	-0.011225712
168	0xbd8e9b69	-0.06963236
169	0xbbb19a15	-0.0054199793
170	0x3cca0204	0.024659164
171	0xbcc1f2a3	-0.023675269
172	0xbd8e004f	-0.069336526
173	0xbdb62ee3	-0.08895662
174	0x3d5cbe0b	0.053892177
175	0xbcd3aab3	-0.025838232
176	0x3da40e2e	0.08010517
177	0xbd92a67d	-0.07160661
178	0x3ba729f6	0.0051014377
179	0x3e353c91	0.17698886
180	0xbdb78526	-0.08960943
181	0xbbb859e6	-0.005625951
182	0x3d3ad744	0.04561545
183	0x3d1b14de	0.037861697
184	0x3d1b6872	0.037941404
185	0x3cbbf066	0.02294178
186	0x3dcfa706	0.10139279
187	0x3d22aeb1	0.03971738
188	0xbd667b8d	-0.05627017
189	0x3dff1a89	0.12456233
190	0xbd132da5	-0.035932202
191	0x3d7f3b8c	0.062312648
192	0x3db314f1	0.08744229
193	0x3df2eaf9	0.11861224
194	0x3d402789	0.046912704
195	0xbd2ad3f0	-0.041706026
196	0x3a713ec0	0.0009202771
197	0xbe1241c1	-0.14282896
198	0xbd8e4bcc	-0.06948051
199	0x3b9bb7db	0.004752142
200	0x3d3940c4	0.04522778
201	0x3cae3b01	0.02126837
202	0x3b5e352f	0.0033906212
203	0x3d9630d1	0.0733353
204	0x3db2d158	0.087313354
205	0xbca14a5b	-0.019688776
206	0xbdc871e3	-0.09787347
207	0x3d1eecf8	0.03880021
208	0x3dcdd611	0.100505956
209	0x3cf747fc	0.030185692
210	0x3c9ac119	0.018890904
211	0xbd8a83c5	-0.06763414
212	0xbc5dbb3b	-0.013533409
213	0xbda4b99a	-0.08043213
214	0xbd60707b	-0.05479477
215	0xbcee143e	-0.029062387
216	0x3cadad5f	0.021200834
217	0x3ddedba2	0.108817354
218	0x3dc8fa87	0.09813409
219	0xbacf3d25	-0.0015811069
220	0x3c090a82	0.008364322
221	0x3de10472	0.10987176
222	0xbbafbbff	-0.005362987
223	0xbcdcf865	-0.026973912
224	0x3dadf7ed	0.08494554
225	0x3c7cbd0c	0.015425932
226	0x3de4bc7e	0.111687645
227	0xbd2f707f	-0.042831894
228	0xbd14bab3	-0.036310863
229	0x3c2ce8ac	0.01055352
230	0xbef53198	-0.478894
231	0xbd937860	-0.07200694
232	0xbcb50ee6	-0.02210183
233	0xbcb1ab59	-0.02168815
234	0xba8dc24f	-0.0010815355
235	0xbd9484e6	-0.07251911
236	0xbd05662d	-0.032568146
237	0x3dc88efc	0.09792897
238	0xbc55d65d	-0.0130515965
239	0xbe1447eb	-0.1448056
240	0x3bb06bb1	0.0053839316
241	0x3c5c782b	0.013456385
242	0xbdea9e78	-0.11456007
243	0xbd948ce7	-0.072534375
244	0xbb6b2272	-0.0035878685
245	0xbd6a1c4c	-0.057155892
246	0x3d682081	0.056671623
247	0xbc815034	-0.015785314
248	0x3cee8638	0.029116735
249	0x3d70a0f9	0.058747265
250	0xbc688fe9	-0.014194467
251	0xbd1de8eb	-0.038552206
252	0x3cc7928f	0.024361877
253	0x3b9ecb16	0.004845987
254	0x3dcf880a	0.10133369
255	0x3b30d274	0.0026980909

fc1.bias f4 [400]
0	0xbd62028f	-0.05517822
1	0xbd0f291d	-0.034951318
2	0x3e5d5b32	0.2161682
3	0x3cd5784e	0.026058342
4	0xbe1e90c8	-0.15484917
5	0xbe622ebf	-0.22088145
6	0xbe1082fa	-0.14112464
7	0xbdc784d3	-0.09742131
8	0xbde59597	-0.112101726
9	0xbcb7ca1b	-0.022435239
10	0x3dcaf2d1	0.09909595
11	0xbd7a01a8	-0.061036736
12	0x3ddf74f9	0.10910983
13	0xbc9cf1b9	-0.019158231
14	0xbe077f32	-0.13232115
15	0xbc940064	-0.018066593
16	0xbd54d970	-0.051965177
17	0xbde4c469	-0.11170275
18	0xbe57f428	-0.21089232
19	0x3c0d2b2c	0.00861625
20	0xbdc2ab7e	-0.09505366
21	0xbcb0fea2	-0.021605793
22	0xbd581eb7	-0.052763667
23	0xbe01c3f1	-0.12672402
24	0x3d05a210	0.032625258
25	0xbe15d310	-0.14631295
26	0xbcb17aec	-0.021665059
27	0x3e1bea92	0.152262
28	0x3e1ffb08	0.15623105
29	0x3beeca49	0.007287298
30	0xbd15d9af	-0.036584552
31	0x3dfe294c	0.124102205
32	0x3e1d5d5f	0.1536765
33	0xbccd21f3	-0.025040602
34	0xbc55ebe7	-0.013056732
35	0x3c039b4c	0.008032631
36	0xbdf0cfbf	-0.117583744
37	0x3df761de	0.120792136
38	0x3e049a15	0.12949403
39	0x3b20789a	0.0024485947
40	0x3de3526a	0.110997036
41	0x3dcd5db3	0.10027637
42	0x3dee92eb	0.11649116
43	0x3d3acc67	0.04560509
44	0x3de78e72	0.11306466
45	0x3db155ec	0.086589664
46	0x3d349ad4	0.044092968
47	0x3e0fd0e8	0.14044535
48	0x3d7b1963	0.061303508
49	0xbd9bc4af	-0.07605874
50	0x3d533b92	0.051570483
51	0x3e4da4c7	0.20082389
52	0x3ded1969	0.11577112
53	0x3e0b2c70	0.1359117
54	0xbd513c99	-0.05108318
55	0x3e441566	0.19148788
56	0x3c5ac033	0.013351488
57	0xbd29d232	-0.041460223
58	0xbb8f57a7	-0.0043744626
59	0x3e098453	0.13429384
60	0xbe20a2e4	-0.15687138
61	0xbcd5ffe3	-0.026122993
62	0x3df8eb85	0.12154297
63	0xbd96aad6	-0.07356803
64	0xbde536e2	-0.11192109
65	0xbca09088	-0.019600168
66	0x3d323689	0.04350904
67	0xbe213d1d	-0.15745969
68	0x3c8f7d85	0.017515907
69	0x3d1eee9e	0.03880178
70	0x3dad9c6e	0.08477102
71	0xbd5788eb	-0.05262081
72	0x3d9c5f42	0.076353565
73	0xbce39e38	-0.027785406
74	0x3e0d6c62	0.13810876
75	0x3e0c3281	0.1369114
76	0xbdee2121	-0.116274126
77	0xbd089255	-0.033342678
78	0x3e1cf558	0.15327966
79	0xbcbc8908	-0.02301456
80	0xbd41bc53	-0.04729874
81	0xbd5c356b	-0.05376188
82	0xbd6eb3f2	-0.058277078
83	0xbd7513e4	-0.059833422
84	0x3cf19e8a	0.029494543
85	0x3e0a846f	0.13527082
86	0x3d77ef4c	0.060530946
87	0x3d9d1ec0	0.07671881
88	0x3df277ee	0.11839281
89	0xbe06a024	-0.13147026
90	0xbdcaa5ce	-0.09894906
91	0xbdb54b1f	-0.08852219
92	0x3d691cb6	0.056912147
93	0xbd45be84	-0.048277393
94	0xbd70073b	-0.058600646
95	0xbde4221b	-0.111393176
96	0x3d8c9982	0.06865217
97	0x3e03950e	0.12849829
98	0xbc525a02	-0.012838842
99	0x3e2adc08	0.16685498
100	0xbd5d84e2	-0.054081805
101	0x3e2f5b71	0.17124726
102	0xbdcf6260	-0.101261854
103	0x3e351b89	0.17686285
104	0x3ce3095a	0.02771442
105	0x3e3bb523	0.18330817
106	0x3df4b04e	0.1194769
107	0xbc6889b4	-0.014192987
108	0xbcba4c07	-0.02274133
109	0xbe0f08e3	-0.13968234
110	0x3d4d73f9	0.05015943
111	0xbdbeb5a1	-0.09311987
112	0x3d2c2172	0.042024083
113	0xbd43ace5	-0.047772307
114	0x3dc16e8d	0.09444914
115	0x3de66458	0.11249608
116	0x3bbbe1ae	0.00573369
117	0xbc88c366	-0.016694736
118	0xbde59c04	-0.11211398
119	0xbda708c3	-0.08155968
120	0xbe0fa027	-0.14025937
121	0xbde79bd3	-0.11309018
122	0xbe075cb1	-0.13218953
123	0x3d82f3c2	0.06394149
124	0xbe33a07e	-0.17541692
125	0x3dd1a544	0.102366
126	0x3e07b842	0.13253883
127	0xbc903f57	-0.017608328
128	0x3dc6bcb3	0.0970396
129	0x3de20261	0.1103561
130	0xbe1ee19a	-0.15515748
131	0x3e1e05a3	0.15431838
132	0x3e489dc4	0.19591433
133	0x3dc6d0b5	0.097077765
134	0xbdaac3bd	-0.08338115
135	0x3e0ba91c	0.13638729
136	0xbd83c232	-0.06433524
137	0x3d872164	0.06598166
138	0x3e40d85c	0.18832535
139	0x3cc5b2b5	0.024133066
140	0x3d457ea4	0.048216477
141	0xbc6574c1	-0.014004887
142	0xbd9bced1	-0.076078065
143	0x3e0fc6bf	0.1404066
144	0xbe29c507	-0.16579066
145	0x3c900ef6	0.017585259
146	0xbd3965aa	-0.04526297
147	0xbcc13f48	-0.023589745
148	0xbe2c1aaa	-0.16807047
149	0xbdac58ef	-0.084154
150	0xbda25025	-0.079254426
151	0x3d52233d	0.051303137
152	0x3d533297	0.051561918
153	0xbe2874a9	-0.16450752
154	0xbc14fc53	-0.009093362
155	0xbdea986d	-0.11454854
156	0x3e1e9c04	0.15489203
157	0xbe38373a	-0.17989817
158	0xbcbfc763	-0.023410505
159	0xbc829c81	-0.015943768
160	0xbe0c76ed	-0.13717242
161	0x3d4fe0ab	0.05075137
162	0x3d083d98	0.033261865
163	0x3da8b254	0.082371384
164	0x3da43841	0.08018542
165	0xbd4d8bf6	-0.050182305
166	0x3d77fdfd	0.060544956
167	0x3e50118a	0.2031919
168	0x3bf749a1	0.007546619
169	0x3c99e56e	0.018786158
170	0x3cac1c7d	0.021009678
171	0xbe1bee11	-0.15227534
172	0x3ccee6c9	0.025256531
173	0xbc14459f	-0.009049802
174	0xbde9967b	-0.11405655
175	0x3e122caf	0.14274858
176	0xbe7433bc	-0.2384786
177	0xbd93ff38	-0.072264135
178	0x3e1308f3	0.14358883
179	0xb8e37fb0	-0.00010847987
180	0x3ddbe20a	0.10736473
181	0x3c96eab4	0.018422462
182	0xbe183a20	-0.14865923
183	0xbdc3836e	-0.095465526
184	0xbce479ef	-0.027890174
185	0xbdfc6450	-0.123238206
186	0xbdba233f	-0.09088754
187	0xbd3d33d5	-0.04619201
188	0x3e14b7c6	0.14523229
189	0x3e08a3fb	0.13343804
190	0x3ce2ba4d	0.027676726
191	0xbdfc335a	-0.12314482
192	0xbdddf345	-0.108374156
193	0x3e211afa	0.15732947
194	0xb944d744	-0.0001877221
195	0xbbaea045	-0.005329164
196	0xbdd59a76	-0.10429852
197	0xbe58596c	-0.21127862
198	0x3dc3aa89	0.095540114
199	0x3bdfc00e	0.0068283146
200	0xbbf04874	-0.007332856
201	0xbd546eaf	-0.05186337
202	0xbda3d52b	-0.07999643
203	0xbdefe46a	-0.117134884
204	0xbe29b497	-0.16572796
205	0x3df1ccca	0.118066385
206	0x39a2ed94	0.00031076057
207	0xbcbbd90b	-0.022930643
208	0x3db93278	0.09042829
209	0xbbb6caef	-0.005578391
210	0xbc4d64c7	-0.012536234
211	0x3dc97c77	0.09838193
212	0xbd5fd327	-0.05464473
213	0xbe4eb410	-0.20185876
214	0x3e05e8a0	0.1307702
215	0xbe139f84	-0.14416319
216	0xbddddb3e	-0.10832833
217	0xbd3b1c60	-0.045681357
218	0x3d128751	0.03577358
219	0x3e188b5d	0.14896913
220	0xbe6d1184	-0.23151213
221	0xbe0f1c7a	-0.13975707
222	0xbdf6658f	-0.120310895
223	0xbdc60fa4	-0.09670952
224	0x3e289744	0.16463953
225	0x3d3847e0	0.04499042
226	0x3deed87c	0.11662385
227	0x3dc2ba71	0.09508217
228	0x3d9ebcea	0.07750876
229	0xbcbb2982	-0.02284694
230	0x3d97578e	0.073897466
231	0x3d8df512	0.06931509
232	0x3d55e11e	0.05221664
233	0xbe284478	-0.16432369
234	0xbd16ab89	-0.036784682
235	0x3e0b142c	0.13581914
236	0xbdabafab	-0.083831154
237	0xbe044936	-0.12918553
238	0xbe181cfd	-0.14854808
239	0xbd2e0d2e	-0.042493038
240	0x3dbbc158	0.09167737
241	0x3a190109	0.0005836641
242	0x3dcdb56f	0.10044371
243	0x3dbf4912	0.09340109
244	0xbdc8ef04	-0.098112136
245	0xbcfc6aa6	-0.030812573
246	0x3e5bdf43	0.21471886
247	0x3de183b8	0.110114515
248	0xbcca28a1	-0.024677576
249	0xbe31a1ee	-0.17346928
250	0xb9ee4c0c	-0.00045451557
251	0x3d8a0633	0.06739464
252	0xbd193e28	-0.037412792
253	0xbdfbbfe3	-0.12292459
254	0x3e5ac974	0.21365911
255	0x3da89816	0.08232133

fc2.weight f4 [300, 400]
0	0x3d85920e	0.06521998
1	0x3d2edb8b	0.04268984
2	0x3b639577	0.003472654
3	0x3ccd6e9a	0.025077153
4	0x3c6a46bf	0.014299094
5	0x3de724ef	0.112863414
6	0x3e188cca	0.14897457
7	0x3d11d25b	0.035601
8	0x3d8361d1	0.064151414
9	0xbd09a418	-0.033603758
10	0xbdbf7aa6	-0.09349565
11	0xbc9769d0	-0.018483073
12	0x3d3a4121	0.045472268
13	0x3d801580	0.06254101
14	0x3bba8f99	0.0056933877
15	0xbc80bf24	-0.015716143
16	0x3d02690f	0.031838473
17	0xbcecc069	-0.028900342
18	0x3c670443	0.014100137
19	0x3c021c0f	0.00794126
20	0x3dd4707a	0.10373016
21	0xba2b1117	-0.0006525679
22	0x3d7366ee	0.059424333
23	0x3c0760ca	0.008262822
24	0x3d7bb4f7	0.06145188
25	0xbdb3ba12	-0.087757245
26	0xbc8b5ef5	-0.017013052
27	0xbe013b7d	-0.12620349
28	0xb91b9049	-0.00014835702
29	0x3d8f2f5f	0.06991457
30	0x3ceb817c	0.028748266
31	0xbb77423c	-0.0037728688
32	0xbd785f79	-0.060637925
33	0xbda2e524	-0.07953861
34	0xbce3c705	-0.02780486
35	0x3d95e74f	0.07319509
36	0x3bf5fea1	0.007507161
37	0xbd97f85f	-0.0742042
38	0xbd2ce022	-0.042205937
39	0xbd30ff0f	-0.043211993
40	0x3cf6ab22	0.0301109
41	0x3da57ae9	0.08080084
42	0x3c970a28	0.01843746
43	0xbd394022	-0.045227177
44	0x3d8de5ec	0.0692862
45	0x3d15d420	0.03657925
46	0x3db79d8b	0.08965596
47	0x3d084fa7	0.033279087
48	0x3d95d535	0.07316057
49	0x3da83f34	0.0821518
50	0x3c7f52e3	0.015583727
51	0x3db426dd	0.08796475
52	0xbc2c2025	-0.010505711
53	0xbcf620f8	-0.030045018
54	0xbd190b89	-0.037364516
55	0x3cb35d8c	0.021895193
56	0x3cf2f375	0.029657105
57	0x3ba7e21e	0.005123391
58	0x3d1a5b1e	0.037684552
59	0xbc7828f2	-0.015146481
60	0x3baeda3b	0.0053360737
61	0xbd4a4b3e	-0.049388163
62	0xbd88fbcd	-0.06688652
63	0x3da45f25	0.0802596
64	0xbd96b121	-0.073580034
65	0x3d798102	0.060914047
66	0x3d6a0bd7	0.057140198
67	0x39f7ebcb	0.0004728719
68	0xbcee54c8	-0.029093161
69	0x3db05904	0.086107284
70	0xbcb6d88c	-0.022320054
71	0x3dc0b611	0.094097264
72	0xbdb30b52	-0.087423936
73	0x3d884d46	0.06655364
74	0x3da16b7b	0.078818284
75	0xbc08656e	-0.008324964
76	0xbd86a7ae	-0.06574951
77	0x3cd6145e	0.026132759
78	0x3da91359	0.082556434
79	0xbbfc4e4b	-0.007699763
80	0xbc992d86	-0.018698465
81	0xbd4dc172	-0.050233312
82	0xbd138fc4	-0.036025777
83	0xbbff7393	-0.00779576
84	0xbd0d9d8a	-0.03457407
85	0x3c901f4e	0.017593052
86	0x3d784388	0.060611278
87	0x3dc63255	0.09677569
88	0xbdc9d7d8	-0.09855622
89	0x3d4076b9	0.046988223
90	0xbd39937b	-0.045306664
91	0x3ddafbad	0.106925346
92	0xbd35d91e	-0.044396512
93	0x3d759d2a	0.059964336
94	0xbbde9d78	-0.006793674
95	0x3d610625	0.0549375
96	0xbdb91d1c	-0.09038755
97	0x3dacec30	0.08443487
98	0x3d200c0a	0.03907398
99	0x3dcfc1c2	0.10144378
100	0x3ba6ee1e	0.0050943037
101	0x3ce331b5	0.027733663
102	0xbbb96fea	-0.005659093
103	0x3d99c3db	0.075080596
104	0x3c8977ed	0.016780818
105	0xbcc53145	-0.024071345
106	0xbd20c975	-0.039254624
107	0x3dd6c6dd	0.10487149
108	0x3cfa6a34	0.03056822
109	0xbccf60a4	-0.025314637
110	0xbc50296d	-0.012705189
111	0x3d65faab	0.05614726
112	0x3d7a0cd5	0.061047394
113	0x3cf1db4c	0.029523514
114	0x3d149ea0	0.03628409
115	0x3ba862cb	0.00513873
116	0x3d0bcdf6	0.034131967
117	0x3c97595b	0.018475225
118	0xbb38da31	-0.0028206224
119	0x3c5f7976	0.013639798
120	0x3d43725f	0.047716495
121	0x3d6321e2	0.055452235
122	0x3d8784b4	0.06617108
123	0x3d1d1e23	0.03835882
124	0xbc500943	-0.012697521
125	0x3d02e25d	0.031954158
126	0x3d69f904	0.057122245
127	0x3d1cc96f	0.03827804
128	0xbcde6a7f	-0.02715039
129	0x3db4a029	0.088196106
130	0x3d348f6f	0.0440821
131	0x3db87bc0	0.090079784
132	0x3b2e5a93	0.002660428
133	0x3d84571a	0.06461926
134	0xbd233d40	-0.039853334
135	0xbcea0570	-0.028567046
136	0x3df1f18a	0.11813648
137	0x3e020b38	0.12699592
138	0x3d8d3618	0.06895083
139	0x3bb94d8b	0.005654996
140	0x3d37947c	0.04481934
141	0xb91bb049	-0.00014847623
142	0xbc309db4	-0.010779787
143	0x3d35b351	0.044360463
144	0x3da04ee6	0.07827549
145	0xbd1082a5	-0.035280842
146	0x3d7e1625	0.062032837
147	0xbd190ad7	-0.037363853
148	0x3da5840a	0.08081825
149	0x3d8b74e5	0.06809405
150	0x3d205354	0.039141968
151	0x3d840a2a	0.06447251
152	0xbd030a5a	-0.031992294
153	0xbc73f72b	-0.014890472
154	0xbd822891	-0.06355394
155	0x3caa7283	0.020806557
156	0xbcc305f8	-0.023806557
157	0xbd0c7819	-0.03429422
158	0xbca3d846	-0.020000588
159	0xbcca884d	-0.024723196
160	0x3b5fccdf	0.0034149212
161	0x3e2b8311	0.16749217
162	0x3c04bf1d	0.008102206
163	0x3b445853	0.0029959872
164	0xbc93baa8	-0.01803334
165	0x3d0581ba	0.03259442
166	0x3d083180	0.033250332
167	0x3e0299c7	0.12753974
168	0x3cc3f47c	0.02392029
169	0xbd107ab2	-0.03527326
170	0xbb27b97e	-0.002559274
171	0x3d8f23b7	0.06989234
172	0x3d65a41b	0.056064706
173	0xbc0ea451	-0.008706168
174	0xbd165772	-0.036704488
175	0xbc4b7d78	-0.012420051
176	0xbcf973ad	-0.030450666
177	0x3ddde535	0.108347334
178	0xbd576ac5	-0.052592058
179	0x3d74ed74	0.059796765
180	0xbd3fb7c7	-0.046806123
181	0x3d2fbcd9	0.04290471
182	0xbce4c140	-0.02792418
183	0xbd635659	-0.05550227
184	0xbd077c0c	-0.033077285
185	0x3d16fb20	0.036860585
186	0xbcad721d	-0.021172578
187	0x3c11602c	0.008873027
188	0x3d9aa5a7	0.07551127
189	0x3d0d7fbe	0.034545653
190	0x3d467f77	0.048461404
191	0xbc06a64b	-0.008218358
192	0x3d10c428	0.03534332
193	0x3c8106c1	0.01575029
194	0xbdc71a4f	-0.09721815
195	0x3b50993e	0.003182962
196	0xbd52433c	-0.05133365
197	0x3de448c8	0.111466944
198	0x3dd71cd3	0.10503545
199	0x3cc3deee	0.023910012
200	0x392e145f	0.00016601522
201	0x3c48c007	0.012252814
202	0x3b13f3e1	0.0022575783
203	0xbe10c2ea	-0.14136854
204	0x3c88bd9e	0.016691979
205	0xba79ed68	-0.00095339725
206	0x3d9ec3fd	0.077522255
207	0x3cc04e25	0.023474762
208	0xbda8b35e	-0.082373366
209	0x3d9ae069	0.07562334
210	0xba5676cd	-0.0008181155
211	0xbbaac6fc	-0.005211709
212	0xbd49b03c	-0.049240336
213	0xbc9b555e	-0.018961605
214	0xbc7cc87c	-0.015428659
215	0x3da58e87	0.080838256
216	0xbbf53929	-0.0074836207
217	0x3d1086ab	0.03528468
218	0xbbc22e0a	-0.0059258984
219	0xbba6005a	-0.00506596
220	0x3d580cff	0.05274677
221	0x3d38e98a	0.045144595
222	0xbd61b243	-0.055101644
223	0x3ca487d3	0.020084297
224	0xbb65b090	-0.0035047866
225	0x3dae5767	0.085127644
226	0x3da4f6fa	0.080549195
227	0x3dd20760	0.10255313
228	0xbccb19ab	-0.024792513
229	0x3d8bc597	0.06824797
230	0xbd2ee92f	-0.04270285
231	0xbd08a7da	-0.0333632
232	0x3bd2a94f	0.0064288746
233	0x3a0bd109	0.0005333578
234	0x3d0c86b7	0.03430816
235	0xbd54da4f	-0.051966008
236	0xbd77625b	-0.060396533
237	0xbd15979f	-0.03652155
238	0xbcaa0df5	-0.020758608
239	0x3d88d119	0.06680507
240	0x3d6d5364	0.057940856
241	0xbd10177b	-0.035178643
242	0x3c4bccbc	0.012438949
243	0x3c4b9b2e	0.012427134
244	0x3d753419	0.059864137
245	0xbdfe527e	-0.12418078
246	0x3d1968c5	0.03745343
247	0x3d29b40c	0.04143147
248	0x3c0c4eab	0.008563678
249	0x3c214b40	0.009844601
250	0x3cd6bb80	0.026212454
251	0x3dbb0774	0.09132281
252	0x3dcddd05	0.10051922
253	0x3cbaf9ae	0.022824135
254	0xbd7debce	-0.06199246
255	0xbc0d1f9c	-0.008613493

fc2.bias f4 [300]
0	0x3d0bdc49	0.034145627
1	0x3ca4e652	0.020129357
2	0x3cceb8eb	0.02523466
3	0x3d6dcaab	0.058054607
4	0x3c9fe5d7	0.019518776
5	0x3d39d720	0.045371175
6	0xbc950ea0	-0.01819545
7	0x3d6940a8	0.056946427
8	0x3d8e21a1	0.06940008
9	0x3d84e996	0.064898655
10	0xbc6e6ff8	-0.014553063
11	0xbc336e9b	-0.010951663
12	0xbd3f789b	-0.046745878
13	0xbb02b4ad	-0.0019944117
14	0xbb75cdaa	-0.0037506619
15	0xbc785b52	-0.015158491
16	0x3c850781	0.01623893
17	0x3d7b7d79	0.061398957
18	0x3daed0a5	0.085358895
19	0xbab66310	-0.0013915021
20	0x3d20d236	0.039262973
21	0x3d4fa068	0.050690085
22	0xbc2dd99e	-0.010610966
23	0x3ce3c4f1	0.02780387
24	0x3d5ac1f4	0.053407624
25	0xbc770704	-0.015077356
26	0x3d630e5b	0.055433612
27	0x3c802198	0.015641019
28	0x3d747a4e	0.05968695
29	0x3d38f7f6	0.04515835
30	0x3d28680b	0.041114848
31	0xba70d7d9	-0.0009187437
32	0x3d918f6c	0.07107434
33	0x3d07cfe4	0.033157244
34	0xbd13fb72	-0.03612847
35	0x3d1e7b60	0.03869188
36	0x3c8e0fe0	0.017341554
37	0xbc9c6942	-0.01909316
38	0xbb6b4d4d	-0.003590423
39	0x3d9b1c82	0.07573797
40	0x3d139174	0.036027387
41	0x3d485ea2	0.048918374
42	0xbbee7070	-0.007276587
43	0x3d49555d	0.049153674
44	0x3d9d3da9	0.07677776
45	0x3d4e4c09	0.05036548
46	0x3c5e6fbd	0.013576445
47	0xbd3d062c	-0.046148464
48	0x3bd8d82d	0.006617567
49	0x3bb97403	0.0056595816
50	0xbcec40c3	-0.028839475
51	0xbb73ec5f	-0.0037219746
52	0x3c553261	0.0130125
53	0x3cffc630	0.031222433
54	0x3ba8bf53	0.0051497607
55	0xbc0fa811	-0.0087680975
56	0xbcf86dc3	-0.030325776
57	0xbc3f6022	-0.011680635
58	0xbd0ae67a	-0.033911206
59	0xbb0ab61d	-0.0021165677
60	0xbc833933	-0.016018486
61	0x3d4d9375	0.050189454
62	0xbc8f7462	-0.01751155
63	0x3bc577da	0.0060262503
64	0x3dad8148	0.08471924
65	0x3d006dfd	0.031354893
66	0x3d7c0f67	0.061538126
67	0xbba8691b	-0.0051394827
68	0x3d0ae7ea	0.033912577
69	0x3d0c9145	0.034318227
70	0x3d4259d0	0.047448933
71	0xbab82100	-0.0014047921
72	0x3d62ca9b	0.055369
73	0xbc8d3fab	-0.017242273
74	0x3d76d19a	0.060258485
75	0xbb9ad16b	-0.0047246716
76	0xbd5fd69a	-0.05464802
77	0x3db6bba3	0.089225076
78	0x3cec4c3a	0.028844941
79	0x3b78bede	0.0037955563
80	0xbc802269	-0.015641408
81	0x3ad03cbd	0.0015887242
82	0xbc23a100	-0.009987116
83	0x3d11a74d	0.03555994
84	0x3c5b14fe	0.013371704
85	0x3c0bb095	0.008525987
86	0x3d01299a	0.031533815
87	0xbc00a53f	-0.007851898
88	0xbd44f16b	-0.048081797
89	0x3dc1b9a2	0.09459235
90	0xba989741	-0.0011641757
91	0xbcbec623	-0.023287838
92	0x3dc59b55	0.09648768
93	0x3d1701e6	0.036867045
94	0x3be22b7b	0.006902156
95	0x3d7adb7e	0.06124448
96	0xbb0a8b8e	-0.002114031
97	0x3c6b32a0	0.014355332
98	0xbd829e16	-0.06377809
99	0x3d911544	0.07084134
100	0x3c4f1d8b	0.012641321
101	0x3c756b52	0.0149792
102	0xbc91161e	-0.017710742
103	0x3bad082a	0.0052805142
104	0x3d30d7eb	0.043174665
105	0xbd22f77c	-0.0397868
106	0x3cedc213	0.029023206
107	0x3c79b279	0.015240305
108	0xbc018c7b	-0.007907028
109	0x3d304043	0.043030035
110	0x3d5cbd19	0.053891275
111	0x3d4274b9	0.047474597
112	0x3d76d40c	0.060260817
113	0xbb7be346	-0.0038435026
114	0x3c42f149	0.011898347
115	0xbc91da50	-0.017804295
116	0x3d591180	0.052995205
117	0x3d488f06	0.048964523
118	0x3c2ee48a	0.010674605
119	0x3da392a1	0.079869516
120	0xbbe597b8	-0.0070066117
121	0xbcbaf232	-0.022820566
122	0x3d603026	0.054733418
123	0x3c014d22	0.007891925
124	0x3d2b8d3f	0.04188275
125	0x3c982c64	0.018575855
126	0x3d969176	0.07351963
127	0x3ca6fa82	0.020383123
128	0x3d49e8f9	0.049294446
129	0x3d475592	0.04866559
130	0x3d263500	0.04057789
131	0xbbe6751b	-0.007033003
132	0x3c21ab6f	0.009867533
133	0xbca34a21	-0.019932808
134	0x3d93466a	0.07191165
135	0x3cf0a07b	0.029373398
136	0x3d4af5ae	0.049550705
137	0x3d749406	0.05971148
138	0x3c5976d0	0.013272956
139	0x3caa71f9	0.0208063
140	0xbd375a49	-0.044763837
141	0xbc24a903	-0.010050061
142	0xbb79c4b1	-0.0038111622
143	0x3d312077	0.04324385
144	0xbc07416b	-0.008255343
145	0x3d213f2d	0.03936689
146	0x3bd77490	0.0065751746
147	0xbb86304d	-0.0040951134
148	0xbc4b577f	-0.012410997
149	0x3d2037e6	0.03911581
150	0xbd37fdaa	-0.044919647
151	0x3d5259d1	0.051355187
152	0x3d00ba94	0.031427935
153	0x3dba9201	0.09109879
154	0x3c86b401	0.016443254
155	0x3d49167a	0.0490937
156	0x3d0266af	0.031836208
157	0x3d341a8f	0.04397064
158	0xbce7c065	-0.028289983
159	0x3d1365c7	0.035985734
160	0x3cba5522	0.022745673
161	0x3c211af9	0.009833091
162	0xbcb5f0c8	-0.02220954
163	0x3cd18418	0.025575683
164	0xbd26f9de	-0.040765636
165	0xbd0cf620	-0.03441441
166	0x3b89fde2	0.0042111734
167	0x3d745f54	0.059661224
168	0xbd4d4276	-0.05011221
169	0x3b41d656	0.0029577217
170	0x3da84c0e	0.08217631
171	0xbcd7fc7b	-0.02636551
172	0xbbb9a784	-0.0056657214
173	0x3ca8ff34	0.020629503
174	0x3d5ef221	0.05443013
175	0x3c138dc7	0.00900597
176	0xbd29a1a5	-0.041413922
177	0xbb831109	-0.0039998335
178	0xbd18c7ba	-0.03729985
179	0x3d0b80a2	0.03405822
180	0x3d4e97ba	0.050437666
181	0x3cb9db45	0.022687564
182	0x3d706e95	0.05869921
183	0xbd05e22a	-0.03268639
184	0x3d5cab71	0.053874437
185	0x3d041210	0.03224379
186	0x3d36b249	0.04460362
187	0x3d18a63f	0.03726792
188	0x3cc54d22	0.024084631
189	0x3c663d62	0.014052721
190	0x3ca655cf	0.020304589
191	0x3d57c17b	0.05267475
192	0xbc0606d4	-0.008180339
193	0xbc5f2475	-0.013619532
194	0x3d567443	0.05235697
195	0x3d91a91d	0.07112334
196	0xbc007435	-0.007840206
197	0xbbbc79ff	-0.0057518478
198	0xbcbeb655	-0.023280302
199	0x3ca3d910	0.020000964
200	0x3dca5595	0.09879605
201	0xbc9d292e	-0.019184675
202	0xbd1d2b53	-0.038371395
203	0xbc5c1a7e	-0.013434051
204	0x3c5189e3	0.012789222
205	0x3d586f07	0.05284026
206	0x3d79b3f4	0.060962632
207	0xbd19c3d0	-0.037540257
208	0xbcc62d3e	-0.024191495
209	0x3d09a8e6	0.03360834
210	0x3cda5192	0.026650224
211	0x3d0833e6	0.03325262
212	0xbc0154c8	-0.007893749
213	0x3d456140	0.048188448
214	0x3c4db4f2	0.012555348
215	0x3d96b3d2	0.07358517
216	0xbb23c5aa	-0.0024989643
217	0x3b200539	0.0024417175
218	0x3d63bcd9	0.05560002
219	0x3dc38e0b	0.09548577
220	0xbd329901	-0.043602947
221	0xbb0ab3a9	-0.0021164215
222	0xbb86cc7a	-0.004113731
223	0xbbac0b69	-0.0052503836
224	0x3d3d321a	0.04619036
225	0xbce6b491	-0.028162273
226	0x3bf83587	0.0075747403
227	0x3d62714a	0.055283822
228	0xbcff0704	-0.031131275
229	0x3ccce83e	0.025013085
230	0x3c71894c	0.014742207
231	0x3ce2f108	0.027702823
232	0xbb84e1a2	-0.004055218
233	0x3d577a1f	0.052606698
234	0x3d45f91f	0.048333284
235	0xbc4eb09c	-0.012615349
236	0xbd304c81	-0.04304171
237	0x3d291c4c	0.04128675
238	0x3ca2cf7b	0.019874325
239	0xbd06e3c2	-0.03293205
240	0xbab0daff	-0.0013493
241	0x3db9d7d8	0.09074372
242	0x3d0c0ff9	0.03419492
243	0xbce5fde9	-0.028075175
244	0xbc748a7a	-0.0149255935
245	0xbb07ba2a	-0.0020710328
246	0x3d4ae7d1	0.049537484
247	0x3cfc45bc	0.03079497
248	0x3cdc886c	0.02692052
249	0xbc753f3d	-0.01496869
250	0x3c0d26e5	0.00861523
251	0x3d37d808	0.044883758
252	0x3d042bd7	0.03226837
253	0x3da30c1f	0.07961296
254	0xb9ccbce4	-0.00039050647
255	0xbcd0a121	-0.025467457

fc3.weight f4 [4, 300]
0	0xbd799337	-0.06093141
1	0x3b65f1b4	0.0035086693
2	0x3c84b6ab	0.016200384
3	0x3d369d2a	0.044583477
4	0x3d11036b	0.03540365
5	0xbc1418f1	-0.00903915
6	0xbdad25bc	-0.08454463
7	0xbd42e05c	-0.047577247
8	0xbd56899c	-0.05237733
9	0xbcf285ba	-0.029604781
10	0xbd323c34	-0.043514445
11	0xbd1af1b6	-0.03782817
12	0x3e2b7080	0.16742134
13	0x3cefbca8	0.029264763
14	0xbe06cc2c	-0.13163823
15	0xbd837934	-0.06419602
16	0xbd3a7396	-0.045520388
17	0x3e22be5a	0.15892926
18	0xbc2a345c	-0.01038846
19	0x3d71fc62	0.05907858
20	0x3cf91e3a	0.030409921
21	0x3dcf0713	0.10108771
22	0xbdd5d192	-0.10440363
23	0x3b5bf419	0.0033562242
24	0xbc5b73b7	-0.013394288
25	0xbd5c5395	-0.053790648
26	0xbb80fac9	-0.003936146
27	0xbd8c36f2	-0.068464175
28	0x3d5093fb	0.050922375
29	0x3e0171c1	0.1264105
30	0xbbdf3a3f	-0.0068123634
31	0x3cf8ff7f	0.030395268
32	0xbcfa93cb	-0.030588051
33	0x3c55e155	0.013054212
34	0x3db60eb4	0.08889523
35	0xbd68ebd4	-0.05686553
36	0xbd9c2a83	-0.07625296
37	0xbc884a26	-0.01663692
38	0xbded05b9	-0.11573357
39	0xbe0b905a	-0.13629285
40	0x3ccb6151	0.024826678
41	0xbcc51f2b	-0.024062714
42	0xbd778f84	-0.0604396
43	0xbcddd1e9	-0.027077632
44	0xbe22c37f	-0.15894888
45	0xbd0f21e2	-0.034944423
46	0x3d58fe97	0.05297717
47	0x3dd74169	0.10510523
48	0xbd274103	-0.040833484
49	0x3d06ea19	0.032938097
50	0x3dfa7ec0	0.12231207
51	0xbd1ec309	-0.03876022
52	0x3b084f16	0.0020799092
53	0xbd155dda	-0.036466457
54	0x3d1790ab	0.0370032
55	0xbd0e247c	-0.034702763
56	0x3dac19ed	0.084033825
57	0xbd1eae6f	-0.03874057
58	0xbd206d66	-0.03916683
59	0xbbe56161	-0.007000134
60	0xbe10dfff	-0.14147948
61	0x3d4de3cb	0.05026607
62	0x3cc77a9c	0.024350457
63	0xbd374571	-0.04474396
64	0x3db98d9a	0.090602115
65	0x3d6883f4	0.056766465
66	0xbd02d084	-0.031937137
67	0x3d9891d9	0.07449693
68	0x3d388ad8	0.045054287
69	0x3d0f930c	0.035052344
70	0xbc8d4ba7	-0.017247988
71	0x3dd4ddd2	0.10393871
72	0xbdcfa9cc	-0.10139808
73	0xbd12fff2	-0.03588862
74	0xbd27b767	-0.04094639
75	0x3d741189	0.059587035
76	0x3c8fecd7	0.017568989
77	0xbb5e5666	-0.003392601
78	0x3b0af324	0.0021202052
79	0x3d977587	0.073954634
80	0xbd36c050	-0.044616997
81	0x3c9afd98	0.018919751
82	0x3de0a97f	0.10969829
83	0xbdd10bfd	-0.10207365
84	0x3daf6885	0.085648574
85	0xbe15df5f	-0.1463599
86	0x3caf0f2e	0.021369543
87	0xbcafa39b	-0.021440318
88	0x3c684816	0.014177343
89	0x3a28c022	0.00064373214
90	0xbd8c3d9f	-0.06847691
91	0x3e03496f	0.12820981
92	0x3bd145f7	0.0063865143
93	0xbb624d20	-0.0034530833
94	0xbd422be3	-0.047405135
95	0xbd0c59a5	-0.03426518
96	0x3cc7e3fd	0.024400705
97	0xbdf70abd	-0.12062595
98	0xbe0fc609	-0.14040388
99	0x3dd8ab80	0.10579586
100	0xbd01f400	-0.031726837
101	0x3e1f7cde	0.15574977
102	0xbba9a2b2	-0.0051768655
103	0xbdd4c870	-0.10389793
104	0xbd8dd281	-0.06924916
105	0x3ce59a0b	0.028027555
106	0xbd9cb245	-0.0765119
107	0x3db6ea85	0.0893145
108	0x3ddc89cf	0.107684724
109	0xbd1f42a7	-0.038881924
110	0xbccea01e	-0.025222834
111	0x3d2a7d13	0.041623186
112	0x3bd9bad2	0.006644585
113	0x3c8acfed	0.01694485
114	0x3b9f1318	0.004854571
115	0xbe700f1c	-0.23443264
116	0xbc7604eb	-0.015015821
117	0xbc16c532	-0.009202288
118	0x3d1740a5	0.036926884
119	0xbd1867aa	-0.037208237
120	0x3de544ac	0.11194739
121	0xbdcc1cfd	-0.099664666
122	0xbd610e5a	-0.054945327
123	0x3c329499	0.010899686
124	0x3d1e9003	0.03871156
125	0x3e0cd756	0.13754019
126	0x3cd4cdf6	0.025977116
127	0xbd4e61cd	-0.05038624
128	0xbc550c27	-0.013003386
129	0xbd18550e	-0.03719049
130	0xbd9977c7	-0.07493549
131	0xbafd0685	-0.0019304311
132	0xbdc93a61	-0.09825588
133	0xbe067dce	-0.13133928
134	0xbd03689e	-0.032082193
135	0x3d3f4028	0.046692044
136	0x3ca4a40b	0.020097753
137	0xbd4f367b	-0.050589066
138	0xbe14a181	-0.14514734
139	0x3dd778af	0.105210654
140	0x3cdbfa36	0.026852708
141	0x3cbecb9c	0.023290448
142	0xbd0a0014	-0.03369148
143	0xbd24e4cb	-0.040257256
144	0x3da07b45	0.07836012
145	0xbdc42f88	-0.09579378
146	0x3d9a2d9a	0.07528229
147	0x3d2389d0	0.03992635
148	0x3d3212bd	0.0434749
149	0xbd3ec94c	-0.04657869
150	0xbd9ca147	-0.07647949
151	0xbbcf5f37	-0.006328489
152	0xbde59814	-0.11210647
153	0x3cd12d6e	0.025534358
154	0xbba83324	-0.0051330496
155	0x3b505abf	0.003179237
156	0x3d1f0761	0.038825396
157	0xbd60f26d	-0.054918695
158	0x3de1b302	0.11020471
159	0xbd05e347	-0.03268745
160	0xbd94d97a	-0.07268043
161	0xbdb289dd	-0.087177016
162	0x3c4b9612	0.012425916
163	0xbd1a9d7c	-0.037747845
164	0x3dd4cecb	0.10391005
165	0xbb4fd30d	-0.003171149
166	0xbe13b469	-0.1442429
167	0x3ce8d44e	0.028421547
168	0xbc613f51	-0.013748006
169	0x3d99bed3	0.075071
170	0x3e28e01c	0.16491741
171	0xbbe49b9a	-0.006976557
172	0xbd2bcd2c	-0.041943714
173	0x3d8c483f	0.06849717
174	0xbe20c45c	-0.15699905
175	0xbaf9a4df	-0.0019046328
176	0x3d9853f4	0.07437888
177	0x3db382bd	0.08765171
178	0x3cf50875	0.02991126
179	0xbb4cfead	-0.0031279728
180	0xbcad566c	-0.021159373
181	0xbbc93d53	-0.0061413436
182	0x3c4b74ee	0.012418015
183	0xbdd42e03	-0.103603385
184	0xbc9afba0	-0.018918812
185	0xbd2ce9be	-0.0422151
186	0x3d085ae7	0.033289816
187	0xbd42b7c9	-0.047538552
188	0xbdd42e89	-0.103604384
189	0x3e341ec3	0.1758986
190	0x3bd58d23	0.006517069
191	0x3d434886	0.047676586
192	0xbd90522d	-0.07046924
193	0x3cdf79e3	0.0272798
194	0xbdb77f8b	-0.08959874
195	0x3c60b033	0.013713884
196	0xbe0ef779	-0.13961591
197	0xbdc1bef0	-0.094602466
198	0xbc8de368	-0.01732035
199	0xbe563682	-0.2091923
200	0x3c952e20	0.01821047
201	0x3de95fa8	0.11395198
202	0x3cb7f7a6	0.022456955
203	0xbe3fb2ca	-0.18720546
204	0x3d1de55b	0.03854881
205	0xbcb18cd2	-0.021673594
206	0x3dd16d9b	0.10225984
207	0xbe0df3e1	-0.13862564
208	0xbd5a40a6	-0.05328431
209	0xbbd26c6d	-0.0064216168
210	0x3bc54a89	0.006020848
211	0x3d02d35e	0.031939857
212	0xbd141511	-0.036152903
213	0xbda73a2f	-0.081653945
214	0x3e13272e	0.14370415
215	0x3b2394ab	0.002496044
216	0x3dea4c45	0.114403285
217	0xbe1081ad	-0.14111967
218	0xbbfcaf3b	-0.007711319
219	0x3c7aafb5	0.015300681
220	0xbdd9b9b7	-0.106311254
221	0xbdb24270	-0.08704078
222	0x3d95ba18	0.07310885
223	0xbd8dc944	-0.06923154
224	0x3dd6f6b6	0.10496275
225	0x3d2e6ea3	0.04258598
226	0xbdab1e83	-0.08355429
227	0xbc12f7e4	-0.008970235
228	0x3de6cd46	0.112696216
229	0xbe52f760	-0.20602179
230	0x3d9648c6	0.07338099
231	0xbd6913a0	-0.05690348
232	0x3e63a48d	0.2223074
233	0xbca6c7ee	-0.020359006
234	0xbd895334	-0.06705323
235	0x3d9e8e00	0.07741928
236	0xbdf7fbf1	-0.12108601
237	0xbcada5fc	-0.021197312
238	0xbd50c26c	-0.050966665
239	0x3c97b7ae	0.018520202
240	0x3d2f18c8	0.042748243
241	0xbdaddece	-0.08489762
242	0xbbae823d	-0.005325584
243	0xbc9448e1	-0.018101158
244	0xbe8acad8	-0.27107882
245	0x3e2499c7	0.16074286
246	0x3e31ae69	0.17351688
247	0xbdad73b9	-0.08469338
248	0xbe2f9c55	-0.1714948
249	0xbd1bd4b5	-0.03804465
250	0x3d89b8e8	0.06724721
251	0xbc78cde7	-0.01518581
252	0x3c3c1485	0.011479502
253	0xbc9ba422	-0.018999163
254	0x3da1e4b5	0.079049505
255	0xbc4ea8a0	-0.0126134455

fc3.bias f4 [4]
0	0x3bd74c55	0.006570379
1	0x3cdac000	0.02670288
2	0x3cca9539	0.024729358
3	0x3d96dd30	0.07366407
