checkpoints/checkpoint_critic_600.pth (torch, 543815 bytes, 5 tensors)

fcs1.weight f4 [400, 33]
00000000: 6410 a2be 9d97 c23d a3b0 a23d 4e9b a83d
00000010: 5756 6ebc 3220 20be c872 023f 263c 4fbe
00000020: 9c49 f1be 175d 5a3d 35b2 6c3c c6eb 9c3e
00000030: 0f0d 943e fb47 623d 38af 083f d61d 19be
00000040: 6337 10be 2a83 aa3e 67e1 033f 7964 07bd
00000050: 9ede ae3c a1b9 2a3e a3c1 7abc 67f7 2d3e
00000060: 5669 403e 9c92 373e f605 873e 08d3 b43e
00000070: d153 5d3e 767f 9a3c 2a02 b9be e487 793c
00000080: 2e71 043f 7eee 8bbe e47c 413e b72f fbbe
00000090: 3eba d43e b969 66be 53d3 033e 6512 97bc
000000a0: 405a 8a3d fb04 cdbc e6d9 6d3d 85ea bdbc
000000b0: d12d e8bc 754b 8ebd 12e8 13bd acd6 ce3a
000000c0: 8c2a 0e3f fa27 513f 7f78 f5be e355 fbbc
000000d0: 8335 da3e 4671 07bc 7a34 af3c 608b a2bc
000000e0: a13a 3cbd ec2c 0a3e b634 7b3b e19f 023e
000000f0: cfd0 a63e 04ed f4be 50bf b4bc df51 b5be
00000100: d5e6 403d 4121 82bf 2820 a03e 8ea8 9cbd
00000110: da0e 2c3f b386 c1be 1ed1 d8be cb0b 173e
00000120: b09d 5b3e 2d73 f73c b5ca b1be 8cc1 7abe
00000130: 2d2a f13d 29d8 f73d 4fe0 ac3e 6623 b23d
00000140: 6129 663e 822c 22be c413 eabe 22dd 413e
00000150: 60ab 403e 6c28 31bf 7ec0 a53e fa1d 3b3d
00000160: d3cc 8dbe 86d2 1c3c c8ab a7bd da61 91bd
00000170: 745e 11be 65b2 743e b3b6 9dbe e834 233c
00000180: 958a 49be 3062 14bd 1b3d f8bd 18b1 b6be
00000190: b9d3 82bd ff91 d7be 5783 293e 2176 69be
000001a0: 18ce 803e 295d 323d bd23 5e3e faf8 473e
000001b0: 6b3d 323e a6d3 e2bd e7db f73d 730d 453c
000001c0: c825 6e3e 415f 963e 2070 10bb 4125 c43d
000001d0: 34c7 b0bd 80a0 1dbe eb7e 30bd ad72 1d3d
000001e0: 67bc 44be 1570 633e b202 853d b7f6 9d3d
000001f0: 8b96 c8bd 6e8f aabd 3b2b 0e3f 4c08 c4bd
00000200: 3402 8abc 08ad f9be 986c 40bc f4bd 163f
00000210: 127a 98bc 9370 9fbd 2ade 11bf 9f44 953e
00000220: 7a08 89be fd68 e73e 4aca 80be 563a 2dbe
00000230: 6b7e 753e c620 9ebe 3389 673d c14e 71bc
00000240: 3faf 6e3d a399 b2bd 94e0 193e df72 9c3c
00000250: 630c 9d3e 101a c73d 4e33 35be 56b7 aebc
00000260: dedb 0dbe 488a 043a c8a7 283e 5282 653d
00000270: 12ce 82bd f06c a8bc b89d 00be b8ca 233f
00000280: ef62 4a3e acad 0f3c 5cc6 2dbf 6c52 8cbc
00000290: 91dc 18bf e52b ce3e 747c ab3d b359 2cbd
000002a0: 3f10 efbd 0c39 823e 132d 5ebe c689 a3be
000002b0: b2db e8bc e52e e4bd 80d2 66bd ac1b b73e
000002c0: 7c3e 4dbe a4c9 173e abbd be3d ad7e 153e
000002d0: d391 913e 3b3e 7f3e e093 36be a62f 0e3a
000002e0: a360 93bd b38c a63b 30c9 2fbd 53cf a83d
000002f0: bee7 7fbd 6702 573d 4472 66be 80d8 70be
00000300: af40 523f aa79 2cbe fd04 1d3d 876a 49bf
00000310: fd75 0c3d c953 4b3e 5c25 36bd 1705 3abe
00000320: 8092 873e 7be6 f3bc f25e b13c 2d84 fc3d
00000330: 3f09 0e3f fa8e cbbd 8d37 90be 09cb 9cbd
00000340: 496b 033d 653e e5bd 2f2a efbd f673 233e
00000350: ac7b 2b3e c9e2 07bf 12a7 3dbe 6fda 3bbe
00000360: 196f 78be 2104 f73d 83e7 bfbd 0ef3 363d
00000370: 6e3e aabd 11ba 2b3e 4a26 093e 67a8 8bbe
00000380: 5035 91bd 5b2e ac3e 4551 cf3e 64d1 723c
00000390: e9f7 87be e7cc dfbc 14d7 4d3f ee82 24be
000003a0: 954f d5bd 6a4d db3e 3aa1 a3be 561e 63bd
000003b0: d255 f5be d0be d6bb 60bf c63d 769c e93a
000003c0: a707 8abe 2f75 2bbd 487a 0fbe 6bcb 783d
000003d0: 4cd3 a53e 9a27 003e 782e debe 632c e63e
000003e0: 3b10 813e 5562 823e c61b de3d 0426 b0bc
000003f0: efda 81bd 5b2b 9fbd 5a98 4a3e 9a52 733e
-0.3165313 0.09501574 0.07943847 0.08232747 -0.014546952 -0.15637282 0.5095639 -0.20237789
-0.47126472 0.053311434 0.014446785 0.3064863 0.28916213 0.055244427 0.5339236 -0.14952788
-0.14083628 0.33303195 0.5151581 -0.033054803 0.021346387 0.16672374 -0.015304956 0.16988908
0.18790182 0.17927021 0.26371735 0.35317254 0.21614005 0.018859606 -0.36134464 0.015230153
0.517352 -0.27330393 0.18895298 -0.4905984 0.41548342 -0.22501267 0.12873583 -0.018441388
0.06755495 -0.025026789 0.058069132 -0.023183117 -0.02834216 -0.06947986 -0.03610999 0.001578053
0.5553367 0.81701624 -0.47943494 -0.030680602 0.4261895 -0.008266753 0.021387327 -0.01984185
-0.04595435 0.13493699 0.0038330979 0.12756301 0.32581183 -0.4783708 -0.022063881 -0.35414025
0.04709514 -1.0166398 0.31274533 -0.07649337 0.6721016 -0.3779808 -0.42347044 0.14750592
0.21446872 0.030206287 -0.34724966 -0.24487895 0.117756225 0.12101776 0.33764884 0.08698158
0.22476722 -0.15837291 -0.45718205 0.18932012 0.18815374 -0.69202304 0.32373422 0.045682885
-0.2769533 0.009571677 -0.081870615 -0.07098742 -0.14196187 0.23896177 -0.3080345 0.009961344
-0.19681771 -0.03622645 -0.1212103 -0.35681987 -0.06388039 -0.42103574 0.16554008 -0.22798969
0.25157237 0.043545876 0.2169332 0.19528571 0.17406242 -0.11075525 0.1210249 0.012027132
0.232566 0.29369548 -0.0022039488 0.09577418 -0.08631745 -0.15393257 -0.04308979 0.03843944
-0.19212495 0.22210725 0.06494655 0.07713073 -0.09794339 -0.08328138 0.55534714 -0.09571895
-0.016846754 -0.48764825 -0.011744641 0.58883595 -0.018612895 -0.07785144 -0.5697962 0.29153916
-0.2676428 0.45197287 -0.25154334 -0.16916785 0.23974006 -0.3088438 0.056527328 -0.014728249
0.058272596 -0.0872071 0.15027076 0.019097744 0.30673513 0.09721768 -0.17695352 -0.021327656
-0.13853404 0.0005056006 0.16470253 0.056032486 -0.06386961 -0.020559758 -0.12560165 0.639812
0.19764303 0.008769434 -0.678808 -0.017129146 -0.5971156 0.40267864 0.08373347 -0.04207773
-0.116730206 0.25434148 -0.21696882 -0.3194105 -0.028425071 -0.11141757 -0.056353092 0.357633
-0.20043367 0.14823014 0.0931352 0.14599104 0.28431568 0.24926083 -0.17829847 0.000542397
-0.07196166 0.0050826906 -0.042916477 0.08242669 -0.062476866 0.052492525 -0.22504526 -0.23520088
0.8212995 -0.16843286 0.038334835 -0.7867817 0.03429221 0.1985618 -0.044469222 -0.18166004
0.26478958 -0.029772988 0.021651719 0.12329898 0.5548286 -0.0993938 -0.28167382 -0.076559134
0.032084737 -0.111935414 -0.11677968 0.15962204 0.16746396 -0.5308042 -0.18520764 -0.18345045
-0.2426113 0.120613344 -0.09370329 0.04466539 -0.08312689 0.16770197 0.13393512 -0.27276918
-0.07090247 0.33629116 0.4049169 0.01482043 -0.26556328 -0.027319385 0.8040631 -0.1606557
-0.1041557 0.428325 -0.31958944 -0.055448852 -0.47917038 -0.0065535083 0.09704471 0.0017823118
-0.26958963 -0.0418598 -0.1401149 0.06074087 0.3238777 0.12515107 -0.43394828 0.4495574
0.25207695 0.25465646 0.10845141 -0.021502502 -0.063405864 -0.07771941 0.1978468 0.23761979

fcs1.bias f4 [400]
00000000: 5777 d0be 3fc6 d1be c85a 65bd 189d 01bf
00000010: 9301 51bf c7a7 6fbf d21e e0be a847 ddbc
00000020: 9185 51bf f39f 0fbf d28b 06bf 49c6 30bf
00000030: 30af babe aea2 2bbf e108 60bf 8b30 7ebe
00000040: 8bb9 65bf 3b4e f2be dcd8 03bf 500f 0fbf
00000050: 7666 31bf 843d 18bf 8258 1dbf d744 52bf
00000060: f99f b0be f4b4 2fbf d2ce c6be b407 72be
00000070: a721 6cbf 48ec 1abf 7848 3abf a6e9 c9be
00000080: 7559 1bbf fe33 94be 5925 52bf f7ee 21be
00000090: 67f6 76bf 6e1e 66bf 55b9 abbd fd96 41bf
000000a0: beea 78be 227c f0bd d2fe 71bf 359e 18bf
000000b0: 51cd b0be 8ea7 4dbe a85d babe 125a eabe
000000c0: c980 0dbf bf11 7abf 0f98 eabe c5fb 97be
000000d0: 1d44 49bf 8a5c 94be 43e1 b8be 9b1d c2bd
000000e0: ad25 2dbf a8d6 41bf f2d1 12bf d835 afbe
000000f0: b420 3abf c642 3fbf 486d bdbe 1f63 2ebe
00000100: e270 70bf 8e6b 22bf 70d7 0abf 8de0 dbbe
00000110: ced2 3bbf d59b 84be 6dfc f9be e713 7fbd
00000120: 1563 24be d6c8 31bf c8cb adbe dcac eebe
00000130: 0b47 14bf 2ba8 14bf cb28 87bd 9393 4ebf
00000140: 15dd d9be 1538 c9be a5de 06bf 3d6f 24bf
00000150: d469 3bbf 12ff 6abb e7a7 68bf e415 09be
00000160: 5da4 06bf a270 84bf 586a 8fbe a415 43bf
00000170: f4bb 5fbf 6c44 80bf 69d4 3bbf 59bc 55bf
00000180: fb8b 08bf 2e73 02bf fbcf dbbe 182c 0bbf
00000190: a41d 54bf 18fd e8be 57ea a6be 845a 96be
000001a0: 5f97 7ebe 9131 d8be 785c 6b3d 1ce1 20bf
000001b0: 66c2 8dbf c295 d1be f06c e8be 6e92 19be
000001c0: 3f11 7bbf 35ff 46bf 3574 b1be 0cf0 aebe
000001d0: 16f1 1cbf 02c2 b6be f726 77bf fcc5 09bf
000001e0: f4d7 8cbf 5b0f 11bf 7ea5 aabe 6246 5cbf
000001f0: 634e 82bf 66e5 c6be 7174 c8be dc01 70be
00000200: 8350 0fbf 0a3c 20bf f35b 5fbe 6048 7ebe
00000210: 0bd7 f6be 655d 8ebf 85e8 d5be aeec 13bf
00000220: 1e54 05bf a72c d4be 31df 16bf 73b9 02bf
00000230: b7c2 54be ccd9 95be 494b aebe a7bb edbe
00000240: 7bd2 20bf 0509 9ebe ffc3 17bf df0c 5dbf
00000250: 5c84 68bf d9e5 28bf 27be 8bbf 69fa 01bf
00000260: 6a16 33bd a7ab 3dbf 3dd5 38bf 15e7 2fbf
00000270: 1ef3 1abf 1079 fcbe 579d f4be b6e9 24bf
00000280: 8410 37bf 137f 20bf af96 a8be efd5 36bf
00000290: 2431 063e 12a7 22bf 2fff 43bf b5d4 72be
000002a0: 7f1f 34bf 7d9f 11bf e358 e1be 7414 0ebe
000002b0: 35d6 77bf e00b e6be 2a6b 51bf 808d 0bbf
000002c0: f0dc 3cbf 0c83 31bf b177 53bf c002 34bf
000002d0: 78f0 70bf 4067 6fbf 7c08 5ebf 1134 e5be
000002e0: d767 35bf 9e3b cebe 86c1 bebe b592 cfbe
000002f0: 9a6d 9bbe 7607 02bf fd0f 26bf 6382 3bbe
00000300: ddc8 b5be 5d27 c3be e047 edbe 7ac9 4abf
00000310: 546b 7cbf 8923 efbe a12a 23bf 05a1 25bf
00000320: 035a 62bf 7f17 d4bd 6e0d 08bf bba2 1dbf
00000330: 9411 4dbf f7b4 f3bd a208 05bf f692 a1be
00000340: ed8a 35be 170f 11be 137e 4bbf 1a86 06bf
00000350: 81b7 32bf 9611 09bf c800 1cbf 1d0f 6cbe
00000360: ba9a 8bbe 8e97 a1bd ff32 b5be 87f5 e1be
00000370: b73f 1bbf 928d 15bf 8c6c 1abf 036e fcbe
00000380: 3d6a 99be 3a00 44bf 35af 74bf 813b 16bf
00000390: 8f55 81bf b5a4 44bf 205a 86bf 5e64 2abf
000003a0: ff92 10bf 5ae0 88be 2e64 92be c966 36bf
000003b0: a656 1ebf db05 26bf 73bb 57bf 9c46 33be
000003c0: bedc 6dbf 0c5c 76bf d57e dbbe 6278 13bf
000003d0: 8dfb 24bf ce4c 4abe 54b1 7dbd 7b6e 03bf
000003e0: 6a00 d6be 7708 e6be ed73 45bf 4a0a 43bf
000003f0: ed96 8abe 7c0e d5be bef4 18bf 3316 c3be
-0.4071605 -0.40971562 -0.05599478 -0.5063033 -0.8164303 -0.9361538 -0.43773514 -0.027011707
-0.8184443 -0.5610344 -0.525571 -0.6905256 -0.36461782 -0.67045105 -0.8751355 -0.24823205
-0.8973624 -0.4732531 -0.51502776 -0.5588274 -0.6929697 -0.59468865 -0.6146318 -0.8213629
-0.3449705 -0.6863549 -0.38829666 -0.23635751 -0.9223885 -0.60516787 -0.7276683 -0.39436072
-0.60683376 -0.28945917 -0.8208824 -0.15813814 -0.9646973 -0.8989018 -0.08384959 -0.75621015
-0.24308297 -0.117424265 -0.9452945 -0.59616405 -0.34531644 -0.20083448 -0.3639958 -0.45771843
-0.55274636 -0.9768333 -0.45819137 -0.29684272 -0.7861956 -0.28976852 -0.3610936 -0.09478303
-0.67635614 -0.75718164 -0.573516 -0.34220767 -0.7270615 -0.74711263 -0.36997437 -0.17029999
-0.93922246 -0.63445365 -0.5423498 -0.42944756 -0.7336854 -0.2590014 -0.48825398 -0.06227484
-0.16053422 -0.69447076 -0.33944535 -0.46616256 -0.579209 -0.58069104 -0.065995775 -0.8069393
-0.42551485 -0.393006 -0.5268348 -0.64232236 -0.73208356 -0.00358576 -0.908812 -0.13387257
-0.5259455 -1.0346873 -0.2801082 -0.76204896 -0.8739617 -1.0020881 -0.7337099 -0.8349052
-0.53338593 -0.50957 -0.42932114 -0.54364157 -0.8285773 -0.45505595 -0.32600662 -0.29365933
-0.24862431 -0.42225316 0.057461232 -0.6284349 -1.1074951 -0.4093457 -0.45395613 -0.14997265
-0.9807319 -0.77733165 -0.3465897 -0.34167516 -0.6130537 -0.3569489 -0.9654383 -0.53817725
-1.1003404 -0.56664056 -0.33329386 -0.86044896 -1.0180172 -0.38846892 -0.39151338 -0.2343821
-0.55982226 -0.6259161 -0.2181242 -0.24832296 -0.4821094 -1.1122252 -0.4177896 -0.5778302
-0.5208148 -0.41440317 -0.58934313 -0.51064223 -0.20777403 -0.29267728 -0.34041813 -0.4643223
-0.6282117 -0.30866256 -0.5928344 -0.86347765 -0.90826964 -0.6597572 -1.0917405 -0.5077272
-0.043722548 -0.74090046 -0.72200376 -0.6871198 -0.6052722 -0.49311113 -0.4777629 -0.64419115
-0.71509576 -0.626939 -0.32927462 -0.71420187 0.13104683 -0.6353618 -0.76561254 -0.23713954
-0.7036056 -0.56883985 -0.44013128 -0.1387499 -0.9681123 -0.44930935 -0.81804144 -0.54512787
-0.73774624 -0.69340587 -0.8260451 -0.70316696 -0.94116926 -0.9351692 -0.86731696 -0.44766286
-0.7086157 -0.4027986 -0.37257022 -0.40541616 -0.30357057 -0.50792634 -0.64868146 -0.18311457
-0.3550481 -0.3811597 -0.463439 -0.7921368 -0.9860127 -0.467068 -0.6373692 -0.6469882
-0.88418597 -0.10356044 -0.5314549 -0.6157643 -0.8010495 -0.11899751 -0.519663 -0.31557435
-0.17728777 -0.14165913 -0.7948925 -0.5254837 -0.69811255 -0.5354246 -0.6093869 -0.2305264
-0.27266484 -0.07890235 -0.3539047 -0.44132635 -0.60644096 -0.58419144 -0.6032188 -0.49302682
-0.29963866 -0.76562846 -0.95579845 -0.58684546 -1.0104235 -0.76813823 -1.0496254 -0.665594
-0.564743 -0.26733667 -0.28592056 -0.7125059 -0.61850965 -0.64852685 -0.842704 -0.17507404
-0.9291495 -0.962342 -0.42870203 -0.57605565 -0.64446336 -0.19755861 -0.06193669 -0.51340455
-0.4179719 -0.44928333 -0.77130014 -0.76187575 -0.27068272 -0.41612613 -0.59748447 -0.38102874

fc2.weight f4 [300, 404]
00000000: 09f8 09bd c760 16ba 3310 98bd e8cc 27bd
00000010: 6db4 30bd 2f04 62bd 0070 4dbd 17e8 833b
00000020: 84c0 bc3c c8e6 10be c632 09bd 04ac 07be
00000030: 2a21 353c c962 2dbc 1761 8abd eb1f 42bd
00000040: 6397 493d 3c3b babc 8660 823c 7ae5 683c
00000050: 3a98 803d 8f0c a53c 4a02 4ebd 7c94 c4bd
00000060: f773 263d 2bc7 e9bd ac7b 043d 70bb bdbd
00000070: e4ad 6dbd f204 e7bc c285 1b3d b106 2dbd
00000080: 1c16 e6bc 7843 ecb9 b6a5 e73c 758b 583c
00000090: 51e9 4cbd fe57 15bd 38a3 c3bd 87e0 0ebd
000000a0: a314 323d 7047 dcbd 5980 edbd c483 afbc
000000b0: fc15 68bd 0711 0bbd e148 fdbc 1bd8 04bd
000000c0: 1dfc 9c3d 639e 21ba 934e b6bd 56bc 08bd
000000d0: d132 98bd 2942 6fbd a93e f93a aca1 0dbe
000000e0: 0bf9 9b3c 7004 bcbd c2aa dfbd 96c0 0dbd
000000f0: 12ae 21bc 5d23 10be f1fa 17bd afc4 0ebe
00000100: 0ca0 4f3d b0df 8b3c cbdc 82bd d8ee eabc
00000110: 63d6 0a3d f304 2ebd c062 ce3a af32 08bd
00000120: a9b1 e93b 57c0 8fbd cde0 e0bc f96e a0bc
00000130: 220d e1bd aca9 8abd 8023 a8bd 4fc2 0cbd
00000140: 5d7a 81bd 3f2f 1dbb c8c4 41bd 66e9 c7bd
00000150: e5de 05be 228e 33bd 80f6 273b f064 9ebd
00000160: 6a42 e53a 4d72 71bd 6592 2a3c dfd1 a3bd
00000170: b40c ba3b 1478 bebd fc83 b0bd e047 91bc
00000180: 2308 f4bd 13a8 9abd f14f 2cbd 0344 60bc
00000190: a664 d9bc 852f 86bc e798 0abe 292b 0b3d
000001a0: 6f12 97bd 2ff5 b7bd 745a a6bc 21ca e7bd
000001b0: 2333 11bd 1fe5 96bc 1a5a 493d b51d 91bd
000001c0: c58d 0bbd de96 fabd 933e acbd de34 74bd
000001d0: ec4f 7cbd d74d f7bd 36da 9ebd 4c74 d5bd
000001e0: fa6c 0bbd 6ec6 49bd d000 a43c 7b89 443c
000001f0: de54 5abd baf7 dcbb c72e 0dbd 0a60 723d
00000200: 66d3 a3bc e5fc 0dbe 41df 0fbc 9deb b03c
00000210: 560d 153d 8286 89bd 37ef e13c c2d7 5cbd
00000220: 3a07 09bc 56d8 263d 73e9 98bd 0bf9 81bd
00000230: 0b7a bebd b3ac 033b 3721 163c 4e63 05be
00000240: 5da5 573d 40a2 f7bd 985f e9bc c07b 6abc
00000250: 746b 883c 9d31 d8bd 6730 3abc 0edc d3bc
00000260: 0910 3ebd 298b bfbc a4e1 bdbc d1d3 45bd
00000270: 7a47 5fbd cf05 debd 7943 e1bc 6076 d83c
00000280: db26 0a3c bade 04bc 9236 0bbd 81f9 79bd
00000290: 43d7 8fbd 1566 5238 dd0f df3c a731 94bd
000002a0: 80e8 37bd bb6c 8bb8 1f6e 1c3c ebb1 f8bd
000002b0: 4abf 56bd 0055 23bd cd5e 11bc 232c 19bd
000002c0: 4cc8 783d e8d4 663c b6ff 5dbd 92c1 013d
000002d0: 51e8 7cbc c389 073d 5c14 f13c 36de 1fbd
000002e0: 9c22 193d e8f8 2cbd db68 25bd 5b97 dbbd
000002f0: 19d3 323d 0755 77bc 7f09 5bbd 3e2a 8d3b
00000300: 107a 2ebd 9a7a 13bd 2041 3e3d b32c ab3d
00000310: ef76 c0bc d55d 95bd aea0 06bd 0125 243d
00000320: d954 993d c4c4 dfbc 78b5 cebc 688a e33c
00000330: 9841 3fbd cd80 50bd 770d 01be d0c4 20bc
00000340: fa39 b8bd 8a9f ee3b ccb3 8d3d 0138 cebd
00000350: 6296 0f3d e18c 4bbc c852 383d c967 8bbd
00000360: d86f b53c a90d 85ba b0ad 50bd 0e68 10bd
00000370: 323b 8fbb 4a3c 49bd 613b 7fbd caba 423c
00000380: 65b8 06bd 84e0 90bd 9f04 633c 8d9f a0bd
00000390: 20f0 993b dfc6 123b b25e 19bd 97b8 74bd
000003a0: 865e 9f3b 1245 1bbd df80 98bd 6527 f03b
000003b0: 5fae 2abd 1f76 99bd 3d99 193c 006a e5bc
000003c0: b760 cbbc 3f68 0bbd 31ab b6bc 7f35 bbbd
000003d0: 8f89 43bd 3237 b2bc 92a2 b8bd 2d51 983d
000003e0: 37aa d3bc e20d d8bd 50e9 88bc b8dc 7cbd
000003f0: 40d9 81bd e9a3 aabd 8cae 94bc 762c acbd
-0.03368381 -0.0005736467 -0.07424965 -0.0409669 -0.043140817 -0.05517977 -0.05015564 0.00402547
0.023041017 -0.14150536 -0.033495687 -0.13249213 0.01105527 -0.010582634 -0.067568 -0.04739372
0.04921664 -0.022733323 0.015915167 0.014214868 0.06279035 0.02014759 -0.05029515 -0.09598634
0.040637936 -0.114149414 0.032344505 -0.092642665 -0.058027163 -0.0282006 0.03796936 -0.04224271
-0.028086714 -0.00045063696 0.02827726 0.013216843 -0.050027195 -0.03646087 -0.09552616 -0.034882095
0.043476712 -0.10755813 -0.11596746 -0.021425135 -0.05666159 -0.033951785 -0.03091854 -0.032432657
0.07665274 -0.0006165264 -0.089017056 -0.033382736 -0.074315675 -0.058412705 0.0019015867 -0.13831204
0.019039651 -0.09180534 -0.10921241 -0.034607492 -0.009868162 -0.1407599 -0.03710455 -0.13942216
0.050689742 0.017074436 -0.06389769 -0.028678343 0.03389586 -0.04248519 0.0015745983 -0.03325146
0.0071317744 -0.07019108 -0.027450943 -0.019584166 -0.10988833 -0.067706436 -0.08209896 -0.034364995
-0.06322167 -0.002398446 -0.047306806 -0.09761314 -0.13073309 -0.04383672 0.0025629103 -0.07734096
0.0017491106 -0.058946896 0.01041088 -0.07999014 0.005677784 -0.09300247 -0.08618924 -0.017734468
-0.119156145 -0.07551589 -0.042068426 -0.01368809 -0.02653725 -0.016380081 -0.1353489 0.033976708
-0.07376563 -0.08982312 -0.020306803 -0.1131785 -0.03544916 -0.0184198 0.049158193 -0.07085744
-0.03407075 -0.12235807 -0.084103726 -0.05962073 -0.061599657 -0.12075394 -0.07756464 -0.104225725
-0.034039475 -0.049261503 0.020019919 0.0119956685 -0.053303592 -0.0067433985 -0.03446844 0.05917362
-0.019998264 -0.13866003 -0.008781255 0.021596724 0.03638967 -0.067151085 0.027579887 -0.0539167
-0.008363539 0.040733658 -0.07466402 -0.06346329 -0.093006216 0.002009195 0.0091631925 -0.13026163
0.052647937 -0.120914936 -0.028487965 -0.014311731 0.0166528 -0.10556338 -0.011364079 -0.025861766
-0.04640201 -0.023381786 -0.023178883 -0.048297707 -0.054511525 -0.10840952 -0.027497994 0.026423633
0.008432115 -0.008109743 -0.03398759 -0.06102896 -0.0702348 5.0162973e-05 0.027229244 -0.07236033
-0.044899464 -6.648289e-05 0.009547739 -0.1214331 -0.05242852 -0.039875984 -0.0088727 -0.037395608
0.060737893 0.014088847 -0.054198943 0.031678744 -0.015436248 0.033090364 0.029428653 -0.039030276
0.03738652 -0.042229563 -0.0403832 -0.10722228 0.04365835 -0.015095956 -0.053475853 0.004308014
-0.042596877 -0.036005594 0.046448827 0.08358135 -0.023494212 -0.07293288 -0.03286808 0.040074352
0.074868865 -0.027315505 -0.025233015 0.027775958 -0.046693414 -0.050904084 -0.12602793 -0.009812549
-0.08995433 0.007282202 0.06919059 -0.10069276 0.035055526 -0.012423725 0.04500082 -0.06806905
0.022148058 -0.0010151166 -0.05094689 -0.035255484 -0.0043710703 -0.04912976 -0.062312488 0.011885354
-0.032890696 -0.07074073 0.013856082 -0.07842932 0.0046978146 0.0022396368 -0.037443824 -0.05974635
0.004863563 -0.037907667 -0.07446455 0.007328915 -0.0416702 -0.07493233 0.009374914 -0.028004646
-0.02482639 -0.034034964 -0.022298427 -0.09141063 -0.047738608 -0.021754835 -0.09015383 0.07437358
-0.025838 -0.10549523 -0.016712815 -0.06173393 -0.06340265 -0.08332045 -0.018149637 -0.08406918

fc2.bias f4 [300]
00000000: ec5a 91bd e066 e4bb 9093 ebbd 2ea8 a3bd
00000010: 6cd9 a7bc 1c8d 3abd 303b d7bc b8bf b0bd
00000020: be70 c13a 8c7a 96bd 99e2 d33c 07a5 473b
00000030: 50e4 94bd 4b44 c9bc 40a4 663e dbc7 d7bd
00000040: f413 a2bd 9a75 fcbd f1b8 7abd b056 1fbd
00000050: e845 23bc b1c4 acbd e70d 2ebd be2f bfbd
00000060: 3ff4 babd ebdf 0e3f 5883 aabd a340 5abd
00000070: eb6e 403b 4625 83bd d8f9 0d3f 374a b5bd
00000080: 7a37 b3bd b641 b0bd 922f 3ebd 7ed0 abbd
00000090: dabb 213d 03ec afbd 5a9b a2bd e9ac 72bd
000000a0: e026 c5bd ef55 d0bd 4a9b 00bd 31e5 4fbd
000000b0: c11f 7cbd adf1 7abd d373 98bd f590 73bb
000000c0: 4994 133e 3605 3bbd a0a7 a5bc 9907 4ebd
000000d0: c8c2 19bc 4c4f 00bd cbd1 02bd c9e4 05bc
000000e0: 3956 c5bc 12d4 74bd cc48 b3bd 5ce1 913b
000000f0: e764 79bd 8861 d03d 964d cdbd 5333 6eba
00000100: fd8d 2ebd e76a 87b8 b860 c1bc 3589 b9bd
00000110: 3565 cebd 1b3b ecbc cb5f a2bd 2331 64bd
00000120: f0ed c5bd 5dde b83c 14e1 babd 48ce a4bd
00000130: 0a5a c1bd ab1d 92bd 1bcd 423e a696 f9bc
00000140: 171d 8abc 6fb8 09bc c900 45bd d0ff f3bc
00000150: 1af0 b6bd 9d70 eebd 90e5 99bd 7f6e 2fbd
00000160: 5d44 1abd 0842 02be cefa 84bd f62b d0bc
00000170: aff1 23bd fe3a a2bd a641 39bd 4ad9 d9bd
00000180: 7ee5 44bd 3738 6dbd 1d6c b7bd f822 9abd
00000190: 352e d9bc 2079 7ebd 904f 1bbd c13d f5bc
000001a0: 4b4d 34bd 471c 77be 3465 44bd 3f76 cebd
000001b0: 47a6 8abd 323d 19bc f989 193c 634f cebb
000001c0: 6e1a 04be 5ef7 b7bd 7b90 253c 8b97 a3bd
000001d0: e985 c3bd 9d69 43bd 5246 9f3e fad2 c6bc
000001e0: 47f3 cebd 4013 18bd b2a8 853c 25aa 57bb
000001f0: 0ba7 92bd 46bb 0dbd 98d0 3dbd d9bf 62bd
00000200: 16d6 4abc b35a d3bd 9961 84bd d700 c8bc
00000210: aeb2 c5bc 73f8 2ebd b2b6 e7bd 6085 61bd
00000220: e174 fdbd 8640 a9bd d1fd 28be fc52 5fbd
00000230: 1dbf 3bbd dbfd 33bb 6bdb c5bd 9c32 eabc
00000240: 2ab9 42bc fda3 e7bd 1650 88bd 8a03 84bd
00000250: ac6c e9bd 790b 52bd cada 11be c289 27bd
00000260: 8819 00be ccab e7bd db1c acbd b6a2 c0bd
00000270: 8a51 dfbd a2e9 debc 8c9f e3bd 22ef abbc
00000280: 83e8 99bd 91a9 e9bd a27a bdbc feea d0bd
00000290: fc7a edbd 4982 46bd a402 cbbd 5ccf 5cbd
000002a0: 6945 97bd 7a05 bfbd 9363 0ebd e655 21bd
000002b0: 88ed 6cbc 67a8 8dbd fb41 e7bd 036d 25bd
000002c0: 99a4 9cbd 3ff5 20bd e6d6 943a 26be 98bd
000002d0: bf67 adbe 8a15 b0bd 5bee 82bd 0b26 93bd
000002e0: 1b8a 9c3e 3290 82bc 2204 bbbb d568 78bd
000002f0: b1d4 9cbd 0c0d 0cbd f503 45bc 6aeb 3dbd
00000300: 1bbb 96bc 3afa 17bd 67df 36bd e229 24bc
00000310: 5c7c 93bd 4796 85bd a9eb c6bd 8a77 c2bc
00000320: 9304 0abd 3147 b93e 1a5c 02bd d29d 82bd
00000330: 75de f6bd 6a25 5bbd a4f8 ecbc 704c 2bbd
00000340: 8650 ccbc a57e 31bd bbd4 a3bd 2140 d3bc
00000350: 5332 55bd 9930 29bd 186f e8bd b292 e2bd
00000360: 8694 a4bd 3104 a9bd bf78 80bd b13f 2ebc
00000370: e8b8 92bd 1921 a1bd e01a 3cbd dde4 9cbd
00000380: 6f45 6e3e 30ff 50bd 63dd 9bbd c958 88bd
00000390: 221b 93bd 5f90 c7bc 52bf 2ebc da31 75bc
000003a0: fc28 00bc ccea 55bd 1ad8 173c 3d0a 59bd
000003b0: 3479 efbd ab9e 87bc 0cd2 aabd 7a36 dabd
000003c0: 6124 b4bd 9adf 3cbd 63b9 1bbd e314 763b
000003d0: d9f3 d0bd 5780 87bd 8be4 923e 50d6 17bd
000003e0: 9098 4ebd 7c51 0abd 0f7e 89bd 3f1b b0bd
000003f0: c923 2bbd 8e48 20bd ecdf 6fbd 2f11 3ebd
-0.0709742 -0.0069702715 -0.11502755 -0.07991062 -0.020489417 -0.04554473 -0.02627334 -0.086303174
0.0014758331 -0.07347593 0.025864886 0.0030463354 -0.0727011 -0.024568697 0.22523594 -0.10536166
-0.07913962 -0.12327118 -0.06121153 -0.03890103 -0.009965397 -0.084359534 -0.042493727 -0.09335278
-0.091286175 0.5581042 -0.08325833 -0.0532843 0.0029362987 -0.06403594 0.55459356 -0.08852046
-0.08750816 -0.08606283 -0.046432085 -0.08389376 0.03948579 -0.085899375 -0.07939787 -0.05924693
-0.096265554 -0.101726405 -0.031398095 -0.050755683 -0.06155372 -0.061265636 -0.07443967 -0.0037165259
0.14412035 -0.045659266 -0.020221531 -0.050300214 -0.009384818 -0.031325623 -0.031938355 -0.008172222
-0.024088966 -0.05977256 -0.08754119 0.0044519138 -0.060887244 0.101748526 -0.10024564 -0.00090866274
-0.04261588 -6.457214e-05 -0.02360569 -0.09059373 -0.100778975 -0.028836777 -0.07928427 -0.055710923
-0.096645236 0.022566969 -0.091249615 -0.080471575 -0.09441002 -0.07134565 0.19023554 -0.030467343
-0.016859574 -0.008405789 -0.048096452 -0.029785067 -0.089325145 -0.11642573 -0.07514489 -0.042829987
-0.037662853 -0.12720501 -0.0649315 -0.025411587 -0.04002541 -0.07921408 -0.045228623 -0.10637148
-0.048070423 -0.05791494 -0.08956168 -0.07526201 -0.026511291 -0.062127233 -0.037917674 -0.029936673
-0.044019025 -0.2413188 -0.047948077 -0.100811474 -0.06769996 -0.009352969 0.009371274 -0.0062960847
-0.12900707 -0.089827284 0.010105248 -0.07987889 -0.09547026 -0.047708143 0.31108338 -0.024270523
-0.10104995 -0.037127733 0.016315792 -0.003290781 -0.07160767 -0.034602426 -0.04634151 -0.05535874
-0.012380144 -0.10320034 -0.06463928 -0.024414463 -0.024133053 -0.04271741 -0.11314143 -0.055058837
-0.123758085 -0.0826426 -0.16503073 -0.0545225 -0.045836557 -0.0027464542 -0.09660991 -0.028588586
-0.011884967 -0.11310575 -0.066559 -0.064459875 -0.11397681 -0.051280472 -0.14243618 -0.04090286
-0.1250974 -0.113120645 -0.08403941 -0.09406035 -0.10904224 -0.027211014 -0.111144155 -0.02098805
-0.07515051 -0.11409295 -0.023129765 -0.10201071 -0.11595723 -0.048464093 -0.09912613 -0.05390869
-0.07386286 -0.093272164 -0.03476293 -0.03938856 -0.014460929 -0.06916886 -0.11291882 -0.040387165
-0.07648582 -0.039296385 0.0011355549 -0.07458143 -0.33868214 -0.08597858 -0.06393119 -0.071849905
0.30574116 -0.015937898 -0.00570728 -0.06064685 -0.07657755 -0.03419213 -0.012024869 -0.046367086
-0.018399766 -0.03710387 -0.044646647 -0.010019751 -0.07201454 -0.06522804 -0.09712917 -0.023738641
-0.03369577 0.36187127 -0.031826116 -0.06377758 -0.12054149 -0.053502478 -0.028927155 -0.041820943
-0.02494074 -0.04333367 -0.079995595 -0.025787415 -0.052049946 -0.041306112 -0.113493145 -0.11063136
-0.08036141 -0.082527526 -0.062730305 -0.010635302 -0.07164174 -0.07867641 -0.045924067 -0.0766084
0.23268674 -0.051024616 -0.076105855 -0.066575594 -0.071829095 -0.024360834 -0.0106657315 -0.014965499
-0.007822271 -0.052225873 0.009267831 -0.05298828 -0.116930395 -0.016555151 -0.083408445 -0.10654922
-0.08796001 -0.04611168 -0.038018595 0.003754907 -0.1020276 -0.06616276 0.2868999 -0.03706962
-0.050438464 -0.033769116 -0.06713497 -0.08598947 -0.041782174 -0.039131694 -0.058563158 -0.046403106

fc3.weight f4 [1, 300]
00000000: 3cd9 87bb bec1 32bb 4941 d93c 895e ecbc
00000010: 79be 96bc a53b 233d 3c65 e23b c641 fdbb
00000020: 4bc9 90bb 7341 113b d095 f8bc bad5 c33b
00000030: e1b3 093c 0ce5 aa3c 4a01 173d 4e17 04bd
00000040: a2ae d13b 397d 633c dc73 4fbc 7236 e3bc
00000050: 13d0 bfbc 42c8 7abc 5413 73bc e81e 4f3c
00000060: cda8 5cbc 5069 c43c 95e9 2b3b 3130 383c
00000070: 362b 0cbc e6ba 8c3b a0a4 dd3c 6872 0c3c
00000080: 0b95 f93b e7fc 1dbc 7178 d5bc 8555 953a
00000090: 4789 1f3c eb7d b33c 1e31 50bc 3483 6c3c
000000a0: 456d b23c 16b6 a5bc 9494 ecbc 69e0 e43c
000000b0: 88c7 f33b 5c34 aabb 361c c8ba 615b f8bc
000000c0: 5f5c 3cbc a24e 4bbc 3686 883b 352c 2f3c
000000d0: f4d7 77ba 4fa6 e1bc 7ef5 193c b56c 343b
000000e0: 31d7 dd3c 4dbe 86bc 64cc 9d3b 4bb5 00bc
000000f0: de53 e13c 03ce 3abc 15e2 1c3b c051 133b
00000100: 48d8 c1bb e912 68bc 2f47 c33c 5054 953c
00000110: 698d 48bc 7a41 73bc 3a20 0dbd 4845 3cbc
00000120: 3b8a 04bc 7942 f7bc 0d8a b13c f14f 8d3a
00000130: 629d c7bc 48bd a0bb bb39 7f3d 7490 5cbc
00000140: 255e 3a3d c793 303c c405 3d3c 6915 b2bc
00000150: d837 7c3b dc5a 62bc ad8d 3c3c 3a3d 483c
00000160: 9641 14bc a1ea 903c d536 f53c 62df deb9
00000170: 4675 2c3d e1a9 713c 08aa cfbc 5324 c63b
00000180: 9912 a0bc 1f44 3cbc f594 14bd 3afd 9ebc
00000190: bd49 24bc a85f ebba f18c 773c 3dfc 283c
000001a0: f630 8b3b aaee 22bc 3bae eabb 2fb3 543c
000001b0: 473a c93c e48b 023d 2b7c a2bc d388 ebbb
000001c0: b5c0 35bc 5140 b0bc 1728 8cbd b4bb e0bc
000001d0: f6a4 113c 40bb 533c 15cc 953c 28f9 bebc
000001e0: 6ff6 8abc 12ff 953c fcc0 9fbb 626f 71bc
000001f0: 9a72 973c 181a 4cbb da21 b1bc 48ef 1b3c
00000200: 8e6f 923c 43c5 923b c64f b63b ae38 a0bc
00000210: 4bf2 bebc fbe8 8bbc e53a 40bc b910 7cbc
00000220: 2ca0 403c b134 443b 26f5 b93c 1f92 873c
00000230: ebab d1bc c57d 2ebc a269 a43a 5639 8ebc
00000240: 8a7a 083c d031 a23c 742d 79bc 8b98 46bc
00000250: 3457 aebb 83e1 dc3a 9f86 713c feeb 303b
00000260: c415 b9bc 5b15 ca3c 1f1e 2c3c 78c1 95bc
00000270: 7223 e83b f04b d5bc 185f c73c 08b9 20bd
00000280: 94b3 ee3a adc7 d9bb 2a06 cebc a3b0 bf3b
00000290: 421c 9ebc fb5b 3b3c 54a4 3f3b 3e5b e7bb
000002a0: f1e9 de3c 6fb9 c73c 8dfd 633b cfa9 9abc
000002b0: be12 d03b e7a9 0e3d 66d0 f2bc 27be fb3c
000002c0: 107a 953c 49cb 663c 0575 d337 4b6c 52bc
000002d0: bd58 83bc d3e7 04bc c978 933c 086d 8b3c
000002e0: 8c5d b63c 2774 abbc 038e 003c c827 fabc
000002f0: 59ab d03c 77fc 0b3c fcc5 f33a 213c c93c
00000300: e907 f63b 5ff5 d2bc 92fd 40bc b77d 7fbc
00000310: c32d 90bc 0929 403b ea2a ff3b ccc0 f2bb
00000320: faf9 58bb ddba 0b3d 7ed0 0ebc 2037 aa3a
00000330: e875 94bc f1d2 dfbc 0ab7 ae3c 0050 943c
00000340: 19c8 4b3b 0ee9 69bc 2888 eabc 1460 73bb
00000350: 09b6 a9ba 082b 1c3c c187 22bc 433c adbc
00000360: 1cdc 073c 611e 77bc fbc2 043c 99dc 933c
00000370: 3d5e c93b b806 a83b ef1d 93bd 17a6 aa3b
00000380: 776d fc3c 86c3 55ba a32b 21bc 85dd e23c
00000390: 3c78 5b3b 3a44 883b dacf e2bc c2bf dabc
000003a0: 4ad2 c33c 6f70 d0bb 6b20 143c 8287 60bb
000003b0: 3b95 a3bc 9119 fe3b 0317 843b 47f0 c73b
000003c0: 3a9e 9f3c 0fd1 a53c a672 cabc fe6d e4b9
000003d0: 1236 443c 5bdb 69bc 9ae9 ff3c ce3d f6bc
000003e0: db8e 4bbc 8911 8f3b cfd1 72bc bca7 ab3c
000003f0: 391c c7bc d79d 33bc 80a4 07bc 7aa3 393c
-0.0041457694 -0.0027276124 0.026520388 -0.028853672 -0.018401371 0.039851803 0.0069090407 -0.007728788
-0.0044185272 0.0022164255 -0.030344874 0.005976406 0.008404703 0.020861171 0.036866464 -0.032248788
0.0063989917 0.013884836 -0.0126619 -0.027735922 -0.023414647 -0.015306534 -0.014836151 0.012641646
-0.01346798 0.023975998 0.0026231755 0.0112419585 -0.008555224 0.004294741 0.027056038 0.008572198
0.0076166443 -0.009642816 -0.026058408 0.0011393285 0.009737319 0.021910628 -0.012707023 0.014435578
0.02178062 -0.020228427 -0.028879441 0.027939038 0.0074395575 -0.00519423 -0.0015267197 -0.03031701
-0.011496632 -0.012408884 0.00416639 0.010691692 -0.0009454482 -0.027545122 0.009396909 0.0027530615
0.02708015 -0.016448164 0.004815625 -0.007855724 0.027505811 -0.011401656 0.0023938466 0.0022479147
-0.0059156753 -0.014164665 0.023837654 0.01822868 -0.012240746 -0.014847154 -0.03445456 -0.011491127
-0.008089597 -0.030183064 0.021672273 0.0010781271 -0.024367038 -0.0049053766 0.062310915 -0.013462175
0.04549994 0.01077742 0.011537019 -0.021738725 0.0038485434 -0.013815608 0.0115083875 0.012221629
-0.00904884 0.017690005 0.029933373 -0.00042509573 0.04210403 0.014749975 -0.025349632 0.0060468107
-0.019540118 -0.011490851 -0.03627487 -0.019407857 -0.010027346 -0.0017957585 0.015109287 0.010314045
0.00424778 -0.009944597 -0.007161883 0.012982174 0.024563922 0.03187169 -0.019834599 -0.0071879416
-0.011093308 -0.021515043 -0.06843584 -0.027433254 0.008889427 0.012923062 0.01828579 -0.023312166
-0.016963212 0.018310104 -0.0048753005 -0.014736028 0.018487263 -0.0031143483 -0.021622587 0.009517498
0.017875459 0.004479082 0.005563709 -0.019558277 -0.023308894 -0.017078867 -0.011732792 -0.015384846
0.011756938 0.0029938633 0.022699904 0.016549168 -0.025594672 -0.010650103 0.0012543688 -0.017361324
0.008329997 0.019799143 -0.015208591 -0.01212133 -0.005320454 0.0016851876 0.014741569 0.002699613
-0.022593386 0.024668386 0.010505228 -0.01828073 0.0070843035 -0.026037186 0.024337336 -0.03923896
0.0018211477 -0.0066461177 -0.025149424 0.005849914 -0.019300584 0.011435504 0.0029242234 -0.0070604375
0.027211161 0.024380414 0.003478858 -0.0188798 0.0063498905 0.03483 -0.029640388 0.03073032
0.01824668 0.014086553 2.5207652e-05 -0.012843202 -0.016033525 -0.008111912 0.01800193 0.017019764
0.022261404 -0.02092941 0.007846358 -0.030536547 0.02547233 0.008544079 0.0018598433 0.024564805
0.007508267 -0.025751768 -0.011779206 -0.015593938 -0.017599946 0.0029321334 0.007787098 -0.007408237
-0.0033107982 0.034113754 -0.008716701 0.0012986399 -0.018122628 -0.027322264 0.021327514 0.018104553
0.003109461 -0.014276756 -0.028629377 -0.0037136124 -0.0012947927 0.009531744 -0.009920062 -0.0211469
0.008292224 -0.0150829265 0.008103128 0.018049525 0.0061452673 0.005127754 -0.07183444 0.0052077877
0.030813916 -0.00081544404 -0.009837064 0.02769352 0.0033488413 0.004158524 -0.027687002 -0.026702765
0.023903985 -0.0063610594 0.009040932 -0.0034260456 -0.01996862 0.0077545126 0.0040310635 0.0061016413
0.019484628 0.020241288 -0.024712872 -0.000435695 0.011975782 -0.01427349 0.03123932 -0.030058768
-0.012424196 0.004366104 -0.01482053 0.020954005 -0.02430545 -0.010962925 -0.008278966 0.01133048
