checkpoints/checkpoint_critic_900.pth (torch, 543815 bytes, 5 tensors)

fcs1.weight f4 [400, 33]
0	0xbe2dc0f0	-0.16968131
1	0x3d1030f7	0.035202947
2	0xbe2567bc	-0.16152853
3	0xbd88d1f4	-0.066806704
4	0xbd8daebd	-0.06918094
5	0xbe01b8e2	-0.12668183
6	0x3f02f0d1	0.51148707
7	0xbdc4aa19	-0.09602756
8	0xbef4fc14	-0.4784857
9	0x3dec764b	0.11546
10	0xbe6dcae1	-0.23221923
11	0x3e3118a8	0.17294562
12	0x3edd4699	0.43217924
13	0xbd6ab721	-0.05730355
14	0x3ef11a7c	0.47090518
15	0xbe8c5ca2	-0.27414423
16	0xbe956525	-0.2917873
17	0x3e8b63e6	0.27224654
18	0x3f44a446	0.7681316
19	0x3e20b25e	0.15693042
20	0x3e5282cd	0.20557709
21	0x3ed707e1	0.419982
22	0x3e21335c	0.15742248
23	0x3e42ea88	0.19034779
24	0x3e8625b2	0.26200634
25	0x3e0eb0da	0.13934651
26	0x3e3e7265	0.18598326
27	0x3ef1d4b8	0.47232604
28	0x3e83bad0	0.25728464
29	0x3c9a7f76	0.018859606
30	0xbef603da	-0.48049814
31	0x3c7987e4	0.015230153
32	0x3f3c26d8	0.7349677
33	0xbe8ffb7a	-0.2812155
34	0x3e24bd9d	0.16087957
35	0xbf0bbf81	-0.54589087
36	0x3e929ce0	0.2863531
37	0xbe412982	-0.1886349
38	0x3e2fc7e9	0.17166103
39	0x3e2e6483	0.1703053
40	0xbd012760	-0.03153169
41	0xbe501b8a	-0.20323005
42	0xbe598039	-0.2124032
43	0xbdf48e65	-0.11941222
44	0x3dab20e6	0.08355884
45	0xbe26521d	-0.16242261
46	0xbd72986f	-0.059227403
47	0xbe079a13	-0.13242368
48	0x3f15e224	0.5854819
49	0x3f0e129e	0.5549716
50	0xbe92155a	-0.28531915
51	0xbdb4f73d	-0.088362195
52	0x3ec1d781	0.3785973
53	0x3e02cd88	0.12773716
54	0x3e54dfbf	0.20788477
55	0x3df18c0e	0.117942914
56	0xbde2a7e0	-0.11067176
57	0x3dc3520b	0.09537133
58	0x3dcce73e	0.100050434
59	0x3e33d626	0.1756216
60	0x3ee2d35d	0.44301882
61	0xbef87f7e	-0.4853477
62	0xbcb4bf50	-0.022063881
63	0xbef1546d	-0.47134724
64	0x3d40e6d5	0.04709514
65	0xbfd1fb5e	-1.6404836
66	0x3e87c8b6	0.26520318
67	0xbe560f08	-0.20904171
68	0x3f48f359	0.7849632
69	0xbe97cb52	-0.2964731
70	0xbe34d8d1	-0.17660834
71	0x3e888747	0.26665708
72	0xbd8444c7	-0.06458431
73	0xbd9f2e0a	-0.07772453
74	0xbf42480d	-0.7589119
75	0x3d50767d	0.05089425
76	0x3ea42107	0.32056448
77	0x3e629698	0.2212776
78	0x3efe8b84	0.49715817
79	0x3daba7e5	0.08381633
80	0x3e935a48	0.28779817
81	0xbea5d085	-0.3238565
82	0xbf10a924	-0.5650809
83	0x3e220eb8	0.15825927
84	0x3e6e7ccc	0.23289794
85	0xbef869ea	-0.48518306
86	0x3e981354	0.29702246
87	0x3e415aba	0.18882266
88	0xbe8a2e1f	-0.26988313
89	0xbe340c2c	-0.17582768
90	0xbdfa2f30	-0.122160316
91	0xbe748243	-0.23877816
92	0xbe30803a	-0.17236415
93	0x3e22cf22	0.15899327
94	0xbeb1eaf8	-0.3474958
95	0x3c2334e8	0.009961344
96	0xbdef4ed2	-0.11684956
97	0xbd146230	-0.03622645
98	0x3da0b022	0.07846095
99	0xbef8f563	-0.48624715
100	0xbde6cf86	-0.11270051
101	0xbef233e8	-0.47305226
102	0xbba8eddd	-0.0051553086
103	0xbc31cc2a	-0.010851899
104	0x3f01ab69	0.50652176
105	0xbd705644	-0.05867602
106	0x3e64773e	0.22311112
107	0xbe223d26	-0.15843639
108	0x3e1164a4	0.14198548
109	0xbe91222a	-0.28346378
110	0x3e4c64b5	0.19960292
111	0xbe387868	-0.18014681
112	0x3eb5c7cd	0.35503998
113	0x3eca13f4	0.39468348
114	0x3d0556b4	0.03255339
115	0x3e806582	0.25077444
116	0xbed9e5d1	-0.42558149
117	0xbeb0f412	-0.3456121
118	0x3e0e047c	0.13868898
119	0x3e5d5158	0.21613061
120	0xbea8f60a	-0.33000213
121	0x3e64e9bc	0.22354788
122	0x3e2b9f31	0.16759945
123	0x3e268c10	0.16264367
124	0xbdccf624	-0.10007885
125	0xbd6b7321	-0.057482842
126	0x3f3066d7	0.6890692
127	0xbd313c3b	-0.04327033
128	0xbc8a0234	-0.016846754
129	0xbf1f123b	-0.6213719
130	0xbc406c98	-0.011744641
131	0x3ea87012	0.32898003
132	0x3d5cae16	0.05387696
133	0x3e7db27d	0.24775119
134	0xbf2d9cf5	-0.6781762
135	0x3e34e5e1	0.17665817
136	0x3e1f1340	0.15534687
137	0x3e110062	0.14160302
138	0xbea9dc15	-0.33175722
139	0xbdbb2928	-0.09138709
140	0x3e588386	0.21143922
141	0xbebc7cbf	-0.36813924
142	0x3e008131	0.12549283
143	0x3dd8f935	0.105944075
144	0xbe1e685e	-0.154695
145	0xbda1563c	-0.07877776
146	0x3eee3299	0.46522978
147	0x3c94b840	0.018154263
148	0x3e8ddb43	0.27706346
149	0x3ed0d17e	0.4078483
150	0x3ac4237c	0.0014964188
151	0x3dd69832	0.10478248
152	0xbe54a759	-0.20766963
153	0x3d9245ff	0.07142257
154	0x3e79df53	0.24401598
155	0x3d8fda68	0.070240796
156	0x3d146275	0.03622671
157	0x3e105ad4	0.14097148
158	0xbe397719	-0.18111838
159	0x3f3dc0ff	0.74122614
160	0x3e9eb32b	0.3099607
161	0x3c0fadac	0.008769434
162	0xbf47bca3	-0.7802221
163	0xbc8c526c	-0.017129146
164	0xbf410c64	-0.7540953
165	0x3eca9a7d	0.3957099
166	0xbe346670	-0.17617202
167	0xbdd4acf4	-0.10384551
168	0x3dc2a918	0.09504908
169	0x3e113473	0.14180164
170	0x3cc2a50f	0.023760347
171	0xbdd6f1d0	-0.10495341
172	0x3c5229cd	0.012827349
173	0xbd7466cc	-0.059668347
174	0xbdf819dd	-0.12114308
175	0x3ec15a9e	0.37764448
176	0xbd19473f	-0.03742146
177	0x3e9dc208	0.30812097
178	0x3dabef10	0.08395207
179	0x3e31f05b	0.17376845
180	0x3ebaa10a	0.36450988
181	0xbe953385	-0.2914087
182	0xbe7c5e4a	-0.24645343
183	0xbca5383a	-0.020168412
184	0x3e98d6fe	0.29851526
185	0x3d99976f	0.07499587
186	0x3e2bb852	0.16769531
187	0x3e9499bc	0.2902354
188	0x3cac0356	0.020997684
189	0x3da5ed5e	0.08101915
190	0xbe85cc66	-0.26132506
191	0xbeadabf8	-0.33920264
192	0x3f639658	0.8890128
193	0xbe7b29c3	-0.2452765
194	0x3d1d04fd	0.038334835
195	0xbf5ac030	-0.85449505
196	0x3d0c75fd	0.03429221
197	0xbdf9bfae	-0.12194763
198	0xbe08a9d7	-0.13346039
199	0xbe8798d2	-0.2648378
200	0x3eea33b1	0.45742562
201	0x3de0f335	0.10983888
202	0x3e0a76a6	0.13521823
203	0x3d593865	0.053032298
204	0x3e46cb2b	0.1941344
205	0xbe2622b9	-0.16224183
206	0xbed42d9a	-0.4144104
207	0x3e2f7fea	0.17138639
208	0x3c12c16f	0.008957251
209	0xbe40cdac	-0.18828458
210	0xbe6905fc	-0.22756189
211	0x3d46a98f	0.048501547
212	0x3eb50401	0.35354617
213	0xbefa581a	-0.4889534
214	0xbe74dbd2	-0.2391198
215	0x3ee25e47	0.44212553
216	0xbdb3205b	-0.08746406
217	0x3ca62a21	0.02028376
218	0xbc1347a1	-0.008989246
219	0x3d403cfe	0.046933167
220	0x3d482bbe	0.04886984
221	0x3df9573b	0.12174841
222	0x3e2311be	0.15924737
223	0xbe882c55	-0.26596323
224	0xbdfeb0f3	-0.12436094
225	0x3edb017d	0.42774573
226	0x3ec301e6	0.38087386
227	0x3c72d164	0.01482043
228	0xbeb6cb0b	-0.35701784
229	0xbcdfcce7	-0.027319385
230	0x3fb5e006	1.4208992
231	0xbe83e8fc	-0.2576369
232	0xbe4b2a32	-0.19840315
233	0x3ef73363	0.48281392
234	0xbea0ce86	-0.31407565
235	0xbde98228	-0.114017785
236	0xbed6e9e5	-0.41975322
237	0x3d25eef0	0.04051107
238	0x3c7f6bf2	0.015589701
239	0xbdd577fd	-0.104232766
240	0xbe9be860	-0.30450726
241	0xbd33f542	-0.043935068
242	0xbe1f6a01	-0.15567781
243	0x3d8bc57f	0.06824779
244	0x3eb1e041	0.34741405
245	0x397da95b	0.0002419105
246	0xbefafa43	-0.4901906
247	0x3e9b7896	0.30365437
248	0x3d3870d8	0.04502949
249	0x3e09bab7	0.13450132
250	0x3e55d507	0.20882045
251	0xbd4e232c	-0.05032651
252	0xbd906acb	-0.07051619
253	0xbd495a54	-0.04915841
254	0x3ea343c8	0.3188765
255	0x3e324a47	0.17411147

fcs1.bias f4 [400]
0	0xbf06bc86	-0.52631414
1	0xbf06e46b	-0.5269229
2	0x3cc463dd	0.0239734
3	0xbf23d8ae	-0.640025
4	0xbf6af7df	-0.9178447
5	0xbf807eb4	-1.0038667
6	0xbf077903	-0.52919024
7	0x3d39ebc0	0.045390844
8	0xbf883f98	-1.0644407
9	0xbf28b392	-0.65899
10	0xbf028557	-0.5098471
11	0xbf59d068	-0.8508363
12	0xbf313735	-0.69224864
13	0xbf38b4fc	-0.7215116
14	0xbf717732	-0.943225
15	0xbeab38f3	-0.33441886
16	0xbf9956bc	-1.1979594
17	0xbefdb404	-0.49551404
18	0xbf08d4c4	-0.53449655
19	0xbf2c47a2	-0.67296803
20	0xbf4319da	-0.7621132
21	0xbf23ddfc	-0.64010596
22	0xbf250f83	-0.64476794
23	0xbf8059a6	-1.0027359
24	0xbf095534	-0.53645635
25	0xbf6b9b9b	-0.9203431
26	0xbf1e0e8b	-0.6174094
27	0xbf0660a1	-0.52491194
28	0xbf87609e	-1.057636
29	0xbf488157	-0.78322357
30	0xbf76ad4e	-0.9635819
31	0xbe95e0d0	-0.2927308
32	0xbf59e0de	-0.85108745
33	0xbec792e4	-0.38979256
34	0xbf6b2379	-0.91851
35	0xbe1192e9	-0.14216198
36	0xbf95459e	-1.166187
37	0xbf92369b	-1.1422914
38	0xbed57945	-0.41694084
39	0xbf55acf5	-0.83467036
40	0xbeb80c2a	-0.3594678
41	0xbe714f3d	-0.23565383
42	0xbf96a5b2	-1.1769316
43	0xbf38efa8	-0.72240686
44	0xbf02cf55	-0.51097614
45	0xbe8105eb	-0.25199828
46	0xbf110dd3	-0.5666172
47	0xbf3a7d73	-0.7284767
48	0xbf325b46	-0.6967052
49	0xbf9a0600	-1.2033081
50	0xbf0df4cc	-0.55451655
51	0xbeb7f02d	-0.35925427
52	0xbf72ad02	-0.9479524
53	0xbe721ab5	-0.23643
54	0xbf06a49a	-0.5259491
55	0xbe3d642b	-0.18495242
56	0xbf3248f6	-0.6964258
57	0xbf541fa8	-0.82860804
58	0xbf3bd1e7	-0.7336716
59	0xbede9dd6	-0.43479794
60	0xbf7838db	-0.96961755
61	0xbf567d41	-0.8378487
62	0xbed18c98	-0.40927577
63	0xbe3f4cad	-0.18681593
64	0xbf8ae9f8	-1.0852652
65	0xbf4df347	-0.80449337
66	0xbf227210	-0.63455296
67	0xbf07c2ca	-0.530316
68	0xbf526d0e	-0.82197654
69	0xbed2b2f1	-0.41152146
70	0xbf2689b2	-0.65053856
71	0xbe179baa	-0.14805475
72	0xbe52eebb	-0.20598881
73	0xbf33eab0	-0.7027998
74	0xbebebd94	-0.37254012
75	0xbf160002	-0.5859376
76	0xbf5d54d3	-0.86457556
77	0xbf42efa2	-0.761469
78	0xbd824d4b	-0.06362399
79	0xbf901d02	-1.1258852
80	0xbef11dde	-0.470931
81	0xbf1c9778	-0.6116862
82	0xbeed41dc	-0.4633931
83	0xbf3b5e60	-0.7319088
84	0xbf4caa0d	-0.79946977
85	0x3d5f592f	0.05452841
86	0xbf89eec5	-1.0775992
87	0xbdd91bc9	-0.10601003
88	0xbf2b6dc7	-0.6696438
89	0xbfa5a417	-1.2940701
90	0xbec54aa7	-0.38533518
91	0xbf8b2ea0	-1.0873604
92	0xbf92fc41	-1.1483232
93	0xbfa05e8a	-1.2528851
94	0xbf77627b	-0.96634644
95	0xbf7cfddb	-0.9882485
96	0xbf132683	-0.5748064
97	0xbf1a90b8	-0.60377073
98	0xbf1b3799	-0.6063171
99	0xbf47748f	-0.7791223
100	0xbf950d15	-1.1644617
101	0xbf17b5e9	-0.5926195
102	0xbee1dcd8	-0.44113803
103	0xbe34e2f1	-0.17664696
104	0xbe8bc62f	-0.2729964
105	0xbf08d75e	-0.53453624
106	0x3d89e19b	0.06732484
107	0xbf61a185	-0.88137084
108	0xbfa47a75	-1.2849871
109	0xbef964a8	-0.48709607
110	0xbf227d13	-0.634721
111	0xbe0c16d2	-0.1368058
112	0xbf959a7b	-1.1687769
113	0xbf519784	-0.8187182
114	0xbee37762	-0.4442702
115	0xbecc613f	-0.39917943
116	0xbf252eee	-0.64524734
117	0xbf18fcaf	-0.59760565
118	0xbf866ae9	-1.0501376
119	0xbf373e3a	-0.71579325
120	0xbfb3d314	-1.4048791
121	0xbf5b314c	-0.85622096
122	0xbefee002	-0.4978028
123	0xbf873755	-1.0563761
124	0xbf9ef076	-1.2417133
125	0xbf0312c5	-0.51200515
126	0xbf1452d9	-0.57938915
127	0xbd8aeebf	-0.067838185
128	0xbf548ece	-0.830304
129	0xbf5adf9d	-0.85497457
130	0xbea1309b	-0.31482396
131	0xbea91031	-0.33020166
132	0xbf133106	-0.5749668
133	0xbfaa2925	-1.3293806
134	0xbf176a2f	-0.591464
135	0xbf3d366d	-0.7391117
136	0xbf1afabe	-0.6053885
137	0xbf0d9cac	-0.5531719
138	0xbf47fb73	-0.78118056
139	0xbf0a820d	-0.5410469
140	0xbe8f0eee	-0.27941078
141	0xbe7f9e35	-0.24962695
142	0xbf1dcebd	-0.6164358
143	0xbf0afe8e	-0.5429467
144	0xbf4bc6bf	-0.7960014
145	0xbead1fd6	-0.3381335
146	0xbf4c381c	-0.79773116
147	0xbf81427b	-1.0098413
148	0xbfb20dbc	-1.3910441
149	0xbf618c89	-0.88105065
150	0xbfa172ca	-1.2613156
151	0xbf1221da	-0.57082903
152	0xbe4d69f9	-0.20059957
153	0xbf5182f0	-0.8184042
154	0xbf702d30	-0.9381895
155	0xbf4afd5a	-0.79292834
156	0xbf5a0a5a	-0.85172045
157	0xbf1567ba	-0.583614
158	0xbf2b3705	-0.6688083
159	0xbf59c2f3	-0.85063094
160	0xbf70d1f9	-0.9407039
161	0xbf5f9e06	-0.873505
162	0xbebc9e4b	-0.36839518
163	0xbf6cf4b1	-0.9256087
164	0xbe051de9	-0.12999691
165	0xbf6ab1aa	-0.91677344
166	0xbf821ac6	-1.0164421
167	0xbeccb90c	-0.3998493
168	0xbf462ebf	-0.7741508
169	0xbf3be2d1	-0.7339297
170	0xbf255863	-0.6458799
171	0xbe4b6f61	-0.19866706
172	0xbfa81a36	-1.3132999
173	0xbf196ae3	-0.5992872
174	0xbf606f93	-0.8767025
175	0xbf2eb3c4	-0.6824305
176	0xbf7ad9ab	-0.97988385
177	0xbf5eda67	-0.87052006
178	0xbf99449c	-1.1974063
179	0xbf3838d6	-0.71961725
180	0xbf8234da	-1.0172379
181	0xbf8d63e2	-1.1046107
182	0xbf6e8ece	-0.9318665
183	0xbf0186fc	-0.50596595
184	0xbf674ab2	-0.9034835
185	0xbf12a8a7	-0.57288593
186	0xbecdf3da	-0.40225106
187	0xbf00eb3e	-0.5035895
188	0xbf1236d5	-0.5711492
189	0xbf34db94	-0.7064755
190	0xbf583764	-0.8445952
191	0xbe2fc3c3	-0.17164521
192	0xbed4d5fa	-0.415695
193	0xbf0e5650	-0.5560045
194	0xbf0b596b	-0.54433316
195	0xbf7aa640	-0.9790993
196	0xbf843b96	-1.0330684
197	0xbf3b8f63	-0.73265666
198	0xbf51c77f	-0.8194503
199	0xbf652f6b	-0.8952548
200	0xbf987ef9	-1.1913749
201	0xbbe0a838	-0.0068559907
202	0xbf39bc49	-0.72552925
203	0xbf70daf4	-0.94084096
204	0xbf9cce7e	-1.2250516
205	0xbea1aa52	-0.31575257
206	0xbf05f6e9	-0.5232988
207	0xbf11dd17	-0.5697798
208	0xbe87ab53	-0.26497898
209	0xbdf2bda9	-0.11852581
210	0xbf8283b1	-1.0196439
211	0xbf18d57d	-0.5970076
212	0xbf596242	-0.84915555
213	0xbf334b37	-0.70036644
214	0xbf5c3cce	-0.8603028
215	0xbe9cbdd1	-0.30613568
216	0xbe53e5a2	-0.20693067
217	0xbdd66200	-0.10467911
218	0xbefc506a	-0.492801
219	0xbf07d635	-0.5306123
220	0xbf59b0f6	-0.85035646
221	0xbf286179	-0.6577373
222	0xbf49985d	-0.7874811
223	0xbf114297	-0.56742233
224	0xbec70902	-0.3887406
225	0xbf714da8	-0.9425912
226	0xbf91431a	-1.1348603
227	0xbf3b60a8	-0.7319436
228	0xbf9e5708	-1.237031
229	0xbf51c5ce	-0.8194245
230	0xbf8fa4c7	-1.1222161
231	0xbf50f0bd	-0.8161734
232	0xbf1b8f49	-0.6076551
233	0xbec781a5	-0.38966098
234	0xbea01cc4	-0.31271946
235	0xbf63ee36	-0.89035356
236	0xbf217f5d	-0.63084966
237	0xbf53d5d6	-0.8274816
238	0xbf925554	-1.143229
239	0xbe6278dc	-0.22116417
240	0xbf9827cd	-1.1887146
241	0xbf958040	-1.1679764
242	0xbef3e7e3	-0.47637853
243	0xbf4affda	-0.7929665
244	0xbf3a0d09	-0.7267614
245	0xbe8d627c	-0.276142
246	0xbe8a1fa6	-0.2697727
247	0xbf277313	-0.65409964
248	0xbefe1a15	-0.49629274
249	0xbf139457	-0.57648224
250	0xbf3665b5	-0.7124894
251	0xbf6c80ea	-0.9238421
252	0xbee8c73e	-0.4546451
253	0xbf079e77	-0.52976173
254	0xbf62b26b	-0.88553494
255	0xbec27fdd	-0.37988177

fc2.weight f4 [300, 404]
0	0xbd09f809	-0.03368381
1	0xbce4fbcd	-0.0279521
2	0xbd981033	-0.07424965
3	0xbd27cce8	-0.0409669
4	0xbd30b46d	-0.043140817
5	0xbd62042f	-0.05517977
6	0xbd4d7000	-0.05015564
7	0xbcbaf1f7	-0.022820456
8	0x3cbcc084	0.023041017
9	0xbe10e6c8	-0.14150536
10	0xbd0932c6	-0.033495687
11	0xbe07ac04	-0.13249213
12	0x3c35212a	0.01105527
13	0xbc2d62c9	-0.010582634
14	0xbd8a6117	-0.067568
15	0xbd421feb	-0.04739372
16	0x3d499763	0.04921664
17	0xbcba3b3c	-0.022733323
18	0x3c826086	0.015915167
19	0x3c68e57a	0.014214868
20	0x3d13c539	0.036076758
21	0x3ca50c8f	0.02014759
22	0xbd4e024a	-0.05029515
23	0xbdc4947c	-0.09598634
24	0x3cac730c	0.021050952
25	0xbde9c72b	-0.114149414
26	0x3d047bac	0.032344505
27	0xbdbdbb70	-0.092642665
28	0xbd6dade4	-0.058027163
29	0xbce704f2	-0.0282006
30	0x3d1b85c2	0.03796936
31	0xbd2d06b1	-0.04224271
32	0xbce6161c	-0.028086714
33	0xbc742ab4	-0.014902759
34	0x3ce7a5b6	0.02827726
35	0x3c588b75	0.013216843
36	0xbd4ce951	-0.050027195
37	0xbd1557fe	-0.03646087
38	0xbdc3a338	-0.09552616
39	0xbd0ee087	-0.034882095
40	0x3d3214a3	0.043476712
41	0xbddc4770	-0.10755813
42	0xbded8059	-0.11596746
43	0xbcaf83c4	-0.021425135
44	0xbd6815fc	-0.05666159
45	0xbd0b1107	-0.033951785
46	0xbcfd48e1	-0.03091854
47	0xbd04d81b	-0.032432657
48	0x3d58b747	0.052909162
49	0xba219e63	-0.0006165264
50	0xbdb64e93	-0.089017056
51	0xbd08bc56	-0.033382736
52	0xbd9832d1	-0.074315675
53	0xbd6f4229	-0.058412705
54	0x3af93ea9	0.0019015867
55	0xbe27ace6	-0.1637455
56	0x3c9bf90b	0.019039651
57	0xbdbc0470	-0.09180534
58	0xbddfaac2	-0.10921241
59	0xbd0dc096	-0.034607492
60	0xbcf3863e	-0.029727098
61	0xbe10235d	-0.1407599
62	0xbd80057f	-0.06251048
63	0xbe0ec4af	-0.13942216
64	0x3d4fa00c	0.050689742
65	0x3c8bdfb0	0.017074436
66	0xbd82dccb	-0.06389769
67	0xbceaeed8	-0.028678343
68	0x3d0ad663	0.03389586
69	0xbd2e04f3	-0.04248519
70	0x3ace62c0	0.0015745983
71	0xbd0832af	-0.03325146
72	0x3be9b1a9	0.0071317744
73	0xbd8fc057	-0.07019108
74	0xbd07dcec	-0.033169672
75	0xbccdabc7	-0.025106324
76	0xbde10d22	-0.10988833
77	0xbd8aa9ac	-0.067706436
78	0xbda82380	-0.08209896
79	0xbd0cc24f	-0.034364995
80	0xbd817a5d	-0.06322167
81	0xbb1d2f3f	-0.002398446
82	0xbd41c4c8	-0.047306806
83	0xbdc7e966	-0.09761314
84	0xbe05dee5	-0.13073309
85	0xbd338e22	-0.04383672
86	0x3b27f680	0.0025629103
87	0xbd9e64f0	-0.07734096
88	0x3ae5426a	0.0017491106
89	0xbd71724d	-0.058946896
90	0xbc800cf4	-0.015631177
91	0xbda3d1df	-0.07999014
92	0x3bba0cb4	0.005677784
93	0xbdbe7814	-0.09300247
94	0xbdb083fc	-0.08618924
95	0xbc9147e0	-0.017734468
96	0xbdf40823	-0.119156145
97	0xbd9aa813	-0.07551589
98	0xbd2c4ff1	-0.042068426
99	0xbc604403	-0.01368809
100	0xbcd964a6	-0.02653725
101	0xbc862f85	-0.016380081
102	0xbe0a98e7	-0.1353489
103	0x3d0b2b29	0.033976708
104	0xbd97126f	-0.07376563
105	0xbdb7f52f	-0.08982312
106	0xbca65a74	-0.020306803
107	0xbde7ca21	-0.1131785
108	0xbd113323	-0.03544916
109	0xbd2e0151	-0.042481724
110	0x3d495a1a	0.049158193
111	0xbdb04c6a	-0.08608325
112	0xbd0b8dc5	-0.03407075
113	0xbdfa96de	-0.12235807
114	0xbdac3e93	-0.084103726
115	0xbd7434de	-0.05962073
116	0xbdb1b3a8	-0.08676845
117	0xbdf74dd7	-0.12075394
118	0xbd9eda36	-0.07756464
119	0xbdd5744c	-0.104225725
120	0xbd0b6cfa	-0.034039475
121	0xbd49c66e	-0.049261503
122	0x3c2d5909	0.01058031
123	0x3c44897b	0.0119956685
124	0xbd5a54de	-0.053303592
125	0xbbdcf7ba	-0.0067433985
126	0xbd4f11f0	-0.050554216
127	0x3d1f185e	0.038841598
128	0xbca3d366	-0.019998264
129	0xbe0dfce5	-0.13866003
130	0xbd108316	-0.035281263
131	0x3cb0eb9d	0.021596724
132	0x3d150d56	0.03638967
133	0xbd898682	-0.067151085
134	0x3ce1ef37	0.027579887
135	0xbd5cd7c2	-0.0539167
136	0xbcff1b38	-0.031140909
137	0x3d26d856	0.040733658
138	0xbd98e973	-0.07466402
139	0xbd81f90b	-0.06346329
140	0xbdccbfcd	-0.099975206
141	0x3b03acb3	0.002009195
142	0xbc8cc179	-0.017182099
143	0xbe05634e	-0.13026163
144	0x3d57a55d	0.052647937
145	0xbdf7a240	-0.120914936
146	0xbce95f98	-0.028487965
147	0xbc6a7bc0	-0.014311731
148	0x3c886b74	0.0166528
149	0xbdd8319d	-0.10556338
150	0xbc3a3067	-0.011364079
151	0xbcd3dc0e	-0.025861766
152	0xbd3e1009	-0.04640201
153	0xbcbf8b29	-0.023381786
154	0xbcbde1a4	-0.023178883
155	0xbd45d3d1	-0.048297707
156	0xbd5f477a	-0.054511525
157	0xbdde05cf	-0.10840952
158	0xbce14379	-0.027497994
159	0x3cd87660	0.026423633
160	0x3c0a26db	0.008432115
161	0xbc04deba	-0.008109743
162	0xbd0b3692	-0.03398759
163	0xbd79f981	-0.06102896
164	0xbd8fd743	-0.0702348
165	0x38526615	5.0162973e-05
166	0x3cdf0fdd	0.027229244
167	0xbd9431a7	-0.07236033
168	0xbd37e880	-0.044899464
169	0xb88b6cbb	-6.648289e-05
170	0x3c1c6e1f	0.009547739
171	0xbdf8b1eb	-0.1214331
172	0xbd56bf4a	-0.05242852
173	0xbd235500	-0.039875984
174	0xbc115ecd	-0.0088727
175	0xbd192c23	-0.037395608
176	0x3d78c84c	0.060737893
177	0x3c66d4e8	0.014088847
178	0xbd5dffb6	-0.054198943
179	0x3d01c192	0.031678744
180	0xbc7ce851	-0.015436248
181	0x3d0789c3	0.033090364
182	0x3cf1145c	0.029428653
183	0xbd1fde36	-0.039030276
184	0x3d19229c	0.03738652
185	0xbd2cf8e8	-0.042229563
186	0xbd2568db	-0.0403832
187	0xbddb975b	-0.10722228
188	0x3d32d319	0.04365835
189	0xbc775507	-0.015095956
190	0xbd5b097f	-0.053475853
191	0x3b8d2a3e	0.004308014
192	0xbd2e7a10	-0.042596877
193	0xbd137a9a	-0.036005594
194	0x3d3e4120	0.046448827
195	0x3dab2cb3	0.08358135
196	0xbcc076ef	-0.023494212
197	0xbd955dd5	-0.07293288
198	0xbd06a0ae	-0.03286808
199	0x3d242501	0.040074352
200	0x3d9954d9	0.074868865
201	0xbcdfc4c4	-0.027315505
202	0xbcceb578	-0.025233015
203	0x3ce38a68	0.027775958
204	0xbd3f4198	-0.046693414
205	0xbd5080cd	-0.050904084
206	0xbe010d77	-0.12602793
207	0xbc20c4d0	-0.009812549
208	0xbdd59ac5	-0.104299106
209	0x3bee9f8a	0.007282202
210	0x3d8db3cc	0.06919059
211	0xbdce3801	-0.10069276
212	0x3d0f9662	0.035055526
213	0xbcf989f1	-0.030461283
214	0x3d3852c8	0.04500082
215	0xbd8b67c9	-0.06806905
216	0xbb6e22ba	-0.0036336617
217	0xbcefe81f	-0.029285489
218	0xbd50adb0	-0.05094689
219	0xbd10680e	-0.035255484
220	0xbb8f3b32	-0.0043710703
221	0xbd493c4a	-0.04912976
222	0xbd7f3b61	-0.062312488
223	0xbc17dc3f	-0.009268819
224	0xbd06b865	-0.032890696
225	0xbd90e084	-0.07074073
226	0x3c63049f	0.013856082
227	0xbda09f8d	-0.07842932
228	0x3b99f020	0.0046978146
229	0xbc7627f5	-0.015024175
230	0xbd195eb2	-0.037443824
231	0xbd74b897	-0.05974635
232	0x3b9f5e86	0.004863563
233	0xbd1b4512	-0.037907667
234	0xbd9880df	-0.07446455
235	0x3bf02765	0.007328915
236	0xbd2aae5f	-0.0416702
237	0xbd99761f	-0.07493233
238	0x3c19993d	0.009374914
239	0xbce56a00	-0.028004646
240	0xbccb60b7	-0.02482639
241	0xbd0b683f	-0.034034964
242	0xbcb6ab31	-0.022298427
243	0xbdbb357f	-0.09141063
244	0xbd43898f	-0.047738608
245	0xbcb23732	-0.021754835
246	0xbdb8a292	-0.09015383
247	0x3d98512d	0.07437358
248	0xbcd3aa37	-0.025838
249	0xbdd80de2	-0.10549523
250	0xbc88e950	-0.016712815
251	0xbd7cdcb8	-0.06173393
252	0xbd81d940	-0.06340265
253	0xbdaaa3e9	-0.08332045
254	0xbc94ae8c	-0.018149637
255	0xbdac2c76	-0.08406918

fc2.bias f4 [300]
0	0xbdbe1f24	-0.09283283
1	0xbbe466e0	-0.0069702715
2	0xbdeb9390	-0.11502755
3	0xbda3a82e	-0.07991062
4	0xbca7d96c	-0.020489417
5	0xbd8c6bee	-0.068565235
6	0xbcd73b30	-0.02627334
7	0xbdd1b03e	-0.10238694
8	0x3ac170be	0.0014758331
9	0xbd967a8c	-0.07347593
10	0xbc2c0a1c	-0.010500457
11	0xbcdc4ca8	-0.026892021
12	0xbdee5349	-0.11636979
13	0xbcc9444b	-0.024568697
14	0x3e8ae34a	0.27126533
15	0xbe0bd8b8	-0.1365689
16	0xbda213f4	-0.07913962
17	0xbdfc759a	-0.12327118
18	0xbd7ab8f1	-0.06121153
19	0xbd1f56b0	-0.03890103
20	0xbc2345e8	-0.009965397
21	0xbd829b23	-0.06377246
22	0xbd2e0de7	-0.042493727
23	0xbdbf2fbe	-0.09335278
24	0xbdbaf43f	-0.091286175
25	0x3f4aa368	0.7915559
26	0xbdaa8358	-0.08325833
27	0xbd5a40a3	-0.0532843
28	0xbccc80b2	-0.02496371
29	0xbd832546	-0.06403594
30	0x3f44521d	0.76687795
31	0xbddcae35	-0.10775415
32	0xbde754a9	-0.112954445
33	0xbdde7aae	-0.10863243
34	0xbd3e2f92	-0.046432085
35	0xbdabd07e	-0.08389376
36	0x3c06539f	0.008198648
37	0xbdefaabf	-0.11702489
38	0xbda29b5a	-0.07939787
39	0xbdb6cde6	-0.08925991
40	0xbdc526e0	-0.096265554
41	0xbe0866c1	-0.13320448
42	0xbd009b4a	-0.031398095
43	0x3d57a9df	0.052652236
44	0xbd7c1fc1	-0.06155372
45	0xbd9a0594	-0.07520595
46	0xbd9873d3	-0.07443967
47	0xbc83a1a6	-0.01606829
48	0x3da24080	0.07922459
49	0xbd56b55f	-0.052419063
50	0xbca5a7a0	-0.020221531
51	0xbd4e0799	-0.050300214
52	0xbcf31b62	-0.029676143
53	0xbd004f4c	-0.031325623
54	0xbd02d1cb	-0.031938355
55	0xbc05e4c9	-0.008172222
56	0xbcc55639	-0.024088966
57	0xbd74d412	-0.05977256
58	0xbdb348cc	-0.08754119
59	0x3b91e15c	0.0044519138
60	0xbe157bac	-0.14597958
61	0x3d5a9a88	0.05337003
62	0xbdcd4d96	-0.10024564
63	0xba6e3353	-0.00090866274
64	0xbd2e8dfd	-0.04261588
65	0xb8876ae7	-6.457214e-05
66	0xbd5ca00b	-0.053863566
67	0xbdb98935	-0.09059373
68	0xbdce6535	-0.100778975
69	0xbd41dfc0	-0.047332525
70	0xbda25fcb	-0.07928427
71	0xbd643123	-0.055710923
72	0xbdf70892	-0.120621815
73	0xbbde1dc9	-0.006778453
74	0xbdbae114	-0.091249615
75	0xbda4ce48	-0.080471575
76	0xbdc15a0a	-0.09441002
77	0xbe240d6f	-0.1602075
78	0x3ea431e7	0.32069322
79	0xbcf996a6	-0.030467343
80	0x3d079682	0.03310252
81	0xbc09b86f	-0.008405789
82	0xbd4500c9	-0.048096452
83	0xbd8a7d18	-0.06762141
84	0xbdec0944	-0.11525205
85	0xbdee709d	-0.11642573
86	0xbd99e590	-0.07514489
87	0xbd2f6e7f	-0.042829987
88	0xbd88410f	-0.06653034
89	0xbe024208	-0.12720501
90	0xbd84face	-0.0649315
91	0xbce9e4e2	-0.028551523
92	0xbd23f1af	-0.04002541
93	0xbdde0cb0	-0.10842264
94	0xbd3941a6	-0.045228623
95	0xbdd9d94a	-0.10637148
96	0xbd44e57e	-0.048070423
97	0xbd6d3837	-0.05791494
98	0xbe909525	-0.28238788
99	0xbdc0ec30	-0.09420049
100	0xbd3c536b	-0.04597799
101	0xbd7e7920	-0.062127233
102	0xbd1b4f90	-0.037917674
103	0xbcf53dc1	-0.029936673
104	0xbd94bfcd	-0.072631456
105	0xbee5c2f3	-0.44875297
106	0xbe0f2522	-0.13979009
107	0xbdce763f	-0.100811474
108	0xbd8aa647	-0.06769996
109	0xbd1c9a39	-0.038233016
110	0x3c1989f9	0.009371274
111	0xbbce4f63	-0.0062960847
112	0xbe041a6e	-0.12900707
113	0xbdb7f75e	-0.089827284
114	0xbd952064	-0.07281569
115	0xbda3978b	-0.07987889
116	0xbdc385e9	-0.09547026
117	0xbd43699d	-0.047708143
118	0x3eead955	0.45868936
119	0xbcc6d2fa	-0.024270523
120	0xbdcef347	-0.10104995
121	0xbd877ba3	-0.06615379
122	0x3c85a8b2	0.016315792
123	0xbcfdd4f9	-0.030985342
124	0xbdc95e90	-0.098324895
125	0xbd0dbb46	-0.034602426
126	0xbd9c122d	-0.07620654
127	0xbdab9a8f	-0.08379089
128	0xbd34e292	-0.044161387
129	0xbdd35ab3	-0.10320034
130	0xbd846199	-0.06463928
131	0xbcc800d7	-0.024414463
132	0xbd2eaf32	-0.042647548
133	0xbd2ef873	-0.04271741
134	0xbde7b6b2	-0.11314143
135	0xbd618560	-0.055058837
136	0xbdfd74e1	-0.123758085
137	0xbda94086	-0.0826426
138	0xbe28fdd1	-0.16503073
139	0xbdab6675	-0.083691515
140	0xbd3bbf1d	-0.045836557
141	0xbd055985	-0.032556076
142	0xbdf672b1	-0.120335944
143	0xbd3baaba	-0.045817114
144	0xbd310e22	-0.04322637
145	0xbde7a3fd	-0.11310575
146	0xbd885016	-0.066559
147	0xbd84038a	-0.064459875
148	0xbde96cac	-0.11397681
149	0xbd636db8	-0.055524558
150	0xbe11daca	-0.14243618
151	0xbd2789c2	-0.04090286
152	0xbe876558	-0.26444507
153	0xbe143345	-0.14472683
154	0xbdac1cdb	-0.08403941
155	0xbdffb00e	-0.12484752
156	0xbddf518a	-0.10904224
157	0xbcdee9a2	-0.027211014
158	0xbde39f8c	-0.111144155
159	0xbdf572f3	-0.119848154
160	0xbdb603bb	-0.0888743
161	0xbde9a991	-0.11409295
162	0xbd2992ae	-0.04139965
163	0xbdeb37b0	-0.11485231
164	0xbded7afc	-0.11595723
165	0xbd468249	-0.048464093
166	0xbdcb02a4	-0.09912613
167	0xbd5ccf5c	-0.05390869
168	0xbdd4b3a5	-0.10385827
169	0xbdbf057a	-0.093272164
170	0xbd0e6393	-0.03476293
171	0xbd2155e6	-0.03938856
172	0xbc6ced88	-0.014460929
173	0xbe51ef26	-0.20501384
174	0xbde741fb	-0.11291882
175	0xbd256d03	-0.040387165
176	0xbdb0f494	-0.086403996
177	0xbd20f53f	-0.039296385
178	0xbcf72307	-0.03016807
179	0xbdccae5a	-0.099941924
180	0xbee17e55	-0.44041696
181	0xbdb0158a	-0.08597858
182	0xbe144f4e	-0.14483377
183	0xbd93260b	-0.071849905
184	0x3ee11761	0.4396315
185	0xbc829032	-0.015937898
186	0xbd3fb8e2	-0.046807177
187	0xbd7868d5	-0.06064685
188	0xbd9cd4b1	-0.07657755
189	0xbd0c0d0c	-0.03419213
190	0xbc4503f5	-0.012024869
191	0xbd3deb6a	-0.046367086
192	0xbc96bb1b	-0.018399766
193	0xbd17fa3a	-0.03710387
194	0xbd36df67	-0.044646647
195	0xbd16ecba	-0.036846854
196	0xbdd0c817	-0.10194414
197	0xbd859647	-0.06522804
198	0xbdc6eba9	-0.09712917
199	0xbd552ba3	-0.05204357
200	0xbd7e9572	-0.06215424
201	0x3eff43ef	0.49856517
202	0xbd025c1a	-0.031826116
203	0xbd829dd2	-0.06377758
204	0xbdf6de75	-0.12054149
205	0xbd5b256a	-0.053502478
206	0xbdbebfa6	-0.09313898
207	0xbd8f7d0a	-0.07006271
208	0xbccc5086	-0.02494074
209	0xbd751fe4	-0.059844866
210	0xbded476e	-0.1158589
211	0xbcd34021	-0.025787415
212	0xbd553253	-0.052049946
213	0xbd293099	-0.041306112
214	0xbde86f18	-0.113493145
215	0xbde292b2	-0.11063136
216	0xbda49486	-0.08036141
217	0xbdd51f6e	-0.10406385
218	0xbdd47765	-0.10374335
219	0xbc8cdc8b	-0.017195007
220	0xbd92b8e8	-0.07164174
221	0xbda12119	-0.07867641
222	0xbd491fae	-0.049102478
223	0xbdc65f7a	-0.096861795
224	0x3e90e807	0.28302023
225	0xbd50ff30	-0.051024616
226	0xbdbe8d2f	-0.093042724
227	0xbd8858c9	-0.066575594
228	0xbd931b22	-0.071829095
229	0xbd914c2e	-0.07094608
230	0xbdbe7684	-0.09299949
231	0xbc7531da	-0.014965499
232	0xbc0028fc	-0.007822271
233	0xbd55eacc	-0.052225873
234	0x3c17d81a	0.009267831
235	0xbca2eaff	-0.019887445
236	0xbdef7934	-0.116930395
237	0xbcfa3025	-0.030540535
238	0xbdaad20c	-0.083408445
239	0xbdda367a	-0.10654922
240	0xbdb42461	-0.08796001
241	0xbd3cdf9a	-0.04611168
242	0xbd1bb963	-0.038018595
243	0xbc57ecdc	-0.01317903
244	0xbdd0f3d9	-0.1020276
245	0xbd878057	-0.06616276
246	0x3ea82c62	0.3284636
247	0xbd17d650	-0.03706962
248	0xbd4e9890	-0.050438464
249	0xbd6b3adb	-0.057429176
250	0xbd897e0f	-0.06713497
251	0xbdb01b3f	-0.08598947
252	0xbd2b23c9	-0.041782174
253	0xbd20488e	-0.039131694
254	0xbd6fdfec	-0.058563158
255	0xbd3e112f	-0.046403106

fc3.weight f4 [1, 300]
0	0x3c712af8	0.014719717
1	0xbb32c1be	-0.0027276124
2	0x3cd94149	0.026520388
3	0xbcec5e89	-0.028853672
4	0xbc96be79	-0.018401371
5	0x3c950df1	0.018195124
6	0x3be2653c	0.0069090407
7	0x3af1af1c	0.0018439027
8	0xbb90c94b	-0.0044185272
9	0x3b114173	0.0022164255
10	0x3c96744f	0.018366007
11	0xbc7f824e	-0.015595032
12	0x3c88d911	0.016705068
13	0x3caae50c	0.020861171
14	0x3ca15363	0.019693082
15	0xbaa760b9	-0.0012769914
16	0x3bd1aea2	0.0063989917
17	0x3c637d39	0.013884836
18	0xbc4f73dc	-0.0126619
19	0xbce33672	-0.027735922
20	0xbcbfd013	-0.023414647
21	0xbc75e558	-0.015008293
22	0xbc731354	-0.014836151
23	0x3c4f1ee8	0.012641646
24	0xbc5ca8cd	-0.01346798
25	0x3cba3a12	0.022732768
26	0x3b2be995	0.0026231755
27	0x3c383031	0.0112419585
28	0x3caf5975	0.021404961
29	0x3b8cbae6	0.004294741
30	0x3cb8c67f	0.022555588
31	0xbb798e7c	-0.0038079312
32	0xbc95918f	-0.018257884
33	0x3b098998	0.0020986553
34	0xbcd57871	-0.026058408
35	0x3a955585	0.0011393285
36	0xbcb1c144	-0.021698602
37	0xbc1c6f21	-0.00954798
38	0xbc50311e	-0.012707023
39	0xbc8a0bd0	-0.016851336
40	0x3cb26d45	0.02178062
41	0x3c3ab801	0.011396409
42	0xbcec9494	-0.028879441
43	0x3d6ac7a1	0.057319287
44	0x3bf3c788	0.0074395575
45	0x3c8114a1	0.015756907
46	0xbac81c36	-0.0015267197
47	0xbd2e34ae	-0.042530708
48	0xbc412ed4	-0.01179095
49	0xbd2b0ed2	-0.04176218
50	0x3b888636	0.00416639
51	0x3c2f2c35	0.010691692
52	0x3be57e29	0.007003565
53	0xbce1a64f	-0.027545122
54	0x3c19f57e	0.009396909
55	0x3b346cb5	0.0027530615
56	0x3cddd731	0.02708015
57	0xbc86be4d	-0.016448164
58	0x3b9dcc64	0.004815625
59	0xbc00b54b	-0.007855724
60	0x3cbec17c	0.02328562
61	0xbc81d06a	-0.01584645
62	0x3b1ce215	0.0023938466
63	0x3b1351c0	0.0022479147
64	0xbbc1d848	-0.0059156753
65	0xbc6812e9	-0.014164665
66	0x39ca12ad	0.00038542357
67	0x3c955450	0.01822868
68	0xbc488d69	-0.012240746
69	0xb9aa33dd	-0.00032463568
70	0xbd0d203a	-0.03445456
71	0xbc3c4548	-0.011491127
72	0x3c5b0195	0.013367076
73	0xbba7cde7	-0.005120981
74	0x3cb18a0d	0.021672273
75	0x3a8d4ff1	0.0010781271
76	0xbcc79d62	-0.024367038
77	0xbc83b0e8	-0.016075566
78	0x3d2a3c0e	0.04156118
79	0xbc5c9074	-0.013462175
80	0x3d1174da	0.03551183
81	0x3c3093c7	0.01077742
82	0x3c3d05c4	0.011537019
83	0xbcbecc36	-0.023290735
84	0xbcd77425	-0.0263005
85	0xbc625adc	-0.013815608
86	0x3c3c8dad	0.0115083875
87	0x3c483d3a	0.012221629
88	0x3cb111ce	0.021614935
89	0x3c90eaa1	0.017690005
90	0x3cf536d5	0.029933373
91	0x3cefa9af	0.029255716
92	0x3d2c7546	0.04210403
93	0xbc6ca7dc	-0.014444318
94	0xbccfaa08	-0.025349632
95	0x3bc62453	0.0060468107
96	0xbca01299	-0.019540118
97	0xbc3c441f	-0.011490851
98	0xbd443e86	-0.04791119
99	0xbab71ee8	-0.0013971003
100	0x3ca86ab0	0.020558685
101	0xbaeb5fa8	-0.0017957585
102	0x3c778cf1	0.015109287
103	0x3c28fc3d	0.010314045
104	0xbcdeb07c	-0.027183764
105	0xbc14fcb6	-0.009093454
106	0xbc388843	-0.011262956
107	0x3c54b32f	0.012982174
108	0x3cc93a47	0.024563922
109	0x3b883cb7	0.0041576284
110	0xbca27c2b	-0.019834599
111	0xbbeb88d3	-0.0071879416
112	0xbc35c0b5	-0.011093308
113	0xbcb04051	-0.021515043
114	0xbdc77e8c	-0.09740934
115	0xbce0bbb4	-0.027433254
116	0x3c11a4f6	0.008889427
117	0x3c53bb40	0.012923062
118	0x3c91ff32	0.017821882
119	0xbcbef928	-0.023312166
120	0xbc8af66f	-0.016963212
121	0xbc1dd660	-0.0096336305
122	0xbb9fc0fc	-0.0048753005
123	0xba1ccb10	-0.00059811864
124	0xba067868	-0.0005129636
125	0xbb4c1a18	-0.0031143483
126	0x3bd98ee7	0.0066393497
127	0xbc98c106	-0.018646728
128	0x3c8dd92e	0.017315473
129	0x3b92c543	0.004479082
130	0x3bb64fc6	0.005563709
131	0xbca038ae	-0.019558277
132	0xbcb39421	-0.02192122
133	0xbc8be8fb	-0.017078867
134	0xbc403ae5	-0.011732792
135	0xbc7c10b9	-0.015384846
136	0x3c40a02c	0.011756938
137	0x3b4434b1	0.0029938633
138	0x3cb9f526	0.022699904
139	0xbc69be0c	-0.014266502
140	0xbcd1abeb	-0.025594672
141	0x3ca8b6cb	0.020594975
142	0x3bb19285	0.005419078
143	0xbb756ee0	-0.003745012
144	0xbcbf94bb	-0.02338635
145	0x3ca231d0	0.019799143
146	0xbc792d74	-0.015208591
147	0xbc46988b	-0.01212133
148	0xbbae5734	-0.005320454
149	0xbb99c66f	-0.0046928446
150	0x3c71869f	0.014741569
151	0x3b30ebfe	0.002699613
152	0xbd0a0ca8	-0.033703476
153	0xbbe71efc	-0.007053254
154	0x3c2c1e1f	0.010505228
155	0x3c41f66e	0.011838539
156	0x3be82372	0.0070843035
157	0xbcd54bf0	-0.026037186
158	0x3cc75f18	0.024337336
159	0xbd20b095	-0.0392309
160	0x3c6abec1	0.014327706
161	0xbbd9c7ad	-0.0066461177
162	0xbb253132	-0.0025206325
163	0x3bebbbc3	0.007194014
164	0xbc9e1c42	-0.019300584
165	0x3c3b5bfb	0.011435504
166	0x3b3fa454	0.0029242234
167	0xbbe75b3e	-0.0070604375
168	0xbb42566c	-0.0029653562
169	0x3cc7b96f	0.024380414
170	0x3b63fd8d	0.003478858
171	0xbc9aa9cf	-0.0188798
172	0x3bd012be	0.0063498905
173	0x3d203916	0.03911694
174	0xbcf2d066	-0.029640388
175	0x3cfbbe27	0.03073032
176	0x3c4f4341	0.012650312
177	0x3c66cb49	0.014086553
178	0xbb48951a	-0.003060645
179	0xbbf70d59	-0.007539433
180	0xbca1f2e6	-0.019769143
181	0xbc04e7d3	-0.008111912
182	0x3c72a10f	0.014808907
183	0x3c8b6d08	0.017019764
184	0x3ca17ad6	0.019711893
185	0xbcab7427	-0.02092941
186	0x3cb1c0a9	0.021698313
187	0xbcfa27c8	-0.030536547
188	0x3cd0ab59	0.02547233
189	0x3c0bfc77	0.008544079
190	0x3af3c5fc	0.0018598433
191	0x3cc93c21	0.024564805
192	0x3bf607e9	0.007508267
193	0xbcd2f55f	-0.025751768
194	0xbc40fd92	-0.011779206
195	0x3c63e1ff	0.013908862
196	0x3c203fa0	0.009780794
197	0x3b402909	0.0029321334
198	0x3bff2aea	0.007787098
199	0x3cc4e248	0.02403368
200	0x3c81ab09	0.015828626
201	0x3cef7e54	0.029235043
202	0xbc0ed07e	-0.008716701
203	0x3aaa3720	0.0012986399
204	0xbc9475e8	-0.018122628
205	0xbcdfd2f1	-0.027322264
206	0x3d9c2217	0.076236896
207	0xbbe4d5fa	-0.006983516
208	0x3b4bc819	0.003109461
209	0x3c36009a	0.011108542
210	0x3994c378	0.00028374395
211	0xbb736014	-0.0037136124
212	0xbaa9b609	-0.0012947927
213	0x3c1c2b08	0.009531744
214	0xbc2287c1	-0.009920062
215	0xbcad3c43	-0.0211469
216	0x3c07dc1c	0.008292224
217	0x3c787c9e	0.01516643
218	0x3cd336b1	0.025782915
219	0x3c65d11c	0.014026906
220	0x3bc95e3d	0.0061452673
221	0x3ba806b8	0.005127754
222	0xbde104d8	-0.10987252
223	0xbc913ebc	-0.01773011
224	0x3cb956cd	0.022624398
225	0xba55c386	-0.00081544404
226	0xbb524112	-0.0032082242
227	0x3ce2dd85	0.02769352
228	0x3b5b783c	0.0033488413
229	0xbcf8b871	-0.030361386
230	0x3ce4ac35	0.027914146
231	0xbcdabfc2	-0.026702765
232	0x3cc3d24a	0.023903985
233	0xbbd0706f	-0.0063610594
234	0x3c14206b	0.009040932
235	0x3cf8bf95	0.030364791
236	0xbca3953b	-0.01996862
237	0xbbae0a36	-0.005311276
238	0x3b841703	0.0040310635
239	0x3bc7f047	0.0061016413
240	0x3c9f9e3a	0.019484628
241	0x3ca5d10f	0.020241288
242	0xbcca72a6	-0.024712872
243	0x3b0c6778	0.0021423977
244	0x3c443612	0.011975782
245	0xbc69db5b	-0.01427349
246	0x3ce1bf54	0.027557053
247	0xbcf63dce	-0.030058768
248	0xbc4b8edb	-0.012424196
249	0x39bf6a89	0.00036509734
250	0xbc72d1cf	-0.01482053
251	0x3caba7bc	0.020954005
252	0xbcc71c39	-0.02430545
253	0xbc339dd7	-0.010962925
254	0xbc07a480	-0.008278966
255	0x3c39a37a	0.01133048
