checkpoints/checkpoint_critic_2200.pth (torch, 543887 bytes, 5 tensors)

fcs1.weight f4 [400, 33]
000000 50 b5 95 be ee 02 b3 bd ce 4d 72 3e f8 73 33 3e
       -0.29239893 -0.08740793 0.23662493 0.17524707
000010 d0 db 55 3d 0c 96 c1 3e 6e 98 fa bd b8 9b a3 3d
       0.052211583 0.3780979 -0.12236105 0.07988685
000020 b8 a7 48 bf 9f ab e1 3e b9 e6 89 3e db 5a d1 3b
       -0.7838092 0.4407625 0.2693384 0.0063890046
000030 d6 d5 4b bd 0a 60 a2 be 30 5d 29 3f fd 0c 64 be
       -0.049764477 -0.31713897 0.6615782 -0.2227058
000040 5b be 0a 3e 1f 80 69 be fe 69 7d 3e 34 c1 87 3e
       0.13549177 -0.2280278 0.24747464 0.2651459
000050 ac 51 0c 3e e8 6f 5d 3e 2d e6 85 3e 80 87 1c 3e
       0.1370303 0.2162472 0.26152173 0.15286064
000060 28 b6 9d 3e 2e 19 a3 bd 52 22 8f 3e 16 d1 76 3f
       0.30803037 -0.07963787 0.27955872 0.9641279
000070 f3 28 de 3e 76 7f 9a 3c 9a e8 78 bf e4 87 79 3c
       0.43390617 0.018859606 -0.9722992 0.015230153
000080 3e d5 88 3f c5 06 b6 be 41 68 eb bd ab e5 80 bf
       1.0690076 -0.3555204 -0.11494494 -1.0070089
000090 0b 79 25 3e fe b3 72 3c c9 d8 29 bd 2b 7d 58 3e
       0.16159455 0.014813421 -0.041466508 0.21141498
0000a0 2a 68 a1 bb 1b b1 60 be 49 0e 4e be 19 35 b7 bd
       -0.0049257474 -0.2194256 -0.20122637 -0.089456744
0000b0 19 4e 41 3e 3e 4e 85 bd ad de e9 3d 0c 82 e6 3d
       0.18877448 -0.06509064 0.11419425 0.11255273
0000c0 e3 28 85 3f 8e c5 82 3d 3a 9e 06 bd 77 85 ea 3d
       1.0403103 0.06385337 -0.03286574 0.11451238
0000d0 61 9a a3 3d 98 b0 e9 bc 10 b0 da 3d 10 3d 2a bd
       0.0798843 -0.02852659 0.106781125 -0.04156214
0000e0 f0 fb 5a bd e3 de 0f be 54 08 d0 bc 46 47 57 bc
       -0.053462923 -0.14049868 -0.025394596 -0.0131395515
0000f0 a1 07 08 3f e0 9c 40 bf 50 bf b4 bc 1b 48 0f bf
       0.5313664 -0.7523937 -0.022063881 -0.559694
000100 d5 e6 40 3d 92 ac a0 bf 61 5c b1 bd f9 83 13 bf
       0.04709514 -1.2552664 -0.08660198 -0.5762325
000110 0f da 1f 3f 10 6a 2a 3e bd 37 af bd 3a 24 16 3e
       0.62442106 0.16642022 -0.08555553 0.14662257
000120 22 75 51 3d 60 74 ab 3d d9 0e aa bf 09 46 9e 3e
       0.051137097 0.08371806 -1.3285781 0.30912808
000130 02 d5 59 3f 89 b3 ff bd c9 38 90 3e af 2e 4a 3d
       0.8509065 -0.124854155 0.28168324 0.049360927
000140 be bc b7 3e 16 fd 9f be cf 82 aa be 3a f8 7d 3c
       0.35886186 -0.31247777 -0.33302924 0.015501076
000150 8c 6a 1f 3e b2 90 93 be e4 53 ef 3d ef c4 dc 3d
       0.15567988 -0.2882133 0.11685923 0.107797496
000160 cc 7c 8d bd e4 58 d0 be 2d 31 29 3e a0 b7 c2 be
       -0.06908569 -0.40692818 0.16522665 -0.3803072
000170 45 ce 73 be bd 25 74 3e d0 e1 b3 be e8 34 23 3c
       -0.23809154 0.23842521 -0.3513322 0.009961344
000180 13 fe 48 be 30 62 14 bd a6 d2 76 be ca 99 f2 be
       -0.19628172 -0.03622645 -0.24103794 -0.47382957
000190 5b 29 6a be 4b 03 6e 3d f3 2d 92 bd 9b b0 1d 3f
       -0.22867338 0.05810861 -0.0713767 0.61597604
0001a0 1f d4 a6 bd 16 f8 c2 3e b4 1c 4f bd 79 1b 65 bf
       -0.08145928 0.380799 -0.050564483 -0.89495045
0001b0 1d f1 04 bd c7 91 09 bf 41 47 33 3d 99 4e 5c be
       -0.032456506 -0.53738064 0.043769125 -0.21514358
0001c0 45 32 07 3f ee a8 c4 3e 8c b4 8e 3e 19 85 10 bd
       0.5281108 0.38410133 0.2787212 -0.03528318
0001d0 20 45 33 be 48 61 ea be f6 97 03 3f f2 c7 0c 3f
       -0.17506838 -0.45777345 0.5140375 0.5499259
0001e0 2a 41 9e be db 8e 8b 3d 1a 10 f3 3e df f7 40 be
       -0.3090909 0.06814357 0.47473222 -0.18844555
0001f0 3f 04 0d 3e ef 67 06 be 4b df 95 3f 09 cf 1d 3e
       0.13771151 -0.13125585 1.1708769 0.15411009
000200 34 02 8a bc 2f 35 8d bf 98 6c 40 bc c8 00 c7 be
       -0.016846754 -1.1031855 -0.011744641 -0.38867784
000210 07 a9 bc be 80 5e 54 be 72 c9 4a bf f4 51 88 bd
       -0.36847708 -0.20739174 -0.7921363 -0.06656256
000220 77 57 5a 3c 66 46 97 be 22 ca 96 bb d3 cc 35 be
       0.013326517 -0.29545897 -0.004601733 -0.17753915
000230 11 e3 41 bf 59 96 86 be af 68 af be e3 4f 8e 3e
       -0.757371 -0.2628658 -0.34259555 0.27795324
000240 ac d4 6a bd 34 d7 dd 3d 81 b7 32 3f 63 81 14 3f
       -0.057331726 0.10832062 0.69811255 0.5800993
000250 49 4e 4c 3e 44 54 6d 3d 0a 0d da 3c 91 f3 29 3e
       0.19951738 0.05794169 0.026617546 0.1659682
000260 12 2e 16 bc 8a ce ed bd 1b ee 41 3e f1 e1 06 3e
       -0.009166257 -0.1161166 0.18938486 0.13172127
000270 1e 99 c3 3e d8 d7 1d 3e e6 15 93 3c 7e ee aa 3f
       0.38202757 0.15414369 0.017954778 1.3354032
000280 5d 36 c2 3e ac ad 0f 3c 50 ec af bf 6c 52 8c bc
       0.379321 0.008769434 -1.3743992 -0.017129146
000290 34 46 d8 bf 29 74 93 3e c2 a0 d6 bd 24 3e 0a bf
       -1.6896424 0.2879956 -0.10479881 -0.5400107
0002a0 93 76 a5 3e 86 d3 ca 3d 3b 46 82 3d c6 50 27 bb
       0.32317027 0.09903626 0.06361052 -0.0025530322
0002b0 1a 94 79 3d 1c 1c b8 be 10 ef 1a be a5 02 ff 3e
       0.060932256 -0.35958946 -0.15130258 0.49806705
0002c0 84 3e ed 3d 41 0d 7f bd 40 0a 35 3d 6e 56 1f 3e
       0.115841895 -0.0622685 0.04419923 0.15560314
0002d0 86 9c 62 3f dc a3 23 3d de 4a 45 bc 47 70 86 bb
       0.88520086 0.03995119 -0.0120417755 -0.00410274
0002e0 7c aa e6 bd 75 4b 13 3d 3f 0e b0 bd f1 22 bf 3d
       -0.11262986 0.035960633 -0.08596467 0.093328364
0002f0 c4 a8 15 be 3d 47 45 bc b0 8f 88 3e 91 28 0c bf
       -0.1461516 -0.01204091 0.26672125 -0.547494
000300 cc b0 85 3f 3f f0 25 bf fd 04 1d 3d 26 46 81 bf
       1.0444579 -0.6481971 0.038334835 -1.0099533
000310 fd 75 0c 3d c2 91 cc bf 73 e6 bb bd cc 02 72 bf
       0.03429221 -1.5981982 -0.09174814 -0.9453552
000320 cc ec 49 3f ac 2f bc bc 42 5d dc be d3 05 8e 3d
       0.7887695 -0.02297195 -0.430399 0.06934705
000330 64 4e 4a 3e 84 a6 47 3d fe 4a 3d bf e2 4a ae 3e
       0.19756466 0.048742786 -0.73942554 0.34041506
000340 ee db 7a bd 71 e8 ed be f3 a4 3a be c3 9c 08 3e
       -0.061244898 -0.464664 -0.18226986 0.1334105
000350 0c 38 b2 3e 9b fe 69 3d be 9b 0e be be f5 ee 3e
       0.34808385 0.057127576 -0.13926598 0.4667186
000360 04 2a 3c 3e 78 36 8e 3e ce fa 88 3c 34 db d0 3d
       0.18375403 0.2777593 0.016721155 0.1019806
000370 94 c1 21 bd 80 f9 47 3d 96 d1 f2 3c 57 30 d7 bd
       -0.03949125 0.048821926 0.029640954 -0.10507267
000380 0b 96 6e bc 57 cb 85 3f fe 55 7f 3e 64 d1 72 3c
       -0.01456214 1.0452679 0.24935147 0.01482043
000390 2d 7b 79 bf e7 cc df bc 79 3c 74 3f a3 0e 10 bf
       -0.97453576 -0.027319385 0.95404774 -0.56272334
0003a0 bb d5 aa bc 66 aa 28 3f f3 d1 d5 bd 07 cb 40 be
       -0.020853868 0.6588501 -0.10440435 -0.18827449
0003b0 be 71 bd bd 7f 0c 1b 3e f7 42 5d bc 3b a2 a1 bd
       -0.0925021 0.15141486 -0.013504735 -0.07892271
0003c0 ee d5 bc be 5b b2 65 be 37 72 e3 bd d2 86 9e 3b
       -0.36881965 -0.22431318 -0.11105769 0.004837849
0003d0 6c d4 9b 3e 0e e8 60 be 7f ea 10 bf b9 13 7e 3e
       0.30435503 -0.21963522 -0.5660781 0.24812211
0003e0 14 cf 5b be 97 dd 84 3d 41 7b 22 be aa 1b c8 bd
       -0.21465713 0.064875774 -0.1586733 -0.097709015
0003f0 45 e8 be bd 0a b0 19 bd b0 dc b5 3e a2 ac e7 bd
       -0.09321646 -0.0375214 0.35519934 -0.11312224

fcs1.bias f4 [400]
000000 b0 51 82 bf 8e 82 1d bf 9c 2a 63 bd 59 98 8f bf
       -1.0181179 -0.61527336 -0.055460557 -1.1218368
000010 cf 89 c1 bf a8 64 94 bf 50 c7 92 bf b7 ab 09 3f
       -1.5120181 -1.1593218 -1.1467075 0.5377764
000020 3b 72 ca bf f5 1e d2 bf f3 10 31 bf 41 55 a7 bf
       -1.581611 -1.6415697 -0.6916649 -1.3072892
000030 52 57 b3 bf 9a 72 53 bf 7f c4 a4 bf d3 78 4c bf
       -1.4011023 -0.82596743 -1.2872466 -0.79871863
000040 59 5f ec bf 8e cf 40 bf eb 8d 46 bf cb 2a 8e bf
       -1.8466598 -0.75316703 -0.775603 -1.1106809
000050 a8 b0 8c bf ac 6a 61 bf d6 34 54 bf 31 6e d6 bf
       -1.0991411 -0.88053393 -0.8289312 -1.6752378
000060 cc 8a 81 bf ed 3c e6 bf e6 33 80 bf 10 24 7d bf
       -1.0120482 -1.7987343 -1.0015838 -0.9888315
000070 05 64 bc bf 2e 48 b7 bf e2 fe d8 bf 85 4b 43 be
       -1.4718024 -1.4318902 -1.6952784 -0.19071777
000080 3d 0b b3 bf 30 4d 63 bf 83 59 93 bf ac 86 f0 be
       -1.3987805 -0.88789654 -1.1511692 -0.46977746
000090 41 e5 c2 bf 11 2f d2 bf ac 9c 63 bf 87 f6 94 bf
       -1.5226213 -1.6420614 -0.8891094 -1.1637734
0000a0 97 d8 dc be 45 3b 2d be 1f 4d d9 bf 20 29 ff be
       -0.43133995 -0.16917141 -1.697666 -0.49836063
0000b0 0e 37 98 bf 0f 42 69 be dd ff 96 bf 63 b9 94 bf
       -1.1891801 -0.22779106 -1.1796833 -1.1619076
0000c0 0b 2c aa bf cc 93 df bf 6e 24 8b bf 7d c6 2b bf
       -1.3294691 -1.7466979 -1.0870492 -0.67099744
0000d0 b4 2b af bf cd fa 58 bf 1e 04 96 bf e6 b0 18 bf
       -1.3685212 -0.8475769 -1.1720006 -0.59644926
0000e0 0d db 82 be 50 d5 95 bf 0d 5e 8d bf 0b bb 6a bf
       -0.25557747 -1.1705723 -1.1044327 -0.91691655
0000f0 e7 5d 09 c0 51 c7 a3 bf 45 85 04 bf 2c f2 eb bc
       -2.1463563 -1.2795202 -0.51765853 -0.028802
000100 06 be 66 bf fc b8 86 bf 1c 35 97 bf bb 66 d3 be
       -0.901337 -1.0525203 -1.1813083 -0.41289315
000110 52 a8 93 bf f4 77 5e bf da 43 a4 bf 2c e7 c9 be
       -1.1535742 -0.86901784 -1.2833207 -0.39434183
000120 a5 27 30 bf fb f5 94 bf b2 4a 61 bf a3 1b c0 bf
       -0.6881049 -1.1637567 -0.880046 -1.5008434
000130 75 88 92 bf ce 81 b3 bf 85 1b dc be 85 bd e2 bf
       -1.1447893 -1.4023988 -0.42989746 -1.7714087
000140 3b a9 0e bf 5e 6a 8d bf 98 e8 65 bf d3 2f cd bf
       -0.55726975 -1.1048086 -0.89808035 -1.603022
000150 d3 12 9a bf 7d 2b 0e bd 36 a5 ab bf 28 40 df be
       -1.2036995 -0.034709442 -1.3409793 -0.43603635
000160 b1 4d 97 bf 66 90 d5 bf 92 77 27 bf 3b 44 df bf
       -1.1820585 -1.6684692 -0.65416825 -1.7442697
000170 d4 89 d2 bf b5 18 ee bf 11 e9 91 bf 85 07 c6 bf
       -1.6448312 -1.860129 -1.1399251 -1.5471045
000180 4f 2d 73 bf b0 ed 90 bf ea a1 91 bf bb 76 b3 bf
       -0.9499101 -1.1322536 -1.1377537 -1.4020609
000190 00 e8 bc bf 83 07 2b bf e0 8d 55 bf cc bf a9 bd
       -1.4758301 -0.66808337 -0.8341961 -0.082885355
0001a0 bf 78 1b bf f0 3c 19 bf 7e 88 c7 bd 9d 25 9b bf
       -0.6073112 -0.5985861 -0.09742831 -1.2120854
0001b0 6d 02 d1 bf a6 6c 44 bf 08 85 46 bf b7 3d 7e be
       -1.6328865 -0.76728284 -0.7754674 -0.2482823
0001c0 ac c4 cc bf 73 71 8c bf 9f c5 d9 be 62 2f 80 bf
       -1.599752 -1.0972122 -0.42533585 -1.001446
0001d0 7e 56 51 bf 42 d5 d0 bf e1 1c aa bf 00 4f 87 bf
       -0.817726 -1.6315081 -1.3290063 -1.0570984
0001e0 6f 57 df bf ce a6 cf bf 26 a9 25 bf ff 19 b4 bf
       -1.7448558 -1.622278 -0.64711225 -1.4070433
0001f0 34 68 c8 bf 8c 81 98 bf 10 5d 7d bf b7 79 e4 3e
       -1.56568 -1.1914535 -0.9897013 0.4462411
000200 fc 20 9d bf f2 36 2a bf 5e ce 01 be 18 af fa be
       -1.2275691 -0.6649009 -0.12676379 -0.4896171
000210 4e cc 84 bf 23 cc c2 bf e9 0f 90 bf 15 d4 a4 bf
       -1.0374849 -1.5218548 -1.1254855 -1.2877222
000220 69 8e 7e bf 6e 3f 99 bf 34 cd b5 bf e5 cf 30 bf
       -0.9943605 -1.1972482 -1.4203248 -0.6906722
000230 ac ce 51 bf a5 aa 40 bf ca 36 8f bf 86 ff 33 bf
       -0.8195598 -0.7526038 -1.1188595 -0.7031177
000240 2a ec 9c bf f4 c7 55 bf 34 cb a6 bf 08 59 e9 bf
       -1.2259572 -0.8350823 -1.3030763 -1.8230295
000250 21 d6 1c c0 8b d5 8f bf 7b 63 02 c0 13 75 93 bf
       -2.4505694 -1.1237043 -2.0373218 -1.1520103
000260 e1 d9 29 bf 84 f3 a4 bf c8 72 d3 bf df e4 c4 bf
       -0.6634808 -1.2886815 -1.6519403 -1.5382346
000270 4b ac e7 bf 99 a6 7b bf 39 ff 5c bf 30 d6 a5 bf
       -1.8099455 -0.9830108 -0.8632694 -1.295599
000280 cb 04 d5 bf b6 ba c5 bf 1f d2 86 bf 55 2a 2d bf
       -1.6642088 -1.5447605 -1.0532874 -0.6764272
000290 cb ed 45 be 22 87 be bf ca fc ae bf 44 bb 20 bf
       -0.19328992 -1.4884989 -1.3670895 -0.62785745
0002a0 94 53 aa bf 2f 8e 8b bf 2a d2 67 bf 42 9b 1c bf
       -1.3306756 -1.0902766 -0.9055506 -0.61174405
0002b0 0d 2a d3 bf 47 c9 ad be 14 a9 b6 bf 38 f2 76 bf
       -1.6497208 -0.33942625 -1.4270349 -0.96463346
0002c0 c4 ef b4 bf b7 23 90 bf 61 16 f7 bf f9 cf ac bf
       -1.4135671 -1.1260899 -1.9303705 -1.3500968
0002d0 86 e2 e0 bf bf 00 b9 bf dc ab 63 bf 7a 20 9c bf
       -1.756913 -1.4453353 -0.8893411 -1.2197411
0002e0 9b d8 bb bf 64 f4 8b bf d0 bd 1d bf 7f 3f 71 bf
       -1.4675478 -1.0933957 -0.61617756 -0.9423751
0002f0 5f f5 98 bf ab f8 94 bf 00 91 ae bf f3 bc 1f be
       -1.1949881 -1.1638387 -1.3638 -0.15599422
000300 70 c6 8d bf 29 44 ac bf 58 75 3e bf e8 f5 d5 bf
       -1.1076183 -1.3458301 -0.743978 -1.671567
000310 2c 83 a5 bf 96 46 b0 bf e5 3e ac bf c8 ad a2 bf
       -1.2930655 -1.3771541 -1.3456694 -1.2709284
000320 6f 1f dd bf 07 b8 66 3e 72 6e 8c bf f9 31 97 bf
       -1.7275218 0.22531138 -1.0971205 -1.1812125
000330 fd ae 08 c0 f2 30 93 bf 0b 62 1b bf e8 3c 75 bf
       -2.1356804 -1.1499312 -0.60696477 -0.9579606
000340 28 63 61 bf eb ec b1 bd 9b 56 c5 bf 42 30 44 bf
       -0.88041925 -0.08687767 -1.5417055 -0.76636136
000350 ca f0 ac bf 38 fa 66 bf b9 5e b8 bf d1 75 23 bf
       -1.3510983 -0.90225554 -1.4403907 -0.6385165
000360 4f 09 85 3e c2 11 28 3f 4c c7 87 bf ee 4f 41 bf
       0.25983664 0.65652096 -1.0607696 -0.7551259
000370 3f 61 ac bf c0 95 7e bf d7 b9 c6 bf 22 59 94 bf
       -1.3467177 -0.9944725 -1.5525464 -1.1589701
000380 56 a9 25 bf 75 88 a4 bf dd a3 be bf c5 c7 a3 bf
       -0.6471151 -1.2854143 -1.4893757 -1.279534
000390 cf 1b e6 bf 78 65 8a bf 90 f5 aa bf fe 43 b9 bf
       -1.7977237 -1.0812216 -1.335619 -1.4473875
0003a0 69 43 7b bf 3e 7c 57 bf 7a 4e d4 be 91 ee b2 bf
       -0.98149735 -0.84173954 -0.41466123 -1.3979055
0003b0 4c e6 6d bf b4 62 ba bf d9 43 c8 bf 78 66 32 be
       -0.9292953 -1.4561372 -1.5645705 -0.17421901
0003c0 cb 8a d2 bf 0a 35 fa bf 49 b1 7c bf 6d dc 90 bf
       -1.6448606 -1.9547436 -0.98708016 -1.1317269
0003d0 3e 85 a9 bf 0e a1 7d bf c9 9f 4d bf 1c 7b 88 bf
       -1.3243787 -0.99073875 -0.8032194 -1.066257
0003e0 6c 63 16 bf f6 9c 60 bf db 78 9b bf e3 a8 aa bf
       -0.58745456 -0.87739503 -1.2146257 -1.333279
0003f0 f9 3c 93 bf b7 de a9 bf 83 36 d5 bf 90 7d 59 bf
       -1.1502982 -1.3271092 -1.6657261 -0.8495722

fc2.weight f4 [300, 404]
000000 b5 1e 13 bc 42 e9 ac bd 72 bb 8d bd e8 cc 27 bd
       -0.008979489 -0.08442928 -0.06920518 -0.0409669
000010 0e 24 bf bc d8 35 58 bd e0 59 7c bc c7 6e 8b bd
       -0.023332622 -0.052785724 -0.015402287 -0.068082385
000020 2c ba 1b 3d c8 e6 10 be 66 c0 7f bd c6 73 10 be
       0.038019344 -0.14150536 -0.062439345 -0.14106664
000030 d1 93 4d 3d 5c e9 56 bd 15 2a 48 bd eb 1f 42 bd
       0.050189797 -0.052468643 -0.048868258 -0.04739372
000040 90 17 a8 3d be 7f d9 bb 86 60 82 3c e3 7c f1 3c
       0.08207619 -0.0066375425 0.015915167 0.029478496
000050 39 c5 13 3d 7c 99 75 bc 2b 55 f7 bd 72 8f 8e bd
       0.036076758 -0.014990207 -0.120767914 -0.06960954
000060 0c 73 ac 3c 2b c7 e9 bd c0 bc 26 3b 70 bb bd bd
       0.021050952 -0.114149414 0.0025442094 -0.092642665
000070 e4 ad 6d bd 8f 3b 9c 3c 9b bd 32 3c b1 06 2d bd
       -0.058027163 0.019071369 0.010909463 -0.04224271
000080 1c 16 e6 bc b4 2a 74 bc c4 e2 2d 3d e0 68 a1 bc
       -0.028086714 -0.014902759 0.04245259 -0.019703329
000090 51 e9 4c bd 30 c7 1f bc 83 cb da bd 57 28 04 bd
       -0.050027195 -0.00975208 -0.10683348 -0.032265034
0000a0 3b b8 88 3c 79 d9 0d be b0 ec 13 be 77 23 e6 bc
       0.01668941 -0.1385249 -0.14445758 -0.028093083
0000b0 56 93 9b bc 2c b4 8f bc 4e 1e ab bc 59 de bc bd
       -0.018991154 -0.017541967 -0.020888474 -0.09222097
0000c0 7f b5 21 3c 25 de f6 bb 93 4e b6 bd 56 bc 08 bd
       0.009869932 -0.007533806 -0.089017056 -0.033382736
0000d0 d1 32 98 bd ed 9f 57 bd 7c 99 0d 3d e6 ac 27 be
       -0.074315675 -0.05264275 0.034570202 -0.1637455
0000e0 0b f9 9b 3c f1 4b fc bd c2 aa df bd 7e 19 b2 bd
       0.019039651 -0.12319172 -0.10921241 -0.086962685
0000f0 dd 6a 21 bd 5d 23 10 be 15 ed ba bd aa b5 11 be
       -0.039408553 -0.1407599 -0.09127251 -0.14229456
000100 14 29 cc 3d b0 df 8b 3c ad f5 80 bd d8 ee ea bc
       0.099687725 0.017074436 -0.06296859 -0.028678343
000110 4b fc 22 3d ba f7 b9 bd ae ea 5a 3b bd 92 8a bd
       0.039791387 -0.09080453 0.003340404 -0.06766269
000120 8b d6 19 bd 80 1e b4 bd ec dc 07 bd c7 ab cd bc
       -0.03755812 -0.0879488 -0.033169672 -0.025106324
000130 22 0d e1 bd 0b 45 01 be 8d 86 bc bd 4f c2 0c bd
       -0.10988833 -0.12623994 -0.09205351 -0.034364995
000140 df 35 b8 bd 1c 1f 08 bd c8 c4 41 bd 66 e9 c7 bd
       -0.0899465 -0.033232793 -0.047306806 -0.09761314
000150 e5 de 05 be 1e 11 03 bd 80 f6 27 3b d9 5e dd bd
       -0.13073309 -0.031998746 0.0025629103 -0.108091064
000160 6a 42 e5 3a 4d 72 71 bd b5 bc 0c bd 33 23 09 bd
       0.0017491106 -0.058946896 -0.034359653 -0.033480834
000170 b4 0c ba 3b 81 a2 f4 bd bd ea d1 bd e0 47 91 bc
       0.005677784 -0.11945058 -0.10249851 -0.017734468
000180 c8 29 f3 bd 13 a8 9a bd 1e df 33 bd 03 44 60 bc
       -0.118732035 -0.07551589 -0.043913953 -0.01368809
000190 a6 64 d9 bc a8 9f b3 bd a6 5b eb bd 29 2b 0b 3d
       -0.02653725 -0.087706864 -0.1149209 0.033976708
0001a0 b6 1d 07 bd 2f f5 b7 bd 21 57 84 bd 21 ca e7 bd
       -0.03298732 -0.08982312 -0.06461931 -0.1131785
0001b0 23 33 11 bd 8f 2f 52 bd 1a 5a 49 3d 5d 26 9e bd
       -0.03544916 -0.051314887 0.049158193 -0.07722161
0001c0 c5 8d 0b bd de 96 fa bd 01 40 13 be 7c 37 87 bd
       -0.03407075 -0.12235807 -0.14379884 -0.0660238
0001d0 a8 b3 b1 bd 7a 81 9c bd 36 da 9e bd 29 85 ad bd
       -0.08676845 -0.07641883 -0.07756464 -0.08472664
0001e0 fa 6c 0b bd 6e c6 49 bd 37 ce bc 3b 7b 89 44 3c
       -0.034039475 -0.049261503 0.0057618874 0.0119956685
0001f0 ae cd d1 bb ba f7 dc bb 08 99 3e bd 15 af 91 3b
       -0.0064026928 -0.0067433985 -0.04653266 0.00444592
000200 66 d3 a3 bc e5 fc 0d be 9f 65 23 bd 99 ab 0b bd
       -0.019998264 -0.13866003 -0.039891835 -0.034099195
000210 40 d7 63 3d fa 15 d9 bd 64 46 a6 3d 59 23 a6 bc
       0.0556252 -0.10599895 0.08118895 -0.020280527
000220 02 87 7f bd 56 d8 26 3d 9a a5 32 bd 1b 98 a0 bd
       -0.062384613 0.040733658 -0.04361496 -0.07841512
000230 40 d0 ce bd 8c 61 2d 3d 74 2e 5c bd 66 2a dc bd
       -0.10098314 0.042329356 -0.05375524 -0.10750274
000240 f4 c5 15 3b 7a 10 32 be c2 2b b9 bc c0 7b 6a bc
       0.0022853585 -0.17389098 -0.022603873 -0.014311731
000250 74 6b 88 3c 49 41 82 bd 67 30 3a bc 0e dc d3 bc
       0.0166528 -0.063601084 -0.011364079 -0.025861766
000260 25 77 24 bd a4 1d 93 bd 66 41 58 3c f8 22 06 bd
       -0.040152688 -0.07183388 0.013199186 -0.032748193
000270 7a 47 5f bd cd d3 21 be 3c 80 d9 bc 60 76 d8 3c
       -0.054511525 -0.15803452 -0.026550405 0.026423633
000280 db 26 0a 3c ce 01 81 3d a2 e0 88 bd 4d f1 b5 bd
       0.008432115 0.06299172 -0.0668347 -0.08883915
000290 c1 eb b2 bd 40 9d ac 3c 97 dc 5d bc bf 63 ca bd
       -0.08736373 0.021071076 -0.013541362 -0.09882306
0002a0 63 ac a3 bc 3e d4 29 bc ea 9b 0c bd fc 1b 8b bd
       -0.019979661 -0.010365544 -0.03432838 -0.06792447
0002b0 4a bf 56 bd 00 55 23 bd cd 5e 11 bc 79 6b dc bc
       -0.05242852 -0.039875984 -0.0088727 -0.026906716
0002c0 4c c8 78 3d b7 a7 84 3d b6 ff 5d bd 64 c6 26 3d
       0.060737893 0.064773016 -0.054198943 0.040716544
0002d0 51 e8 7c bc c3 89 07 3d 51 2a c7 bc d9 0a 6e bd
       -0.015436248 0.033090364 -0.02431217 -0.058115814
0002e0 c4 b5 b5 3d c8 3f 1d ba 27 db fa 3b 5b 97 db bd
       0.0887256 -0.0005998579 0.0076555195 -0.10722228
0002f0 09 7b aa 3c d6 4f 8f 3c fc 96 10 be 93 72 18 3c
       0.02081062 0.017494123 -0.14120096 0.00930466
000300 10 7a 2e bd 07 3b 35 bd ac 1f e1 3c ac 2a d2 3d
       -0.042596877 -0.044245746 0.027480923 0.10262045
000310 8b 93 d7 3b d5 5d 95 bd 4b ea 8c bd 01 25 24 3d
       0.006578868 -0.07293288 -0.06880625 0.040074352
000320 67 a5 06 3e 1c 87 b9 bc fd da 56 bd 94 d6 b9 3c
       0.13149033 -0.022647433 -0.052454937 0.022685327
000330 98 41 3f bd 6d 17 55 bd 9b 0d 08 be 50 19 bb bb
       -0.046693414 -0.052024294 -0.1328644 -0.0057098046
000340 71 1b 33 be e2 37 3d 3c 25 22 da 3d 01 38 ce bd
       -0.17490937 0.011548968 0.10651044 -0.10069276
000350 62 96 0f 3d 66 46 9f bd d9 4b da 3b a3 f7 11 be
       0.035055526 -0.07777099 0.006661874 -0.14254622
000360 a3 48 d0 bc ef 21 2a bc 51 5a a8 bd 73 be 0c bd
       -0.02542526 -0.010384067 -0.082203515 -0.034361314
000370 3b 86 07 bd bf 73 ae bd 61 3b 7f bd c7 48 17 bd
       -0.033086997 -0.085181706 -0.062312488 -0.03693464
000380 65 b8 06 bd 97 06 d5 bc e0 b9 76 3c 8d 9f a0 bd
       -0.032890696 -0.026004119 0.0150589645 -0.07842932
000390 20 f0 99 3b f5 27 76 bc b2 5e 19 bd 42 13 b5 bd
       0.0046978146 -0.015024175 -0.037443824 -0.08841564
0003a0 0c 96 18 bb 6b 6b 51 bd 83 f0 1c be 65 27 f0 3b
       -0.0023282794 -0.051127832 -0.15326123 0.007328915
0003b0 5f ae 2a bd 1f 76 99 bd 3d 99 19 3c b4 fa 8e bd
       -0.0416702 -0.07493233 0.009374914 -0.069814116
0003c0 b7 60 cb bc 11 47 e5 bc 27 85 07 3c 7f 35 bb bd
       -0.02482639 -0.027987989 0.008271492 -0.09141063
0003d0 8f 89 43 bd 15 1b fd bb 92 a2 b8 bd 2d 51 98 3d
       -0.047738608 -0.0077241757 -0.09015383 0.07437358
0003e0 37 aa d3 bc 41 a0 15 be a0 ca 1e 3c 21 b5 16 bd
       -0.025838 -0.14611913 0.009691864 -0.03679383
0003f0 e1 cd d2 bd 76 cb ea bd 8c ae 94 bc 79 08 ae bd
       -0.102931745 -0.11464588 -0.018149637 -0.0849771

fc2.bias f4 [300]
000000 fb d8 08 be e0 66 e4 bb 90 93 eb bd 6c 74 c1 bd
       -0.13364021 -0.0069702715 -0.11502755 -0.09446034
000010 6c d9 a7 bc ee 6b 8c bd 30 3b d7 bc 7d c5 07 be
       -0.020489417 -0.068565235 -0.02627334 -0.1325893
000020 30 e9 e8 bc d2 8c b0 bd 1c 0a 2c bc a8 4c dc bc
       -0.028431505 -0.08620609 -0.010500457 -0.026892021
000030 49 53 ee bd bb 64 33 bd ba cf 2d 3f b8 d8 0b be
       -0.11636979 -0.043797236 0.6789509 -0.1365689
000040 f4 13 a2 bd cf 74 1c be 27 d1 a6 bd 04 b3 8f bd
       -0.07913962 -0.15278934 -0.081453614 -0.070165664
000050 e8 45 23 bc e5 f5 28 bf 53 d4 aa bd 79 77 d3 bd
       -0.009965397 -0.66000205 -0.08341279 -0.10325522
000060 3f f4 ba bd 60 d8 d2 3f cf da e8 bd a3 40 5a bd
       -0.091286175 1.6472282 -0.113698594 -0.0532843
000070 b2 80 cc bc 46 25 83 bd 37 40 d5 3f 35 ae dc bd
       -0.02496371 -0.06403594 1.6660222 -0.10775415
000080 a9 54 e7 bd ae 7a de bd e6 8a 65 bd 7e d0 ab bd
       -0.112954445 -0.10863243 -0.056040667 -0.08389376
000090 34 ec b9 bc bf aa ef bd ba d0 e0 bd e6 cd b6 bd
       -0.022695638 -0.11702489 -0.109773114 -0.08925991
0000a0 21 43 f7 bd c1 66 08 be fc 22 80 bd a1 8a c8 3e
       -0.12073351 -0.13320448 -0.06256673 0.39168265
0000b0 c1 1f 7c bd 94 05 9a bd d3 73 98 bd 50 cb 48 bd
       -0.06155372 -0.07520595 -0.07443967 -0.04902202
0000c0 af 9d 80 be 50 b2 95 bd 3f 49 48 bd 99 07 4e bd
       -0.25120303 -0.07309401 -0.048897978 -0.050300214
0000d0 62 1b f3 bc 4c 4f 00 bd 46 53 fe bd 5a c6 9f bc
       -0.029676143 -0.031325623 -0.12418227 -0.019503761
0000e0 39 56 c5 bc 12 d4 74 bd 4d 8e b0 3c 5c e1 91 3b
       -0.024088966 -0.05977256 0.02155223 0.0044519138
0000f0 ac 7b 15 be 65 cf 95 bd 2e b1 00 be 3c bd be bc
       -0.14597958 -0.07314948 -0.12567589 -0.023283593
000100 fd 8d 2e bd 3f 3b 1a bc 0b a0 5c bd c4 b7 04 be
       -0.04261588 -0.009413539 -0.053863566 -0.12960726
000110 35 65 ce bd c0 df 41 bd cb 5f a2 bd 23 31 64 bd
       -0.100778975 -0.047332525 -0.07928427 -0.055710923
000120 92 08 f7 bd c9 1d de bb 93 f3 ed bd 48 ce a4 bd
       -0.120621815 -0.006778453 -0.11618724 -0.080471575
000130 59 7d cf bd 6f 0d 24 be 41 1f 37 3f a6 96 f9 bc
       -0.1013133 -0.1602075 0.71532065 -0.030467343
000140 68 41 78 3e e0 45 19 bd c9 00 45 bd 18 7d 8a bd
       0.242437 -0.037420154 -0.048096452 -0.06762141
000150 44 09 ec bd 9d 70 ee bd 90 e5 99 bd 7f 6e 2f bd
       -0.11525205 -0.11642573 -0.07514489 -0.042829987
000160 0f 41 88 bd 08 42 02 be 27 e3 b1 bd e2 e4 e9 bc
       -0.06653034 -0.12720501 -0.08685904 -0.028551523
000170 84 54 4c bd b0 0c de bd a6 41 39 bd 4a d9 d9 bd
       -0.049885288 -0.10842264 -0.045228623 -0.10637148
000180 7e e5 44 bd 88 a3 a1 bd 42 f8 45 bf 30 ec c0 bd
       -0.048070423 -0.07892519 -0.77331936 -0.09420049
000190 03 19 96 bd d2 31 05 be 90 4f 1b bd c1 3d f5 bc
       -0.07328989 -0.13007286 -0.037917674 -0.029936673
0001a0 cd bf 94 bd 84 fe 90 bf df 37 4f bf 3f 76 ce bd
       -0.072631456 -1.1327672 -0.8094463 -0.100811474
0001b0 47 a6 8a bd 39 9a 1c bd f9 89 19 3c b2 bd 08 bd
       -0.06769996 -0.038233016 0.009371274 -0.033384033
0001c0 6e 1a 04 be 5e f7 b7 bd 5a cc f2 be 8b 97 a3 bd
       -0.12900707 -0.089827284 -0.47421533 -0.07987889
0001d0 d4 fe 1f be 9d 69 43 bd 08 4e 94 3f fa d2 c6 bc
       -0.15624553 -0.047708143 1.1586313 -0.024270523
0001e0 8b 36 ff bd a3 7b 87 bd b2 a8 85 3c ec 69 61 bd
       -0.12461575 -0.06615379 0.016315792 -0.055032656
0001f0 90 5e c9 bd 46 bb 0d bd 2d 12 9c bd 8f 9a ab bd
       -0.098324895 -0.034602426 -0.07620654 -0.08379089
000200 92 e2 34 bd 54 57 09 be 99 61 84 bd d7 00 c8 bc
       -0.044161387 -0.1341222 -0.06463928 -0.024414463
000210 32 af 2e bd 73 f8 2e bd b2 b6 e7 bd 60 85 61 bd
       -0.042647548 -0.04271741 -0.11314143 -0.055058837
000220 e1 74 fd bd c7 3c e1 bd 35 35 40 be 75 66 ab bd
       -0.123758085 -0.109979205 -0.18770297 -0.083691515
000230 1d bf 3b bd 2f a7 82 bd 1b 93 2d be ba aa 3b bd
       -0.045836557 -0.06379544 -0.16950648 -0.045817114
000240 22 0e 31 bd fd a3 e7 bd 16 50 88 bd 68 9f bb bd
       -0.04322637 -0.11310575 -0.066559 -0.09161264
000250 ac 6c e9 bd b8 6d 63 bd ca da 11 be c2 89 27 bd
       -0.11397681 -0.055524558 -0.14243618 -0.04090286
000260 4c 4c 5b bf 45 33 14 be db 1c ac bd 0e b0 ff bd
       -0.85663295 -0.14472683 -0.08403941 -0.12484752
000270 8a 51 df bd a2 e9 de bc 8c 9f e3 bd dd 06 0b bf
       -0.10904224 -0.027211014 -0.111144155 -0.5430735
000280 bb 03 b6 bd 91 a9 e9 bd ae 92 29 bd b0 37 eb bd
       -0.0888743 -0.11409295 -0.04139965 -0.11485231
000290 fc 7a ed bd 35 f2 12 3f a4 02 cb bd 5c cf 5c bd
       -0.11595723 0.5740083 -0.09912613 -0.05390869
0002a0 a5 b3 d4 bd 7a 05 bf bd 93 63 0e bd 5f 7c 6b bd
       -0.10385827 -0.093272164 -0.03476293 -0.057491656
0002b0 a8 c9 36 bd 7c 2d 6f be fb 41 e7 bd 63 38 83 bd
       -0.044625908 -0.23357195 -0.11291882 -0.06407239
0002c0 a5 3a d4 bd 3f f5 20 bd 07 23 f7 bc 5a ae cc bd
       -0.10362748 -0.039296385 -0.03016807 -0.099941924
0002d0 c1 2b 53 bf 8a 15 b0 bd 43 dd 71 be d0 b6 cf bd
       -0.8248864 -0.08597858 -0.23619561 -0.101422906
0002e0 c0 0d 5d 3f 32 90 82 bc e2 b8 3f bd 52 8d 0a be
       0.86349106 -0.015937898 -0.046807177 -0.13530472
0002f0 1e 43 dc bd ca ee 8c bd 4b f0 1c bd 6a eb 3d bd
       -0.10754989 -0.06881483 -0.0383151 -0.046367086
000300 1b bb 96 bc 3a fa 17 bd 3d 56 9b bd ba ec 16 bd
       -0.018399766 -0.03710387 -0.07584808 -0.036846854
000310 9d ea 06 be 47 96 85 bd a9 eb c6 bd a3 2b 55 bd
       -0.13175435 -0.06522804 -0.09712917 -0.05204357
000320 72 95 7e bd 7d 58 25 3f 8c 19 7e bd d2 9d 82 bd
       -0.06215424 0.6458815 -0.062036082 -0.06377758
000330 75 de f6 bd b1 1d ad bd 31 9f 15 be 0a 7d 8f bd
       -0.12054149 -0.08452929 -0.14611508 -0.07006271
000340 86 50 cc bc e4 1f 75 bd 6e 47 ed bd 21 40 d3 bc
       -0.02494074 -0.059844866 -0.1158589 -0.025787415
000350 94 95 82 bd 70 08 90 bd 18 6f e8 bd b2 92 e2 bd
       -0.06376186 -0.07032859 -0.113493145 -0.11063136
000360 86 94 a4 bd 5e 87 13 be 65 77 d4 bd 8b dc 8c bc
       -0.08036141 -0.14407107 -0.10374335 -0.017195007
000370 e8 b8 92 bd 5e cb dc bd c4 ce 0e be 7a 5f c6 bd
       -0.07164174 -0.10780977 -0.13946062 -0.096861795
000380 b9 a6 17 3f 30 ff 50 bd 2f 8d be bd c9 58 88 bd
       0.59238774 -0.051024616 -0.093042724 -0.066575594
000390 d6 b4 b6 bd 2e 4c 91 bd 84 76 be bd 28 4d cf bc
       -0.089212105 -0.07094608 -0.09299949 -0.025305346
0003a0 fc 28 00 bc cc ea 55 bd 1a d8 17 3c 9f 89 0a 3f
       -0.007822271 -0.052225873 0.009267831 0.54116243
0003b0 34 79 ef bd 25 30 fa bc 0c d2 aa bd 7a 36 da bd
       -0.116930395 -0.030540535 -0.083408445 -0.10654922
0003c0 0e d1 f1 bd 9a df 3c bd 63 b9 1b bd dc ec 57 bc
       -0.11807452 -0.04611168 -0.038018595 -0.01317903
0003d0 d9 f3 d0 bd 57 80 87 bd 4b 97 4f 3f 50 d6 17 bd
       -0.1020276 -0.06616276 0.8109023 -0.03706962
0003e0 90 98 4e bd db 3a 6b bd 0f 7e 89 bd 3f 1b b0 bd
       -0.050438464 -0.057429176 -0.06713497 -0.08598947
0003f0 c4 6d 92 bd 8e 48 20 bd ec df 6f bd 68 07 ce bd
       -0.071498424 -0.039131694 -0.058563158 -0.100600064

fc3.weight f4 [1, 300]
000000 e3 f8 33 3a be c1 32 bb 49 41 d9 3c fc 38 dd bc
       0.0006865395 -0.0027276124 0.026520388 -0.027004711
000010 79 be 96 bc f1 0d 95 3c 3c 65 e2 3b c6 44 60 3a
       -0.018401371 0.018195124 0.0069090407 0.000855517
000020 91 b1 b2 3c 10 37 dc bc 4f 74 96 3c 4e 82 7f bc
       0.021813186 -0.026881725 0.018366007 -0.015595032
000030 11 d9 88 3c 68 1c f8 3b b3 aa ac 3c b9 60 a7 ba
       0.016705068 0.0075717457 0.02107749 -0.0012769914
000040 a2 ae d1 3b a9 60 8b bc 68 bb b5 bc 20 22 7e 3b
       0.0063989917 -0.017013865 -0.022184089 0.0038777664
000050 13 d0 bf bc a7 b2 80 bc c6 80 69 39 be 1b 17 bc
       -0.023414647 -0.015710188 0.00022268583 -0.009222923
000060 cd a8 5c bc c5 9f b2 3c a9 cf b9 bc 31 30 38 3c
       -0.01346798 0.0218047 -0.022682028 0.0112419585
000070 75 59 af 3c e6 ba 8c 3b 83 2c 17 3d 7c 8e 79 bb
       0.021404961 0.004294741 0.036907684 -0.0038079312
000080 8f 91 95 bc 98 89 09 3b 40 18 73 bb 85 55 95 3a
       -0.018257884 0.0020986553 -0.0037093312 0.0011393285
000090 6d df 21 3c 21 6f 1c bc 9d 3a 93 3c d0 0b 8a bc
       0.009879929 -0.00954798 0.017972285 -0.016851336
0000a0 cd 02 99 3c 01 b8 3a 3c 51 5f 1f 3b 3e 62 9c 3c
       0.018678093 0.011396409 0.0024318288 0.019089814
0000b0 88 c7 f3 3b a1 14 81 3c 36 1c c8 ba 09 08 91 bc
       0.0074395575 0.015756907 -0.0015267197 -0.017704027
0000c0 9d 4c eb bc 8b 3c a8 bc 06 b9 de bc 35 2c 2f 3c
       -0.028723055 -0.020536682 -0.027187835 0.010691692
0000d0 29 7e e5 3b 4f a6 e1 bc 3d 97 be 3c d0 7e e1 bb
       0.007003565 -0.027545122 0.023265475 -0.0068815723
0000e0 31 d7 dd 3c 4d be 86 bc 01 26 d7 3c 4b b5 00 bc
       0.02708015 -0.016448164 0.026263239 -0.007855724
0000f0 7c c1 be 3c 46 51 08 bd cd 68 e9 bc d0 5a df 3c
       0.02328562 -0.033280633 -0.028492356 0.027264982
000100 48 d8 c1 bb ef 9d d0 bc ad 12 ca 39 25 ed 9c 3c
       -0.0059156753 -0.025465934 0.00038542357 0.019156048
000110 69 8d 48 bc dd 33 aa b9 3a 20 0d bd 48 45 3c bc
       -0.012240746 -0.00032463568 -0.03445456 -0.011491127
000120 95 01 5b 3c e7 cd a7 bb bd 89 23 ba f1 4f 8d 3a
       0.013367076 -0.005120981 -0.0006238481 0.0010781271
000130 98 bf 1a 3c e8 b0 83 bc 11 1a ee 3c 74 90 5c bc
       0.009445094 -0.016075566 0.029065164 -0.013462175
000140 31 82 9b 3c cb fb 95 bc c4 05 3d 3c 36 cc be bc
       0.018982979 -0.01830854 0.011537019 -0.023290735
000150 25 74 d7 bc dc 5a 62 bc ad 8d 3c 3c 3a 3d 48 3c
       -0.0263005 -0.013815608 0.0115083875 0.012221629
000160 ce 11 b1 3c a1 ea 90 3c 00 ad 5b ba af a9 ef 3c
       0.021614935 0.017690005 -0.0008379966 0.029255716
000170 ac eb 3e bb dc a7 6c bc 08 aa cf bc 53 24 c6 3b
       -0.002913217 -0.014444318 -0.025349632 0.0060468107
000180 99 12 a0 bc d6 62 20 bb fd 21 10 bd e8 1e b7 ba
       -0.019540118 -0.0024472973 -0.035188664 -0.0013971003
000190 12 11 c1 3c 08 cd a5 bc f1 8c 77 3c 3d fc 28 3c
       0.02356771 -0.020239368 0.015109287 0.010314045
0001a0 7c b0 de bc 75 3d b7 bc 00 33 3e bc 2f b3 54 3c
       -0.027183764 -0.022368172 -0.011608839 0.012982174
0001b0 47 3a c9 3c b7 3c 88 3b 2b 7c a2 bc 67 8c 92 3c
       0.024563922 0.0041576284 -0.019834599 0.017889215
0001c0 b5 c0 35 bc 51 40 b0 bc c1 70 5f bc b4 bb e0 bc
       -0.011093308 -0.021515043 -0.0136377225 -0.027433254
0001d0 74 0b fb bb 40 bb 53 3c 42 6a b8 3c 28 f9 be bc
       -0.0076612774 0.012923062 0.022511605 -0.023312166
0001e0 a6 dc 14 3c 60 d6 1d bc fc c0 9f bb 20 52 ca 3c
       0.00908581 -0.0096336305 -0.0048753005 0.024697363
0001f0 68 78 06 ba 18 1a 4c bb e7 8e d9 3b 06 c1 98 bc
       -0.0005129636 -0.0031143483 0.0066393497 -0.018646728
000200 2e d9 8d 3c 1a 14 df bc c6 4f b6 3b ae 38 a0 bc
       0.017315473 -0.027231265 0.005563709 -0.019558277
000210 21 94 b3 bc fb e8 8b bc e5 3a 40 bc b9 10 7c bc
       -0.02192122 -0.017078867 -0.011732792 -0.015384846
000220 2c a0 40 3c 39 93 e8 bc e6 2b 69 3b 0c be 69 bc
       0.011756938 -0.028390514 0.0035579144 -0.014266502
000230 eb ab d1 bc 66 d2 33 bc e0 00 13 bc e0 6e 75 bb
       -0.025594672 -0.010975456 -0.008972377 -0.003745012
000240 bb 94 bf bc d0 31 a2 3c 74 2d 79 bc 13 5e 99 3c
       -0.02338635 0.019799143 -0.015208591 0.018721616
000250 34 57 ae bb 6f c6 99 bb 9f 86 71 3c fe eb 30 3b
       -0.005320454 -0.0046928446 0.014741569 0.002699613
000260 56 c3 e3 bb fc 1e e7 bb 1f 1e 2c 3c 6e f6 41 3c
       -0.006950776 -0.007053254 0.010505228 0.011838539
000270 72 23 e8 3b f0 4b d5 bc 18 5f c7 3c eb cc 8f bc
       0.0070843035 -0.026037186 0.024337336 -0.017553767
000280 c1 be 6a 3c ad c7 d9 bb 32 31 25 bb c3 bb eb 3b
       0.014327706 -0.0066461177 -0.0025206325 0.007194014
000290 42 1c 9e bc 78 32 89 3c 54 a4 3f 3b 3e 5b e7 bb
       -0.019300584 0.016747698 0.0029242234 -0.0070604375
0002a0 6c 56 42 bb 6f b9 c7 3c 8d fd 63 3b ef 6b b1 bb
       -0.0029653562 0.024380414 0.003478858 -0.005414478
0002b0 28 ac cc bc e5 d0 67 3c 66 d0 f2 bc 34 9c 1f bb
       -0.024984434 0.014148925 -0.029640388 -0.002435458
0002c0 14 10 ee bb 49 cb 66 3c 1a 95 48 bb 59 0d f7 bb
       -0.0072651003 0.014086553 -0.003060645 -0.007539433
0002d0 e9 74 87 bc d3 e7 04 bc 33 30 00 3b e7 98 60 bc
       -0.01653524 -0.008111912 0.001955998 -0.01370833
0002e0 19 e2 ef 3c 27 74 ab bc a9 c0 b1 3c 08 0f 70 3c
       0.029282616 -0.02092941 0.021698313 0.014652021
0002f0 56 2f c7 bb 56 45 c0 3b f1 cc f1 bc 21 3c c9 3c
       -0.006078641 0.0058676405 -0.029516669 0.024564805
000300 e9 07 f6 3b 5f f5 d2 bc a1 b8 a2 3c ff e1 63 3c
       0.007508267 -0.025751768 0.019863429 0.013908862
000310 72 28 b3 bc 09 29 40 3b ea 2a ff 3b 48 e2 c4 3c
       -0.021869872 0.0029321334 0.007787098 0.02403368
000320 09 ab 81 3c 84 b1 85 3c 61 6b b6 3c 20 37 aa 3a
       0.015828626 0.016319998 0.022268 0.0012986399
000330 e8 75 94 bc 9c 16 66 3b da 80 d7 3c fa d5 e4 bb
       -0.018122628 0.003510869 0.026306558 -0.006983516
000340 19 c8 4b 3b 9a 00 36 3c 78 c3 94 39 14 60 73 bb
       0.003109461 0.011108542 0.00028374395 -0.0037136124
000350 e2 c2 f4 3c e8 07 b1 bc c1 87 22 bc 43 3c ad bc
       0.029878084 -0.021610215 -0.009920062 -0.0211469
000360 1c dc 07 3c 48 d4 eb 3c b1 36 d3 3c 1c d1 65 3c
       0.008292224 0.028787747 0.025782915 0.014026906
000370 3d 5e c9 3b 0d fc cf bc d1 ef 26 bd bc 3e 91 bc
       0.0061452673 -0.025388742 -0.04075605 -0.01773011
000380 14 34 d4 3c 86 c3 55 ba 12 41 52 bb 85 dd e2 3c
       0.025903739 -0.00081544404 -0.0032082242 0.02769352
000390 3a 00 dc bc 71 b8 f8 bc 35 ac e4 3c 9d 82 d8 ba
       -0.026855577 -0.030361386 0.027914146 -0.0016518418
0003a0 4a d2 c3 3c 6f 70 d0 bb 6b 20 14 3c f1 0c 84 3c
       0.023903985 -0.0063610594 0.009040932 0.016119452
0003b0 3b 95 a3 bc 36 0a ae bb 03 17 84 3b 47 f0 c7 3b
       -0.01996862 -0.005311276 0.0040310635 0.0061016413
0003c0 db ec 0d bc 0f d1 a5 3c a6 72 ca bc 78 67 0c 3b
       -0.008662428 0.020241288 -0.024712872 0.0021423977
0003d0 12 36 44 3c 5b db 69 bc 45 74 26 3c ce 3d f6 bc
       0.011975782 -0.01427349 0.010159557 -0.030058768
0003e0 db 8e 4b bc 89 6a bf 39 cf d1 72 bc bc a7 ab 3c
       -0.012424196 0.00036509734 -0.01482053 0.020954005
0003f0 6c c6 b2 3b d7 9d 33 bc 80 a4 07 bc ee a4 e0 3c
       0.0054557826 -0.010962925 -0.008278966 0.027422395
