checkpoints/checkpoint_critic_2900.pth (torch, 543887 bytes, 5 tensors)

fcs1.weight f4 [400, 33]
000000 72 c4 9f be f9 57 31 3e 4d c8 1c 3f 18 c1 05 bf
       -0.31204563 0.17318715 0.61243135 -0.5224776
000010 93 b6 91 3e 82 d9 01 3e 2c b8 c1 be bb 65 0b 3e
       0.28459606 0.12680629 -0.37835824 0.13613026
000020 10 b3 57 bf 51 5a 16 3e bf 52 b8 bd 1a af 61 3e
       -0.842576 0.1468289 -0.090001576 0.22039452
000030 d5 74 e4 3d 1b 6a d1 be 73 82 04 3f 1a 15 55 be
       0.111550964 -0.40901265 0.5176155 -0.20808831
000040 f3 d2 98 be bf 47 a0 39 7a 36 0c be 18 bb 67 3e
       -0.2984844 0.00030571033 -0.13692656 0.22629964
000050 8c 58 1f bd 27 db 01 3d 25 1b 02 3e d3 e5 82 be
       -0.038902804 0.03170314 0.12705667 -0.25565967
000060 cb 7c ad 3e 5e e0 5d bc a6 33 50 3e e7 48 a1 3f
       0.33884272 -0.013542263 0.20332202 1.2600373
000070 9c dd d9 3e 76 7f 9a 3c 9f 54 a2 bf e4 87 79 3c
       0.42551887 0.018859606 -1.2682074 0.015230153
000080 2a 45 07 40 fd 2b b5 be 2c 50 b7 be 12 f9 9b bf
       2.1135964 -0.35385123 -0.35803354 -1.2185385
000090 5e 4a 21 be a3 f2 39 3d 9c e9 b8 3d 4c d1 48 3e
       -0.15751025 0.045397412 0.090289325 0.1961109
0000a0 b8 87 db 3b df 7b 4b 3e 40 e1 db be 37 04 aa bc
       0.0066995285 0.19871472 -0.4294529 -0.020753963
0000b0 12 41 f9 3d 92 c3 cb 3a 86 4f 46 3e 2a 56 a9 3e
       0.12170614 0.0015545955 0.19366273 0.3307355
0000c0 6a 02 ad 3f 3d 24 a8 bd 4d 5e 0b bd 0e 06 37 3e
       1.3516362 -0.08210037 -0.03402548 0.17873403
0000d0 5f 12 3d be 7f b3 d3 bd c5 ee 61 3d 32 01 54 3d
       -0.1846404 -0.103369705 0.05515935 0.051758952
0000e0 82 ec a0 bd 83 38 87 bd 49 6a 03 3e ea 13 0e bd
       -0.0785761 -0.06602576 0.12833513 -0.03468696
0000f0 60 e7 dc 3e aa c8 41 bf 50 bf b4 bc b6 67 eb be
       0.43145275 -0.75696814 -0.022063881 -0.45977563
000100 d5 e6 40 3d dc f1 23 bf bb 2a 1b bd da 09 2c bf
       0.04709514 -0.64040923 -0.037882548 -0.6720253
000110 03 dc cc 3e 8f e2 18 3c 17 20 a0 3b 42 4d 50 3d
       0.40011606 0.0093313595 0.004886638 0.05085493
000120 42 25 44 bd 14 b1 57 bd e7 46 a0 bf 6a b4 81 3b
       -0.047887094 -0.05265911 -1.2521638 0.0039582746
000130 86 c9 2f 3f 36 b9 83 be 85 36 f3 3a 1a 12 25 3d
       0.68666875 -0.25727242 0.0018555677 0.040300466
000140 ee 42 97 3e 6e d2 f6 bd cd 58 8a be 6f 6e c1 bd
       0.2954325 -0.12051855 -0.27020875 -0.09444892
000150 d6 2d 5d 3e 51 fd 11 bd f7 2d b8 bd 0f b1 a5 3e
       0.21599516 -0.035641972 -0.08993142 0.32361647
000160 88 30 cb 3d c0 f1 e5 be c6 02 51 3e e2 d8 cb be
       0.09921366 -0.44911003 0.20411214 -0.39813906
000170 20 53 82 be ca 5c 31 3e 36 c1 db be e8 34 23 3c
       -0.25454044 0.17320552 -0.42920846 0.009961344
000180 46 35 06 be 30 62 14 bd eb 59 33 bf ec 4c fb be
       -0.1310626 -0.03622645 -0.7005908 -0.49082124
000190 2a 4f 0d 3f 85 cd b4 3d 0d dc 30 bf f1 2d 4a 3f
       0.5519892 0.08828262 -0.6908577 0.7897635
0001a0 48 dd 56 3e a0 74 ef 3d f8 d4 62 bd 7b 03 6f bf
       0.2098285 0.11692166 -0.055378884 -0.93364686
0001b0 3a de b5 bd c4 34 e6 be 1d c7 73 3e b4 50 bd 3e
       -0.08880277 -0.44962132 0.23806424 0.36975634
0001c0 c9 fc 91 3e e7 e2 43 3f 60 2e e7 3e e9 2b e0 3e
       0.28513172 0.765181 0.4515257 0.437835
0001d0 b1 2a 21 be 4a 7c 71 be 0c 69 c9 3e ac 51 01 3f
       -0.15738942 -0.23582569 0.39337957 0.50515246
0001e0 99 83 52 be 07 11 87 3d ee 29 ab 3e 6f 9b a7 bd
       -0.20558013 0.065950446 0.33430427 -0.081839435
0001f0 32 b6 54 3e 25 a4 11 3e 74 c2 a4 3f 5e 90 be 3d
       0.20772627 0.14222772 1.2871842 0.093048796
000200 34 02 8a bc 58 18 9c bf 98 6c 40 bc 50 2c 4b be
       -0.016846754 -1.2194929 -0.011744641 -0.19841123
000210 10 11 8a be f7 e7 7b bc db ee 50 bf 03 4c b4 bd
       -0.26966143 -0.015375129 -0.81614465 -0.088035606
000220 6f d4 52 3d 50 b6 9d bd 8e 0f a6 bd cd c7 1e be
       0.051472124 -0.07700789 -0.081084356 -0.15505905
000230 7e a0 ea be d1 7f 07 bf 2e e4 27 be f5 f2 b0 3e
       -0.4582557 -0.5292941 -0.16395637 0.34560362
000240 44 d8 3e be 09 c5 0e 3e 20 4f 1a 3f 3a 42 22 3f
       -0.18637186 0.1394235 0.60276985 0.63382304
000250 96 f1 37 be cb fd c9 bb 5f 8a fb 37 88 02 9c 3e
       -0.17963251 -0.0061642877 2.9985966e-05 0.3047068
000260 ae 8e d9 3d 28 5f 4d be a9 d1 40 3e 28 93 34 3e
       0.10622917 -0.2005583 0.18829979 0.1763426
000270 ef eb ec 3e 07 61 df 3e 0a 0c 64 3e f8 30 ce 3f
       0.46273753 0.43628713 0.22270218 1.6108694
000280 6f 02 12 bc ac ad 0f 3c ca 2e d3 bf 6c 52 8c bc
       -0.008911713 0.008769434 -1.6498654 -0.017129146
000290 08 f7 bf bf 3a 16 7f 3d 68 8b 2b bd 65 f4 e2 be
       -1.4997263 0.062277056 -0.041880995 -0.44327083
0002a0 ee 6e f3 bb 1e f7 ce 3b b9 93 67 3d f1 52 d4 3e
       -0.0074289953 0.0063160798 0.056537364 0.4146953
0002b0 81 bd 72 3e 03 cb 05 bf 64 63 a4 be b5 94 ba 3e
       0.23705103 -0.52262896 -0.3210708 0.3644158
0002c0 31 8a 13 3e ff ec ce 3d 4d f4 29 3e 25 62 1e 3d
       0.14408185 0.10103797 0.165971 0.038667817
0002d0 d8 31 50 3f e8 58 89 3d cb 96 24 3e ab 5a 04 be
       0.81326056 0.06706411 0.16073148 -0.12925212
0002e0 b1 0d 59 3d ea 07 dc 3d 51 c2 4a 3d 00 20 a1 bd
       0.052991573 0.10743697 0.04950172 -0.07867432
0002f0 96 01 33 bd 56 83 ef 3c 7d b3 aa 3e 27 f9 22 bf
       -0.043702684 0.02923743 0.33340064 -0.63661426
000300 21 23 ab 3f bb 4a f4 be fd 04 1d 3d 7b b8 a6 bf
       1.3370095 -0.47713265 0.038334835 -1.3025049
000310 fd 75 0c 3d 56 1e 11 c0 c1 4c be bb 29 b8 7a bf
       0.03429221 -2.2674766 -0.0058074896 -0.97937256
000320 0e 87 1b 3f e4 06 7a 3e 9b 38 4b bf ca 23 d4 3e
       0.6075295 0.24416691 -0.7938325 0.41433555
000330 39 42 b1 3b 03 44 f1 bd 72 a3 f6 be 72 bd 02 3f
       0.0054095057 -0.1178055 -0.48171574 0.5107032
000340 41 30 34 be a0 65 4e be 5c bb 34 bd 87 72 69 bd
       -0.17596532 -0.20155954 -0.044123992 -0.056993987
000350 70 38 92 3e 4d 38 9c bd 57 67 af bd 9c 04 55 3d
       0.28558683 -0.07627926 -0.085646324 0.05200635
000360 44 25 02 be 52 f4 32 3d 5e 5e 4d 3d 9c b6 f4 3d
       -0.12709528 0.043690033 0.050138824 0.119488925
000370 b5 fa 3c 3d 5e 27 99 39 1d b8 17 bd 0e ba 02 3e
       0.04613753 0.00029211765 -0.03704082 0.12766287
000380 73 91 25 3d 6c b8 94 3f c0 13 fd 3e 64 d1 72 3c
       0.040421914 1.1618781 0.4942913 0.01482043
000390 bc aa 8b bf e7 cc df bc 64 43 f8 3f dd 8b f9 be
       -1.0911479 -0.027319385 1.9395566 -0.4873952
0003a0 15 a1 63 bb 16 8b 22 3f a0 c0 37 be f4 5c fa bd
       -0.0034733464 0.6349348 -0.17944574 -0.12224761
0003b0 fe d0 dd bc 6b 27 f8 3c 80 79 9c bc 21 ce 9f be
       -0.027077194 0.030292233 -0.019100904 -0.3121195
0003c0 4c d8 a1 be 06 00 77 be 36 00 ab bd 4b 36 cc 3d
       -0.31610334 -0.24121103 -0.083496496 0.09971293
0003d0 2d 42 1e 3e de ce 47 be 62 2f 0a bf 57 44 c7 3d
       0.15454932 -0.19512507 -0.5397855 0.09729832
0003e0 71 cf 72 bc 90 7e 40 bd 9f 85 89 bd ed b4 81 bd
       -0.014819966 -0.0469957 -0.06714939 -0.06333337
0003f0 23 eb ed 3b c0 32 d9 3c 02 e0 a6 3e fd 9c e2 bd
       0.0072606965 0.026513457 0.3259278 -0.110650994

fcs1.bias f4 [400]
000000 1a 32 a8 bf 37 ee 03 bf 3a de 1f 3c 81 7b 9e bf
       -1.314029 -0.5153536 0.009757573 -1.238144
000010 4c cc e4 bf f8 d6 b9 bf 67 b4 a1 bf d5 8a 36 3f
       -1.7874846 -1.4518728 -1.263318 0.7130559
000020 92 9f f2 bf 22 5e fd bf 4b ed 5e bf c0 58 d5 bf
       -1.8954947 -1.9794352 -0.8708083 -1.6667709
000030 c5 1f ca bf fa a3 6f bf 0f 9f b8 bf 0a 20 79 bf
       -1.5790945 -0.93609583 -1.4423541 -0.9731451
000040 9d a5 ea bf 08 eb 70 bf 83 96 95 bf 95 46 b2 bf
       -1.8331791 -0.9410863 -1.1686558 -1.392779
000050 48 34 b0 bf e3 f0 a1 bf e8 3e 73 bf 94 26 00 c0
       -1.3765955 -1.2651638 -0.9501786 -2.0023546
000060 91 55 a1 bf ef 8f f5 bf 24 16 90 bf 42 6b aa bf
       -1.2604238 -1.918455 -1.1256757 -1.3313982
000070 8d 44 f4 bf cd 0c d7 bf a4 76 fc bf c9 a6 37 be
       -1.908342 -1.6800781 -1.9723706 -0.17934717
000080 15 ca c8 bf 33 fb 68 bf ad da 9c bf 9c d0 37 bf
       -1.568667 -0.910083 -1.2254235 -0.7180269
000090 25 68 c1 bf 25 24 f5 bf 8f 2f 7e bf 93 92 9b bf
       -1.5109907 -1.9151655 -0.9929132 -1.2154106
0000a0 fb 1a 14 bf bb ce 72 be f4 f8 f1 bf f6 a8 11 bf
       -0.5785367 -0.23711674 -1.89041 -0.5689844
0000b0 1e f7 a9 bf c2 76 e8 be 11 13 a4 bf e6 fe be bf
       -1.3278539 -0.45403105 -1.2818319 -1.4921539
0000c0 42 32 f2 bf f7 e8 fc bf ef 9e bc bf cd e2 78 bf
       -1.8921587 -1.9758595 -1.4736003 -0.9722107
0000d0 f4 6c da bf 3c 88 87 bf 42 87 9f bf d8 18 8f bf
       -1.70645 -1.058845 -1.2463152 -1.1179457
0000e0 f7 03 e5 bd cd 78 b4 bf 5c cf 97 bf 04 b9 75 bf
       -0.11182397 -1.4099365 -1.1860156 -0.95985436
0000f0 ae b0 12 c0 3f 5b a0 bf 52 3e 3d bf fe 46 56 3e
       -2.2920337 -1.2527846 -0.7392322 0.20925519
000100 46 3a 80 bf b3 f4 b0 bf 2c f1 a8 bf 0b 67 81 be
       -1.0017784 -1.3824676 -1.31986 -0.25273928
000110 37 5f a5 bf 2e af 9c bf 26 42 b0 bf a7 f8 bf be
       -1.2919682 -1.2240961 -1.3770187 -0.37494394
000120 3e aa 87 bf 77 97 a2 bf 59 e7 a6 bf dd ab f2 bf
       -1.0598829 -1.2702473 -1.3039352 -1.8958699
000130 6d fc 8d bf 52 05 b9 bf f7 69 26 bf fe 71 ec bf
       -1.1092659 -1.4454749 -0.6500544 -1.8472288
000140 e0 5c 68 bf 70 20 8c bf c3 33 9e bf 53 e8 e0 bf
       -0.90766716 -1.0947399 -1.2359546 -1.75709
000150 18 2c c3 bf 39 cd 51 bd cf c9 d6 bf 13 e3 25 bf
       -1.5247831 -0.051221106 -1.6780337 -0.6479961
000160 d2 28 95 bf 88 74 c3 bf b6 7f 32 bf a0 27 f2 bf
       -1.1653082 -1.5269938 -0.6972612 -1.8918343
000170 3e 35 cf bf 61 92 ea bf 80 f3 ab bf 40 bf d7 bf
       -1.6188123 -1.8325921 -1.3433685 -1.685524
000180 32 f8 96 bf f1 d3 8a bf 95 a6 c6 bf 6c 02 cb bf
       -1.1794493 -1.0845929 -1.5519587 -1.5860114
000190 cd 2f ca bf 0f 68 54 bf 05 92 7c bf af 91 97 be
       -1.5795838 -0.8297128 -0.9866031 -0.29603335
0001a0 92 12 8c bf 91 47 68 bf 11 cd 9b be f7 30 de bf
       -1.0943167 -0.907342 -0.3042989 -1.7358693
0001b0 5c 5c d9 bf 32 50 5b bf e1 8f 80 bf 9d 7c 5c be
       -1.6981311 -0.85669243 -1.0043908 -0.21531911
0001c0 95 da ee bf 9d ea 83 bf 1b ca 11 bf 2e 89 a0 bf
       -1.8660456 -1.0305973 -0.56949013 -1.2541864
0001d0 dd ca 89 bf a2 cd fe bf 39 c9 b3 bf 04 9f 9e bf
       -1.0765034 -1.9906504 -1.4045783 -1.2392278
0001e0 91 20 f4 bf 0d 7b fc bf 41 26 38 bf 2e 66 e0 bf
       -1.9072438 -1.9725052 -0.7193337 -1.7531183
0001f0 89 64 f7 bf 83 68 b9 bf 5d ec 8f bf f9 87 ac 3e
       -1.9327556 -1.448502 -1.1244007 0.3369749
000200 15 1d bb bf e7 dd ef be dd a0 b2 3d 83 82 1b bf
       -1.461825 -0.46848986 0.087220885 -0.6074602
000210 8f b6 93 bf 01 af d4 bf 06 e6 aa bf 36 fa ce bf
       -1.1540087 -1.6615907 -1.3351448 -1.6170108
000220 04 38 a1 bf 90 10 b8 bf ab 38 dd bf 68 80 2e bf
       -1.259522 -1.4380054 -1.7282919 -0.6816468
000230 72 0f b4 bf 1a 51 88 bf b1 bd a8 bf d9 36 62 bf
       -1.4067214 -1.064975 -1.3182889 -0.8836494
000240 87 07 ac bf be a6 68 bf 0e 2d bd bf d5 c2 ff bf
       -1.3439797 -0.9087943 -1.4779375 -1.9981333
000250 c1 b1 23 c0 8f 8e a3 bf f5 0d 12 c0 d2 ec c8 bf
       -2.5577242 -1.277788 -2.2821019 -1.5697272
000260 3b 38 71 bf f9 c0 b4 bf ee c3 c4 bf 9f 73 e7 bf
       -0.94226426 -1.412139 -1.5372293 -1.808216
000270 1e 96 fe bf 0b b3 a0 bf 6a a4 8b bf 97 f4 cb bf
       -1.9889562 -1.255464 -1.090955 -1.5934018
000280 be 4a e3 bf 14 49 d4 bf 7f ee ab bf e4 a2 3d bf
       -1.7757185 -1.6584802 -1.3432158 -0.74076676
000290 21 9e df be 9c 78 c7 bf 9e 4b d9 bf 22 e6 51 bf
       -0.4367533 -1.5583682 -1.6976202 -0.8199178
0002a0 af 63 a6 bf f2 e6 a5 bf 24 12 8a bf aa b7 74 bf
       -1.2999171 -1.2961104 -1.0786786 -0.9559275
0002b0 85 2e dd bf 24 d7 2f bf d4 d5 d7 bf 42 f3 75 bf
       -1.7279822 -0.68687654 -1.686213 -0.96074307
0002c0 eb 8c d2 bf 17 59 a2 bf 60 9c 0d c0 aa e7 cd bf
       -1.6449255 -1.2683438 -2.2126694 -1.6086323
0002d0 d0 82 f8 bf a4 eb b4 bf 1c 9a 8f bf 2a ea b3 bf
       -1.9414921 -1.4134412 -1.1218905 -1.4055836
0002e0 f7 40 c8 bf 53 50 b0 bf 2e f0 13 bf 43 3f a9 bf
       -1.5644826 -1.3774513 -0.5778836 -1.3222431
0002f0 23 f0 a3 bf 3d db a9 bf 54 54 bd bf 0c 5d d5 be
       -1.2807659 -1.3270031 -1.479136 -0.41672552
000300 38 b6 8b bf de 09 ba bf 7e 42 51 bf 7a 7f e2 bf
       -1.0914984 -1.4534261 -0.81742084 -1.7695153
000310 8c 7f c3 bf 67 78 bc bf 30 4b b7 bf 8e 2b c1 bf
       -1.5273299 -1.4724244 -1.431982 -1.5091417
000320 07 8f f0 bf 6c 37 67 3e d0 24 47 bf ef 47 8f bf
       -1.8793648 0.22579736 -0.77790546 -1.1193827
000330 bb ac 18 c0 e9 d0 ae bf a6 76 5a bf 0b e3 8a bf
       -2.3855426 -1.3657504 -0.85337293 -1.0850538
000340 f9 0b 77 bf ea 34 2a be 1f 5d ec bf 37 fe 95 bf
       -0.96502644 -0.16621748 -1.8465918 -1.1718205
000350 13 a2 99 bf 82 b1 a9 bf a5 f0 d9 bf 65 d4 2b bf
       -1.2002586 -1.3257296 -1.7026564 -0.67120963
000360 66 8e f4 3e 75 d3 82 3f d8 e6 b8 bf 26 d2 89 bf
       0.4776489 1.0220782 -1.4445448 -1.0767257
000370 7a 2e bb bf df 31 61 bf 06 6a fb bf a4 ca 8d bf
       -1.4623559 -0.8796672 -1.9641731 -1.1077466
000380 dc 37 25 bf b6 56 a6 bf 02 a4 ab bf d3 6f c5 bf
       -0.6453836 -1.2995212 -1.3409426 -1.5424751
000390 dd db fe bf be 9b 9b bf 02 53 c2 bf 45 e0 cd bf
       -1.9910847 -1.2156904 -1.5181582 -1.6084067
0003a0 03 ac 83 bf f1 6a 96 bf cd 90 49 bf ae 22 ca bf
       -1.0286869 -1.1751386 -0.78736573 -1.5791833
0003b0 0a 39 91 bf 80 54 00 c0 5f 6a f1 bf e5 61 0f bf
       -1.1345532 -2.0051575 -1.8860587 -0.5600875
0003c0 63 b4 d5 bf c7 c4 0f c0 94 c9 9e bf e1 e8 9b bf
       -1.6695675 -2.2463853 -1.2405267 -1.2180444
0003d0 26 17 bb bf 32 78 96 bf 45 be 81 bf f0 1b a0 bf
       -1.4616439 -1.1755431 -1.0136191 -1.2508526
0003e0 8b ea 10 bf 6d a2 78 bf 43 88 b4 bf e0 c7 b9 bf
       -0.56607884 -0.9712284 -1.4104084 -1.4514122
0003f0 95 4a b5 bf 0d 3c e1 bf 90 9e f3 bf db 17 9c bf
       -1.4163386 -1.7596451 -1.9032764 -1.219478

fc2.weight f4 [300, 404]
000000 b5 1e 13 bc 42 e9 ac bd 72 bb 8d bd e8 cc 27 bd
       -0.008979489 -0.08442928 -0.06920518 -0.0409669
000010 0e 24 bf bc d8 35 58 bd e0 59 7c bc c7 6e 8b bd
       -0.023332622 -0.052785724 -0.015402287 -0.068082385
000020 2c ba 1b 3d c8 e6 10 be 66 c0 7f bd c6 73 10 be
       0.038019344 -0.14150536 -0.062439345 -0.14106664
000030 d1 93 4d 3d 5c e9 56 bd 15 2a 48 bd eb 1f 42 bd
       0.050189797 -0.052468643 -0.048868258 -0.04739372
000040 90 17 a8 3d be 7f d9 bb 86 60 82 3c e3 7c f1 3c
       0.08207619 -0.0066375425 0.015915167 0.029478496
000050 39 c5 13 3d 7c 99 75 bc 2b 55 f7 bd 72 8f 8e bd
       0.036076758 -0.014990207 -0.120767914 -0.06960954
000060 0c 73 ac 3c 2b c7 e9 bd c0 bc 26 3b 70 bb bd bd
       0.021050952 -0.114149414 0.0025442094 -0.092642665
000070 e4 ad 6d bd 8f 3b 9c 3c 9b bd 32 3c b1 06 2d bd
       -0.058027163 0.019071369 0.010909463 -0.04224271
000080 1c 16 e6 bc b4 2a 74 bc c4 e2 2d 3d e0 68 a1 bc
       -0.028086714 -0.014902759 0.04245259 -0.019703329
000090 51 e9 4c bd 30 c7 1f bc 83 cb da bd 57 28 04 bd
       -0.050027195 -0.00975208 -0.10683348 -0.032265034
0000a0 3b b8 88 3c 79 d9 0d be b0 ec 13 be 77 23 e6 bc
       0.01668941 -0.1385249 -0.14445758 -0.028093083
0000b0 56 93 9b bc 2c b4 8f bc 4e 1e ab bc 59 de bc bd
       -0.018991154 -0.017541967 -0.020888474 -0.09222097
0000c0 7f b5 21 3c 25 de f6 bb 93 4e b6 bd 56 bc 08 bd
       0.009869932 -0.007533806 -0.089017056 -0.033382736
0000d0 d1 32 98 bd ed 9f 57 bd 7c 99 0d 3d e6 ac 27 be
       -0.074315675 -0.05264275 0.034570202 -0.1637455
0000e0 0b f9 9b 3c f1 4b fc bd c2 aa df bd 7e 19 b2 bd
       0.019039651 -0.12319172 -0.10921241 -0.086962685
0000f0 dd 6a 21 bd 5d 23 10 be 15 ed ba bd aa b5 11 be
       -0.039408553 -0.1407599 -0.09127251 -0.14229456
000100 14 29 cc 3d b0 df 8b 3c ad f5 80 bd d8 ee ea bc
       0.099687725 0.017074436 -0.06296859 -0.028678343
000110 4b fc 22 3d ba f7 b9 bd ae ea 5a 3b bd 92 8a bd
       0.039791387 -0.09080453 0.003340404 -0.06766269
000120 8b d6 19 bd 80 1e b4 bd ec dc 07 bd c7 ab cd bc
       -0.03755812 -0.0879488 -0.033169672 -0.025106324
000130 22 0d e1 bd 0b 45 01 be 8d 86 bc bd 4f c2 0c bd
       -0.10988833 -0.12623994 -0.09205351 -0.034364995
000140 df 35 b8 bd 1c 1f 08 bd c8 c4 41 bd 66 e9 c7 bd
       -0.0899465 -0.033232793 -0.047306806 -0.09761314
000150 e5 de 05 be 1e 11 03 bd 80 f6 27 3b d9 5e dd bd
       -0.13073309 -0.031998746 0.0025629103 -0.108091064
000160 6a 42 e5 3a 4d 72 71 bd b5 bc 0c bd 33 23 09 bd
       0.0017491106 -0.058946896 -0.034359653 -0.033480834
000170 b4 0c ba 3b 81 a2 f4 bd bd ea d1 bd e0 47 91 bc
       0.005677784 -0.11945058 -0.10249851 -0.017734468
000180 c8 29 f3 bd 13 a8 9a bd 1e df 33 bd 03 44 60 bc
       -0.118732035 -0.07551589 -0.043913953 -0.01368809
000190 a6 64 d9 bc a8 9f b3 bd a6 5b eb bd 29 2b 0b 3d
       -0.02653725 -0.087706864 -0.1149209 0.033976708
0001a0 b6 1d 07 bd 2f f5 b7 bd 21 57 84 bd 21 ca e7 bd
       -0.03298732 -0.08982312 -0.06461931 -0.1131785
0001b0 23 33 11 bd 8f 2f 52 bd 1a 5a 49 3d 5d 26 9e bd
       -0.03544916 -0.051314887 0.049158193 -0.07722161
0001c0 c5 8d 0b bd de 96 fa bd 01 40 13 be 7c 37 87 bd
       -0.03407075 -0.12235807 -0.14379884 -0.0660238
0001d0 a8 b3 b1 bd 7a 81 9c bd 36 da 9e bd 29 85 ad bd
       -0.08676845 -0.07641883 -0.07756464 -0.08472664
0001e0 fa 6c 0b bd 6e c6 49 bd 37 ce bc 3b 7b 89 44 3c
       -0.034039475 -0.049261503 0.0057618874 0.0119956685
0001f0 ae cd d1 bb ba f7 dc bb 08 99 3e bd 15 af 91 3b
       -0.0064026928 -0.0067433985 -0.04653266 0.00444592
000200 66 d3 a3 bc e5 fc 0d be 9f 65 23 bd 99 ab 0b bd
       -0.019998264 -0.13866003 -0.039891835 -0.034099195
000210 40 d7 63 3d fa 15 d9 bd 64 46 a6 3d 59 23 a6 bc
       0.0556252 -0.10599895 0.08118895 -0.020280527
000220 02 87 7f bd 56 d8 26 3d 9a a5 32 bd 1b 98 a0 bd
       -0.062384613 0.040733658 -0.04361496 -0.07841512
000230 40 d0 ce bd 8c 61 2d 3d 74 2e 5c bd 66 2a dc bd
       -0.10098314 0.042329356 -0.05375524 -0.10750274
000240 f4 c5 15 3b 7a 10 32 be c2 2b b9 bc c0 7b 6a bc
       0.0022853585 -0.17389098 -0.022603873 -0.014311731
000250 74 6b 88 3c 49 41 82 bd 67 30 3a bc 0e dc d3 bc
       0.0166528 -0.063601084 -0.011364079 -0.025861766
000260 25 77 24 bd a4 1d 93 bd 66 41 58 3c f8 22 06 bd
       -0.040152688 -0.07183388 0.013199186 -0.032748193
000270 7a 47 5f bd cd d3 21 be 3c 80 d9 bc 60 76 d8 3c
       -0.054511525 -0.15803452 -0.026550405 0.026423633
000280 db 26 0a 3c ce 01 81 3d a2 e0 88 bd 4d f1 b5 bd
       0.008432115 0.06299172 -0.0668347 -0.08883915
000290 c1 eb b2 bd 40 9d ac 3c 97 dc 5d bc bf 63 ca bd
       -0.08736373 0.021071076 -0.013541362 -0.09882306
0002a0 63 ac a3 bc 3e d4 29 bc ea 9b 0c bd fc 1b 8b bd
       -0.019979661 -0.010365544 -0.03432838 -0.06792447
0002b0 4a bf 56 bd 00 55 23 bd cd 5e 11 bc 79 6b dc bc
       -0.05242852 -0.039875984 -0.0088727 -0.026906716
0002c0 4c c8 78 3d b7 a7 84 3d b6 ff 5d bd 64 c6 26 3d
       0.060737893 0.064773016 -0.054198943 0.040716544
0002d0 51 e8 7c bc c3 89 07 3d 51 2a c7 bc d9 0a 6e bd
       -0.015436248 0.033090364 -0.02431217 -0.058115814
0002e0 c4 b5 b5 3d c8 3f 1d ba 27 db fa 3b 5b 97 db bd
       0.0887256 -0.0005998579 0.0076555195 -0.10722228
0002f0 09 7b aa 3c d6 4f 8f 3c fc 96 10 be 93 72 18 3c
       0.02081062 0.017494123 -0.14120096 0.00930466
000300 10 7a 2e bd 07 3b 35 bd ac 1f e1 3c ac 2a d2 3d
       -0.042596877 -0.044245746 0.027480923 0.10262045
000310 8b 93 d7 3b d5 5d 95 bd 4b ea 8c bd 01 25 24 3d
       0.006578868 -0.07293288 -0.06880625 0.040074352
000320 67 a5 06 3e 1c 87 b9 bc fd da 56 bd 94 d6 b9 3c
       0.13149033 -0.022647433 -0.052454937 0.022685327
000330 98 41 3f bd 6d 17 55 bd 9b 0d 08 be 50 19 bb bb
       -0.046693414 -0.052024294 -0.1328644 -0.0057098046
000340 71 1b 33 be e2 37 3d 3c 25 22 da 3d 01 38 ce bd
       -0.17490937 0.011548968 0.10651044 -0.10069276
000350 62 96 0f 3d 66 46 9f bd d9 4b da 3b a3 f7 11 be
       0.035055526 -0.07777099 0.006661874 -0.14254622
000360 a3 48 d0 bc ef 21 2a bc 51 5a a8 bd 73 be 0c bd
       -0.02542526 -0.010384067 -0.082203515 -0.034361314
000370 3b 86 07 bd bf 73 ae bd 61 3b 7f bd c7 48 17 bd
       -0.033086997 -0.085181706 -0.062312488 -0.03693464
000380 65 b8 06 bd 97 06 d5 bc e0 b9 76 3c 8d 9f a0 bd
       -0.032890696 -0.026004119 0.0150589645 -0.07842932
000390 20 f0 99 3b f5 27 76 bc b2 5e 19 bd 42 13 b5 bd
       0.0046978146 -0.015024175 -0.037443824 -0.08841564
0003a0 0c 96 18 bb 6b 6b 51 bd 83 f0 1c be 65 27 f0 3b
       -0.0023282794 -0.051127832 -0.15326123 0.007328915
0003b0 5f ae 2a bd 1f 76 99 bd 3d 99 19 3c b4 fa 8e bd
       -0.0416702 -0.07493233 0.009374914 -0.069814116
0003c0 b7 60 cb bc 11 47 e5 bc 27 85 07 3c 7f 35 bb bd
       -0.02482639 -0.027987989 0.008271492 -0.09141063
0003d0 8f 89 43 bd 15 1b fd bb 92 a2 b8 bd 2d 51 98 3d
       -0.047738608 -0.0077241757 -0.09015383 0.07437358
0003e0 37 aa d3 bc 41 a0 15 be a0 ca 1e 3c 21 b5 16 bd
       -0.025838 -0.14611913 0.009691864 -0.03679383
0003f0 e1 cd d2 bd 76 cb ea bd 8c ae 94 bc 79 08 ae bd
       -0.102931745 -0.11464588 -0.018149637 -0.0849771

fc2.bias f4 [300]
000000 fb d8 08 be e0 66 e4 bb 90 93 eb bd 6c 74 c1 bd
       -0.13364021 -0.0069702715 -0.11502755 -0.09446034
000010 6c d9 a7 bc ee 6b 8c bd 30 3b d7 bc 7d c5 07 be
       -0.020489417 -0.068565235 -0.02627334 -0.1325893
000020 30 e9 e8 bc d2 8c b0 bd 1c 0a 2c bc a8 4c dc bc
       -0.028431505 -0.08620609 -0.010500457 -0.026892021
000030 49 53 ee bd bb 64 33 bd 2e 00 71 3f b8 d8 0b be
       -0.11636979 -0.043797236 0.941409 -0.1365689
000040 f4 13 a2 bd cf 74 1c be 27 d1 a6 bd 04 b3 8f bd
       -0.07913962 -0.15278934 -0.081453614 -0.070165664
000050 e8 45 23 bc 6f ad 76 bf 53 d4 aa bd 79 77 d3 bd
       -0.009965397 -0.9635839 -0.08341279 -0.10325522
000060 3f f4 ba bd aa 28 04 40 cf da e8 bd a3 40 5a bd
       -0.091286175 2.064982 -0.113698594 -0.0532843
000070 b2 80 cc bc 46 25 83 bd 1d ca de 3f 35 ae dc bd
       -0.02496371 -0.06403594 1.740543 -0.10775415
000080 a9 54 e7 bd ae 7a de bd e6 8a 65 bd 7e d0 ab bd
       -0.112954445 -0.10863243 -0.056040667 -0.08389376
000090 34 ec b9 bc bf aa ef bd ba d0 e0 bd e6 cd b6 bd
       -0.022695638 -0.11702489 -0.109773114 -0.08925991
0000a0 21 43 f7 bd c1 66 08 be fc 22 80 bd 9a bd 11 3f
       -0.12073351 -0.13320448 -0.06256673 0.56929934
0000b0 c1 1f 7c bd 94 05 9a bd d3 73 98 bd 50 cb 48 bd
       -0.06155372 -0.07520595 -0.07443967 -0.04902202
0000c0 33 85 8d be 50 b2 95 bd 3f 49 48 bd 4b a6 a5 bd
       -0.27640685 -0.07309401 -0.048897978 -0.080883585
0000d0 62 1b f3 bc 4c 4f 00 bd 46 53 fe bd 5a c6 9f bc
       -0.029676143 -0.031325623 -0.12418227 -0.019503761
0000e0 39 56 c5 bc 12 d4 74 bd 8a 5c 0f 3e 5c e1 91 3b
       -0.024088966 -0.05977256 0.14000145 0.0044519138
0000f0 ac 7b 15 be 2d ff 66 be 2e b1 00 be 3c bd be bc
       -0.14597958 -0.2255828 -0.12567589 -0.023283593
000100 fd 8d 2e bd 3f 3b 1a bc 0b a0 5c bd c4 b7 04 be
       -0.04261588 -0.009413539 -0.053863566 -0.12960726
000110 35 65 ce bd c0 df 41 bd cb 5f a2 bd 23 31 64 bd
       -0.100778975 -0.047332525 -0.07928427 -0.055710923
000120 92 08 f7 bd c9 1d de bb 93 f3 ed bd 48 ce a4 bd
       -0.120621815 -0.006778453 -0.11618724 -0.080471575
000130 59 7d cf bd 6f 0d 24 be c6 1f 51 3f a6 96 f9 bc
       -0.1013133 -0.1602075 0.8168911 -0.030467343
000140 9e df ba 3e e0 45 19 bd c9 00 45 bd 18 7d 8a bd
       0.3649873 -0.037420154 -0.048096452 -0.06762141
000150 44 09 ec bd 9d 70 ee bd 90 e5 99 bd 7f 6e 2f bd
       -0.11525205 -0.11642573 -0.07514489 -0.042829987
000160 0f 41 88 bd 08 42 02 be 27 e3 b1 bd d4 09 73 bd
       -0.06653034 -0.12720501 -0.08685904 -0.059335545
000170 84 54 4c bd b0 0c de bd a6 41 39 bd 4a d9 d9 bd
       -0.049885288 -0.10842264 -0.045228623 -0.10637148
000180 7e e5 44 bd 88 a3 a1 bd b1 09 7a bf 30 ec c0 bd
       -0.048070423 -0.07892519 -0.9767104 -0.09420049
000190 03 19 96 bd d2 31 05 be 90 4f 1b bd c1 3d f5 bc
       -0.07328989 -0.13007286 -0.037917674 -0.029936673
0001a0 cd bf 94 bd f4 b4 8d bf 39 b0 8b bf 3f 76 ce bd
       -0.072631456 -1.1070848 -1.0913154 -0.100811474
0001b0 47 a6 8a bd 39 9a 1c bd f9 89 19 3c b2 bd 08 bd
       -0.06769996 -0.038233016 0.009371274 -0.033384033
0001c0 6e 1a 04 be 5e f7 b7 bd 8b 0d 57 bf 8b 97 a3 bd
       -0.12900707 -0.089827284 -0.8400504 -0.07987889
0001d0 d4 fe 1f be 9d 69 43 bd 33 a3 ba 3f fa d2 c6 bc
       -0.15624553 -0.047708143 1.4581054 -0.024270523
0001e0 8b 36 ff bd a3 7b 87 bd b2 a8 85 3c ec 69 61 bd
       -0.12461575 -0.06615379 0.016315792 -0.055032656
0001f0 90 5e c9 bd 46 bb 0d bd 2d 12 9c bd 8f 9a ab bd
       -0.098324895 -0.034602426 -0.07620654 -0.08379089
000200 92 e2 34 bd 54 57 09 be 99 61 84 bd d7 00 c8 bc
       -0.044161387 -0.1341222 -0.06463928 -0.024414463
000210 32 af 2e bd 73 f8 2e bd b2 b6 e7 bd 60 85 61 bd
       -0.042647548 -0.04271741 -0.11314143 -0.055058837
000220 e1 74 fd bd c7 3c e1 bd ef f7 5b be e4 ee e6 bd
       -0.123758085 -0.109979205 -0.21481298 -0.112760335
000230 d5 71 78 bd 2f a7 82 bd 1b 93 2d be ba aa 3b bd
       -0.060655434 -0.06379544 -0.16950648 -0.045817114
000240 22 0e 31 bd fd a3 e7 bd 16 50 88 bd ed 94 f1 bd
       -0.04322637 -0.11310575 -0.066559 -0.117959835
000250 ac 6c e9 bd b8 6d 63 bd ca da 11 be c2 89 27 bd
       -0.11397681 -0.055524558 -0.14243618 -0.04090286
000260 31 ac 80 bf 45 33 14 be db 1c ac bd 28 b1 24 be
       -1.0052549 -0.14472683 -0.08403941 -0.16083205
000270 8a 51 df bd a2 e9 de bc 8c 9f e3 bd 10 fd 47 bf
       -0.10904224 -0.027211014 -0.111144155 -0.7812052
000280 29 7c f6 bd 91 a9 e9 bd ae 92 29 bd b0 37 eb bd
       -0.120354004 -0.11409295 -0.04139965 -0.11485231
000290 fc 7a ed bd 82 7e 4b 3f a4 02 cb bd 5c cf 5c bd
       -0.11595723 0.7948991 -0.09912613 -0.05390869
0002a0 a5 b3 d4 bd 7a 05 bf bd 93 63 0e bd 5f 7c 6b bd
       -0.10385827 -0.093272164 -0.03476293 -0.057491656
0002b0 a8 c9 36 bd 7c 2d 6f be fb 41 e7 bd 63 38 83 bd
       -0.044625908 -0.23357195 -0.11291882 -0.06407239
0002c0 a5 3a d4 bd 3f f5 20 bd 07 23 f7 bc 5a ae cc bd
       -0.10362748 -0.039296385 -0.03016807 -0.099941924
0002d0 90 d8 83 bf 8a 15 b0 bd 43 dd 71 be d0 b6 cf bd
       -1.0300465 -0.08597858 -0.23619561 -0.101422906
0002e0 f2 5b 8c 3f 32 90 82 bc e2 b8 3f bd 52 8d 0a be
       1.096556 -0.015937898 -0.046807177 -0.13530472
0002f0 1e 43 dc bd ca ee 8c bd 4b f0 1c bd 6a eb 3d bd
       -0.10754989 -0.06881483 -0.0383151 -0.046367086
000300 91 ae 36 bd 3a fa 17 bd 3d 56 9b bd ba ec 16 bd
       -0.044600073 -0.03710387 -0.07584808 -0.036846854
000310 9d ea 06 be 47 96 85 bd a9 eb c6 bd a3 2b 55 bd
       -0.13175435 -0.06522804 -0.09712917 -0.05204357
000320 72 95 7e bd 2a 60 52 3f 8c 19 7e bd d2 9d 82 bd
       -0.06215424 0.82177985 -0.062036082 -0.06377758
000330 75 de f6 bd b1 1d ad bd 31 9f 15 be 0a 7d 8f bd
       -0.12054149 -0.08452929 -0.14611508 -0.07006271
000340 86 50 cc bc e4 1f 75 bd 6e 47 ed bd 21 40 d3 bc
       -0.02494074 -0.059844866 -0.1158589 -0.025787415
000350 94 95 82 bd 70 08 90 bd 18 6f e8 bd b2 92 e2 bd
       -0.06376186 -0.07032859 -0.113493145 -0.11063136
000360 86 94 a4 bd 5e 87 13 be 65 77 d4 bd 8b dc 8c bc
       -0.08036141 -0.14407107 -0.10374335 -0.017195007
000370 e8 b8 92 bd 5e cb dc bd c4 ce 0e be 7a 5f c6 bd
       -0.07164174 -0.10780977 -0.13946062 -0.096861795
000380 74 14 73 3f 30 ff 50 bd 2f 8d be bd c9 58 88 bd
       0.94953084 -0.051024616 -0.093042724 -0.066575594
000390 d6 b4 b6 bd 2e 4c 91 bd 84 76 be bd 28 4d cf bc
       -0.089212105 -0.07094608 -0.09299949 -0.025305346
0003a0 fc 28 00 bc cc ea 55 bd 1a d8 17 3c f5 2f 41 3f
       -0.007822271 -0.052225873 0.009267831 0.754638
0003b0 34 79 ef bd 25 30 fa bc 0c d2 aa bd 7a 36 da bd
       -0.116930395 -0.030540535 -0.083408445 -0.10654922
0003c0 0e d1 f1 bd 9a df 3c bd 63 b9 1b bd dc ec 57 bc
       -0.11807452 -0.04611168 -0.038018595 -0.01317903
0003d0 d9 f3 d0 bd 57 80 87 bd 94 93 88 3f 50 d6 17 bd
       -0.1020276 -0.06616276 1.0670037 -0.03706962
0003e0 90 98 4e bd db 3a 6b bd 0f 7e 89 bd 3f 1b b0 bd
       -0.050438464 -0.057429176 -0.06713497 -0.08598947
0003f0 c4 6d 92 bd 8e 48 20 bd ec df 6f bd 68 07 ce bd
       -0.071498424 -0.039131694 -0.058563158 -0.100600064

fc3.weight f4 [1, 300]
000000 e3 f8 33 3a be c1 32 bb 49 41 d9 3c fc 38 dd bc
       0.0006865395 -0.0027276124 0.026520388 -0.027004711
000010 79 be 96 bc f1 0d 95 3c 3c 65 e2 3b c6 44 60 3a
       -0.018401371 0.018195124 0.0069090407 0.000855517
000020 91 b1 b2 3c 10 37 dc bc 4f 74 96 3c 4e 82 7f bc
       0.021813186 -0.026881725 0.018366007 -0.015595032
000030 11 d9 88 3c 68 1c f8 3b f8 4d 86 3c b9 60 a7 ba
       0.016705068 0.0075717457 0.0163946 -0.0012769914
000040 a2 ae d1 3b a9 60 8b bc 68 bb b5 bc 20 22 7e 3b
       0.0063989917 -0.017013865 -0.022184089 0.0038777664
000050 13 d0 bf bc 11 a1 04 bc c6 80 69 39 be 1b 17 bc
       -0.023414647 -0.008095042 0.00022268583 -0.009222923
000060 cd a8 5c bc 8f 3d 0c 3d a9 cf b9 bc 31 30 38 3c
       -0.01346798 0.034238394 -0.022682028 0.0112419585
000070 75 59 af 3c e6 ba 8c 3b 8a d7 e6 3c 7c 8e 79 bb
       0.021404961 0.004294741 0.028178949 -0.0038079312
000080 8f 91 95 bc 98 89 09 3b 40 18 73 bb 85 55 95 3a
       -0.018257884 0.0020986553 -0.0037093312 0.0011393285
000090 6d df 21 3c 21 6f 1c bc 9d 3a 93 3c d0 0b 8a bc
       0.009879929 -0.00954798 0.017972285 -0.016851336
0000a0 cd 02 99 3c 01 b8 3a 3c 51 5f 1f 3b 4b 47 eb 3c
       0.018678093 0.011396409 0.0024318288 0.028720519
0000b0 88 c7 f3 3b a1 14 81 3c 36 1c c8 ba 09 08 91 bc
       0.0074395575 0.015756907 -0.0015267197 -0.017704027
0000c0 a9 ae 96 bc 8b 3c a8 bc 06 b9 de bc 1e 7a aa bc
       -0.018393831 -0.020536682 -0.027187835 -0.020810183
0000d0 29 7e e5 3b 4f a6 e1 bc 3d 97 be 3c d0 7e e1 bb
       0.007003565 -0.027545122 0.023265475 -0.0068815723
0000e0 31 d7 dd 3c 4d be 86 bc b9 37 af 3c 4b b5 00 bc
       0.02708015 -0.016448164 0.021388875 -0.007855724
0000f0 7c c1 be 3c 2d 82 a9 bc cd 68 e9 bc d0 5a df 3c
       0.02328562 -0.020691955 -0.028492356 0.027264982
000100 48 d8 c1 bb ef 9d d0 bc ad 12 ca 39 25 ed 9c 3c
       -0.0059156753 -0.025465934 0.00038542357 0.019156048
000110 69 8d 48 bc dd 33 aa b9 3a 20 0d bd 48 45 3c bc
       -0.012240746 -0.00032463568 -0.03445456 -0.011491127
000120 95 01 5b 3c e7 cd a7 bb bd 89 23 ba f1 4f 8d 3a
       0.013367076 -0.005120981 -0.0006238481 0.0010781271
000130 98 bf 1a 3c e8 b0 83 bc 82 2a a9 3c 74 90 5c bc
       0.009445094 -0.016075566 0.020650152 -0.013462175
000140 d0 5c 04 3d cb fb 95 bc c4 05 3d 3c 36 cc be bc
       0.032315075 -0.01830854 0.011537019 -0.023290735
000150 25 74 d7 bc dc 5a 62 bc ad 8d 3c 3c 3a 3d 48 3c
       -0.0263005 -0.013815608 0.0115083875 0.012221629
000160 ce 11 b1 3c a1 ea 90 3c 00 ad 5b ba cd fd 02 b9
       0.021614935 0.017690005 -0.0008379966 -0.00012492314
000170 ac eb 3e bb dc a7 6c bc 08 aa cf bc 53 24 c6 3b
       -0.002913217 -0.014444318 -0.025349632 0.0060468107
000180 99 12 a0 bc d6 62 20 bb 3b 6e ce bc e8 1e b7 ba
       -0.019540118 -0.0024472973 -0.025199046 -0.0013971003
000190 12 11 c1 3c 08 cd a5 bc f1 8c 77 3c 3d fc 28 3c
       0.02356771 -0.020239368 0.015109287 0.010314045
0001a0 7c b0 de bc bb cc 05 bd a0 0f 2e bc 2f b3 54 3c
       -0.027183764 -0.03266595 -0.0106238425 0.012982174
0001b0 47 3a c9 3c b7 3c 88 3b 2b 7c a2 bc 67 8c 92 3c
       0.024563922 0.0041576284 -0.019834599 0.017889215
0001c0 b5 c0 35 bc 51 40 b0 bc ff 2f 59 bc b4 bb e0 bc
       -0.011093308 -0.021515043 -0.013256072 -0.027433254
0001d0 74 0b fb bb 40 bb 53 3c 42 68 f9 3c 28 f9 be bc
       -0.0076612774 0.012923062 0.030445222 -0.023312166
0001e0 a6 dc 14 3c 60 d6 1d bc fc c0 9f bb 20 52 ca 3c
       0.00908581 -0.0096336305 -0.0048753005 0.024697363
0001f0 68 78 06 ba 18 1a 4c bb e7 8e d9 3b 06 c1 98 bc
       -0.0005129636 -0.0031143483 0.0066393497 -0.018646728
000200 2e d9 8d 3c 1a 14 df bc c6 4f b6 3b ae 38 a0 bc
       0.017315473 -0.027231265 0.005563709 -0.019558277
000210 21 94 b3 bc fb e8 8b bc e5 3a 40 bc b9 10 7c bc
       -0.02192122 -0.017078867 -0.011732792 -0.015384846
000220 2c a0 40 3c 39 93 e8 bc b3 1b e5 bc fe 20 8c 3c
       0.011756938 -0.028390514 -0.02796731 0.017105576
000230 14 dc 11 bc 66 d2 33 bc e0 00 13 bc e0 6e 75 bb
       -0.008902568 -0.010975456 -0.008972377 -0.003745012
000240 bb 94 bf bc d0 31 a2 3c 74 2d 79 bc 18 39 13 bc
       -0.02338635 0.019799143 -0.015208591 -0.00898578
000250 34 57 ae bb 6f c6 99 bb 9f 86 71 3c fe eb 30 3b
       -0.005320454 -0.0046928446 0.014741569 0.002699613
000260 74 8a 52 bc fc 1e e7 bb 1f 1e 2c 3c 26 ae ea bc
       -0.012850393 -0.007053254 0.010505228 -0.028647494
000270 72 23 e8 3b f0 4b d5 bc 18 5f c7 3c 9f 0e 83 bc
       0.0070843035 -0.026037186 0.024337336 -0.015998183
000280 f1 7b 8e bc ad c7 d9 bb 32 31 25 bb c3 bb eb 3b
       -0.017393084 -0.0066461177 -0.0025206325 0.007194014
000290 42 1c 9e bc ab 0a a1 3c 54 a4 3f 3b 3e 5b e7 bb
       -0.019300584 0.019658407 0.0029242234 -0.0070604375
0002a0 6c 56 42 bb 6f b9 c7 3c 8d fd 63 3b ef 6b b1 bb
       -0.0029653562 0.024380414 0.003478858 -0.005414478
0002b0 28 ac cc bc e5 d0 67 3c 66 d0 f2 bc 34 9c 1f bb
       -0.024984434 0.014148925 -0.029640388 -0.002435458
0002c0 14 10 ee bb 49 cb 66 3c 1a 95 48 bb 59 0d f7 bb
       -0.0072651003 0.014086553 -0.003060645 -0.007539433
0002d0 6a 26 5e bc d3 e7 04 bc 33 30 00 3b e7 98 60 bc
       -0.013558963 -0.008111912 0.001955998 -0.01370833
0002e0 94 34 00 3d 27 74 ab bc a9 c0 b1 3c 08 0f 70 3c
       0.031300142 -0.02092941 0.021698313 0.014652021
0002f0 56 2f c7 bb 56 45 c0 3b f1 cc f1 bc 21 3c c9 3c
       -0.006078641 0.0058676405 -0.029516669 0.024564805
000300 69 a1 a9 bc 5f f5 d2 bc a1 b8 a2 3c ff e1 63 3c
       -0.02070685 -0.025751768 0.019863429 0.013908862
000310 72 28 b3 bc 09 29 40 3b ea 2a ff 3b 48 e2 c4 3c
       -0.021869872 0.0029321334 0.007787098 0.02403368
000320 09 ab 81 3c 5e 38 93 3c 61 6b b6 3c 20 37 aa 3a
       0.015828626 0.017971214 0.022268 0.0012986399
000330 e8 75 94 bc 9c 16 66 3b da 80 d7 3c fa d5 e4 bb
       -0.018122628 0.003510869 0.026306558 -0.006983516
000340 19 c8 4b 3b 9a 00 36 3c 78 c3 94 39 14 60 73 bb
       0.003109461 0.011108542 0.00028374395 -0.0037136124
000350 e2 c2 f4 3c e8 07 b1 bc c1 87 22 bc 43 3c ad bc
       0.029878084 -0.021610215 -0.009920062 -0.0211469
000360 1c dc 07 3c 48 d4 eb 3c b1 36 d3 3c 1c d1 65 3c
       0.008292224 0.028787747 0.025782915 0.014026906
000370 3d 5e c9 3b 0d fc cf bc d1 ef 26 bd bc 3e 91 bc
       0.0061452673 -0.025388742 -0.04075605 -0.01773011
000380 52 0b 08 3d 86 c3 55 ba 12 41 52 bb 85 dd e2 3c
       0.03321392 -0.00081544404 -0.0032082242 0.02769352
000390 3a 00 dc bc 71 b8 f8 bc 35 ac e4 3c 9d 82 d8 ba
       -0.026855577 -0.030361386 0.027914146 -0.0016518418
0003a0 4a d2 c3 3c 6f 70 d0 bb 6b 20 14 3c 8d 67 a6 3c
       0.023903985 -0.0063610594 0.009040932 0.020313049
0003b0 3b 95 a3 bc 36 0a ae bb 03 17 84 3b 47 f0 c7 3b
       -0.01996862 -0.005311276 0.0040310635 0.0061016413
0003c0 db ec 0d bc 0f d1 a5 3c a6 72 ca bc 78 67 0c 3b
       -0.008662428 0.020241288 -0.024712872 0.0021423977
0003d0 12 36 44 3c 5b db 69 bc fa 32 93 3c ce 3d f6 bc
       0.011975782 -0.01427349 0.017968643 -0.030058768
0003e0 db 8e 4b bc 89 6a bf 39 cf d1 72 bc bc a7 ab 3c
       -0.012424196 0.00036509734 -0.01482053 0.020954005
0003f0 6c c6 b2 3b d7 9d 33 bc 80 a4 07 bc ee a4 e0 3c
       0.0054557826 -0.010962925 -0.008278966 0.027422395
