checkpoints/checkpoint_critic_100.pth (torch, 543815 bytes, 5 tensors)

fcs1.weight f4 [400, 33]
0	0xbdabd82a	-0.083908394
1	0x3e2c9b84	0.168562
2	0x3d80053a	0.06250997
3	0x3e7690a4	0.24078614
4	0x3e670a3c	0.22562498
5	0x3d6b4b6c	0.057444975
6	0x3dc0ca9e	0.09413646
7	0xbcc1422c	-0.023591124
8	0xbd5420e7	-0.05178919
9	0x3df79cd9	0.12090463
10	0x3c005a13	0.007833975
11	0x3d14af3e	0.036299936
12	0x3c0ccf3a	0.008594329
13	0x3dc79874	0.09745875
14	0x3eb300c0	0.3496151
15	0xbdaa7b10	-0.083242536
16	0xbe7c9ef1	-0.24670006
17	0x3cd97d20	0.026548922
18	0x3e8d4d44	0.27598011
19	0xbdca8eb7	-0.09890502
20	0x3dcf854a	0.10132845
21	0x3d6de726	0.05808177
22	0x3d1551eb	0.036455076
23	0xbd0d5d3e	-0.03451275
24	0x3dc03a1b	0.09386083
25	0xb982fa18	-0.00024981867
26	0x3e0ef3bc	0.13960165
27	0x3dc7bb45	0.09752516
28	0x3e181985	0.14853485
29	0x3c9a7f76	0.018859606
30	0xbdd87797	-0.10569685
31	0x3c7987e4	0.015230153
32	0x3e06d4e9	0.13167156
33	0xbe8f7066	-0.2801544
34	0x3dac4b35	0.08412782
35	0xbdea9260	-0.114537
36	0x3e026859	0.12735118
37	0x3d58ea18	0.052957624
38	0x3df29ae4	0.11845949
39	0x3c961464	0.01832027
40	0xbe40371b	-0.18771021
41	0x3e8c8061	0.27441695
42	0x3d9fa4d0	0.07795107
43	0xbc1a2480	-0.009408116
44	0xbd8731d5	-0.066013016
45	0x3cbe3b69	0.023221688
46	0xbdb7db9a	-0.089774325
47	0x3ca1d1dc	0.019753389
48	0x3cc9f4ca	0.024652857
49	0xbddefead	-0.10888419
50	0xbd34a7bb	-0.044105273
51	0xbe466412	-0.19374111
52	0x3e02cec2	0.12774184
53	0x3db73dad	0.089473106
54	0x3d3f1562	0.04665125
55	0x3d4cd5ac	0.05000846
56	0xbd3a0212	-0.04541213
57	0x3ddac498	0.106820285
58	0xbcbafed9	-0.022826599
59	0x3dc2ced5	0.09512106
60	0x3db94a26	0.09047346
61	0xbe2ad971	-0.1668451
62	0xbcb4bf50	-0.022063881
63	0xbdf34e30	-0.118801475
64	0x3d40e6d5	0.04709514
65	0xbdfc29c0	-0.12312651
66	0xbd017624	-0.03160681
67	0x3ca03a41	0.019559028
68	0x3e0fb0ec	0.14032334
69	0x3d0544f8	0.032536477
70	0xbec2e9ae	-0.38068908
71	0x3d100963	0.035165202
72	0x3d2e25e2	0.042516597
73	0x3cf7d0fc	0.030251019
74	0xbd9fedfd	-0.078090645
75	0xbe19a470	-0.15004134
76	0xbcbee1a2	-0.02330095
77	0x3d30d23f	0.043169256
78	0xbda06ebe	-0.078336224
79	0x3cf70513	0.030153787
80	0xbd692d42	-0.056927927
81	0xbce64aeb	-0.028111896
82	0xbd7e6723	-0.062110078
83	0x3ca688ef	0.020328967
84	0x3e087dcd	0.13329239
85	0xbeed1801	-0.46307376
86	0x3e0a323c	0.13495725
87	0x3cccc3a3	0.02499563
88	0xbd28ca82	-0.04120875
89	0x3cafe760	0.021472633
90	0xbd8ac4a6	-0.06775789
91	0xbcb20d4d	-0.021734858
92	0xbd125e26	-0.03573432
93	0x3dc1631d	0.094427325
94	0xbd561167	-0.05226269
95	0x3c2334e8	0.009961344
96	0xbd5627b2	-0.05228395
97	0xbd146230	-0.03622645
98	0xbce21a65	-0.027600477
99	0xbe559b9e	-0.20860144
100	0x3c0e719d	0.00869408
101	0xbd093575	-0.033498246
102	0x3e036b66	0.12833938
103	0xbe2a50ec	-0.16632432
104	0x3d31b46d	0.043384958
105	0xbd3c4142	-0.045960672
106	0x3dca64cf	0.09882509
107	0x3c412899	0.011789464
108	0x3e66bc71	0.22532822
109	0xbe1440de	-0.1447787
110	0x3dc9053d	0.09815452
111	0x3dcfa346	0.10138564
112	0x3d8eb7f8	0.06968683
113	0xbcf7e769	-0.030261712
114	0xbd5149d1	-0.051095787
115	0xbd063c10	-0.032772124
116	0x3c7a0225	0.0152593
117	0xbe71e48b	-0.23622338
118	0x3dfbc25a	0.12292929
119	0x3d6811f4	0.056657746
120	0x3b576901	0.0032868984
121	0x3c447c2a	0.011992494
122	0x3d54aa64	0.05192031
123	0x3cbe60fa	0.023239601
124	0x3cd80c68	0.026373103
125	0x3b779ae2	0.0037781526
126	0x3df505b6	0.1196398
127	0xbde47542	-0.11155178
128	0xbc8a0234	-0.016846754
129	0xbd54be69	-0.0519394
130	0xbc406c98	-0.011744641
131	0xbd11a71c	-0.03555976
132	0x3df7705d	0.120819785
133	0x3d5a23f2	0.053256936
134	0xbde30015	-0.11084
135	0x3e8a9b7e	0.27071756
136	0x3ebcd9b4	0.36884844
137	0x3e46a98f	0.19400619
138	0xbd3b3e22	-0.04571355
139	0x3daaa597	0.08332365
140	0x3d8d881d	0.06910727
141	0xbd0ef93b	-0.034905653
142	0x3cd77fb6	0.026306015
143	0x3d54f4f9	0.051991437
144	0xbb909bd5	-0.004413108
145	0x3d8cdc90	0.068780065
146	0x3de49a66	0.11162262
147	0x3dd5a55d	0.10431931
148	0xbd1f8b67	-0.038951304
149	0x3ea903c0	0.33010674
150	0x3db15752	0.08659233
151	0x3caf68a2	0.021412198
152	0xbca7338b	-0.02041032
153	0xbde1636a	-0.1100529
154	0x3e049359	0.12946834
155	0x3d1ad8fe	0.037804596
156	0x3c9c8fe6	0.019111585
157	0x3d48d308	0.04902938
158	0xbd32b0b3	-0.043625545
159	0x3d965717	0.0734083
160	0x3d0dfa98	0.034662813
161	0x3c0fadac	0.008769434
162	0xbde63407	-0.11240392
163	0xbc8c526c	-0.017129146
164	0xbd285b5c	-0.041102752
165	0x3d29e096	0.041473947
166	0x3c88eccf	0.016714482
167	0x3d5438f5	0.05181213
168	0xbd868bc3	-0.06569626
169	0x3e8823aa	0.2658971
170	0x3e81c55f	0.25345895
171	0xbd979c19	-0.0740282
172	0xbcee39d0	-0.029080302
173	0xbda747ff	-0.08168029
174	0xbde04ad0	-0.10951769
175	0xbd4d93db	-0.050189834
176	0x3d6258c4	0.055260435
177	0x3d29106f	0.041275438
178	0x3d16f348	0.036853105
179	0xbcd490bc	-0.025947921
180	0x3d3393c1	0.04384208
181	0xbcb69005	-0.02228547
182	0x3d011c19	0.031520937
183	0xbcd9165e	-0.026499923
184	0xbbad0d40	-0.0052811205
185	0x3c9dc6b3	0.019259786
186	0xbd2b0d1e	-0.041760556
187	0xbc93f698	-0.018061921
188	0x3caeee72	0.021353934
189	0x3abdf23c	0.0014491747
190	0xbda540d1	-0.080690034
191	0xbd4ca9d3	-0.049966644
192	0x3e8273b1	0.2547889
193	0xbd7deb5d	-0.061992038
194	0x3d1d04fd	0.038334835
195	0xbe618ea6	-0.22027072
196	0x3d0c75fd	0.03429221
197	0xbd9f6619	-0.077831455
198	0x3be0e9ce	0.006863809
199	0x3c740006	0.014892584
200	0x3e4965a2	0.19667676
201	0xbe4c358d	-0.19942303
202	0xbe13be93	-0.14428167
203	0x3e14aa56	0.14518103
204	0x3e8b4d4e	0.27207416
205	0xbc196eb0	-0.009364769
206	0x3d1cf290	0.038317263
207	0xbd3f1889	-0.046654258
208	0xbd16fadb	-0.03686033
209	0x3de5d6fe	0.11222647
210	0xbba34b3c	-0.004983334
211	0x3dfb305e	0.12265085
212	0xbdf4af0e	-0.119474515
213	0xbe96b8a4	-0.29437745
214	0xbe13e3e2	-0.14442399
215	0xbda3bfd3	-0.07995572
216	0x3e09ac5a	0.13444653
217	0x3dbc5a60	0.09196925
218	0xbd3d512b	-0.046219986
219	0xbd33674e	-0.04379969
220	0xbd8c14c2	-0.06839897
221	0x3d151211	0.036394183
222	0xbdce7d59	-0.10082502
223	0x3acd78a2	0.001567621
224	0xbd8807c4	-0.06642106
225	0x3e3b1168	0.18268359
226	0x3eb164c8	0.34647202
227	0x3c72d164	0.01482043
228	0xbde54923	-0.1119559
229	0xbcdfcce7	-0.027319385
230	0x3ddaef10	0.10690129
231	0xbda6ccb1	-0.081445105
232	0x3d095752	0.03353054
233	0x3d56f7cb	0.052482408
234	0xbe5cd566	-0.2156578
235	0xbec07170	-0.37586546
236	0xbead5466	-0.33853453
237	0xbcb5b61e	-0.022181567
238	0x3e4ecfad	0.2019641
239	0x3c07ecd2	0.008296208
240	0xbc0b6087	-0.008506901
241	0x3d84355c	0.0645549
242	0xbdc2c25c	-0.09509727
243	0x3d405ef4	0.046965554
244	0x3e0f253a	0.13979045
245	0x3e49490d	0.19656773
246	0xbea8602c	-0.32885873
247	0x3e89dd4e	0.26926655
248	0xbc1cc39d	-0.009568122
249	0xbe5cd91f	-0.215672
250	0x3d14fccf	0.03637391
251	0x3c9b461d	0.018954331
252	0x3deb7dea	0.114986256
253	0xbdd4ea98	-0.10396308
254	0xbd289923	-0.041161668
255	0x3c8ea9c5	0.017414937

fcs1.bias f4 [400]
0	0xbe1b2639	-0.151513
1	0xbe328fcf	-0.17437671
2	0x3db5544b	0.08853968
3	0xbd9093c0	-0.07059431
4	0xbe800358	-0.2500255
5	0xbebd41c6	-0.36964244
6	0xbe917938	-0.28412795
7	0xbe0d67e4	-0.13809162
8	0xbe9b4c48	-0.30331635
9	0xbe7ec908	-0.24881375
10	0xbd5bb63c	-0.05364059
11	0xbe884983	-0.26618585
12	0x3d944401	0.07239533
13	0xbe6b9513	-0.23006086
14	0xbe89f3d1	-0.2694383
15	0xbd62e7c1	-0.0553968
16	0xbe6124b3	-0.21986656
17	0xbe6c02f8	-0.23048007
18	0xbe85cddf	-0.2613363
19	0xbde51d69	-0.1118725
20	0xbe99884b	-0.29986796
21	0xbe4f0f58	-0.20220697
22	0xbe66a999	-0.22525634
23	0xbe9121bf	-0.2834606
24	0xbe062ce1	-0.13103057
25	0xbeadcd8b	-0.3394588
26	0xbe752773	-0.2394083
27	0x3d9ab148	0.07553345
28	0xbe0526a0	-0.13003016
29	0xbe323eb1	-0.17406727
30	0xbe46657a	-0.19374648
31	0xbc872a40	-0.016499639
32	0x3d940f36	0.07229464
33	0xbe8fc238	-0.28077865
34	0xbe536240	-0.20642948
35	0xbd8db540	-0.06919336
36	0xbee470c1	-0.44617274
37	0xbe2a3451	-0.1662152
38	0x3cdee925	0.027210781
39	0xbe48ebf5	-0.1962126
40	0x3c337de4	0.010955308
41	0xbdbedb8b	-0.09319218
42	0xbe845761	-0.25847915
43	0xbe30a6f7	-0.17251192
44	0xbd9022aa	-0.07037862
45	0xbdb64a8c	-0.089009374
46	0xbd6cd9cd	-0.0578249
47	0xbd88279e	-0.066481814
48	0xbe38a90a	-0.18033233
49	0xbea7446a	-0.32669383
50	0xbdac0638	-0.08399624
51	0x3dc492d5	0.095983185
52	0xbdba03a0	-0.09082723
53	0xbd23ec08	-0.04002002
54	0xbdbdbbff	-0.09264373
55	0x3d4ad945	0.04952361
56	0xbe396e02	-0.18108371
57	0xbea19a3a	-0.31562978
58	0xbe0232cf	-0.12714694
59	0xbc9cd06b	-0.01914235
60	0xbe9afe74	-0.30272257
61	0xbe86c0a8	-0.2631886
62	0xbdc38c33	-0.09548225
63	0xbe053184	-0.1300717
64	0xbe592a0a	-0.21207443
65	0xbe6f2881	-0.23355295
66	0xbd920716	-0.07130258
67	0xbe8d9a68	-0.27656865
68	0xbe6349a5	-0.22196062
69	0xbdc08742	-0.094007984
70	0xbd806cc6	-0.06270747
71	0x3b585ebf	0.0033015457
72	0xbb8819ae	-0.004153452
73	0xbe65a05e	-0.22424456
74	0x3da8d1b6	0.08243124
75	0xbd11480a	-0.035469092
76	0xbe736879	-0.23770322
77	0xbe6cb8b7	-0.23117338
78	0x3d20a45a	0.039219238
79	0xbe34b394	-0.17646629
80	0xbe2be78e	-0.1678755
81	0xbe07d9fc	-0.13266748
82	0xbe56c2f1	-0.20972802
83	0xbe2f6448	-0.17128098
84	0xbda82626	-0.08210401
85	0x3dcd3c24	0.100212365
86	0xbe53165d	-0.20614
87	0xbccafc30	-0.024778455
88	0x3daf7087	0.08566385
89	0xbec14086	-0.3774454
90	0xbe761ec4	-0.24035174
91	0xbe60eb10	-0.21964669
92	0xbe094ac2	-0.13407424
93	0xbe93db87	-0.28878424
94	0xbe79e0a1	-0.24402095
95	0xbea15269	-0.31508186
96	0xbe16a361	-0.14710762
97	0xbd58abbc	-0.052898154
98	0xbe01cc06	-0.12675485
99	0xbd266550	-0.040623963
100	0xbe9084c7	-0.282263
101	0x3d2cea36	0.04221555
102	0xbdcc417a	-0.09973426
103	0x3d2c6e4f	0.042097386
104	0xbdb4ecb3	-0.08834209
105	0xbd9631ee	-0.07333742
106	0x3d31818c	0.043336436
107	0xbe6d19f5	-0.23154433
108	0xbe423fa4	-0.1896959
109	0xbd8cd7b4	-0.068770796
110	0xbd7d8e2a	-0.061903156
111	0xbe20897b	-0.15677445
112	0xbe68a6bd	-0.22719856
113	0xbe8155be	-0.2526073
114	0xbd43f3b2	-0.047839828
115	0x3d14d888	0.036339313
116	0xbe4f9902	-0.20273212
117	0xbdcafd8a	-0.0991164
118	0xbea67aa4	-0.32515442
119	0xbe51a006	-0.204712
120	0xbe65d986	-0.2244626
121	0xbdfd5e35	-0.12371484
122	0xbe51939b	-0.20466463
123	0xbdb73e88	-0.08947474
124	0xbec8ac72	-0.39194065
125	0xbd048618	-0.032354444
126	0xbcf21bc3	-0.029554253
127	0xbdef0d0a	-0.11672409
128	0xbdf7bd1e	-0.12096618
129	0xbddb50e7	-0.1070879
130	0xbe0ffb9c	-0.14060825
131	0x3d0dd67b	0.034628373
132	0x3d82f22a	0.063938454
133	0xbdc7b469	-0.097512074
134	0xbe090a5c	-0.13382858
135	0xbd80b360	-0.06284213
136	0xbe5f7736	-0.21822819
137	0xbe360646	-0.1777583
138	0xbbd501a3	-0.0065004393
139	0xbdeb6c8c	-0.11495313
140	0x3cbbcc34	0.02292452
141	0xbe41f34a	-0.18940464
142	0xbe3ddb1d	-0.18540616
143	0xbceaa035	-0.028640846
144	0xbe731f06	-0.23742303
145	0xbe54001f	-0.20703171
146	0xbe48c62c	-0.19606847
147	0xbe41fa67	-0.18943177
148	0xbe915011	-0.28381398
149	0xbe92745a	-0.28604394
150	0xbeae1ef7	-0.34008
151	0xbe0fcba2	-0.14042524
152	0xbdc7bb1a	-0.09752484
153	0xbeb02ee1	-0.34410766
154	0xbe8cc380	-0.27492905
155	0xbe9352bb	-0.28774056
156	0xbdc001a5	-0.09375314
157	0xbe4f209e	-0.20227286
158	0xbe1d032c	-0.15333241
159	0xbe347e7c	-0.17626375
160	0xbe9e3603	-0.30900583
161	0x39e9d8d4	0.00044602773
162	0xbd0601ba	-0.03271649
163	0xbe26ebd1	-0.16300894
164	0x3d68df24	0.05685343
165	0xbe699ed1	-0.2281449
166	0xbd06906d	-0.03285258
167	0x3cdfc96e	0.027317729
168	0xbe41c654	-0.18923312
169	0xbe539538	-0.20662391
170	0xbdf75ce1	-0.12078262
171	0xbe165761	-0.1468177
172	0xbe0b8f6d	-0.13628931
173	0xbe169f71	-0.1470926
174	0xbeaf073a	-0.341852
175	0xbe086094	-0.13318092
176	0xbe9c9620	-0.30583286
177	0xbe69d3c3	-0.22834687
178	0xbd029585	-0.031880874
179	0xbe21b513	-0.1579173
180	0xbe3b6da2	-0.1830354
181	0xbe6e1993	-0.23251943
182	0xbeceeb40	-0.40413857
183	0xbe77d561	-0.24202491
184	0xbe335aad	-0.17515059
185	0xbdf6dd5f	-0.12053942
186	0xbe3d596b	-0.18491141
187	0xbe39b5b3	-0.18135719
188	0xbc70b1bb	-0.014690812
189	0xbd4cced6	-0.05000194
190	0xbe3060be	-0.17224404
191	0xbe347231	-0.17621686
192	0xbe4f9f97	-0.20275722
193	0x3d03c55a	0.03217063
194	0xbe1af8ed	-0.1513402
195	0xbe0c7e9f	-0.13720177
196	0xbe8b6a75	-0.27229658
197	0xbe58be29	-0.2116629
198	0xbe06464d	-0.13112755
199	0xbe8f3eb1	-0.27977517
200	0xbe5b6a1a	-0.21427193
201	0xbd9b504b	-0.07583674
202	0xbe869a14	-0.26289427
203	0xbe7576e2	-0.23971131
204	0xbea05eca	-0.31322318
205	0x3dad6aed	0.0846766
206	0xbdac05c0	-0.08399534
207	0x3c7cd95b	0.015432681
208	0x398eaa00	0.0002721101
209	0xbd0dfe0d	-0.03466611
210	0xbe3b5191	-0.18292834
211	0x3d0e81cd	0.034791756
212	0xbe20efac	-0.15716428
213	0xbeb33688	-0.35002542
214	0x3ce1ba17	0.027554555
215	0xbe3ef01f	-0.18646286
216	0xbe813a97	-0.25240013
217	0xbcdd0eba	-0.026984561
218	0xbd7cd425	-0.061725754
219	0xbd73a082	-0.059479244
220	0xbea01c45	-0.31271568
221	0xbee566a4	-0.4480487
222	0xbe2afe98	-0.16698682
223	0xbe9bb269	-0.30409554
224	0x3cc57f26	0.02410848
225	0xbe17f01e	-0.14837691
226	0xbde7537e	-0.11295222
227	0xbe3e67da	-0.18594304
228	0xbe20af94	-0.15691978
229	0xbe9e2c72	-0.30893284
230	0xbdf7d50d	-0.12101183
231	0xbd9d4f15	-0.07681099
232	0xbcf894df	-0.030344425
233	0xbe1caacc	-0.15299529
234	0xbe518a30	-0.2046287
235	0x3cdf1f2e	0.027236547
236	0xbe616de6	-0.22014579
237	0xbe8ab62a	-0.27092105
238	0xbeb501fe	-0.35353082
239	0xbe27d1a5	-0.16388567
240	0xbe049bd1	-0.12950064
241	0xbe7b2e16	-0.24529299
242	0x3cbbe682	0.022937063
243	0xbc81741c	-0.015802436
244	0xbeb4c0b7	-0.3530328
245	0xbe03c629	-0.12868561
246	0x3d04ff96	0.03247031
247	0xbd9cecc4	-0.07662347
248	0xbe2e3ab0	-0.17014575
249	0xbe5e1b32	-0.21690062
250	0xbe53ebe0	-0.20695448
251	0xbdd8140a	-0.10550697
252	0xbdc683d7	-0.09693115
253	0xbe455241	-0.19269659
254	0xbcd0812d	-0.02545222
255	0xba3463eb	-0.0006881344

fc2.weight f4 [300, 404]
0	0x3c08eaad	0.008356732
1	0xbcaaa5eb	-0.020831069
2	0xbceb7095	-0.028740207
3	0xbc876b18	-0.016530558
4	0xbd30b46d	-0.043140817
5	0x3c36fa27	0.011168039
6	0xbd1b3af6	-0.037898026
7	0x3a1bd83e	0.00059450034
8	0x3c652e79	0.013988131
9	0xbd351ca4	-0.044216767
10	0xbc5c6c5b	-0.013453568
11	0xbd10752b	-0.03526799
12	0x3c34d0f8	0.01103615
13	0x3c9e2815	0.019306222
14	0xbd8a6117	-0.067568
15	0xbd953958	-0.07286328
16	0x3c99d4cb	0.018778225
17	0xbd49b1d7	-0.049241867
18	0x3c9e823c	0.01934921
19	0x3be0a344	0.0068554003
20	0x3d23a728	0.039954334
21	0xbbd84452	-0.0065999413
22	0xbca2d8b3	-0.01987872
23	0xbcf77d96	-0.030211251
24	0x3d1f55e8	0.038900286
25	0xbd6bfb52	-0.057612725
26	0xbbfe6fb0	-0.007764779
27	0xbd93929a	-0.072056964
28	0xbd2c0bab	-0.042003315
29	0xbce704f2	-0.0282006
30	0x3d1b85c2	0.03796936
31	0xbc52a5d1	-0.0128569165
32	0xbce6161c	-0.028086714
33	0x3c593f76	0.013259759
34	0x3cd3c38b	0.025850078
35	0x3c588b75	0.013216843
36	0xbc41584d	-0.011800838
37	0xbd2f90e3	-0.042862784
38	0xbd679543	-0.05653883
39	0xbd80fa56	-0.06297748
40	0x3d09730e	0.03355699
41	0xbd73fdd5	-0.059568245
42	0xbd356149	-0.04428223
43	0x3c971d97	0.018446727
44	0xbd49babc	-0.04925035
45	0xbbad2beb	-0.0052847764
46	0xbc83a374	-0.016069151
47	0xbca42403	-0.020036703
48	0x3d13ca3a	0.03608153
49	0x3c87aa8a	0.016560812
50	0xbdb64e93	-0.089017056
51	0xbd80f4a3	-0.06296661
52	0xbd2a0231	-0.041505996
53	0xbd20d4df	-0.03926551
54	0x3af93ea9	0.0019015867
55	0xbd9ea58c	-0.07746419
56	0x3ba6bd63	0.0050884946
57	0xbce48af6	-0.027898293
58	0xbd84c53c	-0.06482932
59	0xbb7ab3d2	-0.0038254154
60	0xbd9b1a52	-0.075733796
61	0xbdd8ddcf	-0.10589182
62	0xbc873776	-0.016505938
63	0xbd4b58b7	-0.049645152
64	0x3d0a39a2	0.03374637
65	0x3c8bdfb0	0.017074436
66	0xbd82dccb	-0.06389769
67	0x3cb23c3f	0.021757243
68	0x3cb27578	0.02178453
69	0xbce5ab42	-0.028035764
70	0xbc88d405	-0.016702661
71	0x3a87e7fe	0.0010368822
72	0x3be9b1a9	0.0071317744
73	0xbd734d59	-0.059399936
74	0xbd6ae318	-0.05734548
75	0x3c67ae8d	0.014140737
76	0xbd80b641	-0.06284762
77	0xbd0a42c9	-0.033755098
78	0xbc9ff018	-0.019523665
79	0xbd827014	-0.063690335
80	0xbd817a5d	-0.06322167
81	0x3cd7c50c	0.026339076
82	0xbd8833c6	-0.066505
83	0xbdc2ef56	-0.09518306
84	0xbd7f9c5d	-0.06240498
85	0xb9197363	-0.00014634202
86	0x3d0d2b9b	0.034465414
87	0xbd3b5f88	-0.045745403
88	0x3ae5426a	0.0017491106
89	0xbd87f742	-0.066389576
90	0x3d32d5ee	0.04366105
91	0xbd8da482	-0.06916143
92	0x3bba0cb4	0.005677784
93	0xbd35ebd0	-0.04441434
94	0xbd54409f	-0.05181944
95	0x3b1a7566	0.002356851
96	0xbdb66b76	-0.08907215
97	0xbd9aa813	-0.07551589
98	0xbd157882	-0.03649188
99	0xbc604403	-0.01368809
100	0xbc44a343	-0.012001815
101	0xbc862f85	-0.016380081
102	0xbd9a308d	-0.075287916
103	0x3cdef6c9	0.027217286
104	0xbc6a0a00	-0.014284611
105	0xbd4f1c1e	-0.050563924
106	0x3c846f76	0.01616643
107	0xbda43a70	-0.080189586
108	0xbd113323	-0.03544916
109	0xbcd6a463	-0.026201433
110	0x3cec625f	0.0288555
111	0xbbcf9856	-0.0063352985
112	0xbb669baf	-0.003518801
113	0xbd8fa544	-0.07013944
114	0xbdc065c1	-0.09394408
115	0xbcf1433b	-0.029451003
116	0xbcd3bdef	-0.025847403
117	0xbd8fe687	-0.070263915
118	0xbd43407d	-0.047668923
119	0xbccc674f	-0.024951605
120	0xbc78ed09	-0.015193232
121	0xbdc3f0d3	-0.09567418
122	0xbc31f00c	-0.010860454
123	0xbb1b27eb	-0.0023674916
124	0xbd5a54de	-0.053303592
125	0x3c698ac2	0.014254274
126	0xbd3b6b98	-0.045756906
127	0x3d133c86	0.03594639
128	0xbc7ee37c	-0.015557166
129	0xbd9a03df	-0.075202696
130	0xbacf74da	-0.0015827671
131	0x3c98ae25	0.018637726
132	0x3c13fbe8	0.009032227
133	0xbcc67479	-0.02422546
134	0x3cb242b4	0.021760322
135	0xbd559af9	-0.052149747
136	0xbc5229e1	-0.0128273675
137	0xbad6be8f	-0.0016383695
138	0xbda9b236	-0.08285944
139	0xbd21b696	-0.03948077
140	0xbd983c3a	-0.07433362
141	0x3bf8eccd	0.007596588
142	0x3ce9ac47	0.028524531
143	0xbdac909a	-0.08426018
144	0x3d57a55d	0.052647937
145	0xbd9c2de3	-0.0762594
146	0xbc8010ef	-0.015633075
147	0xbc6a7bc0	-0.014311731
148	0x3c2aa91b	0.010416294
149	0xbd1cb5ee	-0.03825944
150	0xbc3a3067	-0.011364079
151	0xbd28ce4e	-0.041212372
152	0xbd17db55	-0.037074406
153	0x3c00c917	0.007860444
154	0x3cfec815	0.031101266
155	0xbd34f9ba	-0.04418347
156	0xbd5f477a	-0.054511525
157	0xbda16c5d	-0.07881997
158	0xbd65da74	-0.056116536
159	0x3ce8d11f	0.02842003
160	0x3d01d061	0.031692866
161	0xbc04deba	-0.008109743
162	0xbbdb0977	-0.006684478
163	0xbcf56210	-0.029953986
164	0xbd87fba1	-0.06639791
165	0x3d1f2e2c	0.038862392
166	0x3cdf0fdd	0.027229244
167	0xbc65de48	-0.014030047
168	0xbd825078	-0.063630044
169	0xbc4eb131	-0.012615488
170	0x3c1c6e1f	0.009547739
171	0xbdcd8b4e	-0.10036336
172	0xbd2b1f08	-0.04177764
173	0xbc256044	-0.010093752
174	0xbc115ecd	-0.0088727
175	0xbd192c23	-0.037395608
176	0x3d0e7332	0.034777828
177	0x3c66d4e8	0.014088847
178	0xbd5dffb6	-0.054198943
179	0x3c7c29d9	0.015390837
180	0x3c410264	0.011780355
181	0x3d24836e	0.040164404
182	0x3cf1145c	0.029428653
183	0xbd1a954b	-0.037740033
184	0x3d331687	0.043722656
185	0xbc75787f	-0.014982342
186	0xbca4ead7	-0.020131512
187	0xbcee49aa	-0.02908786
188	0x3c0e271c	0.008676317
189	0x3d5f9a64	0.054590598
190	0xbcad8fae	-0.021186676
191	0xbc5a7ea9	-0.013335862
192	0xbcb2999d	-0.021801764
193	0xbd6c8d57	-0.05775198
194	0x3cd1fc1a	0.025632907
195	0x3c7614ef	0.015019639
196	0xbcce79c5	-0.025204549
197	0xbd0450df	-0.032303687
198	0xbd06a0ae	-0.03286808
199	0x3d242501	0.040074352
200	0x3d9954d9	0.074868865
201	0xbcc277a0	-0.023738682
202	0xbc134a89	-0.008989939
203	0x3cc94c63	0.024572557
204	0xbd3f4198	-0.046693414
205	0xbc9d68b5	-0.019214967
206	0xbd3075f3	-0.043081235
207	0xbc20c4d0	-0.009812549
208	0xbd771c6d	-0.060329843
209	0x3ccbf0ae	0.024895038
210	0x3b438dec	0.002983923
211	0xbd3534c9	-0.044239793
212	0x3d0a7068	0.033798605
213	0xbc9f405f	-0.019439874
214	0x3c839ff1	0.016067477
215	0xbcf17e6b	-0.029479226
216	0x3c034ba2	0.008013638
217	0xbc03352c	-0.008008283
218	0xbc1ad464	-0.009450052
219	0xbd3de41e	-0.046360128
220	0x3d3be7da	0.045875408
221	0xbd901dd7	-0.070369415
222	0xbd9ffa98	-0.07811469
223	0x3d146729	0.036231194
224	0x3d5293e2	0.051410563
225	0xbcdc60c5	-0.026901612
226	0x3c63049f	0.013856082
227	0xbda09f8d	-0.07842932
228	0xbcdf5ed5	-0.0272669
229	0xbc7b2416	-0.015328428
230	0xbd2876c2	-0.04112888
231	0xbcf0b4b6	-0.029383045
232	0xbcf45e5c	-0.02983015
233	0xbc87a5b0	-0.016558498
234	0xbcd95fce	-0.026534941
235	0xbc012283	-0.007881763
236	0xbd0cd955	-0.03438695
237	0xbd5d974e	-0.054099374
238	0xbcf69629	-0.030100899
239	0xbd0862b9	-0.033297274
240	0xbccb60b7	-0.02482639
241	0xbc639d4b	-0.013892482
242	0xbc8e44b1	-0.017366739
243	0xbd91970f	-0.0710889
244	0xbd4dd69b	-0.05025349
245	0x3c9868ee	0.018604722
246	0xbda41435	-0.08011667
247	0x3cf4afb4	0.029868938
248	0xbd837dc4	-0.06420472
249	0xbd04204b	-0.03225736
250	0x3d1228e0	0.035683513
251	0xbd7cdcb8	-0.06173393
252	0xbd286594	-0.041112497
253	0xbdaaa3e9	-0.08332045
254	0xbc94ae8c	-0.018149637
255	0xbd4ef904	-0.05053045

fc2.bias f4 [300]
0	0xbd41100d	-0.047134448
1	0x3bfbece2	0.0076881507
2	0xbd9b8473	-0.07593622
3	0xbd642e28	-0.05570808
4	0xbca7d96c	-0.020489417
5	0xbc3e8a5d	-0.011629668
6	0xbcd73b30	-0.02627334
7	0xbd7f2f56	-0.062301002
8	0x3ce1b9fb	0.027554503
9	0xbd967a8c	-0.07347593
10	0x3cfd11cf	0.03089228
11	0x3ce33e2a	0.027739603
12	0xbd2a249c	-0.04153882
13	0x3c793f17	0.015212796
14	0x3b4cc163	0.0031243197
15	0xbd71da00	-0.05904579
16	0xbd2ea04d	-0.042633343
17	0xbd8c0e4d	-0.06838665
18	0xbd3fd636	-0.046835147
19	0xbc7f24bc	-0.015572723
20	0x3a050c0b	0.0005075342
21	0xbdacc4b1	-0.084359534
22	0xbc444933	-0.011980343
23	0xbd82cb46	-0.063864276
24	0xbd545746	-0.051841043
25	0x3dd03c0b	0.10167702
26	0xbcce7653	-0.025202906
27	0xbb8fee53	-0.004392424
28	0x3b406eeb	0.0029362987
29	0xbca2fc3c	-0.019895665
30	0x3e21856a	0.1577355
31	0xbd02d060	-0.031937003
32	0xbd7170e3	-0.058945548
33	0xbd697d71	-0.057004396
34	0x39c80fc9	0.00038158734
35	0xbd42c2fa	-0.047549225
36	0x3d21bbda	0.03948579
37	0xbd190176	-0.03735491
38	0xbd0a9694	-0.03383501
39	0xbcfae1c6	-0.030625235
40	0xbd8a5f95	-0.06756512
41	0xbd71fab2	-0.059076972
42	0x3c442cfb	0.011973615
43	0xbbc6c550	-0.006066002
44	0xbd27b2ad	-0.040941883
45	0xbd02bd1f	-0.03191864
46	0xbd8590f4	-0.06521788
47	0x3a10f47f	0.0005529597
48	0x3dfeb9df	0.12437796
49	0xbd314d79	-0.043286774
50	0xb92b5854	-0.00016340736
51	0xbd4e0799	-0.050300214
52	0x3cd08afd	0.0254569
53	0x3c0ea9f7	0.008707515
54	0xbd02d1cb	-0.031938355
55	0x3ce752d2	0.028237734
56	0xba7ef466	-0.0009725749
57	0xbd3ccdf5	-0.046094853
58	0xbd47eab6	-0.048807822
59	0x3cdaa258	0.02668874
60	0xbcb78ff4	-0.02240751
61	0x3e0e2939	0.13882913
62	0xbda84eaf	-0.08218133
63	0x3bf5b244	0.0074980576
64	0xbcff7340	-0.031182885
65	0x3c50d827	0.012746847
66	0xbc966f0f	-0.018363504
67	0xbd863b85	-0.06554321
68	0xbd8557c5	-0.06510881
69	0xbaa8d43f	-0.0012880637
70	0xbd4838f9	-0.04888246
71	0xbce9c579	-0.028536545
72	0xbd8ac007	-0.067749076
73	0x3d01c8d4	0.031685665
74	0xbd88b566	-0.06675224
75	0xbd871750	-0.065962434
76	0xbc0dfff5	-0.008666982
77	0xbd747d15	-0.0596896
78	0x3d756607	0.059911754
79	0x3bffafa6	0.0078029213
80	0x3c8db5f6	0.01729868
81	0xbc09b86f	-0.008405789
82	0xbd4500c9	-0.048096452
83	0x3d09614a	0.033540048
84	0xbd03be20	-0.03216374
85	0xbd72b78f	-0.059257086
86	0xbd6897a8	-0.056785256
87	0xbccb7eae	-0.024840679
88	0x3b5120e4	0.0031910473
89	0xbda48286	-0.08032708
90	0xbcc65afb	-0.024213305
91	0xbc807047	-0.015678538
92	0xbd23f1af	-0.04002541
93	0xbd2ce0bd	-0.042206515
94	0xbcbec156	-0.02328555
95	0xbda9ce16	-0.08291261
96	0x3c36329a	0.011120463
97	0xbc8edae9	-0.017438369
98	0xbd886fa8	-0.06661922
99	0xbcd6bf56	-0.026214283
100	0xbbeb16c6	-0.0071743457
101	0xbc973aa7	-0.018460585
102	0xbd1b4f90	-0.037917674
103	0x3a99fdc4	0.0011748602
104	0xbbadcb12	-0.005303749
105	0x3d8be4d0	0.06830752
106	0x3dd77188	0.10519701
107	0xbd925326	-0.071447656
108	0xbbd850fd	-0.0066014514
109	0xbc193d32	-0.009352969
110	0x3d150347	0.03638008
111	0xbbce4f63	-0.0062960847
112	0xbdbe5ae2	-0.09294678
113	0xbc99b706	-0.01876403
114	0xbc32007c	-0.010864373
115	0xbcc37d97	-0.023863597
116	0xbdac3910	-0.08409321
117	0xbc59facd	-0.0133044245
118	0x3da3f0f3	0.08004942
119	0x3bd606f1	0.006531589
120	0xbd4f23f3	-0.050571393
121	0xb9925275	-0.00027908725
122	0x3d02668f	0.03183609
123	0x3c68ef8d	0.01421727
124	0xbd5bbe7e	-0.053648464
125	0xbab8c89c	-0.0014097872
126	0xbd3dd098	-0.04634151
127	0xbc7ab983	-0.0153030185
128	0x3ceb592f	0.02872905
129	0xbda0fa4a	-0.07860239
130	0xbd846199	-0.06463928
131	0x3c2f5c09	0.010703095
132	0xbbae5c68	-0.0053210743
133	0xbcf0a773	-0.029376721
134	0xbd80be9d	-0.062863566
135	0xbcea2872	-0.028583739
136	0xbda6d962	-0.08146931
137	0xbd3f599e	-0.046716325
138	0xbc6a2ba8	-0.014292635
139	0x3b42f969	0.002975071
140	0xbd260ac1	-0.0405376
141	0xbb33fddb	-0.0027464542
142	0xbd4844b2	-0.048893638
143	0xbca79de7	-0.020461036
144	0x3bb20849	0.0054331166
145	0xbd3c7019	-0.046005342
146	0xbd12ee59	-0.035871837
147	0xbd40ae67	-0.047041323
148	0xbdacb3a8	-0.08432704
149	0xbbc84704	-0.0061119813
150	0xbdc72631	-0.09724081
151	0x3c591bfe	0.013251303
152	0x3b088dd9	0.00208365
153	0xbd879f11	-0.066221364
154	0xbda13363	-0.07871129
155	0xbd900194	-0.07031551
156	0xbdaf9a7f	-0.0857439
157	0x3c7f67b3	0.015588689
158	0xbd32601d	-0.043548692
159	0xbc23fd93	-0.010009187
160	0xbd467b9d	-0.04845773
161	0xbd72fc06	-0.05932238
162	0xbbf6ffdc	-0.007537825
163	0xbd530056	-0.051513992
164	0xbd9f40a9	-0.07776005
165	0xbbded1b5	-0.0067999014
166	0xbd94b64f	-0.07261335
167	0x3c05c3a2	0.008164318
168	0xbd3efea9	-0.04662958
169	0xbd1977c7	-0.037467744
170	0x3c3f14a0	0.011662632
171	0xbd2155e6	-0.03938856
172	0xbc6ced88	-0.014460929
173	0xbdad3a04	-0.08458331
174	0xbdac5fe5	-0.08416728
175	0xbc7ef657	-0.015561662
176	0xbd883b69	-0.066519566
177	0x3b9b60eb	0.004741778
178	0x3c94363d	0.01809227
179	0xbd6a52f2	-0.05720801
180	0xbcb634de	-0.022242006
181	0xbd218d7b	-0.039441567
182	0xbd226a54	-0.039652184
183	0xbd6fd626	-0.058553837
184	0xbd1bbd54	-0.038022354
185	0x3c702e59	0.014659488
186	0xbb9a4a7f	-0.0047085877
187	0xbd2cd828	-0.04219833
188	0xbd2ef578	-0.042714566
189	0xbc058d51	-0.008151368
190	0x3c216b7b	0.0098522855
191	0xbc7e4cbd	-0.0155212255
192	0xbacab872	-0.0015466346
193	0x3b674033	0.0035286068
194	0xbcc16bad	-0.023610914
195	0x3c8c2abd	0.017110223
196	0xbc761dcd	-0.0150217535
197	0xbd2195c8	-0.039449483
198	0xbd6e95f1	-0.058248464
199	0x3b04ed00	0.0020282865
200	0xbc333f38	-0.0109403655
201	0x3db7afdf	0.089690916
202	0x3bafa815	0.005360613
203	0xbd20c589	-0.039250884
204	0xbd29a599	-0.04141769
205	0xbc897dea	-0.016783673
206	0x3c461eb0	0.012092277
207	0xbc8b0a69	-0.016972737
208	0xbccc5086	-0.02494074
209	0xbcae476b	-0.02127429
210	0xbda3d4bb	-0.079995595
211	0xbcd34021	-0.025787415
212	0xba98e8dc	-0.0011666077
213	0xbb968f81	-0.0045947437
214	0xbdb69f6e	-0.089171275
215	0xbdb8e7e1	-0.090286024
216	0xbcc0aaad	-0.023518885
217	0xbd7e2a1b	-0.062051874
218	0xbd346033	-0.044037055
219	0x3cd8f9b5	0.026486257
220	0xbd58d894	-0.05294092
221	0xbd44e56c	-0.048070356
222	0xbcaaa367	-0.02082987
223	0xbd9ce4dd	-0.0766084
224	0x3cb1ad66	0.021689128
225	0x3c18f39a	0.009335423
226	0xb9d264c2	-0.00040129392
227	0xbd173eea	-0.036925234
228	0xbd054c97	-0.032543745
229	0x3b1523d6	0.0022756956
230	0xba32ad7e	-0.00068160135
231	0x3c011539	0.007878595
232	0x3cf42031	0.029800506
233	0x3c914069	0.017730908
234	0x3d025332	0.031817622
235	0xbca6db8f	-0.020368366
236	0xbdb01775	-0.08598224
237	0x3c8ded25	0.017324993
238	0xbdaad20c	-0.083408445
239	0xbd7d0e54	-0.061781242
240	0xbdb42461	-0.08796001
241	0xbc711c9b	-0.014716293
242	0xbc81398c	-0.01577451
243	0x3bd38c3b	0.0064559258
244	0xbd648871	-0.055794183
245	0xbd356d9f	-0.044293996
246	0x3d965471	0.07340325
247	0xbbe04194	-0.006843755
248	0x3c3bb662	0.011457058
249	0xbd0a517c	-0.033769116
250	0xbd856b9a	-0.06514664
251	0xbd46d1c9	-0.04853991
252	0x3bd13a44	0.0063851196
253	0x3ae4c4bc	0.0017453651
254	0xbd525129	-0.05134693
255	0xbc37b5cf	-0.01121278

fc3.weight f4 [1, 300]
0	0xbc3c651c	-0.011498716
1	0x3c32cda9	0.010913291
2	0x3bb5ce0d	0.005548245
3	0x3b017439	0.0019753112
4	0xbc96be79	-0.018401371
5	0x3bb970d0	0.0056592003
6	0x3be2653c	0.0069090407
7	0x3c5a1aa3	0.013312015
8	0x3814a42d	3.543885e-05
9	0x3b114173	0.0022164255
10	0x3899dfab	7.33727e-05
11	0xbb0751fb	-0.002064823
12	0x3d1ec903	0.03876592
13	0xb99a69f9	-0.00029452125
14	0x3d1ce458	0.038303703
15	0xba5366a8	-0.0008064308
16	0x3a2e5940	0.00066508725
17	0x3b0a0513	0.0021060153
18	0x3b8a08e3	0.004212485
19	0x3b670899	0.0035252927
20	0x3c354e8f	0.011066093
21	0xbc7ac842	-0.015306534
22	0x3b30ff10	0.0027007498
23	0xb8174bf3	-3.607194e-05
24	0xb9889481	-0.00026050585
25	0x3d179b10	0.037013113
26	0x398e03fe	0.00027087325
27	0x3ad18de1	0.0015987718
28	0xbc0c2b36	-0.008555224
29	0xbcf88cdf	-0.03034061
30	0x3d0217c5	0.03176095
31	0xbaa93b3d	-0.0012911331
32	0xbb080af8	-0.002075849
33	0x3ca86cff	0.020559786
34	0xb7b7ce4c	-2.1911364e-05
35	0x3a7dbd2e	0.0009679374
36	0x3c1f8947	0.009737319
37	0x3b8d5912	0.0043135965
38	0x3b4cd289	0.0031253418
39	0xbc72602d	-0.014793438
40	0xbc0b4174	-0.008499492
41	0x39b4d08b	0.00034487652
42	0x3bc8f19d	0.006132318
43	0xbb15c57d	-0.0022853308
44	0x3c760993	0.015016931
45	0xba4c3e9a	-0.0007791311
46	0x3b1dce20	0.002407916
47	0x39dc664a	0.0004203788
48	0xbb74fc1c	-0.0037381714
49	0x3b020146	0.0019837185
50	0x39f7af39	0.00047242062
51	0x3c2f2c35	0.010691692
52	0xba7c530b	-0.00096254115
53	0x3b0f549c	0.00218705
54	0x3c19f57e	0.009396909
55	0xbaca0948	-0.0015414143
56	0x3cfb199c	0.03065186
57	0x3b06db8e	0.0020577642
58	0x3c1b8491	0.0094920555
59	0x3be32952	0.006932416
60	0x3c6ba3ef	0.0143823465
61	0xbbac1c40	-0.005252391
62	0xbcb751b6	-0.02237783
63	0x3b29415c	0.002582631
64	0xbb8652b6	-0.0040992154
65	0xbc8a4659	-0.016879248
66	0x3cc368d9	0.023853706
67	0x3be6f62f	0.0070483903
68	0x3bbae352	0.005703368
69	0x3c81c995	0.015843192
70	0x3bce35c4	0.0062930305
71	0x3b0626d5	0.0020469923
72	0xbae6d2a2	-0.0017610381
73	0x3a3bb38e	0.00071602396
74	0xbbeed8fa	-0.007289049
75	0xbc17dc1a	-0.009268785
76	0xb98ff94a	-0.0002746082
77	0x3c89af93	0.016807353
78	0x3c9eb2b2	0.019372318
79	0x3ab56173	0.0013838246
80	0xbba87bf6	-0.0051417304
81	0x3c3093c7	0.01077742
82	0x3c3d05c4	0.011537019
83	0x3b043303	0.0020172007
84	0x3b74ec6f	0.003737237
85	0xbaea2e98	-0.0017866669
86	0xbb4ccb84	-0.0031249234
87	0xbc32a259	-0.0109029645
88	0x3ba14267	0.004921246
89	0x3ab77c50	0.001399884
90	0x3b523e02	0.0032080417
91	0xba5894bf	-0.0008261911
92	0x3d2c7546	0.04210403
93	0xbac3dded	-0.0014943458
94	0x3b01319b	0.0019713405
95	0xbca40a6d	-0.020024503
96	0xbc0a48dd	-0.0084402235
97	0xbba9cb2f	-0.005181692
98	0x3a8e4981	0.0010855646
99	0x3ad829f6	0.0016491998
100	0x3bacd20e	0.005274064
101	0xbb8ab3ab	-0.004232844
102	0x3c778cf1	0.015109287
103	0x3a594522	0.00082881947
104	0xbb9bc1d4	-0.0047533307
105	0xbba1462a	-0.0049216943
106	0xbb9d4245	-0.0047991597
107	0xbc9485b2	-0.018130157
108	0x3b81bbfc	0.003959177
109	0x3d028be4	0.03187169
110	0x3b4a8e9d	0.0030907758
111	0xbbeb88d3	-0.0071879416
112	0xbae1705e	-0.0017199626
113	0xb980758c	-0.00024501642
114	0x3cd4d694	0.025981225
115	0x3a3c88fb	0.00071920425
116	0xbc471042	-0.012149872
117	0x37b24079	2.1249276e-05
118	0x3d2a2e68	0.041548163
119	0x3bef4956	0.0073024435
120	0x3c8b2589	0.016985672
121	0xb9cf376f	-0.00039523418
122	0x3ba5bd4a	0.0050579654
123	0x3b240021	0.002502449
124	0xbabef929	-0.0014570105
125	0x3c262d2e	0.010142608
126	0xbcb121da	-0.021622587
127	0x3b75114e	0.0037394348
128	0xba531a42	-0.0008052924
129	0xba632958	-0.00086655235
130	0x3bb64fc6	0.005563709
131	0xb9a3f7fb	-0.00031274543
132	0x3bb1bce1	0.0054241274
133	0x3aff020a	0.0019455564
134	0xbc22cf34	-0.009937096
135	0xbc9bf61c	-0.019038253
136	0x3caae590	0.020861417
137	0xbbcb9107	-0.006212357
138	0xbb72c646	-0.003704445
139	0x3ae926a1	0.0017788002
140	0x394305b3	0.00018598772
141	0xbc2e7dc5	-0.010650103
142	0x3a9122fd	0.0011073049
143	0x3ab42673	0.0013744369
144	0xb926e9b0	-0.00015918049
145	0x3ba814d5	0.0051294365
146	0x3c85309c	0.01625853
147	0x3c276152	0.010216074
148	0x3c8d5b84	0.017255552
149	0x3bb901a4	0.0056459475
150	0x3cac2949	0.02101578
151	0x3a962d13	0.0011457525
152	0xbaa8ae08	-0.0012869248
153	0xbca62821	-0.020282807
154	0x3c4da518	0.012551568
155	0x3c240fe5	0.010013555
156	0xbc8bf576	-0.017084818
157	0x3a584afc	0.00082509196
158	0x3b2e8aa8	0.0026632939
159	0x3c47426c	0.012161832
160	0xb97678fa	-0.00023505455
161	0xba13aadf	-0.0005633067
162	0x3b349bd0	0.0027558692
163	0x3b0ae13b	0.0021191377
164	0xbbbccab7	-0.00576147
165	0xbce358a3	-0.027752226
166	0xbcb27330	-0.021783441
167	0x3b2ab057	0.0026045048
168	0x3b8b1c91	0.0042453487
169	0xbcf63ad5	-0.03005735
170	0xba4cf1b7	-0.0007818001
171	0xbc9aa9cf	-0.0188798
172	0x3bd012be	0.0063498905
173	0x3c1c7b6f	0.009550913
174	0x3b08dc0d	0.0020883114
175	0xbb020e50	-0.0019844957
176	0x3b185d43	0.0023248948
177	0x3b0c703b	0.00214292
178	0x37ead01a	2.7991879e-05
179	0x3b9bba76	0.0047524525
180	0xbb8916c4	-0.004183622
181	0xbb39f3b2	-0.0028374013
182	0x3ab9d576	0.0014177996
183	0xbba252c0	-0.004953712
184	0x3cfe59c7	0.031048669
185	0x3c26d972	0.010183679
186	0xba723c93	-0.00092405936
187	0x39ee8456	0.00045493495
188	0x3c9cbb24	0.019132204
189	0x3b5ce2ed	0.0033704594
190	0x3be0b22c	0.0068571772
191	0xbbe27ea5	-0.00691207
192	0xbca6f2d6	-0.020379465
193	0xbb173e61	-0.0023077952
194	0x3c7dd798	0.015493296
195	0xbac2ed7b	-0.00148718
196	0x3b2f60ce	0.002676058
197	0xbcc43d24	-0.023954935
198	0x3c35689c	0.011072304
199	0x3c8d5082	0.017250303
200	0x3ad29b88	0.001606808
201	0x3d068bf7	0.032848325
202	0x3ada65e1	0.0016662442
203	0xbb4d3021	-0.0031309205
204	0x3b487b73	0.003059116
205	0x3ab2ff0f	0.0013656336
206	0x3c95e67e	0.018298384
207	0xbab4d0eb	-0.0013795173
208	0x3b4bc819	0.003109461
209	0xbaec47e3	-0.0018026795
210	0xbcea8828	-0.028629377
211	0xbb736014	-0.0037136124
212	0xbccb9938	-0.024853334
213	0xbbd67ae2	-0.0065454105
214	0x3caa42c3	0.020783788
215	0x3b154454	0.0022776322
216	0x3b25ee9e	0.002531923
217	0xbca4be92	-0.020110402
218	0xbc205252	-0.009785252
219	0xbb0343df	-0.0020029468
220	0x38cd9ef0	9.804766e-05
221	0x3abe0bf3	0.0014499411
222	0x3c5fbe45	0.013656204
223	0x3baaa617	0.0052077877
224	0x3d1e3143	0.0386212
225	0x3b04b531	0.00202496
226	0xbc99919b	-0.018746188
227	0xbb80460f	-0.0039146016
228	0xba1723f9	-0.0005765553
229	0x3c94379f	0.018092928
230	0x3a145bd9	0.00056594383
231	0x3b781130	0.0037852041
232	0xb9d86f99	-0.00041281877
233	0x3aa4e50f	0.0012580472
234	0x3b4e11f9	0.0031443818
235	0x3be136eb	0.006873002
236	0x3c23d3a4	0.0099991895
237	0x3ad0bb33	0.001592493
238	0x3b841703	0.0040310635
239	0xbbc28b56	-0.0059370203
240	0x3c9f9e3a	0.019484628
241	0xbb38df22	-0.002820917
242	0x3bb46f93	0.0055064647
243	0x3accd193	0.0015626423
244	0xbb8ed9ae	-0.0043594455
245	0x3a3eeaaa	0.00072828925
246	0x3d215b3f	0.03939366
247	0x3a913885	0.0011079466
248	0x39e3c6e2	0.00043444993
249	0x3b8f1189	0.004366104
250	0x3b864467	0.0040975097
251	0x3c9c85c8	0.01910676
252	0x3ab9463a	0.0014135309
253	0x3cb95baf	0.022626726
254	0x3aef7664	0.0018269536
255	0x3ba3eb09	0.0050023836
