checkpoints/checkpoint_critic_500.pth (torch, 543815 bytes, 5 tensors)

fcs1.weight f4 [400, 33]
-0.37514147 0.17291415 0.1720252 0.24257737 -0.017062118 -0.22566617 0.48236087 -0.19253838
-0.3815313 -0.008372648 0.01817557 0.23552863 0.2245455 0.059813164 0.5290937 -0.12122191
-0.16701244 0.27765226 0.38933817 -0.2112402 -0.007903194 0.013083822 -0.060503975 0.1807825
0.17908819 0.19056636 0.31008735 0.32110974 0.17704003 0.018859606 -0.32928184 0.015230153
0.33614063 -0.2641453 0.13620913 -0.44104642 0.42378712 -0.24357256 0.023519028 0.025780948
0.05855404 0.10370627 0.15507251 -0.05125541 -0.07930712 -0.05744973 -0.008324239 0.007782855
0.47935343 0.74118537 -0.45609674 0.06989311 0.54044574 -0.07882642 0.07651521 0.04410352
-0.032327488 0.14059444 -0.010319782 0.16914096 0.29471803 -0.41585508 -0.022063881 -0.32304645
0.04709514 -0.86043316 0.28360304 -0.03257941 0.6058479 -0.2844588 -0.46381187 0.23943375
0.23336527 0.06889453 -0.20049387 -0.36947134 -0.038243607 0.12334748 0.25145802 0.12250026
0.22233273 -0.12580031 -0.37514007 0.07361494 0.21495242 -0.75911725 0.27505273 0.03655109
-0.28516713 0.10531544 -0.09587274 -0.084891945 -0.076624826 0.2217632 -0.25904304 0.009961344
-0.1796191 -0.03622645 -0.14411491 -0.31071568 -0.04063668 -0.33138555 0.33357248 -0.2807757
0.1777871 -0.036731973 0.18059546 0.2806606 0.19677217 -0.106945835 0.15952879 0.045890693
0.24463286 0.20422892 -0.056357592 0.16263579 0.121899836 -0.34668723 -0.023941662 -0.08585877
-0.13933174 0.22691433 0.06781421 0.01052261 -0.077863075 -0.031727582 0.4350061 -0.17183514
-0.016846754 -0.36730793 -0.011744641 0.5626296 -0.114774406 -0.15149936 -0.4348072 0.23202358
-0.118767075 0.36024484 -0.33795196 -0.15480669 0.20063962 -0.35624668 0.13661198 0.044015206
0.1281015 -0.10985303 0.061249904 0.029362796 0.24622047 0.13173848 -0.17973414 -0.02858877
-0.095386416 -0.20210087 0.12517571 0.028133513 -0.06306061 -0.12761852 -0.12639448 0.49856114
0.21116489 0.008769434 -0.5375575 -0.017129146 -0.5845151 0.36799693 -0.04164059 -0.058879722
-0.19347265 0.3600134 -0.271064 -0.1775833 0.0080468105 -0.11041257 -0.110234156 0.24382745
-0.07473651 0.111109175 0.14867303 0.08236053 0.27207005 0.46947926 -0.117428645 0.017156806
-0.09883337 -0.024372365 0.061440755 0.23384427 -0.08845594 0.096482 -0.19410709 -0.22653796
0.7574 -0.1700855 0.038334835 -0.7228822 0.03429221 0.07488343 -0.05657496 -0.08350643
0.21452639 -0.032946084 -0.036795866 0.08986517 0.49489915 -0.12190031 -0.22854823 -0.08703116
0.037721932 -0.18926588 -0.011583503 0.15396936 0.14958158 -0.49969444 -0.2100836 -0.15208393
-0.08572388 0.08434729 -0.10311066 0.007144906 -0.10222222 0.10252054 0.13877192 -0.22923234
-0.116779216 0.3190646 0.35128677 0.01482043 -0.24833669 -0.027319385 0.92808115 -0.1720459
-0.056860335 0.37560368 -0.3115729 0.0013198568 -0.47386718 0.020585973 0.12380684 0.00046999584
-0.27659965 -0.0628951 -0.12441003 0.066753216 0.3276174 0.1753214 -0.40135354 0.44804534
0.29119027 0.232325 0.12945141 -0.079404026 -0.07209923 -0.08638661 0.18143749 0.17904612
00000000: 8b12 c0be 6810 313e 6027 303e 3466 783e
00000010: dbc5 8bbc 0815 67be 01f8 f63e c828 45be
00000020: 1258 c3be 6e2d 09bc efe4 943c 6b2e 713e
00000030: 41ef 653e a6fe 743d af72 073f 3143 f8bd
00000040: 4f05 2bbe 7028 8e3e 5557 c73e 5a4f 58be
00000050: 667c 01bc 875d 563c 04d3 77bd 0c1f 393e
00000060: e562 373e d423 433e c5c3 9e3e 7f68 a43e
00000070: fb49 353e 767f 9a3c a197 a8be e487 793c
00000080: a01a ac3e 0e3e 87be 687a 0b3e d6d0 e1be
00000090: a0fa d83e 166b 79be faaa c03c 9132 d33c
000000a0: 5cd6 6f3d f463 d43d 54cb 1e3e 31f1 51bd
000000b0: c56b a2bd 6850 6bbd 6462 08bc 5207 ff3b
000000c0: d06d f53e 53be 3d3f 8385 e9be 1e24 8f3d
000000d0: a75a 0a3f bf6f a1bd 02b4 9c3d e5a5 343d
000000e0: d469 04bd fdf7 0f3e 4e14 29bc 4a33 2d3e
000000f0: 48e5 963e f5ea d4be 50bf b4bc 5866 a5be
00000100: d5e6 403d 5945 5cbf 6b34 913e fd71 05bd
00000110: d918 1b3f 95a4 91be c078 edbe 1f2e 753e
00000120: 4ef7 6e3e 9318 8d3d 444e 4dbe 592b bdbe
00000130: 54a5 1cbd 9b9d fc3d 1bbf 803e 6be1 fa3d
00000140: 31ab 633e ccd1 00be 5c12 c0be 6ec3 963d
00000150: 7d1c 5c3e 8255 42bf b6d3 8c3e 99b6 153d
00000160: 6d01 92be 9faf d73d ed58 c4bd d4db adbd
00000170: 7aed 9cbd e415 633e 4aa1 84be e834 233c
00000180: 12ee 37be 3062 14bd dc92 13be 2016 9fbe
00000190: a672 26bd 5eab a9be 03ca aa3e d5c1 8fbe
000001a0: d20d 363e 4474 16bd 04ee 383e bfb2 8f3e
000001b0: a57e 493e 6b06 dbbd 845b 233e e1f7 3b3d
000001c0: 0981 7a3e 6321 513e 38d7 66bd ff89 263e
000001d0: 9fa6 f93d fd80 b1be 4e21 c4bc b9d6 afbd
000001e0: fbac 0ebe 3b5c 683e 2de2 8a3d 0667 2c3c
000001f0: ad76 9fbd c8f4 01bd 1fb9 de3e 8df5 2fbe
00000200: 3402 8abc c90f bcbe 986c 40bc 7e08 103f
00000210: d80e ebbd a622 1bbe 0d9f debe 9797 6d3e
00000220: 273c f3bd 0372 b83e 0a08 adbe a585 1ebe
00000230: 7974 4d3e f765 b6be 03e4 0b3e 4a49 343d
00000240: 0a2d 033e a0fa e0bd 2ee1 7a3d 3f8a f03c
00000250: 3821 7c3e 74e6 063e 3a0c 38be ff32 eabc
00000260: f459 c3bd 88f3 4ebe 102e 003e 4178 e63c
00000270: ec25 81bd 6eae 02be 8e6d 01be 6843 ff3e
00000280: 9c3b 583e acad 0f3c 5e9d 09bf 6c52 8cbc
00000290: c8a2 15bf 186a bc3e 538f 2abd dd2b 71bd
000002a0: b21d 46be ad53 b83e e7c8 8abe 66d8 35be
000002b0: c5d6 033c fc1f e2bd 72c2 e1bd e7ad 793e
000002c0: 750f 99bd 358d e33d be3d 183e a3ac a83d
000002d0: c44c 8b3e 965f f03e 6e7e f0bd 6e8c 8c3c
000002e0: 2669 cabd 8ea8 c7bc 4da9 7b3d df74 6f3e
000002f0: 6328 b5bd 5b98 c53d 02c4 46be 91f9 67be
00000300: f7e4 413f e52a 2ebe fd04 1d3d cf0e 39bf
00000310: fd75 0c3d 7c5c 993d 25bb 67bd 6b05 abbd
00000320: ceac 5b3e 79f2 06bd 43b7 16bd 3b0b b83d
00000330: 6c63 fd3e dfa6 f9bd 8c08 6abe 653d b2bd
00000340: 5082 1a3d eace 41be bcc8 3dbc 25aa 1d3e
00000350: ea2b 193e f3d7 ffbe 2820 57be e4bb 1bbe
00000360: 0090 afbd 46be ac3d af2b d3bd d11f ea3b
00000370: e259 d1bd 4af6 d13d 3a1a 0e3e e2bb 6abe
00000380: f129 efbd 6f5c a33e dcdb b33e 64d1 723c
00000390: f94b 7ebe e7cc dfbc ba96 6d3f cd2c 30be
000003a0: 62e6 68bd 204f c03e 7c86 9fbe 0cff ac3a
000003b0: b89e f2be eaa3 a83c 718e fd3d c669 f639
000003c0: 789e 8dbe 25cf 80bd b0ca febd e9b5 883d
000003d0: 78bd a73e 7487 333e 367e cdbe 3366 e53e
000003e0: e416 953e 9be6 6d3e e98e 043e 949e a2bd
000003f0: c3a8 93bd 77eb b0bd c0ca 393e de57 373e

fcs1.bias f4 [400]
-0.3750977 -0.37862182 -0.03879569 -0.3859629 -0.67517984 -0.8722544 -0.4205086 -0.04682063
-0.6867568 -0.47040042 -0.46846843 -0.5779994 -0.2914438 -0.6568631 -0.77084243 -0.22438127
-0.8125408 -0.45934516 -0.51835555 -0.50729144 -0.687068 -0.5669897 -0.5620976 -0.8061445
-0.30669254 -0.6419986 -0.3385067 -0.17162398 -0.8725908 -0.5685081 -0.6446676 -0.33871213
-0.529912 -0.29192302 -0.8010939 -0.1790113 -0.8978643 -0.79596937 -0.03690031 -0.6691401
-0.21096943 -0.078456216 -0.84583676 -0.53490573 -0.3232234 -0.13159469 -0.35055965 -0.3965737
-0.574742 -0.9081908 -0.36285102 -0.25505733 -0.66323423 -0.3170655 -0.2774864 -0.15629126
-0.69902813 -0.778648 -0.47289103 -0.30268553 -0.6680997 -0.7326886 -0.34759918 -0.15792117
-0.8836143 -0.6170237 -0.54235613 -0.45492938 -0.61383164 -0.15845208 -0.3932562 -0.06761523
-0.08736738 -0.6634808 -0.2675601 -0.32477874 -0.5350982 -0.55853707 -0.033058118 -0.75632507
-0.38388947 -0.33700567 -0.4984054 -0.57851017 -0.6375264 0.015897816 -0.86890626 -0.10093064
-0.3897747 -1.0040326 -0.25612488 -0.6785423 -0.7042393 -0.94502246 -0.63107836 -0.7740385
-0.5310414 -0.4674991 -0.41835815 -0.4783881 -0.7396643 -0.36251867 -0.2923921 -0.27836117
-0.26556826 -0.40509492 0.03010944 -0.5692097 -1.0149246 -0.38173148 -0.39654478 -0.18946846
-0.88280886 -0.6072562 -0.3108967 -0.2951742 -0.68353134 -0.30975506 -0.92822415 -0.5213956
-0.94565487 -0.47545427 -0.34328324 -0.77425313 -0.91012675 -0.35622832 -0.33343685 -0.26323336
-0.4836145 -0.5718516 -0.14407116 -0.22242229 -0.43697646 -1.0091313 -0.31291917 -0.46646687
-0.52085745 -0.34742934 -0.54637414 -0.43632895 -0.13992593 -0.30774072 -0.30422083 -0.35197106
-0.55696064 -0.2813337 -0.510041 -0.80436814 -0.76030016 -0.6129683 -0.97433746 -0.46754345
-0.10679887 -0.631682 -0.6009366 -0.56808114 -0.4977033 -0.44672862 -0.39869463 -0.5595393
-0.72796524 -0.55335695 -0.2840084 -0.64644843 0.09241206 -0.49760115 -0.6608084 -0.15249735
-0.6811744 -0.5187348 -0.37035915 -0.11325143 -0.8354038 -0.42709148 -0.75535566 -0.499256
-0.69987327 -0.58490247 -0.7307304 -0.6087446 -0.901084 -0.898604 -0.80040044 -0.4111133
-0.6662385 -0.36521095 -0.37524155 -0.44220454 -0.27741873 -0.4450723 -0.56182605 -0.1695989
-0.3555044 -0.2761829 -0.423989 -0.78220993 -0.899046 -0.39436334 -0.59785205 -0.5582994
-0.78717655 -0.14950201 -0.46287474 -0.5202753 -0.76812637 -0.06294962 -0.4251171 -0.23920484
-0.14756152 -0.13737994 -0.671117 -0.46748656 -0.68853813 -0.4444423 -0.39593756 -0.25328413
-0.2807139 -0.11705587 -0.4044982 -0.38573015 -0.4993624 -0.58665425 -0.505329 -0.4488186
-0.2887058 -0.6992427 -0.8822392 -0.5043285 -0.93370384 -0.76002735 -0.95987535 -0.59346807
-0.47608495 -0.25858888 -0.31316876 -0.6103034 -0.4887386 -0.6216636 -0.7236097 -0.23917374
-0.83891004 -0.86414236 -0.3794964 -0.48370865 -0.6374087 -0.16972466 -0.020725755 -0.47601572
-0.37355188 -0.4333358 -0.75214106 -0.702044 -0.2224134 -0.39188355 -0.53807265 -0.3499884
00000000: ce0c c0be b8da c1be 3be8 1ebd ee9c c5be
00000010: 96d8 2cbf 104c 5fbf e74c d7be fdc6 3fbd
00000020: 4bcf 2fbf 53d8 f0be 18db efbe c5f7 13bf
00000030: 1f38 95be 2e28 28bf ee55 45bf 34c4 65be
00000040: ad02 50bf 4a2f ebbe f3b2 04bf dadd 01bf
00000050: b0e3 2fbf 3d26 11bf a1e5 0fbf 7c5f 4ebf
00000060: ce06 9dbe 055a 24bf c050 adbe 32be 2fbe
00000070: 1c62 5fbf bf89 11bf f008 25bf ad6b adbe
00000080: 50a8 07bf ef76 95be 7d14 4dbf bd4e 37be
00000090: 6fda 65bf a6c4 4bbf c824 17bd c44c 2bbf
000000a0: 5f08 58be a7ad a0bd c288 58bf 95ef 08bf
000000b0: 8a7d a5be c2c0 06be 8e7c b3be b50b cbbe
000000c0: 4b22 13bf 317f 68bf 9cc7 b9be e096 82be
000000d0: b8c9 29bf 6956 a2be b312 8ebe d10a 20be
000000e0: 82f3 32bf 7a55 47bf c61e f2be 99f9 9abe
000000f0: 9508 2bbf 7b91 3bbf 85f8 b1be 16b6 21be
00000100: 8c34 62bf 44f5 1dbf dad7 0abf 81ec e8be
00000110: 1224 1dbf 4341 22be e058 c9be db79 8abd
00000120: abed b2bd e1d9 29bf a3fd 88be 6649 a6be
00000130: 32fc 08bf 49fc 0ebf f367 07bd 859e 41bf
00000140: 298d c4be 028c acbe fe2e ffbe 3e19 14bf
00000150: ee34 23bf 233c 823c a470 5ebf b9b4 cebd
00000160: 8d90 c7be 2484 80bf cd22 83be f3b4 2dbf
00000170: 0749 34bf feec 71bf 5a8e 21bf 6327 46bf
00000180: 54f2 07bf 0b5c efbe 0a33 d6be 49ef f4be
00000190: a45a 3dbf 0c9c b9be 6bb4 95be 5b85 8ebe
000001a0: 90f8 87be 9a68 cfbe 13a8 f63c bab7 11bf
000001b0: 0de9 81bf 4f72 c3be eb07 cbbe 0504 42be
000001c0: c3ff 61bf 2475 1bbf da2d 9fbe 1321 97be
000001d0: e9fb 2ebf 3798 9ebe 19a0 6dbf 2f7a 05bf
000001e0: 7016 72bf be6e f3be d2c2 afbe 7435 46bf
000001f0: 11fe 68bf 8f63 b6be 3cb8 aabe 86c6 86be
00000200: 529c f7be de64 12bf 6487 13be abc2 63be
00000210: 61bb dfbe 372b 81bf f136 a0be bfd4 eebe
00000220: ea56 05bf 42e2 b1be 2ddf 0bbf 8266 dfbe
00000230: be48 0fbe 3190 9dbe d5c2 9bbe 8d35 b4be
00000240: f994 0ebf f90a 90be 0c92 02bf 12eb 4dbf
00000250: 08a3 42bf 7eeb 1cbf 2e6e 79bf db61 efbe
00000260: 5eb9 dabd e9b5 21bf fbd6 19bf c46d 11bf
00000270: f8d2 febe 9db9 e4be b421 ccbe f83d 0fbf
00000280: ee5b 3abf cda8 0dbf 8d69 91be a57d 25bf
00000290: 8942 bd3d 94c5 febe bd2a 29bf 4428 1cbe
000002a0: 7261 2ebf cecb 04bf b79f bdbe 5ef0 e7bd
000002b0: 06dd 55bf bcab dabe fd5e 41bf 7c9e ffbe
000002c0: e52a 33bf 2bbc 15bf 2611 3bbf b0d6 1bbf
000002d0: 71ad 66bf e90a 66bf 0be7 4cbf 717d d2be
000002e0: 9b8e 2abf eefc babe a91f c0be a268 e2be
000002f0: d409 8ebe 84e0 e3be d5d3 0fbf 56ab 2dbe
00000300: ac04 b6be d867 8dbe 1615 d9be e93e 48bf
00000310: e127 66bf fee9 c9be d50c 19bf b6ec 0ebf
00000320: 6784 49bf 0e17 19be ebfd ecbe c330 05bf
00000330: eea3 44bf bbeb 80bd f3a8 d9be 1df2 74be
00000340: 5e1a 17be 54ad 0cbe 53ce 2bbf 665a efbe
00000350: 0944 30bf f18d e3be 54b8 cabe 75ae 81be
00000360: bbb9 8fbe fdba efbd 631a cfbe 6c7e c5be
00000370: 6eac ffbe f92e 16bf 3e5d 01bf 8dcb e5be
00000380: 3fd1 93be 9201 33bf 6eda 61bf ac1b 01bf
00000390: 3707 6fbf 2791 42bf 64ba 75bf 86ed 17bf
000003a0: 68c1 f3be c365 84be a857 a0be d83c 1cbf
000003b0: f23b fabe 5825 1fbf 7c3e 39bf f6e9 74be
000003c0: cfc2 56bf 6f38 5dbf 5a4d c2be a9a8 f7be
000003d0: 372d 23bf 4dcc 2dbe 0fc9 a9bc 55b8 f3be
000003e0: 3142 bfbe 31de ddbe 518c 40bf 28b9 33bf
000003f0: 57c0 63be f6a4 c8be 21bf 09bf ae31 b3be

fc2.weight f4 [300, 404]
0.008356732 -0.020831069 -0.028740207 -0.016530558 -0.043140817 0.011168039 -0.037898026 0.00059450034
0.013988131 -0.044216767 -0.013453568 -0.03526799 0.01103615 0.019306222 -0.067568 -0.07286328
0.018778225 -0.049241867 0.01934921 0.0068554003 0.039954334 -0.0065999413 -0.01987872 -0.030211251
0.038900286 -0.057612725 -0.007764779 -0.072056964 -0.042003315 -0.0282006 0.03796936 -0.0128569165
-0.028086714 0.013259759 0.025850078 0.013216843 -0.011800838 -0.042862784 -0.05653883 -0.06297748
0.03355699 -0.059568245 -0.04428223 0.018446727 -0.04925035 -0.0052847764 -0.016069151 -0.020036703
0.03608153 0.016560812 -0.089017056 -0.06296661 -0.041505996 -0.03926551 0.0019015867 -0.07746419
0.0050884946 -0.027898293 -0.06482932 -0.0038254154 -0.075733796 -0.10589182 -0.016505938 -0.049645152
0.03374637 0.017074436 -0.06389769 0.021757243 0.02178453 -0.028035764 -0.016702661 0.0010368822
0.0071317744 -0.059399936 -0.05734548 0.014140737 -0.06284762 -0.033755098 -0.019523665 -0.063690335
-0.06322167 0.026339076 -0.066505 -0.09518306 -0.06240498 -0.00014634202 0.034465414 -0.045745403
0.0017491106 -0.066389576 0.04366105 -0.06916143 0.005677784 -0.04441434 -0.05181944 0.002356851
-0.08907215 -0.07551589 -0.03649188 -0.01368809 -0.012001815 -0.016380081 -0.075287916 0.027217286
-0.014284611 -0.050563924 0.01616643 -0.080189586 -0.03544916 -0.026201433 0.0288555 -0.0063352985
-0.003518801 -0.07013944 -0.09394408 -0.029451003 -0.025847403 -0.070263915 -0.047668923 -0.024951605
-0.015193232 -0.09567418 -0.010860454 -0.0023674916 -0.053303592 0.014254274 -0.045756906 0.03594639
-0.015557166 -0.075202696 -0.0015827671 0.018637726 0.009032227 -0.02422546 0.021760322 -0.052149747
-0.0128273675 -0.0016383695 -0.08285944 -0.03948077 -0.07433362 0.007596588 0.028524531 -0.08426018
0.052647937 -0.0762594 -0.015633075 -0.014311731 0.010416294 -0.03825944 -0.011364079 -0.041212372
-0.037074406 0.007860444 0.031101266 -0.04418347 -0.054511525 -0.07881997 -0.056116536 0.02842003
0.031692866 -0.008109743 -0.006684478 -0.029953986 -0.06639791 0.038862392 0.027229244 -0.014030047
-0.063630044 -0.012615488 0.009547739 -0.10036336 -0.04177764 -0.010093752 -0.0088727 -0.037395608
0.034777828 0.014088847 -0.054198943 0.015390837 0.011780355 0.040164404 0.029428653 -0.037740033
0.043722656 -0.014982342 -0.020131512 -0.02908786 0.008676317 0.054590598 -0.021186676 -0.013335862
-0.021801764 -0.05775198 0.025632907 0.015019639 -0.025204549 -0.032303687 -0.03286808 0.040074352
0.074868865 -0.023738682 -0.008989939 0.024572557 -0.046693414 -0.019214967 -0.043081235 -0.009812549
-0.060329843 0.024895038 0.002983923 -0.044239793 0.033798605 -0.019439874 0.016067477 -0.029479226
0.008013638 -0.008008283 -0.009450052 -0.046360128 0.045875408 -0.070369415 -0.07811469 0.036231194
0.051410563 -0.026901612 0.013856082 -0.07842932 -0.0272669 -0.015328428 -0.04112888 -0.029383045
-0.02983015 -0.016558498 -0.026534941 -0.007881763 -0.03438695 -0.054099374 -0.030100899 -0.033297274
-0.02482639 -0.013892482 -0.017366739 -0.0710889 -0.05025349 0.018604722 -0.08011667 0.029868938
-0.06420472 -0.03225736 0.035683513 -0.06173393 -0.041112497 -0.08332045 -0.018149637 -0.05053045
00000000: adea 083c eba5 aabc 9570 ebbc 186b 87bc
00000010: 6db4 30bd 27fa 363c f63a 1bbd 3ed8 1b3a
00000020: 792e 653c a41c 35bd 5b6c 5cbc 2b75 10bd
00000030: f8d0 343c 1528 9e3c 1761 8abd 5839 95bd
00000040: cbd4 993c d7b1 49bd 3c82 9e3c 44a3 e03b
00000050: 28a7 233d 5244 d8bb b3d8 a2bc 967d f7bc
00000060: e855 1f3d 52fb 6bbd b06f febb 9a92 93bd
00000070: ab0b 2cbd f204 e7bc c285 1b3d d1a5 52bc
00000080: 1c16 e6bc 763f 593c 8bc3 d33c 758b 583c
00000090: 4d58 41bc e390 2fbd 4395 67bd 56fa 80bd
000000a0: 0e73 093d d5fd 73bd 4961 35bd 971d 973c
000000b0: bcba 49bd eb2b adbb 74a3 83bc 0324 a4bc
000000c0: 3aca 133d 8aaa 873c 934e b6bd a3f4 80bd
000000d0: 3102 2abd dfd4 20bd a93e f93a 8ca5 9ebd
000000e0: 63bd a63b f68a e4bc 3cc5 84bd d2b3 7abb
000000f0: 521a 9bbd cfdd d8bd 7637 87bc b758 4bbd
00000100: a239 0a3d b0df 8b3c cbdc 82bd 3f3c b23c
00000110: 7875 b23c 42ab e5bc 05d4 88bc fee7 873a
00000120: a9b1 e93b 594d 73bd 18e3 6abd 8dae 673c
00000130: 41b6 80bd c942 0abd 18f0 9fbc 1470 82bd
00000140: 5d7a 81bd 0cc5 d73c c633 88bd 56ef c2bd
00000150: 5d9c 7fbd 6373 19b9 9b2b 0d3d 885f 3bbd
00000160: 6a42 e53a 42f7 87bd eed5 323d 82a4 8dbd
00000170: b40c ba3b d0eb 35bd 9f40 54bd 6675 1a3b
00000180: 766b b6bd 13a8 9abd 8278 15bd 0344 60bc
00000190: 43a3 44bc 852f 86bc 8d30 9abd c9f6 de3c
000001a0: 000a 6abc 1e1c 4fbd 766f 843c 703a a4bd
000001b0: 2333 11bd 63a4 d6bc 5f62 ec3c 5698 cfbb
000001c0: af9b 66bb 44a5 8fbd c165 c0bd 3b43 f1bc
000001d0: efbd d3bc 87e6 8fbd 7d40 43bd 4f67 ccbc
000001e0: 09ed 78bc d3f0 c3bd 0cf0 31bc eb27 1bbb
000001f0: de54 5abd c28a 693c 986b 3bbd 863c 133d
00000200: 7ce3 7ebc df03 9abd da74 cfba 25ae 983c
00000210: e8fb 133c 7974 c6bc b442 b23c f99a 55bd
00000220: e129 52bc 8fbe d6ba 36b2 a9bd 96b6 21bd
00000230: 3a3c 98bd cdec f83b 47ac e93c 9a90 acbd
00000240: 5da5 573d e32d 9cbd ef10 80bc c07b 6abc
00000250: 1ba9 2a3c eeb5 1cbd 6730 3abc 4ece 28bd
00000260: 55db 17bd 17c9 003c 15c8 fe3c baf9 34bd
00000270: 7a47 5fbd 5d6c a1bd 74da 65bd 1fd1 e83c
00000280: 61d0 013d bade 04bc 7709 dbbb 1062 f5bc
00000290: a1fb 87bd 2c2e 1f3d dd0f df3c 48de 65bc
000002a0: 7850 82bd 31b1 4ebc 1f6e 1c3c 4e8b cdbd
000002b0: 081f 2bbd 4460 25bc cd5e 11bc 232c 19bd
000002c0: 3273 0e3d e8d4 663c b6ff 5dbd d929 7c3c
000002d0: 6402 413c 6e83 243d 5c14 f13c 4b95 1abd
000002e0: 8716 333d 7f78 75bc d7ea a4bc aa49 eebc
000002f0: 1c27 0e3c 649a 5f3d ae8f adbc a97e 5abc
00000300: 9d99 b2bc 578d 6cbd 1afc d13c ef14 763c
00000310: c579 cebc df50 04bd aea0 06bd 0125 243d
00000320: d954 993d a077 c2bc 894a 13bc 634c c93c
00000330: 9841 3fbd b568 9dbc f375 30bd d0c4 20bc
00000340: 6d1c 77bd aef0 cb3c ec8d 433b c934 35bd
00000350: 6870 0a3d 5f40 9fbc f19f 833c 6b7e f1bc
00000360: a24b 033c 2c35 03bc 64d4 1abc 1ee4 3dbd
00000370: dae7 3b3d d71d 90bd 98fa 9fbd 2967 143d
00000380: e293 523d c560 dcbc 9f04 633c 8d9f a0bd
00000390: d55e dfbc 1624 7bbc c276 28bd b6b4 f0bc
000003a0: 5c5e f4bc b0a5 87bc ce5f d9bc 8322 01bc
000003b0: 55d9 0cbd 4e97 5dbd 2996 f6bc b962 08bd
000003c0: b760 cbbc 4b9d 63bc b144 8ebc 0f97 91bd
000003d0: 9bd6 4dbd ee68 983c 3514 a4bd b4af f43c
000003e0: c47d 83bd 4b20 04bd e028 123d b8dc 7cbd
000003f0: 9465 28bd e9a3 aabd 8cae 94bc 04f9 4ebd

fc2.bias f4 [300]
-0.047134448 -0.0069702715 -0.103018336 -0.07991062 -0.020489417 -0.04554473 -0.02627334 -0.086303174
0.0014758331 -0.07347593 0.025864886 0.0030463354 -0.0727011 -0.024568697 0.17958052 -0.07819666
-0.07913962 -0.12327118 -0.06121153 -0.03890103 -0.009965397 -0.084359534 -0.042493727 -0.09335278
-0.091286175 0.4809773 -0.08325833 -0.0532843 0.0029362987 -0.06403594 0.44972482 -0.08852046
-0.08750816 -0.08606283 -0.018340187 -0.08389376 0.03948579 -0.085899375 -0.07939787 -0.05924693
-0.096265554 -0.101726405 -0.02666444 -0.051380005 -0.06155372 -0.061265636 -0.07443967 -0.0037165259
0.16898614 -0.045659266 -0.020221531 -0.050300214 -0.009384818 -0.031325623 -0.031938355 -0.008172222
-0.024088966 -0.052164752 -0.08754119 0.02668874 -0.034773916 0.13799731 -0.10024564 -0.00090866274
-0.04261588 -6.457214e-05 -0.02360569 -0.09059373 -0.100778975 -0.028836777 -0.07928427 -0.055710923
-0.096645236 0.022566969 -0.091249615 -0.080471575 -0.057443608 -0.0596896 0.14180727 -0.030467343
0.018865889 -0.008405789 -0.048096452 -0.029785067 -0.089325145 -0.11642573 -0.07514489 -0.042829987
-0.022779718 -0.12720501 -0.0649315 -0.025411587 -0.04002541 -0.07921408 -0.02328555 -0.10637148
-0.048070423 -0.05791494 -0.08940019 -0.07526201 -0.026511291 -0.062127233 -0.037917674 -0.029936673
-0.01721278 -0.17852725 -0.02800598 -0.100811474 -0.047110975 -0.009352969 0.009371274 -0.0062960847
-0.09765949 -0.0655782 -0.019498006 -0.05844314 -0.09547026 -0.047708143 0.23988871 -0.024270523
-0.10104995 -0.037127733 0.016315792 -0.003290781 -0.07160767 -0.034602426 -0.04634151 -0.05535874
-0.012380144 -0.10320034 -0.06463928 -0.024414463 -0.024133053 -0.04271741 -0.11314143 -0.055058837
-0.123758085 -0.0826426 -0.16503073 -0.0545225 -0.045836557 -0.0027464542 -0.09660991 -0.028588586
0.0040411153 -0.11310575 -0.066559 -0.064459875 -0.11397681 -0.04545374 -0.14243618 -0.04090286
-0.042870447 -0.113120645 -0.08403941 -0.09406035 -0.10904224 -0.0025459009 -0.082865834 -0.021153143
-0.07515051 -0.11409295 -0.023129765 -0.10201071 -0.10152852 -0.048464093 -0.09912613 -0.023875061
-0.07386286 -0.06425045 -0.014714613 -0.03938856 -0.014460929 -0.07511694 -0.11291882 -0.040387165
-0.066519566 -0.014175912 0.0011355549 -0.07458143 -0.24944533 -0.08597858 -0.06393119 -0.071849905
0.23988803 -0.015937898 -0.00570728 -0.06064685 -0.06073379 -0.023608759 -0.012024869 -0.046367086
-0.018399766 -0.0030049828 -0.044646647 -0.010019751 -0.07201454 -0.06522804 -0.083081104 -0.023738641
-0.03369577 0.3109005 -0.031826116 -0.06377758 -0.090497755 -0.053502478 -0.028927155 -0.041820943
-0.02494074 -0.04333367 -0.079995595 -0.025787415 -0.052049946 -0.031962603 -0.113493145 -0.11063136
-0.08036141 -0.082527526 -0.062730305 -0.010635302 -0.07164174 -0.07867641 -0.028965132 -0.0766084
0.16679904 -0.051024616 -0.06989618 -0.036925234 -0.071829095 -0.024360834 -0.0106657315 -0.014965499
0.021779323 -0.052225873 0.009267831 -0.05298828 -0.08598224 -0.016555151 -0.083408445 -0.10654922
-0.08796001 -0.04611168 -0.01577451 0.003754907 -0.1020276 -0.06616276 0.23760188 -0.03706962
-0.050438464 -0.033769116 -0.06713497 -0.08598947 -0.015204008 -0.039131694 -0.058563158 -0.046403106
00000000: 0d10 41bd e066 e4bb 47fb d2bd 2ea8 a3bd
00000010: 6cd9 a7bc 1c8d 3abd 303b d7bc b8bf b0bd
00000020: be70 c13a 8c7a 96bd 99e2 d33c 07a5 473b
00000030: 50e4 94bd 4b44 c9bc f5e3 373e 9225 a0bd
00000040: f413 a2bd 9a75 fcbd f1b8 7abd b056 1fbd
00000050: e845 23bc b1c4 acbd e70d 2ebd be2f bfbd
00000060: 3ff4 babd a842 f63e 5883 aabd a340 5abd
00000070: eb6e 403b 4625 83bd 5542 e63e 374a b5bd
00000080: 7a37 b3bd b641 b0bd 293e 96bc 7ed0 abbd
00000090: dabb 213d 03ec afbd 5a9b a2bd e9ac 72bd
000000a0: e026 c5bd ef55 d0bd 626f dabc d773 52bd
000000b0: c11f 7cbd adf1 7abd d373 98bd f590 73bb
000000c0: b40a 2d3e 3605 3bbd a0a7 a5bc 9907 4ebd
000000d0: c8c2 19bc 4c4f 00bd cbd1 02bd c9e4 05bc
000000e0: 3956 c5bc b5aa 55bd cc48 b3bd 58a2 da3c
000000f0: 186f 0ebd 2b4f 0d3e 964d cdbd 5333 6eba
00000100: fd8d 2ebd e76a 87b8 b860 c1bc 3589 b9bd
00000110: 3565 cebd 1b3b ecbc cb5f a2bd 2331 64bd
00000120: f0ed c5bd 5dde b83c 14e1 babd 48ce a4bd
00000130: fd49 6bbd 157d 74bd ed35 113e a696 f9bc
00000140: a38c 9a3c 6fb8 09bc c900 45bd d0ff f3bc
00000150: 1af0 b6bd 9d70 eebd 90e5 99bd 7f6e 2fbd
00000160: 889c babc 0842 02be cefa 84bd f62b d0bc
00000170: aff1 23bd fe3a a2bd 56c1 bebc 4ad9 d9bd
00000180: 7ee5 44bd 3738 6dbd 7217 b7bd f822 9abd
00000190: 352e d9bc 2079 7ebd 904f 1bbd c13d f5bc
000001a0: d101 8dbc d9cf 36be cc6c e5bc 3f76 cebd
000001b0: 70f7 40bd 323d 19bc f989 193c 634f cebb
000001c0: b301 c8bd dd4d 86bd 48ba 9fbc 1362 6fbd
000001d0: e985 c3bd 9d69 43bd 63a5 753e fad2 c6bc
000001e0: 47f3 cebd 4013 18bd b2a8 853c 25aa 57bb
000001f0: 0ba7 92bd 46bb 0dbd 98d0 3dbd d9bf 62bd
00000200: 16d6 4abc b35a d3bd 9961 84bd d700 c8bc
00000210: aeb2 c5bc 73f8 2ebd b2b6 e7bd 6085 61bd
00000220: e174 fdbd 8640 a9bd d1fd 28be fc52 5fbd
00000230: 1dbf 3bbd dbfd 33bb 6bdb c5bd 9c32 eabc
00000240: 556b 843b fda3 e7bd 1650 88bd 8a03 84bd
00000250: ac6c e9bd b32d 3abd cada 11be c289 27bd
00000260: ec98 2fbd ccab e7bd db1c acbd b6a2 c0bd
00000270: 8a51 dfbd 21d9 26bb 90b5 a9bd 5b49 adbc
00000280: 83e8 99bd 91a9 e9bd a27a bdbc feea d0bd
00000290: 2fee cfbd 4982 46bd a402 cbbd a295 c3bc
000002a0: 6945 97bd bd95 83bd 8f15 71bc e655 21bd
000002b0: 88ed 6cbc e9d6 99bd fb41 e7bd 036d 25bd
000002c0: 693b 88bd 1642 68bc e6d6 943a 26be 98bd
000002d0: 996e 7fbe 8a15 b0bd 5bee 82bd 0b26 93bd
000002e0: 35a5 753e 3290 82bc 2204 bbbb d568 78bd
000002f0: ffc3 78bd 2867 c1bc f503 45bc 6aeb 3dbd
00000300: 1bbb 96bc 3fef 44bb 67df 36bd e229 24bc
00000310: 5c7c 93bd 4796 85bd 6d26 aabd 8a77 c2bc
00000320: 9304 0abd 5a2e 9f3e 1a5c 02bd d29d 82bd
00000330: e356 b9bd 6a25 5bbd a4f8 ecbc 704c 2bbd
00000340: 8650 ccbc a57e 31bd bbd4 a3bd 2140 d3bc
00000350: 5332 55bd 38eb 02bd 186f e8bd b292 e2bd
00000360: 8694 a4bd 3104 a9bd bf78 80bd b13f 2ebc
00000370: e8b8 92bd 1921 a1bd 4948 edbc dde4 9cbd
00000380: 5ecd 2a3e 30ff 50bd ba25 8fbd ea3e 17bd
00000390: 221b 93bd 5f90 c7bc 52bf 2ebc da31 75bc
000003a0: 8d6a b23c ccea 55bd 1ad8 173c 3d0a 59bd
000003b0: 7517 b0bd ab9e 87bc 0cd2 aabd 7a36 dabd
000003c0: 6124 b4bd 9adf 3cbd 8c39 81bc e314 763b
000003d0: d9f3 d0bd 5780 87bd e84d 733e 50d6 17bd
000003e0: 9098 4ebd 7c51 0abd 0f7e 89bd 3f1b b0bd
000003f0: 3b1a 79bc 8e48 20bd ecdf 6fbd 2f11 3ebd

fc3.weight f4 [1, 300]
-0.011498716 -0.0027276124 -0.0025043546 -0.028853672 -0.018401371 0.039851803 0.0069090407 -0.007728788
-0.0044185272 0.0022164255 -0.030344874 0.005976406 0.008404703 0.020861171 0.039808616 0.030287378
0.0063989917 0.013884836 -0.0126619 -0.027735922 -0.023414647 -0.015306534 -0.014836151 0.012641646
-0.01346798 0.02280888 0.0026231755 0.0112419585 -0.008555224 0.004294741 0.027592685 0.008572198
0.0076166443 -0.009642816 0.0028441928 0.0011393285 0.009737319 0.021910628 -0.012707023 0.014435578
0.02178062 -0.020228427 0.0002591004 0.0021659362 0.0074395575 -0.00519423 -0.0015267197 -0.03031701
-0.011090656 -0.012408884 0.00416639 0.010691692 -0.0009454482 -0.027545122 0.009396909 0.0027530615
0.02708015 -0.02194449 0.004815625 0.006932416 -0.002988147 -0.011062998 0.0023938466 0.0022479147
-0.0059156753 -0.014164665 0.023837654 0.01822868 -0.012240746 -0.014847154 -0.03445456 -0.011491127
-0.008089597 -0.030183064 0.021672273 0.0010781271 -0.0070647844 0.016807353 0.054106224 -0.013462175
0.054693308 0.01077742 0.011537019 -0.021738725 0.0038485434 -0.013815608 0.0115083875 0.012221629
-0.017146794 0.017690005 0.029933373 -0.00042509573 0.04210403 0.014749975 0.0019713405 0.0060468107
-0.019540118 -0.011490851 -0.0118943695 -0.019407857 -0.010027346 -0.0017957585 0.015109287 0.010314045
0.02576801 -0.010412294 -0.009074634 0.012982174 -0.0033399356 0.03187169 -0.019834599 -0.0071879416
0.020560568 0.0051095653 -0.037120637 0.0035057624 0.008889427 0.012923062 0.018373929 -0.023312166
-0.016963212 0.018310104 -0.0048753005 -0.014736028 0.018487263 -0.0031143483 -0.021622587 0.009517498
0.017875459 0.004479082 0.005563709 -0.019558277 -0.023308894 -0.017078867 -0.011732792 -0.015384846
0.011756938 0.0029938633 0.022699904 0.016549168 -0.025594672 -0.010650103 0.0012543688 -0.017361324
0.00227905 0.019799143 -0.015208591 -0.01212133 -0.005320454 0.0125024365 0.014741569 0.002699613
-0.037970822 0.024668386 0.010505228 -0.01828073 0.0070843035 0.00323595 -0.0043852306 -0.030144671
0.0018211477 -0.0066461177 -0.025149424 0.005849914 0.0019616764 0.011435504 0.0029242234 0.023474796
0.027211161 -0.007060932 -0.021335464 -0.0188798 0.0063498905 0.060930353 -0.029640388 0.03073032
0.0023248948 -0.011685955 2.5207652e-05 -0.012843202 -0.009021854 -0.008111912 0.01800193 0.017019764
0.019809999 -0.02092941 0.007846358 -0.030536547 -0.003680564 0.014228062 0.0018598433 0.024564805
0.007508267 0.005509449 -0.011779206 -0.015593938 -0.017599946 0.0029321334 -0.018736478 -0.007408237
-0.0033107982 0.039568283 -0.008716701 0.0012986399 -0.023900654 -0.027322264 0.021327514 0.018104553
0.003109461 -0.014276756 -0.028629377 -0.0037136124 -0.0012947927 0.017682973 -0.009920062 -0.0211469
0.008292224 -0.0150829265 0.008103128 0.018049525 0.0061452673 0.005127754 -0.02719863 0.0052077877
0.036224186 -0.00081544404 -0.02471844 -0.0039146016 0.0033488413 0.004158524 -0.027687002 -0.026702765
-0.0068737916 -0.0063610594 0.009040932 -0.0034260456 0.0099991895 0.0077545126 0.0040310635 0.0061016413
0.019484628 0.020241288 0.0055064647 -0.000435695 0.011975782 -0.01427349 0.041054867 -0.030058768
-0.012424196 0.004366104 -0.01482053 0.020954005 0.005827222 -0.010962925 -0.008278966 0.01133048
00000000: 1c65 3cbc bec1 32bb 1920 24bb 895e ecbc
00000010: 79be 96bc a53b 233d 3c65 e23b c641 fdbb
00000020: 4bc9 90bb 7341 113b d095 f8bc bad5 c33b
00000030: e1b3 093c 0ce5 aa3c 5c0e 233d 3c1d f83c
00000040: a2ae d13b 397d 633c dc73 4fbc 7236 e3bc
00000050: 13d0 bfbc 42c8 7abc 5413 73bc e81e 4f3c
00000060: cda8 5cbc b0d9 ba3c 95e9 2b3b 3130 383c
00000070: 362b 0cbc e6ba 8c3b 0e0a e23c 6872 0c3c
00000080: 0b95 f93b e7fc 1dbc a365 3a3b 8555 953a
00000090: 4789 1f3c eb7d b33c 1e31 50bc 3483 6c3c
000000a0: 456d b23c 16b6 a5bc ded7 8739 61f2 0d3b
000000b0: 88c7 f33b 5c34 aabb 361c c8ba 615b f8bc
000000c0: 95b5 35bc a24e 4bbc 3686 883b 352c 2f3c
000000d0: f4d7 77ba 4fa6 e1bc 7ef5 193c b56c 343b
000000e0: 31d7 dd3c eec4 b3bc 64cc 9d3b 5229 e33b
000000f0: cad4 43bb 9441 35bc 15e2 1c3b c051 133b
00000100: 48d8 c1bb e912 68bc 2f47 c33c 5054 953c
00000110: 698d 48bc 7a41 73bc 3a20 0dbd 4845 3cbc
00000120: 3b8a 04bc 7942 f7bc 0d8a b13c f14f 8d3a
00000130: b57f e7bb 93af 893c 7d9e 5d3d 7490 5cbc
00000140: 1706 603d c793 303c c405 3d3c 6915 b2bc
00000150: d837 7c3b dc5a 62bc ad8d 3c3c 3a3d 483c
00000160: 6f77 8cbc a1ea 903c d536 f53c 62df deb9
00000170: 4675 2c3d e1a9 713c 9b31 013b 5324 c63b
00000180: 9912 a0bc 1f44 3cbc 9ae0 42bc 3afd 9ebc
00000190: bd49 24bc a85f ebba f18c 773c 3dfc 283c
000001a0: 6f17 d33c 5498 2abc c6ad 14bc 2fb3 543c
000001b0: d2e2 5abb e48b 023d 2b7c a2bc d388 ebbb
000001c0: a36e a83c 246e a73b cf0b 18bd efc0 653b
000001d0: f6a4 113c 40bb 533c ec84 963c 28f9 bebc
000001e0: 6ff6 8abc 12ff 953c fcc0 9fbb 626f 71bc
000001f0: 9a72 973c 181a 4cbb da21 b1bc 48ef 1b3c
00000200: 8e6f 923c 43c5 923b c64f b63b ae38 a0bc
00000210: 4bf2 bebc fbe8 8bbc e53a 40bc b910 7cbc
00000220: 2ca0 403c b134 443b 26f5 b93c 1f92 873c
00000230: ebab d1bc c57d 2ebc a269 a43a 5639 8ebc
00000240: 1d5c 153b d031 a23c 742d 79bc 8b98 46bc
00000250: 3457 aebb 05d7 4c3c 9f86 713c feeb 303b
00000260: 4b87 1bbd 5b15 ca3c 1f1e 2c3c 78c1 95bc
00000270: 7223 e83b 3b12 543b fbb1 8fbb f5f1 f6bc
00000280: 94b3 ee3a adc7 d9bb 2a06 cebc a3b0 bf3b
00000290: 788f 003b fb5b 3b3c 54a4 3f3b 374e c03c
000002a0: f1e9 de3c 645f e7bb b6c7 aebc cfa9 9abc
000002b0: be12 d03b 1b92 793d 66d0 f2bc 27be fb3c
000002c0: 435d 183b 7376 3fbc 0575 d337 4b6c 52bc
000002d0: 66d0 13bc d3e7 04bc c978 933c 086d 8b3c
000002e0: 9448 a23c 2774 abbc 038e 003c c827 fabc
000002f0: 9e35 71bb d11c 693c fcc5 f33a 213c c93c
00000300: e907 f63b 9c88 b43b 92fd 40bc b77d 7fbc
00000310: c32d 90bc 0929 403b 3e7d 99bc ccc0 f2bb
00000320: faf9 58bb 5a12 223d 7ed0 0ebc 2037 aa3a
00000330: 4ecb c3bc f1d2 dfbc 0ab7 ae3c 0050 943c
00000340: 19c8 4b3b 0ee9 69bc 2888 eabc 1460 73bb
00000350: 09b6 a9ba e2db 903c c187 22bc 433c adbc
00000360: 1cdc 073c 611e 77bc fbc2 043c 99dc 933c
00000370: 3d5e c93b b806 a83b a9cf debc 17a6 aa3b
00000380: d05f 143d 86c3 55ba 537e cabc 0f46 80bb
00000390: 3c78 5b3b 3a44 883b dacf e2bc c2bf dabc
000003a0: 8b3d e1bb 6f70 d0bb 6b20 143c 8287 60bb
000003b0: a4d3 233c 9119 fe3b 0317 843b 47f0 c73b
000003c0: 3a9e 9f3c 0fd1 a53c 936f b43b fe6d e4b9
000003d0: 1236 443c 5bdb 69bc 2629 283d ce3d f6bc
000003e0: db8e 4bbc 8911 8f3b cfd1 72bc bca7 ab3c
000003f0: 48f2 be3b d79d 33bc 80a4 07bc 7aa3 393c
