checkpoints/checkpoint_actor_1300.pth (torch, 542663 bytes, 6 tensors)

fc1.weight f4 [400, 33]
0	0xbd9d492e	-0.076799735
1	0x3e11c2df	0.14234494
2	0xbc50fec6	-0.012756055
3	0x3ddefa02	0.10887529
4	0xbd0a16ca	-0.03371314
5	0xbd424721	-0.047431115
6	0xbdc7ff13	-0.097654484
7	0xbdcceabe	-0.10005711
8	0xbe6243b9	-0.22096147
9	0xbe4ea5be	-0.20180413
10	0xbe4531ba	-0.1925725
11	0x3db29071	0.08718956
12	0x3c98fb7f	0.01867461
13	0xbd3d15f6	-0.04616352
14	0x3d7f1cfd	0.062283505
15	0x3baa3119	0.005193841
16	0xbcfbbd51	-0.030729922
17	0x3be8562c	0.0070903506
18	0xbb3bc9ec	-0.002865429
19	0xbd379a7a	-0.044825055
20	0x3c97e62d	0.018542374
21	0xbd86523d	-0.065586545
22	0xbdb54f15	-0.08852974
23	0xbd49d8c2	-0.049278982
24	0xbcd4ebdf	-0.025991378
25	0xbd9ece86	-0.07754235
26	0xbd994964	-0.07484701
27	0xbd456687	-0.04819348
28	0x3c901c52	0.01759163
29	0x3d4b65c9	0.049657617
30	0x3d365f11	0.044524256
31	0xbcea4fb7	-0.028602464
32	0x3eb2653a	0.34842855
33	0xbe4d6949	-0.20059694
34	0xbdd216be	-0.10258244
35	0x3ab0c311	0.0013485869
36	0x3d11a450	0.03555709
37	0xbd2a6bcd	-0.041606713
38	0x3bcc6235	0.006237293
39	0x3c172ec0	0.009227455
40	0x3de0233c	0.109442204
41	0x3b66adf3	0.0035198897
42	0xbd9e9a82	-0.07744314
43	0xbd39a28e	-0.04532104
44	0xbd8d9f15	-0.06915108
45	0x3d5eeebc	0.054426894
46	0x3c898d4d	0.01679101
47	0x3d2bd324	0.041949406
48	0xbbcf127c	-0.006319342
49	0xbce29a2f	-0.027661411
50	0xbd207afc	-0.039179787
51	0x3d203adc	0.039118633
52	0x3df8e4b0	0.12152994
53	0xbdccad06	-0.09993939
54	0xbd381acf	-0.04494744
55	0xbd990c41	-0.0747304
56	0x3d55f414	0.052234724
57	0xbd911627	-0.07084303
58	0xbceb7a03	-0.028744703
59	0x3b00e36e	0.0019666809
60	0xbcc6bc72	-0.02425978
61	0x3c603b66	0.013686037
62	0xbd28afc3	-0.041183244
63	0x3d85aef6	0.06527512
64	0xbc3b03ec	-0.011414509
65	0x3e704b38	0.23466194
66	0x3d948b3a	0.07253118
67	0xbca793ca	-0.020456214
68	0xbe3cf212	-0.18451717
69	0xbbe918eb	-0.007113566
70	0xbc73d727	-0.014882839
71	0xbcc11a62	-0.02357215
72	0x3cbcc33a	0.02304231
73	0xbc62a640	-0.013833582
74	0xbd50f681	-0.051016334
75	0x3c6a856b	0.014314036
76	0x3d810aef	0.063009135
77	0x3cb05d97	0.021529002
78	0xbd75438a	-0.059878863
79	0xbc512c2a	-0.012766877
80	0x3d896693	0.067090176
81	0x3cb52337	0.022111518
82	0x3de777aa	0.11302121
83	0x3dba3cef	0.090936534
84	0x3d853ae1	0.06505371
85	0xbd89e0b4	-0.06732312
86	0x3e0aafbe	0.13543603
87	0xbce6cb0e	-0.028172996
88	0x3c6867a1	0.014184863
89	0xbdf37bdb	-0.11888858
90	0x3d19bc07	0.037532832
91	0xbd3b0635	-0.045660216
92	0xbda3ffb4	-0.08007756
93	0xbcc88901	-0.024479391
94	0xbd115011	-0.035476748
95	0xbd0bd4ec	-0.034138605
96	0xbd1798a4	-0.037010804
97	0x3d3cb22b	0.04606835
98	0xbeb619ed	-0.35566655
99	0xbddf1bba	-0.1089396
100	0x3d340348	0.04394844
101	0x3c759255	0.014988502
102	0xbdaac823	-0.08338954
103	0xbe13bf4a	-0.1442844
104	0x3d872def	0.06600558
105	0xbd04a809	-0.032386813
106	0x3ce8f7c0	0.028438449
107	0xbe26028b	-0.16211908
108	0xbc9ac5ac	-0.018893085
109	0xbd4d4170	-0.050111234
110	0x3dca6d0b	0.098840795
111	0xbdb32c34	-0.087486655
112	0x3d22549c	0.03963147
113	0x3b53f5d7	0.0032342577
114	0x3c9fee8e	0.019522931
115	0xbcfaad2c	-0.030600153
116	0x3c3170ea	0.0108301435
117	0xbd2e3389	-0.042529617
118	0x3c95109b	0.018196395
119	0xba43c5b5	-0.00074681203
120	0x3c4a9f3d	0.012367067
121	0xbd394dc2	-0.04524017
122	0x3d157cf3	0.036496114
123	0xbd0c9d25	-0.034329552
124	0x3b536d74	0.0032261284
125	0xbded0666	-0.11573486
126	0xbc67301e	-0.014110593
127	0x3d737dcb	0.059446137
128	0xb8545800	-5.0626695e-05
129	0xbcca982e	-0.024730768
130	0xba080380	-0.000518851
131	0xbf4a260c	-0.78964305
132	0x3d8c5a09	0.0685311
133	0x3d4f182d	0.050560165
134	0x3d92cd3d	0.07168052
135	0xbd897534	-0.06711808
136	0x3d0bfd41	0.03417707
137	0xbdb52e21	-0.08846689
138	0xbd3c5ed2	-0.045988865
139	0xbdb0db94	-0.08635631
140	0xbe043d56	-0.12914023
141	0x3d78fef6	0.060790025
142	0x3d840357	0.064459495
143	0x3dfc5898	0.123215854
144	0x3d2ca0c8	0.04214552
145	0xbda6ce3d	-0.081448056
146	0xbd71a020	-0.058990598
147	0xbe24462b	-0.16042392
148	0x3e205d2b	0.15660541
149	0x3df37c5e	0.118889555
150	0x3da5c363	0.08093908
151	0xbd910c22	-0.07082392
152	0xbde89c12	-0.11357893
153	0x3d9279d0	0.0715214
154	0x3cf21f39	0.029555904
155	0x3b783ce8	0.00378781
156	0x3d69c2e0	0.057070613
157	0xbd30b6bc	-0.04314302
158	0xbdb661a1	-0.0890534
159	0xbc961ab5	-0.018323282
160	0xbe0ca55b	-0.13734953
161	0xbd1b80e0	-0.0379647
162	0xbbe932b8	-0.007116642
163	0xbc19c468	-0.009385206
164	0x38490986	4.7931004e-05
165	0x3dbe3005	0.09286503
166	0x3dbc4fa8	0.09194881
167	0x3dc87b68	0.09789163
168	0x3d0dd550	0.03462726
169	0xbd0a27ec	-0.03372948
170	0xbc5626f6	-0.013070812
171	0x3cbd2497	0.023088736
172	0xbe10c636	-0.14138111
173	0xbe29f084	-0.16595656
174	0x3d9c794c	0.07640323
175	0x3cac4180	0.021027327
176	0xbd5cc79d	-0.053901304
177	0xbc9ef801	-0.019405367
178	0xbe16deb6	-0.14733395
179	0x3e1e2689	0.15444387
180	0xbe2bc3b3	-0.16773872
181	0xbd323747	-0.043509748
182	0x3a018445	0.0004940669
183	0x3cceeac3	0.025258427
184	0xbd58b7bb	-0.052909594
185	0x3abebc13	0.00145519
186	0xbda151ba	-0.07876916
187	0x3d47df6f	0.048797067
188	0xbd3511bf	-0.044206377
189	0x3e3658f7	0.17807375
190	0xbd08f849	-0.03343991
191	0x3dabc864	0.08387831
192	0x3cf04548	0.02932991
193	0x3d9a8f3c	0.07546851
194	0x3d402789	0.046912704
195	0x3c86650a	0.016405601
196	0x3a713ec0	0.0009202771
197	0xbd60d957	-0.05489477
198	0xbd20d541	-0.039265875
199	0x3d744e52	0.059645005
200	0x3d32684e	0.043556504
201	0xba21f92c	-0.0006178792
202	0xbd17933d	-0.03700565
203	0x3c40d944	0.01177055
204	0xbd0fe584	-0.035130993
205	0xbdbb661c	-0.09150335
206	0x3cca24a4	0.024675675
207	0x3d6ea0c7	0.058258798
208	0x3d513eda	0.05108533
209	0xbc8221d7	-0.015885277
210	0x3d5ba38c	0.053622767
211	0xbd9367d1	-0.07197536
212	0x3bc36b64	0.0059637297
213	0xbdada671	-0.08479012
214	0xbcc651a6	-0.024208855
215	0x3c8454a5	0.016153643
216	0x3cec1dc4	0.028822787
217	0x3b5aa0c6	0.0033359989
218	0x3d92faf0	0.07176769
219	0xbd308ea3	-0.04310478
220	0x3d0b19f6	0.033960305
221	0x3cb655f7	0.022257788
222	0xbd1bd469	-0.038044367
223	0xbd26d585	-0.04073097
224	0x3df3a5c3	0.11896851
225	0x3b9a2939	0.004704621
226	0x3cd836d3	0.02639333
227	0xbd2f707f	-0.042831894
228	0xbcd1a039	-0.025589095
229	0x3c2ce8ac	0.01055352
230	0xbf7b9b93	-0.9828426
231	0xbcfe97a2	-0.031078164
232	0x3e1add8e	0.15123579
233	0xbd14cc8d	-0.036327887
234	0x3d95f8b0	0.07322824
235	0xbd876db3	-0.0661272
236	0xbd66b8e1	-0.056328658
237	0x3d1fbb1a	0.038996793
238	0xbcb3f89a	-0.021969128
239	0xbe28d3d1	-0.16487052
240	0xbd3b886d	-0.045784403
241	0xbc0abd3b	-0.008467968
242	0x3c910a08	0.017704979
243	0xbc644d83	-0.013934496
244	0xbcfc26e1	-0.030780258
245	0xbc999619	-0.01874833
246	0x3d874215	0.06604401
247	0x3d6ffde8	0.058591753
248	0x3b0f5162	0.0021868576
249	0x3db3870f	0.08765995
250	0x3c360ffb	0.0111122085
251	0x3d8eba49	0.06969125
252	0x3ba1e867	0.0049410346
253	0x3ca07db4	0.01959119
254	0x3df1d5bb	0.11808344
255	0xbe3f975f	-0.18710087

fc1.bias f4 [400]
0	0xbd501315	-0.050799448
1	0xbcd7ac43	-0.026327258
2	0x3e237832	0.1596382
3	0x3c91df35	0.017806629
4	0xbdee507c	-0.11636445
5	0xbe26acf2	-0.16276911
6	0xbe058877	-0.13040338
7	0xbe287239	-0.16449822
8	0xbe3ac016	-0.18237337
9	0xbc522856	-0.012827
10	0x3db9396e	0.09044157
11	0xbdbe71b8	-0.09299034
12	0x3d9fff38	0.07812351
13	0xbbc21055	-0.005922357
14	0xbdf37a12	-0.118885174
15	0xbdd1d6af	-0.10246026
16	0xbd9d7006	-0.076873824
17	0xbe08152d	-0.13289328
18	0xbe7087f3	-0.2348936
19	0xbdc36715	-0.09541146
20	0xbd94e89e	-0.07270931
21	0xbd61d041	-0.055130247
22	0xbd8f59f6	-0.069995806
23	0xbe20bed5	-0.15697797
24	0xbda890f4	-0.082307726
25	0xbe2091cb	-0.15680616
26	0xbb5f6fb8	-0.003409369
27	0x3dd73bff	0.1050949
28	0x3e3f1255	0.18659337
29	0xbcfb14c9	-0.03064956
30	0xbd516c1b	-0.051128488
31	0x3d1f237d	0.038852204
32	0x3df10fd3	0.11770596
33	0xbcdf97ae	-0.027294006
34	0xbd89a4e5	-0.06720904
35	0xbc774211	-0.015091435
36	0xbdf8070a	-0.121107176
37	0x3db1d5aa	0.08683331
38	0x3dae6bdd	0.08516667
39	0xbde31d49	-0.1108957
40	0x3d917266	0.07101898
41	0x3d9233b1	0.071387656
42	0x3dfe400b	0.12414559
43	0x3d87f080	0.066376686
44	0xbd467388	-0.048450023
45	0x3d476413	0.048679423
46	0x3db7ca23	0.089741014
47	0x3e0960dd	0.13415857
48	0x3dc0e7df	0.09419226
49	0xbd89538e	-0.0670539
50	0xbc5aee31	-0.013362453
51	0x3e7a37d8	0.24435365
52	0x3d67ee4f	0.056623753
53	0x3e1dea06	0.15421304
54	0xbd5b4a4d	-0.053537656
55	0x3e54b2c0	0.20771313
56	0x3cad1b94	0.021131314
57	0xbd43b607	-0.047781017
58	0x3d94f949	0.0727411
59	0x3e27f9cc	0.16403884
60	0xbe1f496b	-0.1555535
61	0xbdc2681d	-0.09492514
62	0x3e2f6c4e	0.17131159
63	0xbdf90f0d	-0.12161074
64	0xbe15a6ac	-0.14614362
65	0xbd87bcfe	-0.06627844
66	0x3d89af5a	0.06722899
67	0xbda9d708	-0.08292967
68	0xba762c53	-0.000939076
69	0x3ca39dbe	0.019972678
70	0x3dbd3bb4	0.09239903
71	0xbe1e6f51	-0.15472151
72	0x3d3d3c3c	0.046200022
73	0xbe066d93	-0.13127737
74	0x3d558824	0.052131787
75	0x3e073b8c	0.13206309
76	0xbe064e9a	-0.13115922
77	0x3cadb84b	0.021206042
78	0x3e05ce9b	0.13067095
79	0xbe0ab8b0	-0.13547015
80	0xbddf5231	-0.10904349
81	0xbd83645e	-0.06415628
82	0xbd334345	-0.043765325
83	0x3cee3937	0.029080017
84	0x3cab515d	0.02091282
85	0x3d943335	0.072363295
86	0x3d2ab015	0.04167183
87	0x3d2c133c	0.04201053
88	0x3d79b2be	0.060961477
89	0xbe106e9e	-0.14104697
90	0xbe093911	-0.13400675
91	0xbd6527aa	-0.05594603
92	0x3d26930c	0.04066758
93	0xbd109295	-0.03529604
94	0xbcbbb4e8	-0.022913411
95	0xbdae0226	-0.084965035
96	0x3d00f487	0.0314832
97	0x3dc356b6	0.09538023
98	0xbd996396	-0.07489698
99	0x3e418576	0.18898568
100	0xbc65c668	-0.0140243545
101	0x3e69126a	0.2276093
102	0xbdafba5b	-0.08580466
103	0x3e691c32	0.22764662
104	0xbb31abb1	-0.0027110393
105	0x3e1cfcdc	0.15330833
106	0x3dc52aec	0.09627327
107	0xbcb171e2	-0.021660749
108	0xbcbaa307	-0.022782816
109	0xbe36f421	-0.17866565
110	0x3d8d0598	0.068858325
111	0xbdede2a4	-0.11615494
112	0x3c50dd53	0.01274808
113	0x3ca43d86	0.020048868
114	0x3e23db4a	0.16001621
115	0x3d9e9d46	0.07744841
116	0x3c30abd1	0.010783152
117	0xbdd1336d	-0.10214887
118	0xbe4dee45	-0.20110424
119	0xbe163047	-0.14666854
120	0xbe86bf2a	-0.26317722
121	0xbde2b1fe	-0.110691056
122	0xbe014436	-0.12623677
123	0x3d3f2f40	0.04667592
124	0xbe3f2774	-0.18667394
125	0x3d79fad5	0.061030228
126	0x3e069eaf	0.1314647
127	0xbd5df7b5	-0.05419131
128	0xbcd02b1f	-0.025411187
129	0x3de3144d	0.110878564
130	0xbe6207df	-0.22073315
131	0x3d97ca77	0.07411664
132	0x3e38100f	0.17974876
133	0x3d48c666	0.049017332
134	0xbe117d6d	-0.14208002
135	0x3e20b589	0.1569425
136	0xbd2842b1	-0.041079227
137	0x3c9ec8ad	0.019382799
138	0x3e438794	0.19094688
139	0x3cd142eb	0.025544604
140	0x3cf9a0a4	0.030472107
141	0xbdce27c9	-0.10066182
142	0xbdc1d6a3	-0.09464767
143	0x3e11016b	0.14160697
144	0xbe0b2929	-0.1358992
145	0x3d005072	0.03132672
146	0xbd1dc4cf	-0.03851777
147	0xbd9069ab	-0.070514046
148	0xbe596165	-0.2122856
149	0xbe225152	-0.15851334
150	0xbd6cdd72	-0.057828374
151	0x3d305072	0.04304547
152	0x3d8af67f	0.06785297
153	0xbeb441ee	-0.3520655
154	0xbd0fb7fc	-0.03508757
155	0xbe544ab2	-0.20731619
156	0x3e885d44	0.26633656
157	0xbe181c6d	-0.14854594
158	0xbc6e597f	-0.014547705
159	0xbba5121b	-0.0050375587
160	0xbe233246	-0.15937147
161	0x3db20dd6	0.08694045
162	0x3d8f3add	0.06993649
163	0x3d3c2845	0.04593684
164	0x3d3c9ce5	0.046048064
165	0x3d102f18	0.035201162
166	0x3d6062d8	0.054781765
167	0x3e4c2fdf	0.19940136
168	0xbbf28d63	-0.0074021085
169	0x3afd8170	0.0019340944
170	0xbd369048	-0.04457119
171	0xbe0946a9	-0.13405861
172	0x3ca5986b	0.02021428
173	0xbd7ae878	-0.061256856
174	0xbe014e62	-0.12627557
175	0x3e0b9706	0.1363183
176	0xbe83d9be	-0.25752062
177	0xbdc5cc16	-0.09658067
178	0x3e418cb2	0.18901327
179	0xbd707115	-0.058701593
180	0x3db530c4	0.08847192
181	0x3de0a1ec	0.10968384
182	0xbe0059b8	-0.12534225
183	0xbe3327f9	-0.17495717
184	0xbd8a68a0	-0.06758237
185	0xbdcbabd3	-0.09944882
186	0xbe0141d2	-0.12622765
187	0xbd139ffe	-0.036041252
188	0x3ddd654f	0.10810339
189	0x3de69f97	0.11260908
190	0xbd7a338d	-0.06108432
191	0xbe038f86	-0.12847719
192	0xbe04534d	-0.12922402
193	0x3e322c9f	0.17399834
194	0xbb341e3f	-0.0027483848
195	0x3b83b6cc	0.004019594
196	0xbe153d5d	-0.1457419
197	0xbec28c6f	-0.37997767
198	0x3e0072f4	0.12543851
199	0xbbf8b91e	-0.007590427
200	0xbd1706b4	-0.036871627
201	0xbd75b88b	-0.059990447
202	0xbddcab33	-0.10774841
203	0xbdbf17e7	-0.09330731
204	0xbe3ef55f	-0.18648289
205	0x3d6b3099	0.057419393
206	0xbd3d1d7e	-0.046170704
207	0xbdd11bf2	-0.10210408
208	0x3c823f9d	0.015899474
209	0xbce3c974	-0.027806021
210	0x3d677ab2	0.056513496
211	0x3dce8b8f	0.100852124
212	0xbe44f7f9	-0.19235219
213	0xbe92b781	-0.28655627
214	0x3db0cfba	0.08633371
215	0xbcbf3739	-0.023341762
216	0xbe1560a6	-0.1458765
217	0xbd8e9b15	-0.06963173
218	0x3c1ea800	0.009683609
219	0x3df960e4	0.121766835
220	0xbe6f6bbe	-0.23380944
221	0xbe257b14	-0.16160232
222	0xbe02c9e0	-0.12772322
223	0xbe4eb014	-0.20184356
224	0x3e252c9b	0.16130297
225	0x3c6172f7	0.01376032
226	0x3e365b1a	0.1780819
227	0x3dd0f1f3	0.10202398
228	0x3d83ecd4	0.06441656
229	0xbe234e01	-0.15947725
230	0x3d5b4f9c	0.05354272
231	0x3db7592e	0.089525566
232	0xbc0a744f	-0.008450582
233	0xbe422756	-0.18960318
234	0xbd60fb25	-0.05492701
235	0x3e1362fb	0.14393227
236	0xbd73e82d	-0.059547592
237	0xbdbdcf01	-0.092679985
238	0xbdb56c63	-0.08858564
239	0x3d001f52	0.03127987
240	0x3df764e8	0.12079793
241	0xbca97ebe	-0.020690318
242	0x3dd71b7d	0.1050329
243	0x3dae2da9	0.08504803
244	0xbd865fcc	-0.065612406
245	0xbdf921c7	-0.12164646
246	0x3e619486	0.22029313
247	0x3d96ad9c	0.07357332
248	0xbd97fcc9	-0.07421262
249	0xbe916a23	-0.28401288
250	0xbce918fd	-0.028454298
251	0x3d9e8245	0.07739691
252	0xbd9772f9	-0.07394976
253	0xbda36419	-0.079780765
254	0x3e315d32	0.17320707
255	0x3dea4561	0.11439014

fc2.weight f4 [300, 400]
0	0x3d473bb7	0.048640933
1	0x3b10d452	0.002209921
2	0x3cec1303	0.02881766
3	0xbd2d6651	-0.042333905
4	0x3d7ead04	0.06217672
5	0x3ca6db9c	0.02036839
6	0x3e02512d	0.12726279
7	0x3da4bd1d	0.08043883
8	0xbcd99887	-0.026561989
9	0xbd03c5dc	-0.032171115
10	0xbdf14591	-0.11780847
11	0xbc8ba4e7	-0.017046405
12	0x3d4aa8f1	0.04947752
13	0x3d63a195	0.05557402
14	0x3c9b7653	0.01897732
15	0xbdb5acee	-0.08870874
16	0x3cfae051	0.03062454
17	0xbd19ee45	-0.037580747
18	0x3d6e5e56	0.058195435
19	0xbda9318c	-0.082614034
20	0x3e0a41ff	0.13501738
21	0xbd1c5e1d	-0.03817569
22	0x3d82dd7f	0.06389903
23	0xbd620e26	-0.055189274
24	0x3d2f7a4c	0.04284124
25	0xbd9deca8	-0.07711154
26	0xbdb8c8cb	-0.09022673
27	0xbd6c4e21	-0.057691697
28	0xbd83fca6	-0.06444673
29	0x3d2b4c3c	0.04182075
30	0x3b9aab7a	0.0047201486
31	0xbd887e9e	-0.06664775
32	0xbd1fb666	-0.038992308
33	0xbd3520df	-0.0442208
34	0xbcc9c2c1	-0.024628999
35	0x3e0d7734	0.13815004
36	0xbbe50b0a	-0.0069898413
37	0xbe157b66	-0.14597854
38	0xbd9a258d	-0.075266935
39	0xbd87ec68	-0.06636888
40	0xbc702f11	-0.014659659
41	0x3d6eb83b	0.058281165
42	0x3d2894f2	0.04115767
43	0xbdfb604e	-0.12274228
44	0x3d8f78e1	0.07005478
45	0x3d4d73a1	0.0501591
46	0x3d333d34	0.04375954
47	0x3d5caeea	0.05387775
48	0x3d09d779	0.033652756
49	0x3dd8973b	0.1057572
50	0x3d927f51	0.0715319
51	0x3dadbc3f	0.08483171
52	0xbcc2111c	-0.023689799
53	0xbd2df812	-0.042472906
54	0xbcd9ac47	-0.026571406
55	0x3d896cb3	0.06710186
56	0x3ad6923e	0.0016370488
57	0xbd7151ac	-0.05891578
58	0x3cfdabb5	0.030965665
59	0x3d49b937	0.0492489
60	0x3d3c4d32	0.045972057
61	0xbd85f2a7	-0.06540423
62	0xbd887f20	-0.06664872
63	0x3ce21789	0.027599113
64	0xbd954f17	-0.07290476
65	0x3bb4712f	0.0055066566
66	0x3d6b40a3	0.05743469
67	0xbc40d149	-0.0117686475
68	0x3c4e8e76	0.0126072075
69	0x3dc33c14	0.09532943
70	0xbcdd9062	-0.027046386
71	0x3d129c22	0.03579343
72	0xbdefa53b	-0.11701437
73	0x3d95599c	0.07292482
74	0x3d81dcdc	0.06340954
75	0xbda0da7c	-0.078541726
76	0xbdac5c5c	-0.08416054
77	0x3d0fa517	0.03506955
78	0x3d3d3e17	0.04620179
79	0xbd86599a	-0.06560059
80	0xbd942934	-0.07234421
81	0x3a78ffa4	0.00094985426
82	0xbc402327	-0.011727131
83	0x3c5318e9	0.012884357
84	0xbce04f4c	-0.027381562
85	0x3dbdf704	0.0927563
86	0x3ca279af	0.019833414
87	0x3ce70a8a	0.028203268
88	0xbe336d98	-0.17522275
89	0x3d1cb095	0.03825434
90	0xbd1077bd	-0.03527044
91	0x3d8aa3b7	0.067695074
92	0xbcbd2b8f	-0.02309206
93	0xbd757c3d	-0.059932936
94	0x3cc82024	0.024429388
95	0xbd0fd387	-0.035113838
96	0xbdb0b9f0	-0.08629215
97	0x3df760d0	0.120790124
98	0x3bc10309	0.0058902544
99	0x3deb2dde	0.11483358
100	0xbca7a6ac	-0.020465218
101	0x3cb1f86d	0.021724904
102	0xbcd3f9d2	-0.02587596
103	0x3d6944f7	0.056950536
104	0xbdd91654	-0.10599962
105	0xbdbba255	-0.09161822
106	0xbd41de6d	-0.047331262
107	0x3dc3be56	0.09557788
108	0xbc304122	-0.010757716
109	0xbd9292d8	-0.071569145
110	0xbccb1335	-0.024789432
111	0x3ca92929	0.02064951
112	0x3d8fa353	0.070135735
113	0xbc544fa8	-0.012958445
114	0x3b8a7f2c	0.004226586
115	0xbd82c822	-0.063858286
116	0xbd51837b	-0.05115078
117	0xbd0c0180	-0.034181118
118	0xba07882d	-0.0005170133
119	0xbcb790db	-0.02240794
120	0x3d29de9b	0.04147206
121	0x3b26c862	0.0025449027
122	0x3d6f6c50	0.058452904
123	0xbcb9ebee	-0.022695508
124	0xbd1781c9	-0.036989007
125	0x3d94a816	0.07258622
126	0x3d6716c1	0.056418184
127	0x3c5de919	0.013544344
128	0x3bd56f99	0.0065135476
129	0x3d806756	0.0626971
130	0x3d9e2d5b	0.077234946
131	0xbb566f78	-0.003272025
132	0xbd778e83	-0.060438644
133	0x3e05960e	0.13045523
134	0xbda1327c	-0.07870957
135	0xbd14fd29	-0.036374245
136	0x3dd252e9	0.1026972
137	0x3e1c4df4	0.15264112
138	0x3d773f99	0.060363386
139	0xbc79ec20	-0.0152540505
140	0xb98eb97b	-0.00027222544
141	0x3c5133e4	0.012768719
142	0xbbe88a68	-0.0070965774
143	0x3d558bb2	0.052135177
144	0x3d64b1d2	0.055833645
145	0xbdd01963	-0.10161092
146	0x3d1bb9d1	0.038019005
147	0xbd24936d	-0.04017966
148	0x3e01ad36	0.12663731
149	0x3d88bc79	0.06676573
150	0xbcc5080c	-0.024051689
151	0xbb37e31e	-0.0028058956
152	0xbd0fbf0a	-0.0350943
153	0xbd8b9829	-0.068161316
154	0xbdb97c98	-0.090569675
155	0x3b34cfe0	0.0027589723
156	0x3c7c2170	0.0153888315
157	0xbd9086c3	-0.07056954
158	0x3d502fb5	0.050826747
159	0xbd12bab7	-0.035822596
160	0xbd408b6b	-0.04700796
161	0x3ddd859d	0.108165
162	0x3d1652e0	0.03670013
163	0xbcbe89b9	-0.02325903
164	0xbd3a60a3	-0.045502316
165	0x3cd97808	0.026546493
166	0xbcdc2a35	-0.026875595
167	0x3e2d6b15	0.1693538
168	0xbd152f70	-0.036422193
169	0xbde96d22	-0.113977686
170	0xbcf258d1	-0.029583367
171	0x3d7a0f6f	0.061049875
172	0x3d8164af	0.06318032
173	0xbbc29958	-0.00593869
174	0xbd19cdd1	-0.037549797
175	0x3d581b50	0.052760422
176	0xbdc23f26	-0.09484701
177	0x3d98e788	0.07466036
178	0xbd645b14	-0.05575092
179	0x3cf89d4f	0.030348448
180	0xbd3f030a	-0.046633758
181	0x3d2c9904	0.042138115
182	0xbcc3228d	-0.023820186
183	0xbe2f6e30	-0.17131877
184	0xbdd46e65	-0.103726186
185	0x3cab9f11	0.020949872
186	0x3d6228d0	0.055214703
187	0x3c71f203	0.014767173
188	0x3dca7f2e	0.09887539
189	0x3d9a3bb3	0.07530918
190	0x3d789bce	0.060695462
191	0xbdc1d7bc	-0.09464976
192	0xbbbfc14c	-0.0058519
193	0x3cffac37	0.031210048
194	0xbdb1e09e	-0.086854205
195	0xbc9688b3	-0.01837573
196	0xbe189e6e	-0.14904186
197	0xbbd9cf88	-0.006647054
198	0x3d99c795	0.075087704
199	0x3d3040cc	0.043030545
200	0xbc1667e0	-0.009180039
201	0x3c55f2cd	0.0130583765
202	0x3bd8b303	0.0066131367
203	0xbe13cde6	-0.14434013
204	0xbafcc9fc	-0.001928627
205	0xbd184b87	-0.037181403
206	0x3dd5c9be	0.1043887
207	0x3d348bdd	0.044078697
208	0xbdd8c93a	-0.10585256
209	0x3ce54271	0.027985783
210	0x3cb01eda	0.021499086
211	0xbcc1b3b5	-0.023645261
212	0xbe194f30	-0.14971614
213	0xbdd96f8f	-0.10616981
214	0xbd3e73c5	-0.046497125
215	0x3d81a7db	0.06330844
216	0xbdf5c51e	-0.12000488
217	0x3d490a96	0.04908236
218	0xbae23623	-0.0017258566
219	0xbd7839ec	-0.060602114
220	0x3b97dbfd	0.004634379
221	0x3d42d030	0.047561824
222	0xbda93da6	-0.08263712
223	0x3bf5599a	0.007487488
224	0xbdd0d885	-0.10197548
225	0x3dff6aba	0.12471528
226	0x3dbbd05c	0.09170601
227	0x3d9ea090	0.077454686
228	0xbe078967	-0.13236009
229	0xbc595174	-0.013264049
230	0xbc74de86	-0.014945632
231	0xbd711c4d	-0.05886488
232	0x3ca8c580	0.020601988
233	0xbd3a66f6	-0.045508347
234	0x3c9f1e5a	0.019423652
235	0xbd2e6f10	-0.042586386
236	0xbd51d4e5	-0.051228423
237	0xbd012a22	-0.03153432
238	0x3d49dcb0	0.04928273
239	0x3da1db5a	0.07903166
240	0x3da6773a	0.081282094
241	0xbd572cd8	-0.052533
242	0x3b050b21	0.0020300823
243	0xbdcca75f	-0.09992861
244	0x3ce5e349	0.02806248
245	0xbe70a430	-0.23500133
246	0x3d2f4135	0.042786796
247	0x3c971344	0.018441804
248	0xbd6d9cb5	-0.058010776
249	0x3c8b5b0b	0.017011186
250	0x3d1366b8	0.035986632
251	0x3e2178f7	0.157688
252	0x3cf3a91a	0.02974372
253	0x3d3ad304	0.045611396
254	0xbc081709	-0.008306273
255	0xbd0130e6	-0.031540774

fc2.bias f4 [300]
0	0x3d72a0ca	0.05923537
1	0xbc85d41f	-0.016336499
2	0x3cd8b5e5	0.026453922
3	0x3d5899b9	0.052880976
4	0x3e112db0	0.14177585
5	0x3d17ca79	0.037058327
6	0x3d0f8220	0.035036206
7	0x3dc72f80	0.09725857
8	0x3db23e19	0.087032504
9	0x3dc7b5d8	0.09751481
10	0xbc1a2b8d	-0.009409797
11	0x3c544611	0.012956158
12	0xbe3d6c57	-0.1849836
13	0x3c5ac979	0.013353699
14	0xbd44212a	-0.04788319
15	0xbc9e98c9	-0.019359963
16	0x3cec9dfa	0.028883923
17	0x3bfaf056	0.007658045
18	0x3e071efe	0.13195416
19	0x3cad5ebb	0.021163335
20	0x3d96fd75	0.07372562
21	0xb92e4c1a	-0.00016622283
22	0x3c284731	0.01027088
23	0x3bde422e	0.0067827916
24	0x3deaa5de	0.11457418
25	0xbd45c7c3	-0.04828621
26	0x3db2ee18	0.08736819
27	0xbc8d6dd2	-0.01726428
28	0x3d1c9b09	0.03823379
29	0x3d0f1442	0.03493143
30	0xbbac208a	-0.0052529024
31	0x3bfd10af	0.007722936
32	0x3db8f57e	0.09031199
33	0x3dace5cb	0.08442267
34	0xbdae9a38	-0.08525509
35	0x3d967948	0.07347351
36	0x3d21d53d	0.03951
37	0xbbbeb609	-0.00582004
38	0x3ce57411	0.028009446
39	0x3dd6326b	0.10458835
40	0xbc4c6c46	-0.012476986
41	0x3cfd1318	0.030892894
42	0xbd150706	-0.03638365
43	0x3d0d2c09	0.034465823
44	0x3e00a152	0.12561539
45	0x3d99929c	0.07498667
46	0x3d13654d	0.03598528
47	0xbdeaac27	-0.11458617
48	0xbb0f3822	-0.0021853526
49	0x3aa39952	0.0012481606
50	0xbda764fc	-0.08173558
51	0xbb3ba842	-0.0028634225
52	0x3cb9e05f	0.022689996
53	0x3d9121bf	0.07086515
54	0xbcced680	-0.025248766
55	0x3c85b9c5	0.016323933
56	0xbdb77e68	-0.08959657
57	0x3ca63a67	0.02029152
58	0xbca6d878	-0.020366892
59	0x3c8bf6db	0.017085483
60	0x3d35f36d	0.044421602
61	0x3d8a1494	0.06742206
62	0xbcfc6faa	-0.030814964
63	0x3d643727	0.05571666
64	0x3d51c9e1	0.051217917
65	0x3d60a8f7	0.054848637
66	0xbc659d10	-0.014014497
67	0xbbb625cb	-0.0055587045
68	0x3d78d467	0.060749438
69	0x3d97f952	0.07420601
70	0x3dbebe44	0.09313634
71	0xbdad89a7	-0.08473521
72	0x3d785b63	0.06063403
73	0x3c26992a	0.010168353
74	0x3ce7a5d9	0.028277325
75	0x3d167e05	0.036741275
76	0xbc902179	-0.017594086
77	0x3e08a750	0.13345075
78	0x3c909102	0.01764727
79	0xbd7b04f3	-0.061284017
80	0xbc9ad9cb	-0.01890268
81	0xbc85b926	-0.016323637
82	0xbc36df6e	-0.011161668
83	0x3d114219	0.035463426
84	0x3d0e9e2e	0.03481882
85	0x3c7ecfbe	0.015552459
86	0xbc8abeb4	-0.016936637
87	0x3d0afe71	0.03393406
88	0xbd5eecc1	-0.054425005
89	0x3df84c10	0.12123883
90	0x3d303c21	0.043026093
91	0xbd26ab14	-0.040690497
92	0x3d51eb17	0.05124959
93	0x3d19eeac	0.03758113
94	0x3cef3991	0.029202254
95	0x3da8efdd	0.08248875
96	0x3b5c8e5a	0.0033654184
97	0x3ddcc94a	0.1078058
98	0xbdc37839	-0.09544415
99	0x3d4fe467	0.05075493
100	0x3d14fb4c	0.036372468
101	0x3d0df9a1	0.034661893
102	0xbd01e3d1	-0.031711403
103	0x3cf3c7d0	0.029758364
104	0x3d43c367	0.047793772
105	0x3ca53985	0.020169029
106	0x3d51c6c1	0.051214937
107	0x3d4dcc00	0.050243378
108	0xbe410af0	-0.18851829
109	0xbd051b0c	-0.032496497
110	0x3d352106	0.044220947
111	0x3d8c2930	0.068437934
112	0x3da59c2d	0.08086429
113	0xbcfee32b	-0.031114182
114	0x3b81ed96	0.00396509
115	0x3b87dc3e	0.004146128
116	0x3da5c804	0.080947906
117	0x3df139bd	0.11778591
118	0x3bd6c4a8	0.006554205
119	0x3d95c7e8	0.0731352
120	0xbdb25c9b	-0.08709069
121	0xbd40a8da	-0.04703603
122	0x3daeeb95	0.085410275
123	0xbac5cb16	-0.0015090432
124	0x3d89cc77	0.06728452
125	0xbdcfd09c	-0.10147211
126	0x3d40c09c	0.047058687
127	0x3d27a9ed	0.04093354
128	0x3d7cb338	0.061694354
129	0x3d894b8b	0.06703862
130	0x3d048956	0.032357536
131	0x3b97bac2	0.0046304176
132	0x3d61982f	0.055076774
133	0x3c81afa1	0.015830817
134	0x3d0bd08b	0.03413443
135	0xbc4535d0	-0.012036756
136	0x3d6cc232	0.057802387
137	0x3dbe8638	0.09302944
138	0xbc769a00	-0.015051365
139	0x3d56560d	0.05232816
140	0xbd928ab5	-0.071553625
141	0xbbd832d2	-0.006597855
142	0x3c1eccd4	0.0096923895
143	0xbb209553	-0.0024503067
144	0x3c1b07dd	0.009462324
145	0x3d39aebe	0.045332663
146	0xbd330eba	-0.043715216
147	0x396c0e82	0.00022512118
148	0xbd896367	-0.067084126
149	0x3d4696b7	0.048483577
150	0xbd6c64ac	-0.057713196
151	0x3dbd3c04	0.09239963
152	0x3d4878a3	0.048943173
153	0x3dad92c3	0.08475258
154	0x3d5f3d34	0.054501727
155	0x3dc07679	0.09397597
156	0x3d2f1043	0.042740118
157	0x3cdd29db	0.026997497
158	0xbcc4e458	-0.024034664
159	0x3dae7d53	0.085199974
160	0x3d8bec8f	0.06832229
161	0x3d27aaa3	0.040934216
162	0x3d511607	0.051046398
163	0x3b532cb9	0.0032222702
164	0xbdf0bf60	-0.11755252
165	0xbd3aaf20	-0.04557717
166	0x3d1733e2	0.036914714
167	0x3db2a28a	0.08722408
168	0xbded5434	-0.11588326
169	0x3d301218	0.042986006
170	0xbd094b1a	-0.033518888
171	0xbd15b501	-0.036549572
172	0x3b5ae738	0.0033401977
173	0x3ce4cbc3	0.027929192
174	0x3d990789	0.0747214
175	0x3d22fcdc	0.039791927
176	0xbd5a4304	-0.053286567
177	0x3c091739	0.008367353
178	0xbda2b38d	-0.07944403
179	0x3d89b1b5	0.06723348
180	0x3d18d62f	0.037313636
181	0x3d74925c	0.05970989
182	0x3e0253d2	0.12727287
183	0x3bb3dd45	0.005489024
184	0x3d4778de	0.048699252
185	0x3c144df4	0.009051789
186	0x3d85ef19	0.06539745
187	0x3cdcee19	0.026969003
188	0x3d450d10	0.04810816
189	0x3bc51b9e	0.006015255
190	0xbd17301c	-0.036911115
191	0x3d9a1b68	0.075247586
192	0x3bc1522a	0.0058996873
193	0xbbfd4ad7	-0.007729869
194	0x3dae7dc5	0.085200824
195	0x3d9fe0ac	0.07806525
196	0x3ce1a7e3	0.027545875
197	0x3cd6c25e	0.026215728
198	0xbde094ba	-0.10965867
199	0x3db77c23	0.08959224
200	0x3d18093b	0.037118178
201	0xbd53ecc3	-0.051739465
202	0xbd996964	-0.07490805
203	0x3cbeb239	0.023278343
204	0x3d306099	0.043060873
205	0x3dc3048f	0.09522354
206	0x3bd3b450	0.006460704
207	0x3d4b4f2e	0.04963606
208	0xbd58a3ca	-0.052890576
209	0x3c1aed6d	0.009456021
210	0xbc5fdedf	-0.013663976
211	0x3bce0b4b	0.0062879673
212	0xbd843b53	-0.06456628
213	0x3cb80374	0.022462584
214	0xbca2f2cc	-0.019891165
215	0x3e0115fb	0.12606041
216	0x3cf6a359	0.030107187
217	0x3c1d85f2	0.009614455
218	0x3c104824	0.008806262
219	0x3e08529a	0.1331276
220	0xbd94fe4a	-0.07275064
221	0xbd94f974	-0.07274142
222	0xbc8fb350	-0.017541558
223	0x3ca4c1c1	0.02011192
224	0x3d3dc008	0.046325713
225	0xbcada312	-0.021195922
226	0xbd1f8453	-0.038944554
227	0x3d1ef083	0.03880359
228	0xbd19f8c4	-0.037590757
229	0x3d61c387	0.05511811
230	0x3c246dbf	0.010035931
231	0xba888499	-0.0010415494
232	0xbdd4b4be	-0.10386036
233	0x3da74fea	0.08169539
234	0xbc8be76a	-0.01707812
235	0xbc05205e	-0.008125393
236	0xbdb83774	-0.08994952
237	0x3d623b97	0.05523261
238	0xbaa015cd	-0.0012213528
239	0xbd468cb8	-0.048474044
240	0xbd170f25	-0.036879677
241	0x3daa91e8	0.08328611
242	0x3d812a2f	0.06306874
243	0xbd1152e2	-0.035479434
244	0xbd26e0aa	-0.0407416
245	0xbd245dd7	-0.040128555
246	0x3d4f188d	0.050560523
247	0x3d514808	0.051094085
248	0x3c6c9512	0.014439838
249	0xbbdf60f5	-0.006816978
250	0x3d66a274	0.05630727
251	0x3d9fba10	0.077991605
252	0x3d5834bd	0.05278467
253	0xbbe6e900	-0.0070468187
254	0xbd89ebf9	-0.06734461
255	0xbd297b2c	-0.04137723

fc3.weight f4 [4, 300]
0	0xbd83818f	-0.06421196
1	0x3d450390	0.0480991
2	0x3d114831	0.035469238
3	0xbe0af5a2	-0.13570264
4	0x3e08d5b8	0.13362777
5	0x3b5636aa	0.003268639
6	0xbe219d56	-0.15782675
7	0xbe90d092	-0.28284127
8	0xbeb30d16	-0.3497092
9	0x3e056ed1	0.13030554
10	0xbd023db1	-0.031797115
11	0x3e0b6618	0.13613164
12	0x3ead30ee	0.33826393
13	0x3d3b04a3	0.04565872
14	0xbe8d4d22	-0.2759791
15	0x3d5dffac	0.054198906
16	0xbd8fd3b2	-0.070227996
17	0x3e108039	0.14111413
18	0x3ddbb173	0.10727205
19	0x3e36e417	0.17860447
20	0xbd25df00	-0.040495872
21	0x3e98e9ad	0.2986578
22	0xbd46bf7c	-0.048522457
23	0xbe39c40e	-0.18141195
24	0xbd3b8e1e	-0.04578983
25	0xbdaf5161	-0.08560444
26	0xbd1b48b9	-0.03791115
27	0xbb931ffc	-0.004489897
28	0x36e138b8	6.7121255e-06
29	0x3e2bbf2f	0.1677215
30	0x3dbe65aa	0.09296735
31	0x3e3352b9	0.17512025
32	0x3d02a499	0.031895254
33	0xb9c7bdce	-0.00038097653
34	0x3d95b88e	0.07310592
35	0x3cf2f3d1	0.029657276
36	0xbe0ac5f7	-0.1355208
37	0x3da4aa10	0.08040249
38	0xbe505f9c	-0.20348972
39	0xbdd70eb2	-0.1050085
40	0xbe402c27	-0.18766843
41	0x3d0888c7	0.033333566
42	0x3b8ed8a3	0.004359321
43	0xbd4e74a5	-0.05040421
44	0xbe7dd0a6	-0.24786624
45	0x3b09a84f	0.002100486
46	0x3e5ed876	0.21762261
47	0x3dc0db0c	0.0941678
48	0xbdd91da0	-0.10601354
49	0xbd0a338c	-0.033740565
50	0x3ef52417	0.47879097
51	0xbda42f8f	-0.080168836
52	0x3e527bf6	0.205551
53	0x3d05f764	0.032706633
54	0xbe313a87	-0.17307483
55	0xbd525fd9	-0.05136094
56	0x3ca718ec	0.020397626
57	0xbd38373c	-0.04497455
58	0xbd9d978b	-0.0769492
59	0x3dc94694	0.09827915
60	0xbe736a11	-0.2377093
61	0x3d032b32	0.032023616
62	0x3df9a0f8	0.121889055
63	0xbd5847c3	-0.052802812
64	0x3cd40e46	0.025885712
65	0x3dbf4886	0.093400046
66	0x3e2e6791	0.17031695
67	0x3dc9ba99	0.09850044
68	0x3e1c40c6	0.15259084
69	0x3d9c2e85	0.076260604
70	0xbbae4c19	-0.00531913
71	0x3ce837c0	0.028346896
72	0xbe15d3c3	-0.14631562
73	0x3c37a044	0.011207644
74	0x3e3157ff	0.17318724
75	0x3e4ddbce	0.2010338
76	0xbc92b64b	-0.01790919
77	0x3c7dc825	0.015489613
78	0xbd786111	-0.060639445
79	0x3d561693	0.052267622
80	0xbc93958f	-0.018015651
81	0x3eb1e76e	0.3474688
82	0x3e58a064	0.21154934
83	0xbdf1aa5a	-0.1180007
84	0x3e44d052	0.19220093
85	0xbed57919	-0.41693953
86	0xbdc8ba2d	-0.09801135
87	0x3c94e511	0.018175634
88	0xbe46884a	-0.19387928
89	0xbd8f4b0a	-0.069967344
90	0xbc6a7bd7	-0.014311752
91	0x3efa91a8	0.48939252
92	0xbe1e4ddd	-0.1545939
93	0x3d877b82	0.06615354
94	0xbe08c2b1	-0.13355519
95	0xbc58f66c	-0.013242345
96	0x3e3114b9	0.17293061
97	0xbdf57cfe	-0.11986731
98	0xbdc65d23	-0.09685733
99	0x3d988a4b	0.07448252
100	0xbd90dbeb	-0.07073196
101	0x3e812a51	0.25227597
102	0xbdaeb884	-0.08531287
103	0xbe7da35f	-0.24769352
104	0xbeb493c6	-0.35268992
105	0x3c27cfc4	0.010242406
106	0xbe8918dc	-0.2677678
107	0x3e7f56d2	0.24935463
108	0x3f077558	0.5291343
109	0x3cecb755	0.028896013
110	0x3e279e8d	0.16369076
111	0x3ec4f7d8	0.3847034
112	0xbdec1bca	-0.11528738
113	0x3c9de375	0.019273499
114	0xbe40502e	-0.18780586
115	0xbea4dcd9	-0.32199743
116	0xbcb12c15	-0.021627465
117	0x3d294269	0.0413231
118	0x3c862146	0.016373288
119	0x3c4fee3d	0.012691078
120	0x3e0eedef	0.13957952
121	0xbe762222	-0.24036458
122	0x3c2b4d7e	0.010455487
123	0xbd120b87	-0.035655525
124	0x3d8f6365	0.0700138
125	0x3f0979c3	0.5370142
126	0x3e1f93c8	0.15583718
127	0xbced62a0	-0.028977692
128	0xbdc9c5b1	-0.0985216
129	0x3c94cdfe	0.018164631
130	0xbe77e87f	-0.24209784
131	0xbda57eb9	-0.08080811
132	0xbe90f020	-0.283082
133	0xbe3a7c0e	-0.18211386
134	0xbd1449af	-0.036203083
135	0x3d716827	0.058937218
136	0x3ddf7344	0.10910657
137	0xbd9d65f5	-0.076854624
138	0xbe2a26af	-0.16616319
139	0x3dd4a4c0	0.10382986
140	0xbe4688e6	-0.1938816
141	0x3eaec9f9	0.34138468
142	0x3cac1196	0.02100448
143	0xbe4c65a1	-0.19960643
144	0x3e30250f	0.17201637
145	0xbe2d1f3c	-0.16906446
146	0x3dec1701	0.11527825
147	0xbe12fd67	-0.14354478
148	0xbd946470	-0.072457194
149	0xbc84d275	-0.016213635
150	0xbe60feba	-0.2197217
151	0x3de56c54	0.112023026
152	0xbe5bedb7	-0.214774
153	0x3d306f56	0.04307493
154	0xbb9080b8	-0.0044098757
155	0x3dcbd6af	0.09953057
156	0x3e100924	0.14065987
157	0xbd0de5ea	-0.03464309
158	0x3e4e9147	0.20172606
159	0xbd507c02	-0.050899513
160	0xbe5598c9	-0.20859064
161	0xbe0273f1	-0.1273954
162	0xbc3a3f2c	-0.0113676
163	0x3e021027	0.12701474
164	0xbd52c39b	-0.051456075
165	0xbd7b2307	-0.0613127
166	0xbe3acd83	-0.18242459
167	0xbdc30c5f	-0.09523844
168	0x3d50ea7d	0.051004875
169	0x3de2dce2	0.11077286
170	0x3e77ad5d	0.24187227
171	0x3ded9976	0.11601536
172	0xbecd6c5d	-0.40121737
173	0x3e4d79b0	0.20065951
174	0xbedbad4d	-0.42905656
175	0xbd1df1d3	-0.0385607
176	0x3e8576e2	0.26067263
177	0x3d5c001d	0.053711046
178	0x3bccedda	0.00625394
179	0xb9dfa959	-0.00042660048
180	0x3d822797	0.063552074
181	0x3d1cecb6	0.038311683
182	0xbcb71bc3	-0.022352105
183	0xbe8765cc	-0.26444852
184	0x3d567b34	0.05236359
185	0xbcb70dbf	-0.022345422
186	0x3eafaa76	0.3430974
187	0xbd8d6f36	-0.069059774
188	0xbea1dc8f	-0.31613585
189	0x3e5b4a6b	0.21415107
190	0x3baafab5	0.005217875
191	0x3da01ae9	0.07817633
192	0xbe9168c2	-0.28400236
193	0xbc8ea73d	-0.01741373
194	0xbea8e753	-0.32988986
195	0x3c6782f6	0.014130345
196	0xbe406c13	-0.18791227
197	0xbe4d7de2	-0.20067552
198	0x3c2ee005	0.010673528
199	0xbe8d951b	-0.2765282
200	0xbcda9942	-0.026684407
201	0x3e3882bf	0.18018626
202	0x3e891865	0.26776424
203	0xbe909e40	-0.28245735
204	0xbca737b3	-0.020412302
205	0xbda1795d	-0.07884476
206	0x3e2fe039	0.17175378
207	0xbe86bf94	-0.26318038
208	0x3d0c7eb3	0.034300517
209	0x3c5ae93a	0.01336127
210	0x3daf03ed	0.08545671
211	0x3e3d1d51	0.18468215
212	0xbdc10910	-0.09425557
213	0xbd2f2ddc	-0.042768344
214	0x3e2fee1c	0.17180675
215	0x3dc99587	0.09842973
216	0x3e667054	0.22503787
217	0xbe85a368	-0.26101232
218	0x3dbb26f9	0.09138293
219	0x3deb1031	0.11477698
220	0xbe4353a9	-0.19074883
221	0xbdff1b74	-0.12456408
222	0x3e5f7740	0.21822834
223	0xbe618e58	-0.22026956
224	0x3e1e8fa7	0.15484487
225	0xbc969e46	-0.018386018
226	0xba96dae7	-0.001150933
227	0xbdcfdd58	-0.1014964
228	0x3e7d62bf	0.247447
229	0xbebc6fe5	-0.3680412
230	0x3e207611	0.15670039
231	0x3d93ea22	0.07222392
232	0x3edba9ed	0.4290308
233	0xbd1efc1e	-0.038814656
234	0xbd964246	-0.073368594
235	0x3e2f354b	0.17110173
236	0x3a730ed1	0.0009271922
237	0x3cc4a441	0.024004104
238	0x3c7a3296	0.01527085
239	0xbc79d524	-0.015248571
240	0xbdbe08ae	-0.09278999
241	0xbedde42d	-0.43338147
242	0x3d975504	0.07389262
243	0x3c708228	0.014679469
244	0xbed4be1f	-0.415513
245	0x3e16249a	0.146624
246	0x3e81be48	0.25340486
247	0xbe7f855b	-0.24953215
248	0xbe86f734	-0.26360476
249	0xbd296861	-0.04135931
250	0x3dbe90df	0.09304976
251	0xbdd57ab6	-0.10423796
252	0x3e9bd4c5	0.30435768
253	0xbc2a692b	-0.010401051
254	0x3ddd8c76	0.108178064
255	0x3c6ff9c9	0.014646956

fc3.bias f4 [4]
0	0xbcc55c7f	-0.024091957
1	0x3cae696b	0.021290502
2	0x3d08a321	0.033358697
3	0x3cb01f35	0.021499256
