checkpoints/checkpoint_actor_200.pth (torch, 542655 bytes, 6 tensors)

fc1.weight f4 [400, 33]
-0.08369427 0.08309703 -0.021068953 0.072698444 -0.012244372 -0.038117494 -0.1091464 -0.019582517
-0.03868025 -0.017815623 -0.063180275 0.043072402 0.004401222 -0.04153806 -0.0161293 0.031185634
-0.1003627 -0.030465174 -0.025442192 -0.075081676 0.011442537 -0.055865385 -0.0013109926 -0.01403272
0.037199825 -0.03788591 -0.09870511 -0.038635597 0.04923791 0.049657617 0.03496618 -0.028602464
0.058772903 -0.057645857 -0.08713285 0.0033066187 0.031253614 0.0050024698 -0.033406347 0.019994825
-0.002545534 -0.011648976 0.002501799 0.04019926 -0.048748057 0.0550302 0.030611614 -0.008334736
-0.040914696 -0.022434548 0.016726226 -0.08959982 0.061790787 -0.07155708 -0.10730878 -0.04222321
0.011266507 -0.053338155 0.020885663 0.04549564 -0.006438256 0.03497591 -0.041183244 0.047453366
-0.011414509 0.021571942 0.017392684 0.019312385 -0.08721117 -0.026257545 -0.05427253 -0.050020527
0.03271998 0.037112016 -0.037957802 -0.055353366 0.0026884552 0.0030594664 0.015521338 -0.06344768
0.061965197 0.025448544 0.0717273 0.032850206 0.032269664 -0.07035003 0.028394626 -0.009486144
0.011527585 -0.021787476 -0.012659666 0.01935712 -0.076439895 -0.050116245 -0.000312934 -0.034138605
-0.01137338 0.04606835 -0.1003009 0.03505113 0.035001196 0.024407348 -0.04826013 -0.06152605
0.06443087 -0.015573126 -0.0041909767 -0.107542485 -0.06849498 -0.032116935 0.01603612 -0.040093902
0.0716653 0.0071710306 -0.0073361592 -0.045396578 -0.060329434 -0.028926661 -0.029735595 -0.024224773
-0.037880935 0.0022643348 0.05319338 -0.05971934 0.036563016 -0.15280275 -0.026130807 -0.015214815
-5.0626695e-05 -0.012710581 -0.000518851 -0.099162646 -0.093721725 0.05316695 0.019196749 -0.016444089
0.019045295 -0.025171407 0.038103413 0.00076015457 -0.036619686 0.045188494 0.053351182 0.037142355
0.024328168 -0.09028561 -0.01943339 -0.019245192 0.09291633 0.027235597 -0.009315512 0.03208673
-0.07635791 0.036199853 0.056136142 0.0038490565 -0.018124988 -0.006944064 -0.0012986879 0.02623529
-0.1144461 -0.0379647 -0.051675446 -0.009385206 0.05537464 0.057166982 0.08141449 -0.04504906
-0.06261517 0.04022537 -0.04483143 -0.04076637 -0.027732406 -0.1380069 0.044001795 -0.009969152
0.072404936 -0.09372119 0.007448968 0.1932704 -0.1085241 -0.0058431826 0.0040989015 0.04630817
-0.0006766317 0.06622781 0.13700594 -0.013079718 -0.05396854 0.09122498 -0.026852025 -0.013089435
0.054246128 0.12214583 0.046912704 -0.008509723 0.0009202771 -0.03355833 -0.07852132 0.028884446
0.039166335 -0.006896433 -0.023727667 0.088127255 0.091257975 0.038381353 -0.08060876 0.027830342
0.09824764 0.02387077 0.0065549947 -0.059643485 0.016107693 -0.0724697 -0.051324904 -0.06868072
0.024235837 0.103805356 0.118806854 0.010000376 -0.036036342 0.10834314 0.01652759 -0.031249756
0.013855152 0.018819965 0.096606344 -0.042831894 -0.039705142 0.01055352 -0.13188316 -0.069990516
0.0006826322 -0.03765115 0.03593382 -0.08774306 -0.0327953 0.097050786 -0.004985422 -0.13999009
-0.0072260075 0.00017908978 -0.12121211 -0.06673802 -0.019604752 -0.02912384 0.03023666 -0.0022006796
0.03446693 0.084967725 -0.03930072 -0.019298201 0.038977206 -0.0033236213 0.0879728 0.011819273
00000000: e767 abbd c72e aa3d cc98 acbc ece2 943d
00000010: 9e9c 48bc 1721 1cbd 2688 dfbd 846b a0bc
00000020: 2f6f 1ebd 12f2 91bc a964 81bd b06c 303d
00000030: 2038 903b d023 2abd 9821 84bc 0479 ff3c
00000040: f68a cdbd 1a92 f9bc 256c d0bc 6cc4 99bd
00000050: 7b79 3b3c 1ad3 64bd 9dd5 abba 7ee9 65bc
00000060: d85e 183d 422e 1bbd e825 cabd 5c40 1ebd
00000070: b1ad 493d c965 4b3d b238 0f3d b74f eabc
00000080: dbbb 703d 101e 6cbd b572 b2bd dbb3 583b
00000090: ca03 003d c2eb a33b 18d5 08bd 30cc a33c
000000a0: f9d2 26bb 59db 3ebc 39f5 233b fba7 243d
000000b0: 0bac 47bd 5967 613d 35c5 fa3c 6b8e 08bc
000000c0: 2b96 27bd a8c8 b7bc 7005 893c 1c80 b7bd
000000d0: 5618 7d3d 858c 92bd b5c4 dbbd 3ff2 2cbd
000000e0: 2897 383c 1c79 5abd 6918 ab3c a359 3a3d
000000f0: 01f8 d2bb e642 0f3d c3af 28bd 765e 423d
00000100: ec03 3bbc a4b7 b03c 1a7b 8e3c 0235 9e3c
00000110: c59b b2bd 101a d7bc df4c 5ebd 53e2 4cbd
00000120: 6305 063d c502 183d a479 1bbd 36ba 62bd
00000130: cb30 303b 5481 483b 364d 7e3c dbf0 81bd
00000140: 38cf 7d3d 7779 d03c c3e5 923d f08d 063d
00000150: 322d 043d ad13 90bd d99b e83c c66b 1bbc
00000160: 32de 3c3c a67b b2bc 7d6a 4fbc d392 9e3c
00000170: 858c 9cbd b146 4dbd 4a11 a4b9 ecd4 0bbd
00000180: 6a57 3abc 2bb2 3c3d 8f6a cdbd c691 0f3d
00000190: 6a5d 0f3d ebf1 c73c 6aac 45bd bd02 7cbd
000001a0: 55f4 833d 6d26 7fbc 7654 89bb 3c3f dcbd
000001b0: 1947 8cbd 0c8d 03bd 2e5e 833c 8139 24bd
000001c0: 42c5 923d f7fa ea3b 2a64 f0bb c3f1 39bd
000001d0: ff1b 77bd 9bf7 ecbc 1098 f3bc 0873 c6bc
000001e0: 0a29 1bbd 3c65 143b 4de1 593d 449c 74bd
000001f0: 1ac3 153d 5378 1cbe 4610 d6bc 8f47 79bc
00000200: 0058 54b8 0a40 50bc 8003 08ba c915 cbbd
00000210: 2df1 bfbd 96c5 593d 8042 9d3c c1b5 86bc
00000220: e104 9c3c 4434 cebc 5312 1c3d 1c45 473a
00000230: 86fe 15bd 9217 393d c586 5a3d 9522 183d
00000240: de4b c73c a9e7 b8bd c632 9fbc 18a8 9dbc
00000250: eb4a be3d 301d df3c 17a0 18bc 606d 033d
00000260: 8961 9cbd 4c46 143d 03ef 653d 7440 7c3b
00000270: db7a 94bc 088b e3bb bc38 aaba 64eb d63c
00000280: b862 eabd e080 1bbd a2a9 53bd 68c4 19bc
00000290: 85d0 623d ed27 6a3d a4bc a63d 5d85 38bd
000002a0: 623c 80bd 5cc3 243d 29a1 37bd a3fa 26bd
000002b0: 122f e3bc ae51 0dbe 3a3b 343d a755 23bc
000002c0: 0a49 943d e5f0 bfbd 7916 f43b ade8 453e
000002d0: e241 debd 2b78 bfbb 1450 863b a3ad 3d3d
000002e0: fc5f 31ba 72a2 873d 494b 0c3e 504c 56bc
000002f0: 1e0e 5dbd 2ad4 ba3d c7f8 dbbc 1275 56bc
00000300: 3031 5e3d 9827 fa3d 8927 403d 5d6c 0bbc
00000310: c03e 713a 7674 09bd c9cf a0bd 139f ec3c
00000320: e16c 203d 79fb e1bb 8660 c2bc 107c b43d
00000330: 76e5 ba3d c435 1d3d 3516 a5bd 75fc e33c
00000340: 0f36 c93d a28c c33c 48cb d63b ba4c 74bd
00000350: 48f4 833c fe6a 94bd 103a 52bd 7aa8 8cbd
00000360: 3c8a c63c e797 d43d 0251 f33d 9ed8 233c
00000370: d89a 13bd 02e3 dd3d de64 873c 7dff ffbc
00000380: b800 633c 542c 9a3c 8cd9 c53d 7f70 2fbd
00000390: dca1 22bd ace8 2c3c 610c 07be 3057 8fbd
000003a0: acf2 323a 1838 1abd 572f 133d a2b2 b3bd
000003b0: 5d54 06bd 90c2 c63d c05c a3bb 9059 0fbe
000003c0: 25c8 ecbb 0cca 3b39 0e3e f8bd f1ad 88bd
000003d0: 259a a0bc 1f95 eebc dfb2 f73c 4739 10bb
000003e0: 322d 0d3d 8f03 ae3d cbf9 20bd 4317 9ebc
000003f0: 90a6 1f3d 1dd1 59bb 152b b43d a0a5 413c

fc1.bias f4 [400]
-0.060357638 -0.04414847 0.18527713 0.029826807 -0.16092351 -0.1876862 -0.14451744 -0.10792281
-0.09735674 -0.03864928 0.14991154 -0.055660434 0.1254074 -0.020382743 -0.14410304 -0.035860393
-0.06297843 -0.10030462 -0.19606404 0.018373324 -0.12257675 -0.03058769 -0.04098599 -0.112415336
0.035438452 -0.14660873 -0.021378566 0.1560981 0.1572582 -0.0108856475 -0.009948141 0.14982094
0.16504422 -0.012710159 -0.0113135055 -0.0020954795 -0.092280254 0.13669015 0.15678516 0.01698667
0.11181414 0.09475328 0.11649146 0.042996135 0.110252835 0.09095727 0.055031214 0.12387753
0.046621755 -0.09153982 0.05386885 0.19879703 0.12175903 0.13824104 -0.026216026 0.1810591
0.019886702 -0.046560258 -0.036345035 0.13503249 -0.16164339 -0.046316124 0.1416749 -0.06251918
-0.064951256 -0.031793788 0.058538422 -0.14665936 0.026536692 0.040180627 0.09082441 -0.046272844
0.089452825 -0.022492703 0.13085642 0.15437663 -0.10545603 -0.032295693 0.1731377 -0.027288113
-0.021843046 -0.052666605 -0.040628448 -0.05026704 0.04156578 0.14318086 0.060948823 0.09317952
0.14257921 -0.122577116 -0.099619135 -0.06783405 0.0743392 -0.041832305 -0.08095811 -0.12862688
0.048105016 0.14106289 0.018401813 0.16938046 -0.05925875 0.16052562 -0.10007433 0.16651651
0.015617436 0.16312142 0.14168935 -0.022472383 -0.03766463 -0.105505705 0.044537924 -0.0811519
0.018396948 -0.06477485 0.09705298 0.107729696 0.020034792 0.0005567371 -0.1041997 -0.10672232
-0.14076625 -0.118128456 -0.110353746 0.086137205 -0.16592644 0.12181998 0.11670583 -0.02297608
0.10019807 0.110463485 -0.13682541 0.15178716 0.18934372 0.09498227 -0.06867129 0.11220601
-0.06445558 0.04765362 0.18544477 0.038526185 0.063277796 -0.027533472 -0.07198915 0.116513744
-0.17703481 -0.004068035 -0.03486363 -0.043034773 -0.18582089 -0.09778454 -0.091503255 0.04427425
0.08114624 -0.17065342 0.0008617469 -0.114738755 0.14886455 -0.17131817 0.016758576 0.004248438
-0.120469086 0.080168635 0.05249584 0.08487762 0.10093259 -0.06833506 0.07234611 0.18000825
0.015274976 0.0246267 0.026503537 -0.1521048 -0.01568544 -0.01223984 -0.11765887 0.13687164
-0.1969157 -0.07926648 0.15286715 0.009823985 0.11034157 0.018444223 -0.1288255 -0.109555535
0.004631447 -0.10184937 -0.11127903 -0.05966602 0.1245982 0.120132506 0.04754689 -0.10200572
-0.07875213 0.14699836 0.029950123 0.00093964057 -0.087817796 -0.11757961 0.07990203 0.007839204
0.0110043045 -0.05901409 -0.12367824 -0.12253211 -0.14699699 0.12666278 -0.022451963 -0.0074443617
0.109843396 0.043387257 -0.00813327 0.11573163 -0.040308394 -0.19878136 0.15574452 -0.105344124
-0.10907144 -0.05201471 0.041062754 0.14148316 -0.19916666 -0.14891088 -0.12750311 -0.09165226
0.17226146 0.027483312 0.14821728 0.090731315 0.10133052 -0.061884478 0.07657254 0.077603415
0.069375545 -0.15188791 -0.019544294 0.13401745 -0.07055617 -0.1342594 -0.13471551 -0.046499383
0.07771247 -0.020397115 0.11150265 0.10653093 -0.116676755 -0.024867175 0.21696335 0.12321156
-0.052090626 -0.14465705 0.017531343 0.072917245 -0.024655802 -0.11084399 0.21507187 0.07202192
00000000: 9239 77bd 07d5 34bd 4ab9 3d3e 5957 f43c
00000010: 22c9 24be d030 40be 61fc 13be a206 ddbd
00000020: f862 c7bd b54e 1ebd 6982 193e 32fc 63bd
00000030: cc6a 003e b6f9 a6bc bf8f 13be 59e2 12bd
00000040: d6fa 80bd 826c cdbd 03c5 48be a783 963c
00000050: 8509 fbbd 0993 fabc ede0 27bd 033a e6bd
00000060: e927 113d 9920 16be 1a22 afbc 2ed8 1f3e
00000070: 4b08 213e b759 32bc 87fd 22bc a96a 193e
00000080: 5a01 293e 453e 50bc 485c 39bc 5054 09bb
00000090: 6efd bcbd 81f8 0b3e 4a8c 203e a127 8b3c
000000a0: d0fe e43d 020e c23d 1393 ee3d b71c 303d
000000b0: 3dcc e13d ce47 ba3d 6968 613d 81b3 fd3d
000000c0: 74f6 3e3d 3b79 bbbd 95a5 5c3d 7391 4b3e
000000d0: cc5c f93d 0f8f 0d3e fec2 d6bc 8f67 393e
000000e0: 70e9 a23c f8b5 3ebd 88de 14bd f545 0a3e
000000f0: d885 25be fab5 3dbd 3a13 113e 0e0a 80bd
00000100: 2a05 85bd 343a 02bd fcc5 6f3d df2d 16be
00000110: 7a63 d93c 7194 243d 2602 ba3d 9888 3dbd
00000120: 0b33 b73d 9e42 b8bc 3aff 053e e814 1e3e
00000130: 55f9 d7bd 7d48 04bd 024b 313e 528b dfbc
00000140: 30f0 b2bc f0b8 57bd 046a 26bd d0e4 4dbd
00000150: e140 2a3d 019e 123e 79a5 793d e7d4 be3d
00000160: 4900 123e b609 fbbd 1e05 ccbd 94ec 8abd
00000170: 273f 983d 5a58 2bbd 5ecd a5bd c4b6 03be
00000180: c409 453d ca72 103e 66bf 963c 1272 2d3e
00000190: 4eb9 72bd d460 243e c5f3 ccbd 4e83 2a3e
000001a0: 46e0 7f3c 4d09 273e 0317 113e 0118 b8bc
000001b0: 3a46 1abd 6013 d8bd 666d 363d f832 a6bd
000001c0: 32b5 963c ada8 84bd b6c3 c63d 63a1 dc3d
000001d0: 0120 a43c fff1 113a a766 d5bd 3b91 dabd
000001e0: 0725 10be 55ed f1bd 2501 e2bd b468 b03d
000001f0: 9fe8 29be c17c f93d 7703 ef3d 5538 bcbc
00000200: a534 cd3d ae3a e23d f61b 0cbe 186e 1b3e
00000210: 52e3 413e 1086 c23d 89a3 8cbd 44cc e53d
00000220: 4a01 84bd 7130 433d 3ce5 3d3e a2cd 1d3d
00000230: ca97 813d e08d e1bc 0c6f 93bd c29e ee3d
00000240: 9d48 35be 274d 85bb 2acd 0ebd 3b45 30bd
00000250: d547 3ebe 4343 c8bd 0f66 bbbd ea58 353d
00000260: 0030 a63d c5bf 2ebe dbe6 613a 27fc eabd
00000270: f36f 183e 086e 2fbe 4849 893c 7b36 8b3b
00000280: 7fb8 f6bd 742f a43d e105 573d 51d4 ad3d
00000290: bfb5 ce3d 40f3 8bbd 332a 943d 1554 383e
000002a0: e543 7a3c efbd c93c f21d d93c 5cc1 1bbe
000002b0: c07e 80bc 9c89 48bc 22f7 f0bd 1428 0c3e
000002c0: 45a4 49be 7756 a2bd 3589 1c3e c8f4 203c
000002d0: c3fa e13d 5718 973c d5ea 03be a75e e0bd
000002e0: 65c3 973b 6796 d0bd 43e6 e3bd 5b64 74bd
000002f0: 572d ff3d 0808 f63d 87c0 423d 60e8 d0bd
00000300: cc48 a1bd bd86 163e f659 f53c 3652 763a
00000310: d1d9 b3bd 94cd f0bd ada3 a33d 0170 003c
00000320: 664b 343c c2b8 71bd 044b fdbd 1df2 fabd
00000330: 6186 16be e3b3 013e 2eed b7bc d5ef f3bb
00000340: 93f5 e03d d6b6 313d 6841 05bc b404 ed3d
00000350: 6a1a 25bd 578d 4bbe 7e7b 1f3e a9be d7bd
00000360: d960 dfbd 600d 55bd 6b31 283d f6e0 103e
00000370: 58f2 4bbe 187c 18be 2d90 02be 2eb4 bbbd
00000380: 4f65 303e af24 e13c 45c6 173e 57d1 b93d
00000390: 6086 cf3d 947a 7dbd 10d2 9c3d 8aee 9e3d
000003a0: c414 8e3d 8188 1bbe 5b1b a0bc df3b 093e
000003b0: c17f 90bd 4c7b 09be ddf2 09be 2376 3ebd
000003c0: b727 9f3d da17 a7bc 805b e43d e32c da3d
000003d0: 39f4 eebd 3fb6 cbbc a42b 5e3e 5856 fc3d
000003e0: fb5c 55bd fa20 14be e49d 8f3c a355 953d
000003f0: f7fa c9bc 2d02 e3bd cd3b 5c3e 3a80 933d

fc2.weight f4 [300, 400]
0.040775854 0.0476306 0.05924424 0.025911015 0.0013309383 0.13835134 0.12136292 0.024287859
0.085768186 -0.016630005 -0.03953297 -0.02557177 0.06307061 0.036997125 0.006714578 0.011110299
0.067665085 -0.019868126 0.004446993 0.027739434 0.08818534 -0.006732979 0.07265226 0.00950068
0.08441303 -0.09402231 -0.024026174 -0.073580965 0.0032310318 0.048564535 0.03143222 -0.0076943105
-0.04341159 -0.085961685 0.0032662344 0.03094237 0.008739927 -0.057164747 0.013265516 -0.014538344
0.013150001 0.083120555 0.006263987 -0.019354055 0.06315138 0.0631186 0.06266704 0.017254313
0.04778119 0.0731027 0.035747048 0.07539327 0.0015835289 -0.024504242 0.010778265 0.038363505
0.01155651 0.028484 -0.02830521 -0.0076403725 -0.0030270473 -0.020816322 -0.064217016 0.060708016
-0.060512707 0.07576391 0.05381654 0.00096778874 -0.0192165 0.08722945 -0.014539839 0.11741846
-0.056589674 0.10135726 0.058198318 -0.009699785 -0.040724616 0.00039348108 0.07076752 0.011456647
-0.018417692 -0.039598193 -0.03632783 -0.006362944 -0.037503038 0.014426417 0.046425924 0.08420017
-0.07692067 0.03733953 -0.015856612 0.08849737 -0.03961409 0.049490426 0.009603301 0.055092018
-0.09054446 0.09146793 0.04516045 0.09582185 0.023703698 0.011475908 -0.018104963 0.05759094
0.0071498877 -0.029220225 -0.05542404 0.08957413 0.06434259 0.01781338 -0.009993629 0.042949375
0.033166632 0.0333157 0.038290124 0.012936375 0.040026575 0.038453948 0.018603873 -0.00029081994
0.036962032 0.038858324 0.053400155 0.026012352 -0.012392809 0.021227218 0.03872985 0.032041963
-0.017110819 0.05004588 0.036964864 0.044957176 0.012139404 0.062080786 -0.059705187 -0.02341817
0.13504261 0.12196398 0.057200976 0.020597713 0.045937907 0.010071358 -0.027423576 0.05503695
0.06363356 0.004320354 0.056529406 -0.018110042 0.09267402 0.022845937 0.030366745 0.043725386
-0.016712302 0.0212124 -0.023589082 0.008577396 -0.02202406 -0.03426934 -0.00820905 -0.019668326
-0.061145872 0.11778467 -0.0067382306 -0.0010476592 -0.008050197 0.035590455 0.0141435275 0.12029463
0.012539832 -0.06493598 -0.032340884 0.090193145 -0.020267475 0.0030940345 -0.045177184 -0.008857665
-0.047909595 0.105331324 -0.05279444 0.05674652 -0.016464017 0.029092131 0.01457564 -0.050632566
-0.08928838 0.020113757 -0.030972088 0.002625904 0.06726838 0.06138288 0.062653415 -0.0030188677
0.05790384 0.015855992 -0.062119257 -0.028640725 -0.05765882 0.13883671 0.097803436 0.026139522
0.0036561394 0.036386352 0.008191689 -0.11029849 -0.0062540267 -0.0043120217 0.07854896 0.009986362
-0.075961225 0.06674539 -0.018035276 -0.040807962 0.005157216 -0.03676883 -0.027991448 0.06940545
-0.007762571 0.027257849 -0.017456269 0.008619155 0.027718624 0.037164573 -0.040318098 0.05316334
0.010954017 0.10257606 0.061433483 0.06966827 0.008613499 0.039439797 -0.040778007 -0.034087863
0.013644896 -0.00923609 0.02279124 -0.03918942 -0.07936516 -0.019784734 -0.0030503173 0.055437617
0.042729326 -0.013047564 0.009463864 -0.019816602 0.011597987 -0.09668087 0.022004671 0.049054243
0.008104775 0.04861993 0.04683358 0.06743553 0.06653019 0.020398358 -0.018376445 -0.021671752
00000000: 9504 273d 4e18 433d 17aa 723d 5643 d43c
00000010: e172 ae3a f9ab 0d3e 1f8d f83d 55f7 c63c
00000020: 3ba7 af3d a63b 88bc 53ed 21bd e37b d1bc
00000030: 2a2b 813d 4c8a 173d f605 dc3b f907 363c
00000040: fe93 8a3d 7bc2 a2bc 15b8 913b cf3d e33c
00000050: 849a b43d 52a0 dcbb b5ca 943d bda8 1b3c
00000060: bde0 ac3d c58e c0bd 8ad2 c4bc 9eb1 96bd
00000070: b8bf 533b 9beb 463d 12bf 003d 8e20 fcbb
00000080: 5ad0 31bd ae0c b0bd 520e 563b da7a fd3c
00000090: e931 0f3c 9525 6abd 9b57 593c 3c32 6ebc
000000a0: 1a73 573c 1c3b aa3d 2242 cd3b 658c 9ebc
000000b0: 8355 813d 5344 813d 9457 803d eb58 8d3c
000000c0: 36b6 433d deb6 953d 7f6b 123d c967 9a3d
000000d0: 6a8e cf3a 1fbd c8bc 5297 303c 0d23 1d3d
000000e0: 8457 3d3c 4757 e93c 54e0 e7bc 175c fabb
000000f0: 6d61 46bb fe86 aabc 3684 83bd f8a8 783d
00000100: 2cdc 77bd 1c2a 9b3d bb6e 5c3d 34b3 7d3a
00000110: ec6b 9dbc 5ba5 b23d 8138 6ebc 1779 f03d
00000120: 93ca 67bd 6594 cf3d 5c61 6e3d d9eb 1ebc
00000130: dbce 26bd 234c ce39 90ee 903d a9b4 3b3c
00000140: b3e0 96bc b731 22bd 7ecc 14bd 3e80 d0bb
00000150: c99c 19bd c75c 6c3c 1c29 3e3d 2471 ac3d
00000160: 9688 9dbd 56f1 183d bae5 81bc 1c3e b53d
00000170: 6242 22bd 79b6 4a3d 2a57 1d3c 2ba8 613d
00000180: 606f b9bd 8a53 bb3d 2afa 383d 3f3e c43d
00000190: 422e c23c 7205 3c3c dc50 94bc 7ae4 6b3d
000001a0: 9b49 ea3b 415f efbc 5104 63bd a472 b73d
000001b0: 0cc6 833d 5eed 913c 51bc 23bc afeb 2f3d
000001c0: bcd9 073d 0b76 083d 1bd6 1c3d 17f3 533c
000001d0: e8f2 233d e381 1d3d 2667 983c 3179 98b9
000001e0: 8065 173d e829 1f3d 1fba 5a3d db17 d53c
000001f0: 350b 4bbc b4e4 ad3c 31a3 1e3d 6f3e 033d
00000200: fd2b 8cbc e9fc 4c3d 7868 173d 0425 383d
00000210: 5ae4 463c 6c48 7e3d 6d8d 74bd 76d7 bfbc
00000220: 9c48 0a3e 40c8 f93d 924b 6a3d 89bc a83c
00000230: 6329 3c3d 5602 253c 68a7 e0bc 6d6e 613d
00000240: 5052 823d c291 8d3b 618b 673d 835b 94bc
00000250: e0cb bd3d 6727 bb3c aec3 f83c 6419 333d
00000260: 3de8 88bc a1c5 ad3c e43d c1bc 3588 0c3c
00000270: cd6b b4bc 025e 0cbd 407f 06bc 781f a1bc
00000280: 1874 7abd 1739 f13d 60cc dcbb 9c51 89ba
00000290: f9e4 03bc 4cc7 113d 41ba 673c 085d f63d
000002a0: de73 4d3c 28fd 84bd e077 04bd 2fb7 b83d
000002b0: fa07 a6bc 49c5 4a3b b60b 39bd bd1f 11bc
000002c0: da3c 44bd f3b7 d73d fc3e 58bd 0a6f 683d
000002d0: 8cdf 86bc 9f52 ee3c aace 6e3c 1864 4fbd
000002e0: d4dc b6bd 9bc5 a43c 2db9 fdbc 5c17 2c3b
000002f0: 01c4 893d 9d6c 7b3d 6f50 803d 32d8 45bb
00000300: 942c 6d3d 6de4 813c c370 7ebd f49f eabc
00000310: a82b 6cbd 362b 0e3e 2b4d c83d 8d22 d63c
00000320: d79b 6f3b db09 153d 6f36 063c 2de4 e1bd
00000330: 94ee ccbb dc4b 8dbb 47de a03d d79d 233c
00000340: 8f91 9bbd cfb1 883d b7be 93bc 4026 27bd
00000350: ddfd a83b ea9a 16bd 524e e5bc 7224 8e3d
00000360: 2a5d febb da4b df3c 7300 8fbc 5b37 0d3c
00000370: 2b12 e33c e139 183d 9724 25bd cdc1 593d
00000380: 7a78 333c 6613 d23d ada1 7b3d 3dae 8e3d
00000390: a21f 0d3c a08b 213d d706 27bd b79f 0bbd
000003a0: d88e 5f3c f852 17bc b2b4 ba3c 1685 20bd
000003b0: 338a a2bd 9813 a2bc d5e7 47bb 8e12 633d
000003c0: f204 2f3d 73c5 55bc 530e 1b3c 6d56 a2bc
000003d0: 7c05 3e3c 9f00 c6bd 2443 b43c 1aed 483d
000003e0: e4c9 043c b125 473d 91d4 3f3d a41b 8a3d
000003f0: fb40 883d 751a a73c 338a 96bc f588 b1bc

fc2.bias f4 [300]
0.028640386 0.012079215 0.018985316 0.061773133 0.016623534 0.05848526 -0.02567828 0.07029427
0.066716485 0.04805404 -0.00025124545 -0.00053873635 -0.036434513 -0.022266308 -0.008823798 -0.020115616
0.008032714 0.05713732 0.08386158 -0.012322437 0.040969256 0.05916551 -0.015633412 0.02422966
0.04752587 -0.013750765 0.04587353 0.019282285 0.06110338 0.037299808 0.051194236 0.0052056178
0.05468401 0.03826874 -0.04108628 0.039469194 0.022329163 -0.02735878 0.0063458257 0.056434546
0.034395475 0.05337041 -0.016182464 0.05875118 0.06679169 0.04324285 0.02127922 -0.038817286
0.007239347 0.0003588974 -0.031871505 -0.008966697 0.0071276315 0.03830254 -0.005576861 -0.027853616
-0.021394324 -0.006404006 -0.04116078 -0.00021619623 0.0057141497 0.036781028 -0.022815788 -0.0046752514
0.082739934 0.027437717 0.0708761 -0.009442285 0.02974525 0.033072233 0.03307986 -0.0104300035
0.05344672 -0.008740943 0.056600578 -0.0022052228 -0.055298217 0.0853272 0.03091038 -0.008933503
-0.011995462 -0.012752007 -0.0022087286 0.033824 0.0116024185 0.011948498 0.022832008 -0.026370605
-0.040953573 0.09206653 -0.010571599 -0.018864037 0.09060688 0.031584587 0.009737638 0.048566338
-0.004351804 0.008363778 -0.03356895 0.062878236 0.0026577816 0.0077791996 -0.012634703 0.0045835455
0.044227924 -0.043341916 0.02865562 0.015402399 0.011326652 0.05480382 0.04061025 0.052003633
0.059014626 -0.008680659 -0.0021756424 -0.009702949 0.043756787 0.046973847 0.014711888 0.07267774
-0.0052755442 -0.042205937 0.04387837 0.014594485 0.043028302 0.021012235 0.07504306 0.015486147
0.039503098 0.038289573 0.032272868 -0.019177243 0.0146897705 -0.011009133 0.08451106 0.03405674
0.048920672 0.071802035 0.01491445 0.0077326233 -0.03308474 -0.013912545 0.0041988096 0.026913837
-0.018146396 0.022858595 0.004726038 -0.0035438347 -0.021643557 0.038407885 -0.034322973 0.037471157
0.031029291 0.0889345 0.031209204 0.05823354 0.03158625 0.049484774 -0.018503597 0.044678956
0.03165382 0.0074711447 -0.028000781 0.025208846 -0.02971592 -0.03420244 0.0078018303 0.05677878
-0.03781258 0.0038764302 0.075859174 -0.040453184 0.0044971285 0.027049318 0.05352891 0.00028846346
-0.030805608 -0.01928607 -0.03127602 0.020933185 0.044819027 0.011791591 0.05087516 -0.027407572
0.041355267 0.03574857 0.052895516 0.04842248 0.032845117 0.015530628 0.008796982 0.060752194
-0.0068627074 -0.006700016 0.06554024 0.0694341 -0.022650111 -0.004512772 -0.02001838 0.022239262
0.0960264 -0.024838805 -0.038505305 -0.0020386104 0.017203188 0.047437295 0.05561106 -0.019865895
-0.022057468 0.03303965 0.020416247 0.0397411 -0.0131018525 0.054516345 -0.004817993 0.07202103
-0.0039582415 -0.005184909 0.06666043 0.09650106 -0.047822718 0.013443107 -0.008537166 -0.003537349
0.043461237 -0.02033816 0.020232087 0.06240864 -0.027683074 0.030631842 0.027770681 0.032964762
0.002221604 0.04220219 0.061095014 -0.026350154 -0.048515752 0.032971114 0.019468086 -0.035748605
0.014797515 0.06800775 0.038520183 -0.047312584 0.0034855 -0.010131954 0.029111613 0.03237738
0.023952208 -0.024571856 0.009299627 0.059125263 0.030360213 0.06999979 0.00023863811 -0.036193356
00000000: 3e9f ea3c e6e7 453c 1887 9b3c d305 7d3d
00000010: 142e 883c 3d8e 6f3d 425b d2bc 71f6 8f3d
00000020: a7a2 883d 50d4 443d 98b9 83b9 fc39 0dba
00000030: 5b3c 15bd d567 b6bc b191 10bc 81c9 a4bc
00000040: a59b 033c d308 6a3d 9fbf ab3d 0ce4 49bc
00000050: 61cf 273d 8957 723d a411 80bc 487d c63c
00000060: 7daa 423d e34a 61bc e2e5 3b3d e2f5 9d3c
00000070: 8a47 7a3d afc7 183d 0cb1 513d e393 aa3b
00000080: 57fc 5f3d afbf 1c3d 164a 28bd 73aa 213d
00000090: a6eb b63c 851f e0bc a5f0 cf3b e927 673d
000000a0: 45e2 0c3d ee9a 5a3d 1691 84bc 14a5 703d
000000b0: 15ca 883d 6a1f 313d c251 ae3c e0fe 1ebd
000000c0: 0b38 ed3b 652a bc39 b28b 02bd 0ee9 12bc
000000d0: e88e e93b 20e3 1c3d 1abe b6bb 442d e4bc
000000e0: 2643 afbc b2d8 d1bb 3598 28bd bcb2 62b9
000000f0: c33d bb3b b4a7 163d 2de8 babc da32 99bb
00000100: 8e73 a93d 10c5 e03c 7d27 913d d0b3 1abc
00000110: 4fac f33c c076 073d bf7e 073d 9be2 2abc
00000120: f3ea 5a3d 2c36 0fbc 02d6 673d 8085 10bb
00000130: 6280 62bd 07c0 ae3d c437 fd3c d45d 12bc
00000140: 9d88 44bc cbed 50bc 51c0 10bb 098b 0a3d
00000150: 1218 3e3c a2c3 433c 310a bb3c 2b07 d8bc
00000160: efbe 27bd 608d bc3d 8034 2dbc c188 9abc
00000170: 1a90 b93d d75e 013d 9d8a 1f3c 7fed 463d
00000180: 9499 8ebb 3a08 093c 987f 09bd 4ec6 803d
00000190: 2d2e 2e3b a8e8 fe3b c901 4fbc 9131 963b
000001a0: 5728 353d 4b87 31bd 31bf ea3c 585a 7c3c
000001b0: 6c93 393c f879 603d ef56 263d c301 553d
000001c0: 52b9 713d 5339 0ebc 3995 0ebb 1ef9 1ebc
000001d0: 513a 333d a667 403d 210a 713c 11d8 943d
000001e0: 79de acbb 22e0 2cbd ceb9 333d b51d 6f3c
000001f0: 723e 303d da21 ac3c 2db0 993d 9cb9 7d3c
00000200: 00ce 213d 87d5 1c3d 8e30 043d 9819 9dbc
00000210: 5dad 703c a75f 34bc 2214 ad3d 157f 0b3d
00000220: 0b61 483d f20c 933d bd5b 743c f261 fd3b
00000230: dd83 07bd 71f1 63bc 2b96 893b 687a dc3c
00000240: c0a7 94bc f341 bb3c e1dc 9a3b ae3f 68bb
00000250: d44d b1bc 9651 1d3d 3f96 0cbd 5b7b 193d
00000260: 2431 fe3c 4b23 b63d 72aa ff3c 4b86 6e3d
00000270: 9560 013d 8cb0 4a3d db94 97bc 4801 373d
00000280: 70a7 013d 81d0 f43b e561 e5bc c882 ce3c
00000290: cd6e f3bc dc17 0cbd 7fa6 ff3b de90 683d
000002a0: 5de1 1abd b50b 7e3b 0e5c 9b3d 3db2 25bd
000002b0: a65c 933b 8896 dd3c 2141 5b3d e93c 9739
000002c0: 0b5c fcbc d2fd 9dbc 491b 00bd 127c ab3c
000002d0: 2894 373d 8431 413c 7962 503d d885 e0bc
000002e0: 2464 293d 186d 123d f8a8 583d a656 463d
000002f0: 9a88 063d 2d74 7e3c 3721 103c 4bd7 783d
00000300: 90e0 e0bb cf8b dbbb f639 863d 7733 8e3d
00000310: ba8c b9bc e0df 93bb 96fd a3bc 1d2f b63c
00000320: 7da9 c43d c07a cbbc bdb7 1dbd 359a 05bb
00000330: b3ed 8c3c 9c4d 423d 6cc8 633d cdbd a2bc
00000340: ddb1 b4bc 9654 073d f93f a73c 90c7 223d
00000350: 27a9 56bc 884c 5f3d 41e0 9dbb c37f 933d
00000360: 23b4 81bb 2be6 a9bb 4385 883d 59a2 c53d
00000370: c1e1 43bd 7a40 5c3c 78df 0bbc ded2 67bb
00000380: 6904 323d 379c a6bc c3bd a53c 34a0 7f3d
00000390: 9dc7 e2bc a1ef fa3c 577f e33c 0f06 073d
000003a0: 5598 113b 34dc 2c3d c43e 7a3d 47dc d7bc
000003b0: 74b8 46bd b80c 073d 897b 9f3c 216d 12bd
000003c0: 4771 723c a647 8b3d 57c7 1d3d d7ca 41bd
000003d0: fd6c 643b 7f00 26bc 7a7b ee3c 259e 043d
000003e0: 6c37 c43c eb4a c9bc 765d 183c 552d 723d
000003f0: fbb5 f83c 0d5c 8f3d ee3a 7a39 7c3f 14bd

fc3.weight f4 [4, 300]
-0.05523398 0.0038480957 0.016871704 0.04688466 0.03550898 -0.022765493 -0.054198757 -0.0629842
-0.022218566 -0.009725727 -0.029114509 -0.014576154 0.03859175 0.009790581 -0.12599778 -0.042787295
-0.03624045 0.14399503 -0.007819693 0.027433222 0.05540139 0.061614394 -0.12157234 0.010899772
-0.012852539 -0.040899713 -0.025463931 -0.09033206 0.04125059 0.08815121 -0.014245124 0.053593777
-0.0029935238 -0.0069639557 0.0602379 -0.02771636 -0.04716987 -0.008612813 -0.07172174 -0.14504299
0.014341865 -0.028680371 -0.061351962 -0.01707056 -0.10642568 -0.022328421 0.033530187 0.083128
-0.040186584 0.023346474 0.05084633 -0.03606245 0.002058509 -0.036461692 0.012138129 -0.0062472476
0.0775576 -0.03112389 -0.027218025 -0.0007650646 -0.11521902 0.038323835 0.021715736 -0.0298696
0.08304557 0.051763557 -0.04372159 0.030440362 0.032659177 0.02720605 -0.0117546925 0.04066356
-0.09483626 -0.008428831 -0.04405529 0.032099232 0.023596268 -0.010966159 0.0046606055 0.0695474
-0.046152826 0.0049001668 0.08727604 -0.08116728 0.078145444 -0.10605668 0.019452093 -0.017663268
0.0061453893 0.012103981 -0.06096424 0.08931434 -0.015056333 0.007947066 -0.042451087 -0.023507025
0.021414198 -0.12685335 -0.13246365 0.08498268 -0.022950735 0.12374869 0.0056240493 -0.09018664
-0.02285909 0.005116753 -0.051077943 0.07468829 0.052999455 -0.05613463 -0.019542139 0.03662306
-0.010484875 0.008805447 0.0041206353 -0.1534757 -0.0064303223 -0.008963559 0.021395553 -0.03432957
0.075378545 -0.07097815 -0.055599213 -0.0023800835 0.030365584 0.04810915 0.035094757 -0.04281556
-0.0030831713 -0.0274965 -0.04526666 -0.018110579 -0.04539675 -0.09495105 -0.030439299 0.034020163
0.02050735 -0.018455362 -0.13277161 0.07717472 0.03402002 0.0029322489 -0.040784746 -0.032351047
0.011503644 -0.07489387 0.07320064 0.0540557 0.039992828 -0.03914756 -0.03891852 -0.0034399517
-0.071716726 0.015163027 -0.01255411 0.00016070415 0.025192076 -0.06286041 0.07981326 -0.029181836
-0.03983407 -0.07807967 0.0138833225 -0.03849975 0.034333143 0.009120649 -0.10107652 0.02221157
-0.017683746 0.06595878 0.13948019 -0.0032514916 -0.055778038 0.067591436 -0.12385692 0.00060022325
0.041871913 0.048746943 0.013159346 0.020416906 -0.017208086 -0.00022428013 -0.018075092 -0.07950394
-0.006539604 -0.057766847 0.020387257 -0.023868883 -0.066016935 0.13780174 0.000821708 0.03136781
-0.039580896 0.017365998 -0.0879553 0.0013005924 -0.14737658 -0.051828563 -0.023503788 -0.19747949
0.0056373486 0.07712923 0.015175736 -0.19535698 0.02593195 -0.00914677 0.09724584 -0.14132103
-0.053667936 0.0042272117 0.000568935 0.02685849 -0.031958263 -0.096689664 0.11555448 -0.010994884
0.10267613 -0.106191956 -0.016179318 0.0068840967 -0.08002469 -0.09435914 0.062014904 -0.03646394
0.034483686 0.021300914 -0.04307261 0.009264975 0.07429342 -0.16467075 0.072609395 -0.052449316
0.11446788 -0.002727283 -0.073809065 0.05597252 -0.12581566 -0.012362953 -0.04627905 0.009229873
0.00718518 -0.059046015 0.0022221182 -0.0108119855 -0.24098308 0.10696811 0.1144237 -0.058604226
-0.15334408 -0.01624518 0.02467235 -0.010670436 0.010173458 -0.029454594 0.07761427 -0.011503616
00000000: 073d 62bd 5530 7c3b 8736 8a3c 210a 403d
00000010: dd71 113d b37e babc 84ff 5dbd dcfd 80bd
00000020: b603 b6bc a858 1fbc 8d81 eebc d2d0 6ebc
00000030: 6212 1e3d ac68 203c 9005 01be bb41 2fbd
00000040: de70 14bd 6f73 133e 2b1e 00bc a3bb e03c
00000050: 91ec 623d 605f 7c3d ebfa f8bd f594 323c
00000060: 7593 52bc 7586 27bd bc99 d0bc 0400 b9bd
00000070: 61f6 283d 9f88 b43d 6164 69bc 2685 5b3d
00000080: ff2e 44bb e531 e4bb 04bc 763d 6b0d e3bc
00000090: 3235 41bd c21c 0dbc d9e2 92bd 2686 14be
000000a0: 24fa 6a3c 19f3 eabc 324c 7bbd 8fd7 8bbc
000000b0: b5f5 d9bd 18ea b6bc f356 093d 033f aa3d
000000c0: b09a 24bd 1b41 bf3c 3e44 503d 38b6 13bd
000000d0: 0de8 063b db58 15bd 01df 463c b6b5 ccbb
000000e0: 85d6 9e3d 87f7 febc 56f8 debc 9e8e 48ba
000000f0: f3f7 ebbd 74f9 1c3d 33e5 b13c 17b1 f4bc
00000100: cc13 aa3d 0606 543d 6915 33bd 115e f93c
00000110: a1c5 053d 39df de3c c196 40bc d58e 263d
00000120: 8339 c2bd 1419 0abc 5273 34bd 7c7a 033d
00000130: f64c c13c 68ab 33bc feb7 983b de6e 8e3d
00000140: bf0a 3dbd 9491 a03b c8bd b23d 083b a6bd
00000150: b80a a03d 3f34 d9bd ff59 9f3c 8fb2 90bc
00000160: 435f c93b c74f 463c a4b5 79bd 70ea b63d
00000170: d6ae 76bc 6934 023c 31e1 2dbd ce91 c0bc
00000180: d46c af3c d8e5 01be 8da4 07be 660b ae3d
00000190: 2e03 bcbc f46f fd3d f249 b83b c6b3 b8bd
000001a0: fc42 bbbc 6faa a73b 1b37 51bd 2df6 983d
000001b0: f515 593d 6ded 65bd d616 a0bc 1002 163d
000001c0: c1c8 2bbc b944 103c 6506 873b bc28 1dbe
000001d0: 74b5 d2bb e4db 12bc ba45 af3c 2a9d 0cbd
000001e0: 1160 9a3d fe5c 91bd 00bc 63bd 2dfb 1bbb
000001f0: 3fc1 f83c 1a0e 453d 85bf 0f3d 5e5f 2fbd
00000200: 080f 4abb 5740 e1bc 8969 39bd a35c 94bc
00000210: f1f1 39bd b275 c2bd d65b f9bc ba58 0b3d
00000220: 08ff a73c b32f 97bc 48f5 07be c80d 9e3d
00000230: 9458 0b3d f92a 403b e80d 27bd 8882 04bd
00000240: c879 3c3c f561 99bd 38ea 953d 8269 5d3d
00000250: 85cf 233d 3159 20bd 0769 1fbd d070 61bb
00000260: 38e0 92bd 586e 783c c1af 4dbc b182 2839
00000270: 9d5f ce3c f5bc 80bd 2275 a33d bf0e efbc
00000280: 0d29 23bd 3ce8 9fbd e076 633c eab1 1dbd
00000290: e9a0 0c3d c66e 153c 3501 cfbd 0af5 b53c
000002a0: 81dd 90bc 6615 873d e5d3 0e3e fa16 55bb
000002b0: 8377 64bd 616d 8a3d b2a8 fdbd 4d58 1d3a
000002c0: e281 2b3d e0aa 473d 4c9a 573c 5b41 a73c
000002d0: f9f7 8cbc bd2c 6bb9 3712 94bc f6d2 a2bd
000002e0: 2d4a d6bb ee9c 6cbd 2d03 a73c ad88 c3bc
000002f0: e333 87bd e61b 0d3e e467 573a 887b 003d
00000300: 941f 22bd 2343 8e3c e921 b4bd a478 aa3a
00000310: e3e9 16be 304a 54bd 048b c0bc 1038 4abe
00000320: 82b9 b83b eef5 9d3d a6a3 783c a90b 48be
00000330: 3e6f d43c 56dc 15bc d428 c73d 76b6 10be
00000340: e9d2 5bbd 6c84 8a3b 9524 153a 5606 dc3c
00000350: abe6 02bd 3b05 c6bd d4a7 ec3d e323 34bc
00000360: dd47 d23d 2b7b d9bd 7d8a 84bc fd93 e13b
00000370: fce3 a3bd 5d3f c1bd 5703 7e3d 365b 15bd
00000380: c43e 0d3d 417f ae3c e86c 30bd 1fcc 173c
00000390: 2627 983d 739f 28be 3cb4 943d 18d5 56bd
000003a0: 236e ea3d 37bc 32bb 3529 97bd 7143 653d
000003b0: d2d5 00be fc8d 4abc 1a8f 3dbd e538 173c
000003c0: a971 eb3b 3cda 71bd f5a0 113b c124 31bc
000003d0: 45c4 76be 1912 db3d f956 ea3d fc0a 70bd
000003e0: 3b06 1dbe 9d14 85bc ab1d ca3c 0dd3 2ebc
000003f0: 93ae 263c c34a f1bc 3bf4 9e3d aa79 3cbc

fc3.bias f4 [4]
0.002631663 0.026665827 0.027749617 0.07565563
00000000: fb77 2c3b 4b72 da3c 2a53 e33c 57f1 9a3d
