checkpoints/checkpoint_critic_2300.pth (torch, 543887 bytes, 5 tensors)

fcs1.weight f4 [400, 33]
00000000: 4061 b3be ff0f d5bc 979c a43e 072a 493e
00000010: b598 ab3d 663f aa3e fa62 9dbe 0628 8a3d
00000020: 55fe 3dbf 84f4 8d3e 8546 3e3e 024d 213c
00000030: 2b0c 61bd 0344 b6be a270 3c3f d3be 46be
00000040: b204 983d 408c 99be 3832 c13d cf0f a53e
00000050: 9dbc a23d 5b53 0d3e d8a3 793e d872 973d
00000060: 81c6 b83e c971 b8bc 4d76 a13e c4b7 6e3f
00000070: 6959 cd3e 767f 9a3c 48cf 70bf e487 793c
00000080: e026 a03f a621 b4be 60ea 3cbe ee78 85bf
00000090: 684b 833d 537a 633d 3b9e 1f3d 4b09 be3d
000000a0: 1970 2b3d ec04 f4bc de74 33be 0ff2 cebd
000000b0: 6992 6a3e 6706 e9bd ba62 203e 7c34 f83d
000000c0: 5b7e 903f b115 81bc 6877 423d 533b 44bd
000000d0: c679 af3d d776 d3bc 8a01 bc3c 5b9e 1fbd
000000e0: 9bc1 5ebd f323 36be 586f 0c3d f118 f1bc
000000f0: 8386 fc3e a662 41bf 50bf b4bc b583 05bf
00000100: d5e6 403d 6f8c 90bf 9cf6 5fbd 72c6 1cbf
00000110: a5df 133f a581 303e a652 17be 978a 843e
00000120: c66c acbc c7ed b33c 1af8 b7bf 91b5 9c3e
00000130: 310b 5d3f c85f 5cbe 1d0f 693e d312 0e3d
00000140: ce30 b23e 93de 9abe 65a7 a8be 9e38 14bc
00000150: 1ced 373e 1412 5bbe 642c b13d 8004 0d3e
00000160: 2fd4 ccbb ad72 d8be 069e 363e cdca bcbe
00000170: 8c04 72be 120a 723e f5e5 b0be e834 233c
00000180: ace2 46be 3062 14bd 7f1b d6be 3cdf ccbe
00000190: 5777 67be cf9d 033e a895 07be b6d4 113f
000001a0: 3c5d 2fbe 6e1e f13e 8e33 b9bb 1483 33bf
000001b0: a12e a23d 2c03 d7be 9a10 9f3c fd20 25be
000001c0: 22fb f33e 4fd3 da3e 03f6 8c3e b885 3d3c
000001d0: 1563 aebe b3cf 16bf 3ac3 ed3e 52bf e53e
000001e0: 8536 dabe b5b9 e53d 91d2 fd3e 9fc1 1ebe
000001f0: 2fbf f23d b66b 07be 968b 9b3f bed8 e33d
00000200: 3402 8abc 7ae1 92bf 986c 40bc 8f73 0bbf
00000210: 34c0 c8be 0fb8 66be 2168 41bf eed8 6b3a
00000220: 534b 083d 016b b5be 5f5d 473d d10d 1cbe
00000230: 6ef9 3bbf 1cb0 7fbe c973 b1be 2ba5 8d3e
00000240: ff38 afbd 065d ca3d 408f 303f 9dcb 183f
00000250: 9a8c 6c3e d307 303d 1636 8f3e e9f0 5c3e
00000260: 75bf cbbc 0f9f 3dbe 2876 7c3e 0a49 c23d
00000270: b55e e03e 0a51 1d3e ba5a c63c 658b ab3f
00000280: 1311 b03e acad 0f3c 3789 b0bf 6c52 8cbc
00000290: 46d7 e5bf 5872 773e 6abb a7bd 35e0 0dbf
000002a0: 4fdf 983e 99b0 d73d 5bad cfbc 3698 493a
000002b0: fe87 093e d582 e1be 3863 3cbe e954 ff3e
000002c0: 6794 003e 9313 8cbd 31e9 653d 627c 0d3e
000002d0: a17f 593f 83f7 393d 693a 8abd 6ad5 86bc
000002e0: b3af 56bd 1b3c b13d 3b2d 913c 5fb1 f53d
000002f0: 9da8 15be 0690 5ebc 6bd1 983e 53a1 0dbf
00000300: f49a 8c3f e6c8 21bf fd04 1d3d 4e30 88bf
00000310: fd75 0c3d 2ce7 d5bf dcb0 a4bd 84cc 83bf
00000320: 72f5 293f bc9e 9939 a3ec f3be 65c6 c73d
00000330: c949 273b 5e32 1bbe 8262 39bf 8684 b23e
00000340: ee32 afbd 662a e3be b855 29bd 4ab0 243d
00000350: e5a8 9f3e cd06 4d3d 28fb 8ebd f0e8 0c3f
00000360: 3e08 343e 9cf1 a33e 6b87 133d 0476 193e
00000370: ccf1 0a3e 8a8d ddbc b703 8939 0de3 acbb
00000380: cc93 cdbc 1fff 883f 0f0b 9e3e 64d1 723c
00000390: e6e2 7fbf e7cc dfbc 99ba 8c3f 5041 11bf
000003a0: d43b d73b 6b1c 303f 319d 20be c6c7 16be
000003b0: 5eb8 81bd 879b 3b3e 41e5 44bd c9e1 f9bd
000003c0: 0834 b9be dfe8 72be a1d7 97bd b77e 7fbc
000003d0: 13df 923e 0a02 54be 10bd 0cbf b2da 2e3e
000003e0: dea2 56be ecc3 b33d 156b 18be 16c1 b6bd
000003f0: 96be 54bd db35 55bc e71f b73e 44b7 12be
-0.35035133 -0.026008604 0.3215072 0.19644938 0.08378736 0.33251494 -0.30739576 0.06745915
-0.74216205 0.27725613 0.18581589 0.00984502 -0.054943245 -0.35598764 0.73609364 -0.19408731
0.074227706 -0.29989815 0.094334066 0.32238623 0.079461314 0.13801329 0.24378908 0.073949516
0.36088946 -0.022515194 0.3153557 0.93249154 0.40107277 0.018859606 -0.94066286 0.015230153
1.2511864 -0.35181922 -0.18448782 -1.042753 0.06410867 0.05553658 0.03896926 0.09279116
0.04185495 -0.029787503 -0.1752505 -0.10104763 0.22907414 -0.11378174 0.15662661 0.121193856
1.1288561 -0.015757414 0.047477156 -0.04790814 0.08568148 -0.025813503 0.022949953 -0.03896938
-0.054383855 -0.17787151 0.034285873 -0.029430838 0.49321374 -0.7554115 -0.022063881 -0.52154094
0.04709514 -1.1292857 -0.054678544 -0.61240304 0.5776313 0.17236955 -0.14777622 0.25886986
-0.021047961 0.021963967 -1.437259 0.30607274 0.863452 -0.21520913 0.22759672 0.03468592
0.3480286 -0.30247936 -0.32940212 -0.009046702 0.17961544 -0.21393615 0.08651045 0.13771248
-0.00625088 -0.4227499 0.17833719 -0.36873475 -0.23634547 0.23636654 -0.34550443 0.009961344
-0.19422406 -0.03622645 -0.41817853 -0.40014064 -0.22604118 0.12853168 -0.13240683 0.56965196
-0.1712541 0.47093529 -0.0056518978 -0.70121884 0.0791905 -0.41994607 0.019417096 -0.16125865
0.47652537 0.4273934 0.27531442 0.011567526 -0.3405997 -0.58910674 0.4643801 0.44872528
-0.4261972 0.112170614 0.49574712 -0.15503548 0.118528716 -0.13224682 1.2151973 0.11125325
-0.016846754 -1.147506 -0.011744641 -0.54473203 -0.3920914 -0.2253115 -0.75549513 0.00089968636
0.03327496 -0.354332 0.04867303 -0.15239646 -0.73427474 -0.24969524 -0.3465865 0.27665076
-0.08555793 0.09881024 0.6896858 0.5968569 0.2310051 0.04297621 0.27970952 0.21576275
-0.024871567 -0.18517707 0.24654448 0.09486587 0.43822256 0.15362945 0.024213184 1.3401915
0.34388027 0.008769434 -1.3791875 -0.017129146 -1.7956321 0.24164712 -0.08190043 -0.5542024
0.2985787 0.1053173 -0.025351217 0.00076902227 0.13430783 -0.4404513 -0.18397224 0.4986947
0.12556611 -0.06839671 0.05613059 0.1381698 0.8496037 0.04540206 -0.06749422 -0.016459186
-0.052413654 0.08654042 0.017721763 0.119967215 -0.14615102 -0.013584143 0.29847273 -0.55324286
1.0984788 -0.6319717 0.038334835 -1.0639741 0.03429221 -1.6711173 -0.08041546 -1.0296788
0.66390145 0.000293007 -0.47641477 0.09754638 0.0025526157 -0.15155932 -0.72415936 0.34866732
-0.08554636 -0.44368285 -0.041341513 0.040207185 0.31183544 0.050055314 -0.06981498 0.55042934
0.17581269 0.3202027 0.036017817 0.14986426 0.135688 -0.02704503 0.00026133444 -0.00527609
-0.02509489 1.0702857 0.30867812 0.01482043 -0.99955595 -0.027319385 1.0994445 -0.56740284
0.0065684114 0.6879336 -0.15684964 -0.14724645 -0.063339934 0.18321048 -0.048070196 -0.12201268
-0.3617251 -0.23721646 -0.07414175 -0.015594176 0.28685817 -0.20703903 -0.54975986 0.17075613
-0.20960566 0.087776035 -0.14884599 -0.08923547 -0.05193957 -0.013013328 0.35766527 -0.14327723

fcs1.bias f4 [400]
00000000: 3c8a 7cbf 22be 13bf 9bbc 5abd a444 95bf
00000010: b626 c2bf ce4e 9bbf 18fb 95bf 6b04 133f
00000020: 572d d0bf 89b3 d6bf 308d 46bf 141e abbf
00000030: 1ee6 b7bf c658 4bbf dd25 aabf f7b4 53bf
00000040: 2abe ecbf ca37 4bbf 5075 54bf 878c 94bf
00000050: c364 93bf ef67 72bf c38f 57bf 391f d8bf
00000060: 8df0 82bf 62ea ecbf 1c8f 85bf 56d8 85bf
00000070: 158d c8bf f466 b8bf eb1e e4bf eea2 25be
00000080: c24c b9bf 46b4 5dbf fab5 99bf b377 f4be
00000090: 3438 b9bf c39f dabf 5304 62bf cb82 93bf
000000a0: abf4 e6be c0a0 ecbd 082c e0bf 8d2d 01bf
000000b0: 476c 97bf e8cc 88be 2e1c a0bf 7310 9cbf
000000c0: 7f42 b3bf 71a4 e3bf 10f1 94bf d77d 39bf
000000d0: 41a5 b7bf 5229 68bf 653c 9ebf e154 25bf
000000e0: d0e5 46be eaa3 98bf 6cdf 8fbf 82df 76bf
000000f0: de9d 0ac0 d18b abbf c329 11bf 3c9c 24bc
00000100: 911c 67bf 9801 8dbf d5d0 9cbf cb77 bcbe
00000110: 7b4f 9abf 2ecb 6fbf e31b 9fbf 8f43 d4be
00000120: 234c 36bf 5703 97bf cd7b 7cbf cf4a c6bf
00000130: c9c0 90bf aaf0 babf 0d28 f9be f10f e2bf
00000140: 555b 15bf 617f 8cbf 6557 73bf e7a3 d3bf
00000150: 7618 9ebf e266 12bd 856b adbf ac81 fcbe
00000160: c2e5 9ebf 812f d2bf b881 2ebf 4cfc e2bf
00000170: 8478 d5bf d2e5 f3bf fc93 98bf fe83 cbbf
00000180: 8b04 6bbf 30b5 92bf 2979 9bbf 8b1c b4bf
00000190: 269b bbbf 6bcf 35bf 5835 58bf 3dbf 44bd
000001a0: 432a 24bf 1461 12bf 4b1e 0dbe 61f8 a2bf
000001b0: 44f3 d2bf b76e 4fbf d6fc 52bf a43a 7dbe
000001c0: 0cfa d4bf 9d19 8cbf 8249 e9be 1227 87bf
000001d0: 4611 68bf ae85 d5bf 3c79 acbf 1501 84bf
000001e0: 0387 debf 9e74 d6bf e2b4 27bf 3b70 b9bf
000001f0: 0f56 d3bf 621b 9dbf 7b81 85bf db59 d43e
00000200: 194f a2bf be95 27bf cd31 c9bd 610a 02bf
00000210: 6829 87bf 56a2 c4bf f0dc 8abf c57a b0bf
00000220: 1d9e 80bf 4d5c a1bf 45df bfbf 108b 35bf
00000230: 28c5 60bf cda4 51bf 921a 8bbf cc81 31bf
00000240: e476 a3bf 66cb 61bf 7faf a6bf e885 f4bf
00000250: d604 1cc0 90bf 92bf fbad 03c0 821f 9abf
00000260: c1c6 35bf 5e0c a5bf 6011 d0bf 5565 cdbf
00000270: 6a07 e7bf bbb4 80bf 1c1e 6cbf 88fb aabf
00000280: a482 d6bf 495f c2bf abfc 92bf 53f3 33bf
00000290: b3b2 87be 3f6f c1bf 24db b4bf eb64 23bf
000002a0: 0d39 adbf 6e57 8ebf 2807 78bf b465 24bf
000002b0: d365 d7bf 548e cebe 6d93 bdbf 2e91 87bf
000002c0: e9d9 bdbf 38ba 90bf dad6 fabf a0eb b2bf
000002d0: 2866 e4bf 8313 babf 497b 5fbf bdee 9dbf
000002e0: 1541 c1bf a65e 95bf 2e9c 24bf f163 7abf
000002f0: c791 a0bf d816 97bf 024a b2bf 5791 3fbe
00000300: 8141 90bf df9b b2bf 8820 44bf 2b85 d6bf
00000310: df34 adbf ea44 afbf 902c adbf 9e26 a8bf
00000320: 9c53 e3bf 5586 463e f1f0 80bf a6a9 96bf
00000330: 95b9 06c0 993f 9bbf c585 20bf d61d 7fbf
00000340: f52f 69bf bd1f d4bd c6ab c4bf 5c45 43bf
00000350: c1c4 a7bf e1d3 70bf 2051 babf 610d 2cbf
00000360: a56f 953e 4e00 393f 6860 8fbf 3558 44bf
00000370: b0f7 b1bf 7186 7ebf 8622 cebf 7045 95bf
00000380: 7f0d 2dbf 13dc a5bf 778b bbbf 7cf3 a9bf
00000390: 4105 eabf 6dbe 91bf 4ae6 a9bf 520d b3bf
000003a0: 98df 7ebf 1c66 5bbf 2a8d e1be e678 b4bf
000003b0: 3b50 77bf 8124 c8bf 8943 cebf 556e 45be
000003c0: aee4 d4bf f060 00c0 cee2 7ebf 4c68 96bf
000003d0: 00c2 a9bf 0a38 82bf 563a 55bf e4da 8cbf
000003e0: 063b 13bf 3437 52bf b1af 9fbf e330 adbf
000003f0: e6c5 94bf d483 b1bf 3b19 d9bf d130 70bf
-0.9864843 -0.57711995 -0.053402524 -1.1661572 -1.5168064 -1.2133424 -1.1717253 0.57428616
-1.6263837 -1.677354 -0.77559185 -1.3368554 -1.4367101 -0.7943233 -1.3292805 -0.82698005
-1.8495533 -0.79382 -0.82991505 -1.1605386 -1.1515125 -0.9468984 -0.8420374 -1.6884528
-1.022966 -1.8509028 -1.0434299 -1.0456645 -1.5668055 -1.4406419 -1.7821935 -0.16175434
-1.447655 -0.866032 -1.200866 -0.47747573 -1.4470277 -1.7080005 -0.8828785 -1.152429
-0.45108542 -0.11554098 -1.7513437 -0.5046013 -1.1829919 -0.2671883 -1.25086 -1.219252
-1.4004668 -1.7784559 -1.1636066 -0.7245764 -1.4347306 -0.9068805 -1.2362181 -0.6458264
-0.19423604 -1.1925023 -1.1240058 -0.96434796 -2.1658854 -1.3402044 -0.5670435 -0.010047015
-0.90277964 -1.1016111 -1.225123 -0.36810145 -1.2055506 -0.936694 -1.2430385 -0.41457793
-0.71209925 -1.1797894 -0.98626405 -1.549158 -1.1308833 -1.4604695 -0.4866337 -1.7661115
-0.58342487 -1.0976373 -0.9505523 -1.6534394 -1.2351215 -0.035742648 -1.3548437 -0.49317682
-1.2413867 -1.6420747 -0.68166685 -1.7733245 -1.6677403 -1.905451 -1.1920161 -1.5899656
-0.9180381 -1.1461544 -1.214635 -1.4071211 -1.4656723 -0.7101962 -0.84456396 -0.04803394
-0.64126986 -0.5717938 -0.13781087 -1.2732049 -1.6480489 -0.8102831 -0.8241705 -0.24729401
-1.6638808 -1.0945317 -0.45563895 -1.0558798 -0.9065136 -1.6681421 -1.3474498 -1.031283
-1.7384952 -1.6754339 -0.6551038 -1.4487375 -1.6510638 -1.2273982 -1.0430139 0.41474804
-1.2680389 -0.65462863 -0.09823952 -0.50797087 -1.0559511 -1.5362041 -1.0848675 -1.3787466
-1.0048252 -1.2606293 -1.4990011 -0.7091532 -0.87800837 -0.8189209 -1.0867484 -0.6933868
-1.2770658 -0.88200986 -1.3022307 -1.9103365 -2.4377952 -1.146471 -2.057494 -1.2040865
-0.710064 -1.2894399 -1.6255302 -1.6046549 -1.8049138 -1.0055155 -0.92233443 -1.3358011
-1.6758618 -1.5185329 -1.1483358 -0.7029316 -0.26503524 -1.5112075 -1.4129376 -0.63825864
-1.3533036 -1.1120431 -0.9688592 -0.64217687 -1.6827949 -0.40342963 -1.4810616 -1.059118
-1.4832126 -1.130683 -1.9596817 -1.3978157 -1.7843676 -1.4537205 -0.87297493 -1.2338482
-1.5097986 -1.166951 -0.6430081 -0.9780875 -1.2544488 -1.1803846 -1.3928835 -0.18707787
-1.126999 -1.3953818 -0.7661214 -1.675939 -1.353176 -1.3692906 -1.3529224 -1.3136785
-1.775989 0.19387181 -1.007353 -1.1770523 -2.105077 -1.2128783 -0.62704116 -0.996549
-0.910888 -0.10357616 -1.5364921 -0.7627771 -1.310692 -0.940733 -1.4556007 -0.67207915
0.2918674 0.7226609 -1.1201296 -0.76697093 -1.3903713 -0.9942389 -1.6104286 -1.1661816
-0.6759872 -1.2957786 -1.4651936 -1.327743 -1.8282853 -1.1386238 -1.3273404 -1.398844
-0.99559927 -0.8570268 -0.44053012 -1.4099395 -0.96606797 -1.563614 -1.611436 -0.1928037
-1.6632288 -2.0059166 -0.99564826 -1.1750579 -1.3262329 -1.0173352 -0.8329214 -1.10043
-0.5751194 -0.82115483 -1.2475492 -1.3530544 -1.1622894 -1.3868356 -1.6960825 -0.9382449

fc2.weight f4 [300, 404]
00000000: b51e 13bc 42e9 acbd 72bb 8dbd e8cc 27bd
00000010: 0e24 bfbc d835 58bd e059 7cbc c76e 8bbd
00000020: 2cba 1b3d c8e6 10be 66c0 7fbd c673 10be
00000030: d193 4d3d 5ce9 56bd 152a 48bd eb1f 42bd
00000040: 9017 a83d be7f d9bb 8660 823c e37c f13c
00000050: 39c5 133d 7c99 75bc 2b55 f7bd 728f 8ebd
00000060: 0c73 ac3c 2bc7 e9bd c0bc 263b 70bb bdbd
00000070: e4ad 6dbd 8f3b 9c3c 9bbd 323c b106 2dbd
00000080: 1c16 e6bc b42a 74bc c4e2 2d3d e068 a1bc
00000090: 51e9 4cbd 30c7 1fbc 83cb dabd 5728 04bd
000000a0: 3bb8 883c 79d9 0dbe b0ec 13be 7723 e6bc
000000b0: 5693 9bbc 2cb4 8fbc 4e1e abbc 59de bcbd
000000c0: 7fb5 213c 25de f6bb 934e b6bd 56bc 08bd
000000d0: d132 98bd ed9f 57bd 7c99 0d3d e6ac 27be
000000e0: 0bf9 9b3c f14b fcbd c2aa dfbd 7e19 b2bd
000000f0: dd6a 21bd 5d23 10be 15ed babd aab5 11be
00000100: 1429 cc3d b0df 8b3c adf5 80bd d8ee eabc
00000110: 4bfc 223d baf7 b9bd aeea 5a3b bd92 8abd
00000120: 8bd6 19bd 801e b4bd ecdc 07bd c7ab cdbc
00000130: 220d e1bd 0b45 01be 8d86 bcbd 4fc2 0cbd
00000140: df35 b8bd 1c1f 08bd c8c4 41bd 66e9 c7bd
00000150: e5de 05be 1e11 03bd 80f6 273b d95e ddbd
00000160: 6a42 e53a 4d72 71bd b5bc 0cbd 3323 09bd
00000170: b40c ba3b 81a2 f4bd bdea d1bd e047 91bc
00000180: c829 f3bd 13a8 9abd 1edf 33bd 0344 60bc
00000190: a664 d9bc a89f b3bd a65b ebbd 292b 0b3d
000001a0: b61d 07bd 2ff5 b7bd 2157 84bd 21ca e7bd
000001b0: 2333 11bd 8f2f 52bd 1a5a 493d 5d26 9ebd
000001c0: c58d 0bbd de96 fabd 0140 13be 7c37 87bd
000001d0: a8b3 b1bd 7a81 9cbd 36da 9ebd 2985 adbd
000001e0: fa6c 0bbd 6ec6 49bd 37ce bc3b 7b89 443c
000001f0: aecd d1bb baf7 dcbb 0899 3ebd 15af 913b
00000200: 66d3 a3bc e5fc 0dbe 9f65 23bd 99ab 0bbd
00000210: 40d7 633d fa15 d9bd 6446 a63d 5923 a6bc
00000220: 0287 7fbd 56d8 263d 9aa5 32bd 1b98 a0bd
00000230: 40d0 cebd 8c61 2d3d 742e 5cbd 662a dcbd
00000240: f4c5 153b 7a10 32be c22b b9bc c07b 6abc
00000250: 746b 883c 4941 82bd 6730 3abc 0edc d3bc
00000260: 2577 24bd a41d 93bd 6641 583c f822 06bd
00000270: 7a47 5fbd cdd3 21be 3c80 d9bc 6076 d83c
00000280: db26 0a3c ce01 813d a2e0 88bd 4df1 b5bd
00000290: c1eb b2bd 409d ac3c 97dc 5dbc bf63 cabd
000002a0: 63ac a3bc 3ed4 29bc ea9b 0cbd fc1b 8bbd
000002b0: 4abf 56bd 0055 23bd cd5e 11bc 796b dcbc
000002c0: 4cc8 783d b7a7 843d b6ff 5dbd 64c6 263d
000002d0: 51e8 7cbc c389 073d 512a c7bc d90a 6ebd
000002e0: c4b5 b53d c83f 1dba 27db fa3b 5b97 dbbd
000002f0: 097b aa3c d64f 8f3c fc96 10be 9372 183c
00000300: 107a 2ebd 073b 35bd ac1f e13c ac2a d23d
00000310: 8b93 d73b d55d 95bd 4bea 8cbd 0125 243d
00000320: 67a5 063e 1c87 b9bc fdda 56bd 94d6 b93c
00000330: 9841 3fbd 6d17 55bd 9b0d 08be 5019 bbbb
00000340: 711b 33be e237 3d3c 2522 da3d 0138 cebd
00000350: 6296 0f3d 6646 9fbd d94b da3b a3f7 11be
00000360: a348 d0bc ef21 2abc 515a a8bd 73be 0cbd
00000370: 3b86 07bd bf73 aebd 613b 7fbd c748 17bd
00000380: 65b8 06bd 9706 d5bc e0b9 763c 8d9f a0bd
00000390: 20f0 993b f527 76bc b25e 19bd 4213 b5bd
000003a0: 0c96 18bb 6b6b 51bd 83f0 1cbe 6527 f03b
000003b0: 5fae 2abd 1f76 99bd 3d99 193c b4fa 8ebd
000003c0: b760 cbbc 1147 e5bc 2785 073c 7f35 bbbd
000003d0: 8f89 43bd 151b fdbb 92a2 b8bd 2d51 983d
000003e0: 37aa d3bc 41a0 15be a0ca 1e3c 21b5 16bd
000003f0: e1cd d2bd 76cb eabd 8cae 94bc 7908 aebd
-0.008979489 -0.08442928 -0.06920518 -0.0409669 -0.023332622 -0.052785724 -0.015402287 -0.068082385
0.038019344 -0.14150536 -0.062439345 -0.14106664 0.050189797 -0.052468643 -0.048868258 -0.04739372
0.08207619 -0.0066375425 0.015915167 0.029478496 0.036076758 -0.014990207 -0.120767914 -0.06960954
0.021050952 -0.114149414 0.0025442094 -0.092642665 -0.058027163 0.019071369 0.010909463 -0.04224271
-0.028086714 -0.014902759 0.04245259 -0.019703329 -0.050027195 -0.00975208 -0.10683348 -0.032265034
0.01668941 -0.1385249 -0.14445758 -0.028093083 -0.018991154 -0.017541967 -0.020888474 -0.09222097
0.009869932 -0.007533806 -0.089017056 -0.033382736 -0.074315675 -0.05264275 0.034570202 -0.1637455
0.019039651 -0.12319172 -0.10921241 -0.086962685 -0.039408553 -0.1407599 -0.09127251 -0.14229456
0.099687725 0.017074436 -0.06296859 -0.028678343 0.039791387 -0.09080453 0.003340404 -0.06766269
-0.03755812 -0.0879488 -0.033169672 -0.025106324 -0.10988833 -0.12623994 -0.09205351 -0.034364995
-0.0899465 -0.033232793 -0.047306806 -0.09761314 -0.13073309 -0.031998746 0.0025629103 -0.108091064
0.0017491106 -0.058946896 -0.034359653 -0.033480834 0.005677784 -0.11945058 -0.10249851 -0.017734468
-0.118732035 -0.07551589 -0.043913953 -0.01368809 -0.02653725 -0.087706864 -0.1149209 0.033976708
-0.03298732 -0.08982312 -0.06461931 -0.1131785 -0.03544916 -0.051314887 0.049158193 -0.07722161
-0.03407075 -0.12235807 -0.14379884 -0.0660238 -0.08676845 -0.07641883 -0.07756464 -0.08472664
-0.034039475 -0.049261503 0.0057618874 0.0119956685 -0.0064026928 -0.0067433985 -0.04653266 0.00444592
-0.019998264 -0.13866003 -0.039891835 -0.034099195 0.0556252 -0.10599895 0.08118895 -0.020280527
-0.062384613 0.040733658 -0.04361496 -0.07841512 -0.10098314 0.042329356 -0.05375524 -0.10750274
0.0022853585 -0.17389098 -0.022603873 -0.014311731 0.0166528 -0.063601084 -0.011364079 -0.025861766
-0.040152688 -0.07183388 0.013199186 -0.032748193 -0.054511525 -0.15803452 -0.026550405 0.026423633
0.008432115 0.06299172 -0.0668347 -0.08883915 -0.08736373 0.021071076 -0.013541362 -0.09882306
-0.019979661 -0.010365544 -0.03432838 -0.06792447 -0.05242852 -0.039875984 -0.0088727 -0.026906716
0.060737893 0.064773016 -0.054198943 0.040716544 -0.015436248 0.033090364 -0.02431217 -0.058115814
0.0887256 -0.0005998579 0.0076555195 -0.10722228 0.02081062 0.017494123 -0.14120096 0.00930466
-0.042596877 -0.044245746 0.027480923 0.10262045 0.006578868 -0.07293288 -0.06880625 0.040074352
0.13149033 -0.022647433 -0.052454937 0.022685327 -0.046693414 -0.052024294 -0.1328644 -0.0057098046
-0.17490937 0.011548968 0.10651044 -0.10069276 0.035055526 -0.07777099 0.006661874 -0.14254622
-0.02542526 -0.010384067 -0.082203515 -0.034361314 -0.033086997 -0.085181706 -0.062312488 -0.03693464
-0.032890696 -0.026004119 0.0150589645 -0.07842932 0.0046978146 -0.015024175 -0.037443824 -0.08841564
-0.0023282794 -0.051127832 -0.15326123 0.007328915 -0.0416702 -0.07493233 0.009374914 -0.069814116
-0.02482639 -0.027987989 0.008271492 -0.09141063 -0.047738608 -0.0077241757 -0.09015383 0.07437358
-0.025838 -0.14611913 0.009691864 -0.03679383 -0.102931745 -0.11464588 -0.018149637 -0.0849771

fc2.bias f4 [300]
00000000: fbd8 08be e066 e4bb 9093 ebbd 6c74 c1bd
00000010: 6cd9 a7bc ee6b 8cbd 303b d7bc 7dc5 07be
00000020: 30e9 e8bc d28c b0bd 1c0a 2cbc a84c dcbc
00000030: 4953 eebd bb64 33bd e23b 323f b8d8 0bbe
00000040: f413 a2bd cf74 1cbe 27d1 a6bd 04b3 8fbd
00000050: e845 23bc a939 36bf 53d4 aabd 7977 d3bd
00000060: 3ff4 babd f0fb d83f cfda e8bd a340 5abd
00000070: b280 ccbc 4625 83bd 7082 d83f 35ae dcbd
00000080: a954 e7bd ae7a debd e68a 65bd 7ed0 abbd
00000090: 34ec b9bc bfaa efbd bad0 e0bd e6cd b6bd
000000a0: 2143 f7bd c166 08be fc22 80bd 8386 d73e
000000b0: c11f 7cbd 9405 9abd d373 98bd 50cb 48bd
000000c0: e381 88be 50b2 95bd 3f49 48bd 4ba6 a5bd
000000d0: 621b f3bc 4c4f 00bd 4653 febd 5ac6 9fbc
000000e0: 3956 c5bc 12d4 74bd 7278 9c3c 5ce1 913b
000000f0: ac7b 15be f8c5 b6bd 2eb1 00be 3cbd bebc
00000100: fd8d 2ebd 3f3b 1abc 0ba0 5cbd c4b7 04be
00000110: 3565 cebd c0df 41bd cb5f a2bd 2331 64bd
00000120: 9208 f7bd c91d debb 93f3 edbd 48ce a4bd
00000130: 597d cfbd 6f0d 24be fd6d 363f a696 f9bc
00000140: c971 863e e045 19bd c900 45bd 187d 8abd
00000150: 4409 ecbd 9d70 eebd 90e5 99bd 7f6e 2fbd
00000160: 0f41 88bd 0842 02be 27e3 b1bd e2e4 e9bc
00000170: 8454 4cbd b00c debd a641 39bd 4ad9 d9bd
00000180: 7ee5 44bd 88a3 a1bd 94df 4bbf 30ec c0bd
00000190: 0319 96bd d231 05be 904f 1bbd c13d f5bc
000001a0: cdbf 94bd 7c64 94bf 28f6 59bf 3f76 cebd
000001b0: 47a6 8abd 399a 1cbd f989 193c b2bd 08bd
000001c0: 6e1a 04be 5ef7 b7bd 38c1 0abf 8b97 a3bd
000001d0: d4fe 1fbe 9d69 43bd d869 9a3f fad2 c6bc
000001e0: 8b36 ffbd a37b 87bd b2a8 853c ec69 61bd
000001f0: 905e c9bd 46bb 0dbd 2d12 9cbd 8f9a abbd
00000200: 92e2 34bd 5457 09be 9961 84bd d700 c8bc
00000210: 32af 2ebd 73f8 2ebd b2b6 e7bd 6085 61bd
00000220: e174 fdbd c73c e1bd eff7 5bbe e4ee e6bd
00000230: 1dbf 3bbd 2fa7 82bd 1b93 2dbe baaa 3bbd
00000240: 220e 31bd fda3 e7bd 1650 88bd ed94 f1bd
00000250: ac6c e9bd b86d 63bd cada 11be c289 27bd
00000260: 1cba 65bf 4533 14be db1c acbd 0eb0 ffbd
00000270: 8a51 dfbd a2e9 debc 8c9f e3bd 840e 10bf
00000280: bb03 b6bd 91a9 e9bd ae92 29bd b037 ebbd
00000290: fc7a edbd 4ed3 173f a402 cbbd 5ccf 5cbd
000002a0: a5b3 d4bd 7a05 bfbd 9363 0ebd 5f7c 6bbd
000002b0: a8c9 36bd 7c2d 6fbe fb41 e7bd 6338 83bd
000002c0: a53a d4bd 3ff5 20bd 0723 f7bc 5aae ccbd
000002d0: 3e9e 5abf 8a15 b0bd 43dd 71be d0b6 cfbd
000002e0: d9fb 663f 3290 82bc e2b8 3fbd 528d 0abe
000002f0: 1e43 dcbd caee 8cbd 4bf0 1cbd 6aeb 3dbd
00000300: 1bbb 96bc 3afa 17bd 3d56 9bbd baec 16bd
00000310: 9dea 06be 4796 85bd a9eb c6bd a32b 55bd
00000320: 7295 7ebd 0d04 2b3f 8c19 7ebd d29d 82bd
00000330: 75de f6bd b11d adbd 319f 15be 0a7d 8fbd
00000340: 8650 ccbc e41f 75bd 6e47 edbd 2140 d3bc
00000350: 9495 82bd 7008 90bd 186f e8bd b292 e2bd
00000360: 8694 a4bd 5e87 13be 6577 d4bd 8bdc 8cbc
00000370: e8b8 92bd 5ecb dcbd c4ce 0ebe 7a5f c6bd
00000380: 6f1a 233f 30ff 50bd 2f8d bebd c958 88bd
00000390: d6b4 b6bd 2e4c 91bd 8476 bebd 284d cfbc
000003a0: fc28 00bc ccea 55bd 1ad8 173c 1d45 183f
000003b0: 3479 efbd 2530 fabc 0cd2 aabd 7a36 dabd
000003c0: 0ed1 f1bd 9adf 3cbd 63b9 1bbd dcec 57bc
000003d0: d9f3 d0bd 5780 87bd 0e4e 5c3f 50d6 17bd
000003e0: 9098 4ebd db3a 6bbd 0f7e 89bd 3f1b b0bd
000003f0: c46d 92bd 8e48 20bd ecdf 6fbd 6807 cebd
-0.13364021 -0.0069702715 -0.11502755 -0.09446034 -0.020489417 -0.068565235 -0.02627334 -0.1325893
-0.028431505 -0.08620609 -0.010500457 -0.026892021 -0.11636979 -0.043797236 0.69622624 -0.1365689
-0.07913962 -0.15278934 -0.081453614 -0.070165664 -0.009965397 -0.7118173 -0.08341279 -0.10325522
-0.091286175 1.6951885 -0.113698594 -0.0532843 -0.02496371 -0.06403594 1.6914806 -0.10775415
-0.112954445 -0.10863243 -0.056040667 -0.08389376 -0.022695638 -0.11702489 -0.109773114 -0.08925991
-0.12073351 -0.13320448 -0.06256673 0.42094812 -0.06155372 -0.07520595 -0.07443967 -0.04902202
-0.26661596 -0.07309401 -0.048897978 -0.080883585 -0.029676143 -0.031325623 -0.12418227 -0.019503761
-0.024088966 -0.05977256 0.019100402 0.0044519138 -0.14597958 -0.08924478 -0.12567589 -0.023283593
-0.04261588 -0.009413539 -0.053863566 -0.12960726 -0.100778975 -0.047332525 -0.07928427 -0.055710923
-0.120621815 -0.006778453 -0.11618724 -0.080471575 -0.1013133 -0.1602075 0.7126158 -0.030467343
0.26258686 -0.037420154 -0.048096452 -0.06762141 -0.11525205 -0.11642573 -0.07514489 -0.042829987
-0.06653034 -0.12720501 -0.08685904 -0.028551523 -0.049885288 -0.10842264 -0.045228623 -0.10637148
-0.048070423 -0.07892519 -0.7963803 -0.09420049 -0.07328989 -0.13007286 -0.037917674 -0.029936673
-0.072631456 -1.1593165 -0.8514123 -0.100811474 -0.06769996 -0.038233016 0.009371274 -0.033384033
-0.12900707 -0.089827284 -0.5420108 -0.07987889 -0.15624553 -0.047708143 1.2063551 -0.024270523
-0.12461575 -0.06615379 0.016315792 -0.055032656 -0.098324895 -0.034602426 -0.07620654 -0.08379089
-0.044161387 -0.1341222 -0.06463928 -0.024414463 -0.042647548 -0.04271741 -0.11314143 -0.055058837
-0.123758085 -0.109979205 -0.21481298 -0.112760335 -0.045836557 -0.06379544 -0.16950648 -0.045817114
-0.04322637 -0.11310575 -0.066559 -0.117959835 -0.11397681 -0.055524558 -0.14243618 -0.04090286
-0.89737105 -0.14472683 -0.08403941 -0.12484752 -0.10904224 -0.027211014 -0.111144155 -0.5627215
-0.0888743 -0.11409295 -0.04139965 -0.11485231 -0.11595723 0.593068 -0.09912613 -0.05390869
-0.10385827 -0.093272164 -0.03476293 -0.057491656 -0.044625908 -0.23357195 -0.11291882 -0.06407239
-0.10362748 -0.039296385 -0.03016807 -0.099941924 -0.8539771 -0.08597858 -0.23619561 -0.101422906
0.9022804 -0.015937898 -0.046807177 -0.13530472 -0.10754989 -0.06881483 -0.0383151 -0.046367086
-0.018399766 -0.03710387 -0.07584808 -0.036846854 -0.13175435 -0.06522804 -0.09712917 -0.05204357
-0.06215424 0.66803056 -0.062036082 -0.06377758 -0.12054149 -0.08452929 -0.14611508 -0.07006271
-0.02494074 -0.059844866 -0.1158589 -0.025787415 -0.06376186 -0.07032859 -0.113493145 -0.11063136
-0.08036141 -0.14407107 -0.10374335 -0.017195007 -0.07164174 -0.10780977 -0.13946062 -0.096861795
0.6371221 -0.051024616 -0.093042724 -0.066575594 -0.089212105 -0.07094608 -0.09299949 -0.025305346
-0.007822271 -0.052225873 0.009267831 0.5948046 -0.116930395 -0.030540535 -0.083408445 -0.10654922
-0.11807452 -0.04611168 -0.038018595 -0.01317903 -0.1020276 -0.06616276 0.860566 -0.03706962
-0.050438464 -0.057429176 -0.06713497 -0.08598947 -0.071498424 -0.039131694 -0.058563158 -0.100600064

fc3.weight f4 [1, 300]
00000000: e3f8 333a bec1 32bb 4941 d93c fc38 ddbc
00000010: 79be 96bc f10d 953c 3c65 e23b c644 603a
00000020: 91b1 b23c 1037 dcbc 4f74 963c 4e82 7fbc
00000030: 11d9 883c 681c f83b d47c ad3c b960 a7ba
00000040: a2ae d13b a960 8bbc 68bb b5bc 2022 7e3b
00000050: 13d0 bfbc 2f3c 59bc c680 6939 be1b 17bc
00000060: cda8 5cbc 1918 cc3c a9cf b9bc 3130 383c
00000070: 7559 af3c e6ba 8c3b b820 223d 7c8e 79bb
00000080: 8f91 95bc 9889 093b 4018 73bb 8555 953a
00000090: 6ddf 213c 216f 1cbc 9d3a 933c d00b 8abc
000000a0: cd02 993c 01b8 3a3c 515f 1f3b 3d15 733c
000000b0: 88c7 f33b a114 813c 361c c8ba 0908 91bc
000000c0: 4639 d1bc 8b3c a8bc 06b9 debc 1e7a aabc
000000d0: 297e e53b 4fa6 e1bc 3d97 be3c d07e e1bb
000000e0: 31d7 dd3c 4dbe 86bc c31c 0b3d 4bb5 00bc
000000f0: 7cc1 be3c d7da 06bd cd68 e9bc d05a df3c
00000100: 48d8 c1bb ef9d d0bc ad12 ca39 25ed 9c3c
00000110: 698d 48bc dd33 aab9 3a20 0dbd 4845 3cbc
00000120: 9501 5b3c e7cd a7bb bd89 23ba f14f 8d3a
00000130: 98bf 1a3c e8b0 83bc 2493 eb3c 7490 5cbc
00000140: e449 813c cbfb 95bc c405 3d3c 36cc bebc
00000150: 2574 d7bc dc5a 62bc ad8d 3c3c 3a3d 483c
00000160: ce11 b13c a1ea 903c 00ad 5bba afa9 ef3c
00000170: aceb 3ebb dca7 6cbc 08aa cfbc 5324 c63b
00000180: 9912 a0bc d662 20bb e0db 02bd e81e b7ba
00000190: 1211 c13c 08cd a5bc f18c 773c 3dfc 283c
000001a0: 7cb0 debc 55ac cabc eea2 49bc 2fb3 543c
000001b0: 473a c93c b73c 883b 2b7c a2bc 678c 923c
000001c0: b5c0 35bc 5140 b0bc 59fd a2bc b4bb e0bc
000001d0: 740b fbbb 40bb 533c 6053 c13c 28f9 bebc
000001e0: a6dc 143c 60d6 1dbc fcc0 9fbb 2052 ca3c
000001f0: 6878 06ba 181a 4cbb e78e d93b 06c1 98bc
00000200: 2ed9 8d3c 1a14 dfbc c64f b63b ae38 a0bc
00000210: 2194 b3bc fbe8 8bbc e53a 40bc b910 7cbc
00000220: 2ca0 403c 3993 e8bc b31b e5bc fe20 8c3c
00000230: ebab d1bc 66d2 33bc e000 13bc e06e 75bb
00000240: bb94 bfbc d031 a23c 742d 79bc 1839 13bc
00000250: 3457 aebb 6fc6 99bb 9f86 713c feeb 303b
00000260: 2b2f 3bbc fc1e e7bb 1f1e 2c3c 6ef6 413c
00000270: 7223 e83b f04b d5bc 185f c73c 3f1a 8fbc
00000280: c1be 6a3c adc7 d9bb 3231 25bb c3bb eb3b
00000290: 421c 9ebc 3c3d 8e3c 54a4 3f3b 3e5b e7bb
000002a0: 6c56 42bb 6fb9 c73c 8dfd 633b ef6b b1bb
000002b0: 28ac ccbc e5d0 673c 66d0 f2bc 349c 1fbb
000002c0: 1410 eebb 49cb 663c 1a95 48bb 590d f7bb
000002d0: 7350 99bc d3e7 04bc 3330 003b e798 60bc
000002e0: ec54 033d 2774 abbc a9c0 b13c 080f 703c
000002f0: 562f c7bb 5645 c03b f1cc f1bc 213c c93c
00000300: e907 f63b 5ff5 d2bc a1b8 a23c ffe1 633c
00000310: 7228 b3bc 0929 403b ea2a ff3b 48e2 c43c
00000320: 09ab 813c b08b 9d3c 616b b63c 2037 aa3a
00000330: e875 94bc 9c16 663b da80 d73c fad5 e4bb
00000340: 19c8 4b3b 9a00 363c 78c3 9439 1460 73bb
00000350: e2c2 f43c e807 b1bc c187 22bc 433c adbc
00000360: 1cdc 073c 48d4 eb3c b136 d33c 1cd1 653c
00000370: 3d5e c93b 0dfc cfbc d1ef 26bd bc3e 91bc
00000380: e73e f63c 86c3 55ba 1241 52bb 85dd e23c
00000390: 3a00 dcbc 71b8 f8bc 35ac e43c 9d82 d8ba
000003a0: 4ad2 c33c 6f70 d0bb 6b20 143c 8a7f 9b3c
000003b0: 3b95 a3bc 360a aebb 0317 843b 47f0 c73b
000003c0: dbec 0dbc 0fd1 a53c a672 cabc 7867 0c3b
000003d0: 1236 443c 5bdb 69bc 763a 5d3c ce3d f6bc
000003e0: db8e 4bbc 896a bf39 cfd1 72bc bca7 ab3c
000003f0: 6cc6 b23b d79d 33bc 80a4 07bc eea4 e03c
0.0006865395 -0.0027276124 0.026520388 -0.027004711 -0.018401371 0.018195124 0.0069090407 0.000855517
0.021813186 -0.026881725 0.018366007 -0.015595032 0.016705068 0.0075717457 0.021177687 -0.0012769914
0.0063989917 -0.017013865 -0.022184089 0.0038777664 -0.023414647 -0.013258978 0.00022268583 -0.009222923
-0.01346798 0.024913834 -0.022682028 0.0112419585 0.021404961 0.004294741 0.039581984 -0.0038079312
-0.018257884 0.0020986553 -0.0037093312 0.0011393285 0.009879929 -0.00954798 0.017972285 -0.016851336
0.018678093 0.011396409 0.0024318288 0.014836607 0.0074395575 0.015756907 -0.0015267197 -0.017704027
-0.025540005 -0.020536682 -0.027187835 -0.020810183 0.007003565 -0.027545122 0.023265475 -0.0068815723
0.02708015 -0.016448164 0.033962976 -0.007855724 0.02328562 -0.032923546 -0.028492356 0.027264982
-0.0059156753 -0.025465934 0.00038542357 0.019156048 -0.012240746 -0.00032463568 -0.03445456 -0.011491127
0.013367076 -0.005120981 -0.0006238481 0.0010781271 0.009445094 -0.016075566 0.028756686 -0.013462175
0.015782304 -0.01830854 0.011537019 -0.023290735 -0.0263005 -0.013815608 0.0115083875 0.012221629
0.021614935 0.017690005 -0.0008379966 0.029255716 -0.002913217 -0.014444318 -0.025349632 0.0060468107
-0.019540118 -0.0024472973 -0.03194797 -0.0013971003 0.02356771 -0.020239368 0.015109287 0.010314045
-0.027183764 -0.024740377 -0.012306912 0.012982174 0.024563922 0.0041576284 -0.019834599 0.017889215
-0.011093308 -0.021515043 -0.019896196 -0.027433254 -0.0076612774 0.012923062 0.023599327 -0.023312166
0.00908581 -0.0096336305 -0.0048753005 0.024697363 -0.0005129636 -0.0031143483 0.0066393497 -0.018646728
0.017315473 -0.027231265 0.005563709 -0.019558277 -0.02192122 -0.017078867 -0.011732792 -0.015384846
0.011756938 -0.028390514 -0.02796731 0.017105576 -0.025594672 -0.010975456 -0.008972377 -0.003745012
-0.02338635 0.019799143 -0.015208591 -0.00898578 -0.005320454 -0.0046928446 0.014741569 0.002699613
-0.01142482 -0.007053254 0.010505228 0.011838539 0.0070843035 -0.026037186 0.024337336 -0.01746857
0.014327706 -0.0066461177 -0.0025206325 0.007194014 -0.019300584 0.017363183 0.0029242234 -0.0070604375
-0.0029653562 0.024380414 0.003478858 -0.005414478 -0.024984434 0.014148925 -0.029640388 -0.002435458
-0.0072651003 0.014086553 -0.003060645 -0.007539433 -0.018715119 -0.008111912 0.001955998 -0.01370833
0.03206341 -0.02092941 0.021698313 0.014652021 -0.006078641 0.0058676405 -0.029516669 0.024564805
0.007508267 -0.025751768 0.019863429 0.013908862 -0.021869872 0.0029321334 0.007787098 0.02403368
0.015828626 0.019231647 0.022268 0.0012986399 -0.018122628 0.003510869 0.026306558 -0.006983516
0.003109461 0.011108542 0.00028374395 -0.0037136124 0.029878084 -0.021610215 -0.009920062 -0.0211469
0.008292224 0.028787747 0.025782915 0.014026906 0.0061452673 -0.025388742 -0.04075605 -0.01773011
0.030059291 -0.00081544404 -0.0032082242 0.02769352 -0.026855577 -0.030361386 0.027914146 -0.0016518418
0.023903985 -0.0063610594 0.009040932 0.018981714 -0.01996862 -0.005311276 0.0040310635 0.0061016413
-0.008662428 0.020241288 -0.024712872 0.0021423977 0.011975782 -0.01427349 0.013502708 -0.030058768
-0.012424196 0.00036509734 -0.01482053 0.020954005 0.0054557826 -0.010962925 -0.008278966 0.027422395
