checkpoints/checkpoint_critic_3100.pth (torch, 543887 bytes, 5 tensors)

fcs1.weight f4 [400, 33]
0	0xbe5baf18	-0.21453512
1	0x3e02268a	0.12710014
2	0x3f277347	0.65410274
3	0xbf085724	-0.53257966
4	0x3eeba0bc	0.46021068
5	0xbd28b656	-0.041189514
6	0xbeb34abc	-0.35017955
7	0x3e184f04	0.14873892
8	0xbf6d2464	-0.9263365
9	0x3e8335a7	0.2562687
10	0xbdea2055	-0.11431948
11	0x3ea56632	0.3230453
12	0x3e726c0d	0.2367403
13	0xbec342df	-0.38136956
14	0x3ef60a31	0.4805465
15	0xbe8e7348	-0.27822328
16	0xbefbd795	-0.49187914
17	0xbd41aa62	-0.04728163
18	0xbeb3c785	-0.3511316
19	0x3d24c85f	0.04023015
20	0xb917bb98	-0.00014470366
21	0xbd2574a4	-0.04039444
22	0x3e426a03	0.18985753
23	0xbe833da0	-0.25632954
24	0x3eb34d71	0.3502002
25	0xbbd65077	-0.006540354
26	0x3de542e4	0.11194399
27	0x3f9d9e14	1.2313867
28	0x3eca734b	0.39541087
29	0x3c9a7f76	0.018859606
30	0xbf9ea9cc	-1.2395568
31	0x3c7987e4	0.015230153
32	0x40164196	2.347753
33	0xbea99f30	-0.33129263
34	0xbe9d32d1	-0.30702832
35	0xbf9e59fb	-1.237121
36	0xbe8771f9	-0.26454142
37	0x3d06b9e1	0.03289211
38	0xbb56e724	-0.003279158
39	0x3e568cd4	0.20952159
40	0xbc8123b4	-0.015764095
41	0x3e76b070	0.24090743
42	0xbf0ddeda	-0.5541817
43	0x3d007dc2	0.031369932
44	0x3dd3abe6	0.103355214
45	0xbdf3f56f	-0.11912047
46	0x3e541b55	0.20713551
47	0x3eaf804d	0.34277573
48	0x3faf6596	1.3702877
49	0xbc0d7023	-0.0086326925
50	0xbdec5753	-0.11540093
51	0x3de1206f	0.10992514
52	0xbe5d4bb9	-0.21610917
53	0xbdb2a93d	-0.08723686
54	0x3d4eb2cc	0.050463483
55	0x3da0cc5c	0.078514785
56	0xbde7b7f9	-0.11314387
57	0xbd61b2a4	-0.055102006
58	0x3e19e4d1	0.15028693
59	0xbd89d29b	-0.06729623
60	0x3efdcdfb	0.49571213
61	0xbf47a0ba	-0.77979624
62	0xbcb4bf50	-0.022063881
63	0xbf062759	-0.5240379
64	0x3d40e6d5	0.04709514
65	0xbeda0d92	-0.42588478
66	0x3c29e1d5	0.010368784
67	0xbf213a1c	-0.6297929
68	0x3eb68c48	0.356539
69	0x3dc00ec4	0.09377816
70	0x3dc12c4f	0.09432279
71	0xbc5370d6	-0.01290532
72	0x3deaeaa5	0.11470536
73	0xbe733c6b	-0.23753516
74	0xbf7eba6f	-0.99503225
75	0xbd857495	-0.06516377
76	0x3f0648eb	0.52455014
77	0xbe96f93c	-0.29487026
78	0xbd7f79b4	-0.062371925
79	0x3c9638f5	0.018337706
80	0x3e9a9cf0	0.3019786
81	0xbdc59909	-0.0964833
82	0xbde9dc61	-0.11418987
83	0xbdf192f6	-0.11795609
84	0x3d9fe3f9	0.07807154
85	0xbc84bc8b	-0.016203186
86	0xbe01f3b5	-0.12690623
87	0x3e8de7bb	0.2771586
88	0x3da758c0	0.081712246
89	0xbee35243	-0.44398698
90	0x3e6664a5	0.2249933
91	0xbebc3b9a	-0.36764222
92	0xbe85c224	-0.2612468
93	0x3e433008	0.19061291
94	0xbeeca274	-0.46217692
95	0x3c2334e8	0.009961344
96	0xbe180884	-0.14846998
97	0xbd146230	-0.03622645
98	0xbf6704f3	-0.90241927
99	0xbf030a8b	-0.5118796
100	0x3f43fd8d	0.7655876
101	0xbd1bf1f1	-0.03807253
102	0xbf2a7145	-0.66579086
103	0x3f4864fd	0.78279096
104	0x3e051689	0.12996878
105	0x3dc6e481	0.097115524
106	0xbe2943f9	-0.16529836
107	0xbf44221a	-0.76614535
108	0xbdf985b6	-0.121837065
109	0xbea3d405	-0.31997696
110	0x3ea1d708	0.31609368
111	0x3eb22c90	0.34799623
112	0x3e849056	0.2589137
113	0x3f366087	0.7124104
114	0x3ef19f88	0.47192025
115	0x3ed350db	0.41272625
116	0xbd8dfb20	-0.06932664
117	0xbe8d2cef	-0.27573344
118	0x3e8a53e3	0.27017125
119	0x3efe3c25	0.49655262
120	0xbe2833ba	-0.16425982
121	0x3d6e9f59	0.058257435
122	0x3e15c78f	0.14626907
123	0x3d02f06e	0.031967573
124	0x3e8f6541	0.28006938
125	0x3e6983a7	0.22804128
126	0x3fabe0b4	1.3427949
127	0x3e1a2e28	0.1505667
128	0xbc8a0234	-0.016846754
129	0xbfa33698	-1.2751036
130	0xbc406c98	-0.011744641
131	0xbe430085	-0.19043167
132	0xbe727629	-0.23677887
133	0xbdacd5a4	-0.08439186
134	0xbf4b15cb	-0.7933013
135	0x3c83775f	0.016048132
136	0x3dfd13e7	0.12357312
137	0xbdc82e19	-0.097744174
138	0xbd87c426	-0.06629209
139	0xbe1a3aef	-0.15061544
140	0xbe1cf8e0	-0.15329313
141	0xbef9fce6	-0.4882576
142	0xbcc2cb46	-0.023778569
143	0x3eda69fb	0.42658982
144	0xbe5074aa	-0.20357004
145	0x3e36d4e7	0.17854653
146	0x3f02bb91	0.51067454
147	0x3f21eed3	0.6325504
148	0xbcb06f18	-0.021537349
149	0xbc74227a	-0.014900798
150	0x3be98a5f	0.007127091
151	0x3eaaf900	0.33393097
152	0x3e6e314b	0.23260991
153	0xbdd6ce57	-0.10488575
154	0x3e8dc403	0.27688608
155	0x3dfeee73	0.12447824
156	0x3ea9041b	0.33010945
157	0x3ed0ca65	0.40779415
158	0x3eaa1149	0.33216313
159	0x3fcf21f6	1.6182239
160	0xbe0721d9	-0.13196506
161	0x3c0fadac	0.008769434
162	0xbfd41fc8	-1.6572199
163	0xbc8c526c	-0.017129146
164	0xbfd769de	-1.6829183
165	0x3d8168af	0.06318795
166	0xbd8ede61	-0.06976009
167	0xbf0eabd5	-0.55730945
168	0xbcfc55eb	-0.030802688
169	0x3cec33b2	0.028833244
170	0xbcfa1244	-0.030526288
171	0x3edb3c72	0.42819554
172	0x3e76e3d5	0.24110349
173	0xbee4e7ed	-0.44708195
174	0xbedc6b70	-0.43050718
175	0x3e78517a	0.24249831
176	0x3e27c2c3	0.1638289
177	0x3c2f4f26	0.010700023
178	0x3e27665c	0.16347641
179	0xbd9cfedc	-0.07665798
180	0x3f4746a1	0.77842146
181	0x3d6a24b6	0.057163917
182	0x3e2b4c4a	0.1672832
183	0x3cc27efd	0.023742193
184	0x3d747e4c	0.05969076
185	0x3d888686	0.06666283
186	0x3b0dc715	0.0021633555
187	0x3d9fe5fe	0.078075394
188	0xbd21eeae	-0.039534263
189	0x3c1e2f9a	0.009654904
190	0x3ec17a20	0.37788486
191	0xbf1f37fe	-0.6219481
192	0x3fafde4e	1.3739717
193	0xbedfab87	-0.43685552
194	0x3d1d04fd	0.038334835
195	0xbfab73a8	-1.339467
196	0x3d0c75fd	0.03429221
197	0xc01e9e96	-2.4784293
198	0xbd5e1903	-0.05422307
199	0xbf6dec2b	-0.9293849
200	0x3f1fcaa4	0.6241858
201	0x3ea7d392	0.32778603
202	0xbf344045	-0.7041057
203	0x3ea8c1c0	0.3296032
204	0x3cb05c81	0.021528484
205	0xbe586fdf	-0.21136425
206	0xbe92a256	-0.28639477
207	0x3eb454fc	0.35221088
208	0xbe4b2b3a	-0.19840708
209	0xbe4a376d	-0.19747706
210	0x3dbb705a	0.09152289
211	0xbdae60c5	-0.08514551
212	0x3e877597	0.264569
213	0xbe04c5f8	-0.12966144
214	0xbd6077e6	-0.054801844
215	0x3cdc84df	0.026918827
216	0xbce96d16	-0.028494399
217	0x3c1d5911	0.009603755
218	0x3d6ceede	0.05784499
219	0x3d8a1ba6	0.06743555
220	0x3c647d00	0.013945818
221	0xb9092344	-0.00013078476
222	0xbc705ee4	-0.014671061
223	0x3e2eb798	0.17062223
224	0x3db1667b	0.08662125
225	0x3f939a10	1.1531391
226	0x3f114ded	0.5675953
227	0x3c72d164	0.01482043
228	0xbf8a8c60	-1.0824089
229	0xbcdfcce7	-0.027319385
230	0x400dc448	2.215105
231	0xbef33467	-0.47500917
232	0x3cd34d8e	0.025793817
233	0x3f1ae73c	0.60509086
234	0xbe07a46e	-0.13246319
235	0xbe5cca44	-0.21561533
236	0xb8ce4c4a	-9.8370554e-05
237	0xb995ddbc	-0.000285847
238	0xbcbea1e9	-0.023270564
239	0xbeaae8f4	-0.33380854
240	0xbe99a256	-0.30006665
241	0xbeb2a8c0	-0.3489437
242	0xbdcd91c7	-0.100375704
243	0x3e4cbbd5	0.19993527
244	0x3dd0a3cd	0.101874925
245	0xbe2c2674	-0.16811544
246	0xbf014ecc	-0.5051086
247	0x3e024ee4	0.12725407
248	0xbb7a670d	-0.0038208396
249	0xbd94a252	-0.07257523
250	0xbdd9a648	-0.10627419
251	0xbe26253d	-0.16225143
252	0x3d88a879	0.066727586
253	0xbc459387	-0.012059099
254	0x3e9dac04	0.307953
255	0xbde55b2f	-0.111990325

fcs1.bias f4 [400]
0	0xbfa48746	-1.2853782
1	0xbf14617c	-0.5796125
2	0xbbfaafce	-0.007650352
3	0xbfa599bf	-1.2937545
4	0xbfe5bd4c	-1.7948394
5	0xbfbe9224	-1.4888349
6	0xbfa0960c	-1.2545791
7	0x3f422bb9	0.75847965
8	0xbff7ec0d	-1.9368912
9	0xbff7e4bb	-1.9366678
10	0xbf6c96c9	-0.9241758
11	0xbfe31bba	-1.7742836
12	0xbfcca890	-1.5988941
13	0xbf751ada	-0.957441
14	0xbfbdc11c	-1.4824557
15	0xbf834295	-1.0254694
16	0xbfeeb0c4	-1.8647695
17	0xbf897d93	-1.0741447
18	0xbf97f212	-1.1870749
19	0xbfb87ea7	-1.4413651
20	0xbfae9baf	-1.3641261
21	0xbfaa2253	-1.3291725
22	0xbf71573f	-0.9427375
23	0xc0058ff7	-2.086912
24	0xbfaeb04e	-1.3647554
25	0xc0003d73	-2.0037506
26	0xbf9a4fab	-1.2055563
27	0xbfb6f2cc	-1.4292846
28	0xbff34aa7	-1.9007157
29	0xbff4685a	-1.9094346
30	0xc003fc76	-2.062284
31	0xbe2e823b	-0.17041866
32	0xbfd2b394	-1.6461053
33	0xbf7c4939	-0.9854923
34	0xbf95eb71	-1.1712476
35	0xbf44071e	-0.7657336
36	0xbfdb183d	-1.7116772
37	0xbff81a84	-1.9383092
38	0xbf85fe42	-1.0468218
39	0xbfa5370d	-1.2907425
40	0xbf170409	-0.5899053
41	0xbe926918	-0.28595805
42	0xbff2dd55	-1.8973795
43	0xbf141c1b	-0.57855386
44	0xbfb5ef3a	-1.4213631
45	0xbf0f52e2	-0.55985844
46	0xbfaa0c56	-1.3285015
47	0xbfc1eeb1	-1.5150968
48	0xbffffaf3	-1.9998459
49	0xc0042125	-2.064523
50	0xbfc64bdc	-1.54919
51	0xbf708650	-0.93954945
52	0xbfe7eab8	-1.8118505
53	0xbf86b307	-1.0523385
54	0xbfb0336e	-1.3765695
55	0xbf983a81	-1.1892854
56	0xbe1d7984	-0.15378386
57	0xbfc1634f	-1.5108432
58	0xbf96dfb8	-1.1787024
59	0xbf6e508e	-0.93091667
60	0xc019b4c5	-2.4016583
61	0xbfaf7162	-1.3706477
62	0xbf48c9e2	-0.7843305
63	0x3e8e8f7e	0.2784385
64	0xbf803ec1	-1.0019151
65	0xbfbd2a3c	-1.4778514
66	0xbfadaea2	-1.3568919
67	0xbe6fa914	-0.23404342
68	0xbfb15518	-1.3854094
69	0xbf9f214e	-1.2432039
70	0xbfc11616	-1.5084865
71	0xbec22bdb	-0.37924084
72	0xbf8f6ea4	-1.120564
73	0xbfa823db	-1.3135942
74	0xbfa4eb52	-1.2884314
75	0xc004b7c1	-2.0737154
76	0xbf92042d	-1.1407524
77	0xbfc1cbe9	-1.5140353
78	0xbf39ac86	-0.72528875
79	0xbfe7465b	-1.8068346
80	0xbf6e025c	-0.9297235
81	0xbf98921e	-1.1919591
82	0xbfad13b9	-1.3521644
83	0xbfefaaf0	-1.8724041
84	0xbfcf184f	-1.6179293
85	0xbdb1087e	-0.08644198
86	0xbfe65cd8	-1.7997084
87	0xbf210433	-0.6289703
88	0xbf9a8542	-1.2071917
89	0xbfc2e12e	-1.5224969
90	0xbf50a50c	-0.8150184
91	0xbffe0a42	-1.984688
92	0xbfcb6a71	-1.5891858
93	0xbfec9205	-1.8482062
94	0xbfadcce7	-1.3578156
95	0xbfd54340	-1.6661148
96	0xbf9a5909	-1.2058421
97	0xbf8e290a	-1.1106274
98	0xbfd1259c	-1.6339602
99	0xbfdb808b	-1.7148603
100	0xbfd4d54f	-1.6627597
101	0xbf68f237	-0.9099459
102	0xbf833059	-1.024913
103	0xbe73864b	-0.23781697
104	0xbf918ea4	-1.1371655
105	0xbf827627	-1.0192307
106	0xbe99767e	-0.29973215
107	0xbfe3f328	-1.780858
108	0xbfe4bb15	-1.7869593
109	0xbf5fa032	-0.87353814
110	0xbf901d4b	-1.125894
111	0xbe434ae5	-0.19071539
112	0xbff56f75	-1.9174639
113	0xbf87fc10	-1.0623798
114	0xbf213f48	-0.62987185
115	0xbfa7ab1e	-1.3099096
116	0xbf9226bf	-1.1418074
117	0xc007b83d	-2.12062
118	0xbfc0dc30	-1.5067196
119	0xbfa6dec5	-1.3036734
120	0xbffa783e	-1.9567945
121	0xc001759d	-2.0228035
122	0xbf421e4d	-0.75827485
123	0xbff1a542	-1.8878558
124	0xc0041778	-2.0639324
125	0xbfc0e2a5	-1.5069166
126	0xbf8fb570	-1.1227245
127	0x3ea4f654	0.32219183
128	0xbfbe73c5	-1.487908
129	0xbf009403	-0.5022585
130	0x3e1cfe4a	0.15331379
131	0xbf2cf7f5	-0.6756585
132	0xbf9d0b77	-1.2269124
133	0xbfd43839	-1.6579658
134	0xbfc40c57	-1.5316266
135	0xbfda89b4	-1.7073274
136	0xbfad970f	-1.3561724
137	0xbfb30235	-1.3985049
138	0xbfe2c184	-1.7715306
139	0xbf28e3b5	-0.65972453
140	0xbfc62892	-1.5481131
141	0xbf8126cd	-1.0089966
142	0xbfb3dfbe	-1.4052656
143	0xbf6ff8d1	-0.9373904
144	0xbfb2ea12	-1.3977683
145	0xbf67a6f9	-0.90489155
146	0xbfc39e7b	-1.5282739
147	0xbff7f8dc	-1.9372821
148	0xc02643bd	-2.5978844
149	0xbfae2c89	-1.3607341
150	0xc01623f3	-2.3459442
151	0xbfd959be	-1.6980512
152	0xbf7e8566	-0.994223
153	0xbfbf024f	-1.492258
154	0xbfbc66ea	-1.4718907
155	0xbfdf81a0	-1.7461433
156	0xc00ce449	-2.2014334
157	0xbfaefd78	-1.3671103
158	0xbf9d9027	-1.2309617
159	0xbfcc61a1	-1.5967294
160	0xbfe53b7a	-1.7908776
161	0xbfd7c49f	-1.6856879
162	0xbfb6b576	-1.4274127
163	0xbf3f90a2	-0.7483007
164	0xbf0c5dd9	-0.548307
165	0xbfcd959f	-1.6061286
166	0xbfeb0958	-1.8362226
167	0xbf553bb0	-0.832942
168	0xbfb029b4	-1.3762727
169	0xbfa1fe46	-1.2655723
170	0xbf855075	-1.0415179
171	0xbf91060d	-1.1329972
172	0xbfe7a91c	-1.8098483
173	0xbf37224f	-0.71536726
174	0xbfe55650	-1.7916965
175	0xbf8466d6	-1.0343883
176	0xbfd37f21	-1.6523172
177	0xbfb6a426	-1.4268844
178	0xc010479c	-2.2543707
179	0xbfd4b73b	-1.6618418
180	0xc00295e7	-2.0403993
181	0xbfacac6a	-1.3490117
182	0xbf8deb5d	-1.1087452
183	0xbfb7341a	-1.4312775
184	0xbfc87d2a	-1.5663197
185	0xbfb9563e	-1.4479444
186	0xbf086f28	-0.5329461
187	0xbfb17812	-1.3864768
188	0xbf9b533b	-1.2134775
189	0xbfaf7c5a	-1.3709824
190	0xbfc04702	-1.502167
191	0xbed87122	-0.42273813
192	0xbf8e90ac	-1.11379
193	0xbfb74df4	-1.4320664
194	0xbf50c077	-0.8154368
195	0xbfe827f9	-1.8137199
196	0xbfcecd34	-1.6156373
197	0xbfc8d1e6	-1.5689056
198	0xbfbb46ed	-1.463102
199	0xbfc639f5	-1.5486437
200	0xbff5fa57	-1.9217023
201	0x3e6a0293	0.22852544
202	0xbf51d8ff	-0.81971735
203	0xbf87e54f	-1.0616854
204	0xc01eaa61	-2.479149
205	0xbfb06abf	-1.3782576
206	0xbf6eea77	-0.93326515
207	0xbf998079	-1.1992332
208	0xbf66a58a	-0.9009634
209	0xbe39ed0a	-0.1815683
210	0xbff89c52	-1.9422705
211	0xbf9f9ed3	-1.2470344
212	0xbf94a2c9	-1.1612178
213	0xbfb9cc32	-1.451544
214	0xbfe3d845	-1.7800375
215	0xbf26a71f	-0.65098757
216	0x3f110ec9	0.56663185
217	0x3f898ad1	1.0745488
218	0xbfc99e86	-1.5751503
219	0xbf929182	-1.1450655
220	0xbfca9027	-1.5825242
221	0xbf68977e	-0.9085616
222	0xc0077e7c	-2.117095
223	0xbf8b36a5	-1.0876051
224	0xbf2a19d0	-0.66445637
225	0xbfabb39f	-1.3414191
226	0xbfa8346b	-1.3140997
227	0xbfdb6f0b	-1.7143263
228	0xc004bef9	-2.074156
229	0xbfa2e79e	-1.2726934
230	0xbfca7654	-1.5817361
231	0xbfbe2761	-1.4855767
232	0xbf7ec148	-0.99513674
233	0xbf9efdef	-1.2421244
234	0xbf505d8e	-0.81392753
235	0xbfccb536	-1.5992801
236	0xbf8f8458	-1.1212263
237	0xbfff7917	-1.9958829
238	0xbff1bbdc	-1.8885455
239	0xbf2fd188	-0.68679094
240	0xbfe21dfa	-1.7665398
241	0xc0137924	-2.3042688
242	0xbfa2b719	-1.2712127
243	0xbfaa044c	-1.3282561
244	0xbfc289d6	-1.5198314
245	0xbfa7e71b	-1.3117403
246	0xbf8802e9	-1.0625888
247	0xbf9b6c24	-1.2142377
248	0xbf1523b7	-0.5825762
249	0xbf855464	-1.0416379
250	0xbfb73ed5	-1.431605
251	0xbfb7bb39	-1.4354011
252	0xbfb6e320	-1.4288063
253	0xbfe79c9c	-1.8094668
254	0xc002e2bd	-2.045089
255	0xbfaa4f48	-1.3305445

fc2.weight f4 [300, 404]
0	0xbc131eb5	-0.008979489
1	0xbdace942	-0.08442928
2	0xbd8dbb72	-0.06920518
3	0xbd27cce8	-0.0409669
4	0xbcbf240e	-0.023332622
5	0xbd5835d8	-0.052785724
6	0xbc7c59e0	-0.015402287
7	0xbd8b6ec7	-0.068082385
8	0x3d1bba2c	0.038019344
9	0xbe10e6c8	-0.14150536
10	0xbd7fc066	-0.062439345
11	0xbe1073c6	-0.14106664
12	0x3d4d93d1	0.050189797
13	0xbd56e95c	-0.052468643
14	0xbd482a15	-0.048868258
15	0xbd421feb	-0.04739372
16	0x3da81790	0.08207619
17	0xbbd97fbe	-0.0066375425
18	0x3c826086	0.015915167
19	0x3cf17ce3	0.029478496
20	0x3d13c539	0.036076758
21	0xbc75997c	-0.014990207
22	0xbdf7552b	-0.120767914
23	0xbd8e8f72	-0.06960954
24	0x3cac730c	0.021050952
25	0xbde9c72b	-0.114149414
26	0x3b26bcc0	0.0025442094
27	0xbdbdbb70	-0.092642665
28	0xbd6dade4	-0.058027163
29	0x3c9c3b8f	0.019071369
30	0x3c32bd9b	0.010909463
31	0xbd2d06b1	-0.04224271
32	0xbce6161c	-0.028086714
33	0xbc742ab4	-0.014902759
34	0x3d2de2c4	0.04245259
35	0xbca168e0	-0.019703329
36	0xbd4ce951	-0.050027195
37	0xbc1fc730	-0.00975208
38	0xbddacb83	-0.10683348
39	0xbd042857	-0.032265034
40	0x3c88b83b	0.01668941
41	0xbe0dd979	-0.1385249
42	0xbe13ecb0	-0.14445758
43	0xbce62377	-0.028093083
44	0xbc9b9356	-0.018991154
45	0xbc8fb42c	-0.017541967
46	0xbcab1e4e	-0.020888474
47	0xbdbcde59	-0.09222097
48	0x3c21b57f	0.009869932
49	0xbbf6de25	-0.007533806
50	0xbdb64e93	-0.089017056
51	0xbd08bc56	-0.033382736
52	0xbd9832d1	-0.074315675
53	0xbd579fed	-0.05264275
54	0x3d0d997c	0.034570202
55	0xbe27ace6	-0.1637455
56	0x3c9bf90b	0.019039651
57	0xbdfc4bf1	-0.12319172
58	0xbddfaac2	-0.10921241
59	0xbdb2197e	-0.086962685
60	0xbd216add	-0.039408553
61	0xbe10235d	-0.1407599
62	0xbdbaed15	-0.09127251
63	0xbe11b5aa	-0.14229456
64	0x3dcc2914	0.099687725
65	0x3c8bdfb0	0.017074436
66	0xbd80f5ad	-0.06296859
67	0xbceaeed8	-0.028678343
68	0x3d22fc4b	0.039791387
69	0xbdb9f7ba	-0.09080453
70	0x3b5aeaae	0.003340404
71	0xbd8a92bd	-0.06766269
72	0xbd19d68b	-0.03755812
73	0xbdb41e80	-0.0879488
74	0xbd07dcec	-0.033169672
75	0xbccdabc7	-0.025106324
76	0xbde10d22	-0.10988833
77	0xbe01450b	-0.12623994
78	0xbdbc868d	-0.09205351
79	0xbd0cc24f	-0.034364995
80	0xbdb835df	-0.0899465
81	0xbd081f1c	-0.033232793
82	0xbd41c4c8	-0.047306806
83	0xbdc7e966	-0.09761314
84	0xbe05dee5	-0.13073309
85	0xbd03111e	-0.031998746
86	0x3b27f680	0.0025629103
87	0xbddd5ed9	-0.108091064
88	0x3ae5426a	0.0017491106
89	0xbd71724d	-0.058946896
90	0xbd0cbcb5	-0.034359653
91	0xbd092333	-0.033480834
92	0x3bba0cb4	0.005677784
93	0xbdf4a281	-0.11945058
94	0xbdd1eabd	-0.10249851
95	0xbc9147e0	-0.017734468
96	0xbdf329c8	-0.118732035
97	0xbd9aa813	-0.07551589
98	0xbd33df1e	-0.043913953
99	0xbc604403	-0.01368809
100	0xbcd964a6	-0.02653725
101	0xbdb39fa8	-0.087706864
102	0xbdeb5ba6	-0.1149209
103	0x3d0b2b29	0.033976708
104	0xbd071db6	-0.03298732
105	0xbdb7f52f	-0.08982312
106	0xbd845721	-0.06461931
107	0xbde7ca21	-0.1131785
108	0xbd113323	-0.03544916
109	0xbd522f8f	-0.051314887
110	0x3d495a1a	0.049158193
111	0xbd9e265d	-0.07722161
112	0xbd0b8dc5	-0.03407075
113	0xbdfa96de	-0.12235807
114	0xbe134001	-0.14379884
115	0xbd87377c	-0.0660238
116	0xbdb1b3a8	-0.08676845
117	0xbd9c817a	-0.07641883
118	0xbd9eda36	-0.07756464
119	0xbdad8529	-0.08472664
120	0xbd0b6cfa	-0.034039475
121	0xbd49c66e	-0.049261503
122	0x3bbcce37	0.0057618874
123	0x3c44897b	0.0119956685
124	0xbbd1cdae	-0.0064026928
125	0xbbdcf7ba	-0.0067433985
126	0xbd3e9908	-0.04653266
127	0x3b91af15	0.00444592
128	0xbca3d366	-0.019998264
129	0xbe0dfce5	-0.13866003
130	0xbd23659f	-0.039891835
131	0xbd0bab99	-0.034099195
132	0x3d63d740	0.0556252
133	0xbdd915fa	-0.10599895
134	0x3da64664	0.08118895
135	0xbca62359	-0.020280527
136	0xbd7f8702	-0.062384613
137	0x3d26d856	0.040733658
138	0xbd32a59a	-0.04361496
139	0xbda0981b	-0.07841512
140	0xbdced040	-0.10098314
141	0x3d2d618c	0.042329356
142	0xbd5c2e74	-0.05375524
143	0xbddc2a66	-0.10750274
144	0x3b15c5f4	0.0022853585
145	0xbe32107a	-0.17389098
146	0xbcb92bc2	-0.022603873
147	0xbc6a7bc0	-0.014311731
148	0x3c886b74	0.0166528
149	0xbd824149	-0.063601084
150	0xbc3a3067	-0.011364079
151	0xbcd3dc0e	-0.025861766
152	0xbd247725	-0.040152688
153	0xbd931da4	-0.07183388
154	0x3c584166	0.013199186
155	0xbd0622f8	-0.032748193
156	0xbd5f477a	-0.054511525
157	0xbe21d3cd	-0.15803452
158	0xbcd9803c	-0.026550405
159	0x3cd87660	0.026423633
160	0x3c0a26db	0.008432115
161	0x3d8101ce	0.06299172
162	0xbd88e0a2	-0.0668347
163	0xbdb5f14d	-0.08883915
164	0xbdb2ebc1	-0.08736373
165	0x3cac9d40	0.021071076
166	0xbc5ddc97	-0.013541362
167	0xbdca63bf	-0.09882306
168	0xbca3ac63	-0.019979661
169	0xbc29d43e	-0.010365544
170	0xbd0c9bea	-0.03432838
171	0xbd8b1bfc	-0.06792447
172	0xbd56bf4a	-0.05242852
173	0xbd235500	-0.039875984
174	0xbc115ecd	-0.0088727
175	0xbcdc6b79	-0.026906716
176	0x3d78c84c	0.060737893
177	0x3d84a7b7	0.064773016
178	0xbd5dffb6	-0.054198943
179	0x3d26c664	0.040716544
180	0xbc7ce851	-0.015436248
181	0x3d0789c3	0.033090364
182	0xbcc72a51	-0.02431217
183	0xbd6e0ad9	-0.058115814
184	0x3db5b5c4	0.0887256
185	0xba1d3fc8	-0.0005998579
186	0x3bfadb27	0.0076555195
187	0xbddb975b	-0.10722228
188	0x3caa7b09	0.02081062
189	0x3c8f4fd6	0.017494123
190	0xbe1096fc	-0.14120096
191	0x3c187293	0.00930466
192	0xbd2e7a10	-0.042596877
193	0xbd353b07	-0.044245746
194	0x3ce11fac	0.027480923
195	0x3dd22aac	0.10262045
196	0x3bd7938b	0.006578868
197	0xbd955dd5	-0.07293288
198	0xbd8cea4b	-0.06880625
199	0x3d242501	0.040074352
200	0x3e06a567	0.13149033
201	0xbcb9871c	-0.022647433
202	0xbd56dafd	-0.052454937
203	0x3cb9d694	0.022685327
204	0xbd3f4198	-0.046693414
205	0xbd55176d	-0.052024294
206	0xbe080d9b	-0.1328644
207	0xbbbb1950	-0.0057098046
208	0xbe331b71	-0.17490937
209	0x3c3d37e2	0.011548968
210	0x3dda2225	0.10651044
211	0xbdce3801	-0.10069276
212	0x3d0f9662	0.035055526
213	0xbd9f4666	-0.07777099
214	0x3bda4bd9	0.006661874
215	0xbe11f7a3	-0.14254622
216	0xbcd048a3	-0.02542526
217	0xbc2a21ef	-0.010384067
218	0xbda85a51	-0.082203515
219	0xbd0cbe73	-0.034361314
220	0xbd07863b	-0.033086997
221	0xbdae73bf	-0.085181706
222	0xbd7f3b61	-0.062312488
223	0xbd1748c7	-0.03693464
224	0xbd06b865	-0.032890696
225	0xbcd50697	-0.026004119
226	0x3c76b9e0	0.0150589645
227	0xbda09f8d	-0.07842932
228	0x3b99f020	0.0046978146
229	0xbc7627f5	-0.015024175
230	0xbd195eb2	-0.037443824
231	0xbdb51342	-0.08841564
232	0xbb18960c	-0.0023282794
233	0xbd516b6b	-0.051127832
234	0xbe1cf083	-0.15326123
235	0x3bf02765	0.007328915
236	0xbd2aae5f	-0.0416702
237	0xbd99761f	-0.07493233
238	0x3c19993d	0.009374914
239	0xbd8efab4	-0.069814116
240	0xbccb60b7	-0.02482639
241	0xbce54711	-0.027987989
242	0x3c078527	0.008271492
243	0xbdbb357f	-0.09141063
244	0xbd43898f	-0.047738608
245	0xbbfd1b15	-0.0077241757
246	0xbdb8a292	-0.09015383
247	0x3d98512d	0.07437358
248	0xbcd3aa37	-0.025838
249	0xbe15a041	-0.14611913
250	0x3c1ecaa0	0.009691864
251	0xbd16b521	-0.03679383
252	0xbdd2cde1	-0.102931745
253	0xbdeacb76	-0.11464588
254	0xbc94ae8c	-0.018149637
255	0xbdae0879	-0.0849771

fc2.bias f4 [300]
0	0xbe08d8fb	-0.13364021
1	0xbbe466e0	-0.0069702715
2	0xbdeb9390	-0.11502755
3	0xbdc1746c	-0.09446034
4	0xbca7d96c	-0.020489417
5	0xbd8c6bee	-0.068565235
6	0xbcd73b30	-0.02627334
7	0xbe07c57d	-0.1325893
8	0xbce8e930	-0.028431505
9	0xbdb08cd2	-0.08620609
10	0xbc2c0a1c	-0.010500457
11	0xbcdc4ca8	-0.026892021
12	0xbdee5349	-0.11636979
13	0xbd3364bb	-0.043797236
14	0x3f8411a6	1.0317886
15	0xbe0bd8b8	-0.1365689
16	0xbda213f4	-0.07913962
17	0xbe1c74cf	-0.15278934
18	0xbda6d127	-0.081453614
19	0xbd8fb304	-0.070165664
20	0xbc2345e8	-0.009965397
21	0xbf811b8a	-1.0086529
22	0xbdaad453	-0.08341279
23	0xbdd37779	-0.10325522
24	0xbdbaf43f	-0.091286175
25	0x4007f122	2.1240926
26	0xbde8dacf	-0.113698594
27	0xbd5a40a3	-0.0532843
28	0xbccc80b2	-0.02496371
29	0xbd832546	-0.06403594
30	0x3fe02d20	1.7513771
31	0xbddcae35	-0.10775415
32	0xbde754a9	-0.112954445
33	0xbdde7aae	-0.10863243
34	0xbd658ae6	-0.056040667
35	0xbdabd07e	-0.08389376
36	0xbcb9ec34	-0.022695638
37	0xbdefaabf	-0.11702489
38	0xbde0d0ba	-0.109773114
39	0xbdb6cde6	-0.08925991
40	0xbdf74321	-0.12073351
41	0xbe0866c1	-0.13320448
42	0xbd8022fc	-0.06256673
43	0x3f0bfce0	0.5468273
44	0xbd7c1fc1	-0.06155372
45	0xbd9a0594	-0.07520595
46	0xbd9873d3	-0.07443967
47	0xbd48cb50	-0.04902202
48	0xbe84f121	-0.25965217
49	0xbd95b250	-0.07309401
50	0xbd48493f	-0.048897978
51	0xbda5a64b	-0.080883585
52	0xbcf31b62	-0.029676143
53	0xbd004f4c	-0.031325623
54	0xbdfe5346	-0.12418227
55	0xbc9fc65a	-0.019503761
56	0xbcc55639	-0.024088966
57	0xbd74d412	-0.05977256
58	0x3e2cc259	0.16871013
59	0x3b91e15c	0.0044519138
60	0xbe157bac	-0.14597958
61	0xbe8f520f	-0.27992293
62	0xbe00b12e	-0.12567589
63	0xbcbebd3c	-0.023283593
64	0xbd2e8dfd	-0.04261588
65	0xbc1a3b3f	-0.009413539
66	0xbd5ca00b	-0.053863566
67	0xbe04b7c4	-0.12960726
68	0xbdce6535	-0.100778975
69	0xbd41dfc0	-0.047332525
70	0xbda25fcb	-0.07928427
71	0xbd643123	-0.055710923
72	0xbdf70892	-0.120621815
73	0xbbde1dc9	-0.006778453
74	0xbdedf393	-0.11618724
75	0xbda4ce48	-0.080471575
76	0xbdcf7d59	-0.1013133
77	0xbe240d6f	-0.1602075
78	0x3f5b6a03	0.85708636
79	0xbcf996a6	-0.030467343
80	0x3ed16f5e	0.4090528
81	0xbd1945e0	-0.037420154
82	0xbd4500c9	-0.048096452
83	0xbd94e63d	-0.07270477
84	0xbdec0944	-0.11525205
85	0xbdee709d	-0.11642573
86	0xbd99e590	-0.07514489
87	0xbd2f6e7f	-0.042829987
88	0xbd88410f	-0.06653034
89	0xbe024208	-0.12720501
90	0xbdb1e327	-0.08685904
91	0xbd7309d4	-0.059335545
92	0xbd4c5484	-0.049885288
93	0xbdde0cb0	-0.10842264
94	0xbd3941a6	-0.045228623
95	0xbdd9d94a	-0.10637148
96	0xbd44e57e	-0.048070423
97	0xbda1a388	-0.07892519
98	0xbf86d3d4	-1.0533395
99	0xbdc0ec30	-0.09420049
100	0xbd961903	-0.07328989
101	0xbe0531d2	-0.13007286
102	0xbd1b4f90	-0.037917674
103	0xbcf53dc1	-0.029936673
104	0xbd94bfcd	-0.072631456
105	0xbf83b02a	-1.0288136
106	0xbf9a7ad5	-1.2068735
107	0xbdce763f	-0.100811474
108	0xbd8aa647	-0.06769996
109	0xbd1c9a39	-0.038233016
110	0x3c1989f9	0.009371274
111	0xbd08bdb2	-0.033384033
112	0xbe041a6e	-0.12900707
113	0xbdb7f75e	-0.089827284
114	0xbf5a11b3	-0.85183257
115	0xbda3978b	-0.07987889
116	0xbe1ffed4	-0.15624553
117	0xbd43699d	-0.047708143
118	0x3fc3e12d	1.5303093
119	0xbcc6d2fa	-0.024270523
120	0xbdff368b	-0.12461575
121	0xbd877ba3	-0.06615379
122	0x3c85a8b2	0.016315792
123	0xbd6169ec	-0.055032656
124	0xbdc95e90	-0.098324895
125	0xbd0dbb46	-0.034602426
126	0xbd9c122d	-0.07620654
127	0xbdab9a8f	-0.08379089
128	0xbd34e292	-0.044161387
129	0xbe095754	-0.1341222
130	0xbd846199	-0.06463928
131	0xbcc800d7	-0.024414463
132	0xbd2eaf32	-0.042647548
133	0xbd2ef873	-0.04271741
134	0xbde7b6b2	-0.11314143
135	0xbd618560	-0.055058837
136	0xbdfd74e1	-0.123758085
137	0xbde13cc7	-0.109979205
138	0xbe5bf7ef	-0.21481298
139	0xbde6eee4	-0.112760335
140	0xbd7871d5	-0.060655434
141	0xbd82a72f	-0.06379544
142	0xbe2d931b	-0.16950648
143	0xbd3baaba	-0.045817114
144	0xbd310e22	-0.04322637
145	0xbde7a3fd	-0.11310575
146	0xbd885016	-0.066559
147	0xbdf194ed	-0.117959835
148	0xbde96cac	-0.11397681
149	0xbd636db8	-0.055524558
150	0xbe11daca	-0.14243618
151	0xbd2789c2	-0.04090286
152	0xbf88c849	-1.0686122
153	0xbe143345	-0.14472683
154	0xbdac1cdb	-0.08403941
155	0xbe24b128	-0.16083205
156	0xbddf518a	-0.10904224
157	0xbcdee9a2	-0.027211014
158	0xbde39f8c	-0.111144155
159	0xbf56c1f2	-0.8388969
160	0xbdf67c29	-0.120354004
161	0xbde9a991	-0.11409295
162	0xbd2992ae	-0.04139965
163	0xbdeb37b0	-0.11485231
164	0xbded7afc	-0.11595723
165	0x3f5f87de	0.8731669
166	0xbdcb02a4	-0.09912613
167	0xbd5ccf5c	-0.05390869
168	0xbdd4b3a5	-0.10385827
169	0xbdbf057a	-0.093272164
170	0xbd0e6393	-0.03476293
171	0xbd6b7c5f	-0.057491656
172	0xbd36c9a8	-0.044625908
173	0xbe6f2d7c	-0.23357195
174	0xbde741fb	-0.11291882
175	0xbd833863	-0.06407239
176	0xbdd43aa5	-0.10362748
177	0xbd20f53f	-0.039296385
178	0xbcf72307	-0.03016807
179	0xbdccae5a	-0.099941924
180	0xbf872d64	-1.0560727
181	0xbdb0158a	-0.08597858
182	0xbe71dd43	-0.23619561
183	0xbdcfb6d0	-0.101422906
184	0x3f96da28	1.1785326
185	0xbc829032	-0.015937898
186	0xbd3fb8e2	-0.046807177
187	0xbe0a8d52	-0.13530472
188	0xbddc431e	-0.10754989
189	0xbd8ceeca	-0.06881483
190	0xbd1cf04b	-0.0383151
191	0xbd3deb6a	-0.046367086
192	0xbd36ae91	-0.044600073
193	0xbd17fa3a	-0.03710387
194	0xbd9b563d	-0.07584808
195	0xbd16ecba	-0.036846854
196	0xbe06ea9d	-0.13175435
197	0xbd859647	-0.06522804
198	0xbdc6eba9	-0.09712917
199	0xbd552ba3	-0.05204357
200	0xbd7e9572	-0.06215424
201	0x3f5f8a33	0.8732025
202	0xbd7e198c	-0.062036082
203	0xbd829dd2	-0.06377758
204	0xbdf6de75	-0.12054149
205	0xbdad1db1	-0.08452929
206	0xbe159f31	-0.14611508
207	0xbd8f7d0a	-0.07006271
208	0xbccc5086	-0.02494074
209	0xbd751fe4	-0.059844866
210	0xbded476e	-0.1158589
211	0xbcd34021	-0.025787415
212	0xbd829594	-0.06376186
213	0xbd900870	-0.07032859
214	0xbde86f18	-0.113493145
215	0xbde292b2	-0.11063136
216	0xbda49486	-0.08036141
217	0xbe13875e	-0.14407107
218	0xbdd47765	-0.10374335
219	0xbc8cdc8b	-0.017195007
220	0xbd92b8e8	-0.07164174
221	0xbddccb5e	-0.10780977
222	0xbe0ecec4	-0.13946062
223	0xbdc65f7a	-0.096861795
224	0x3f837dc1	1.0272752
225	0xbd50ff30	-0.051024616
226	0xbdbe8d2f	-0.093042724
227	0xbd8858c9	-0.066575594
228	0xbdb6b4d6	-0.089212105
229	0xbd914c2e	-0.07094608
230	0xbdbe7684	-0.09299949
231	0xbccf4d28	-0.025305346
232	0xbc0028fc	-0.007822271
233	0xbd55eacc	-0.052225873
234	0x3c17d81a	0.009267831
235	0x3f537145	0.8259471
236	0xbdef7934	-0.116930395
237	0xbcfa3025	-0.030540535
238	0xbdaad20c	-0.083408445
239	0xbdda367a	-0.10654922
240	0xbdf1d10e	-0.11807452
241	0xbd3cdf9a	-0.04611168
242	0xbd1bb963	-0.038018595
243	0xbc57ecdc	-0.01317903
244	0xbdd0f3d9	-0.1020276
245	0xbd878057	-0.06616276
246	0x3f935cd3	1.1512703
247	0xbd17d650	-0.03706962
248	0xbd4e9890	-0.050438464
249	0xbd6b3adb	-0.057429176
250	0xbd897e0f	-0.06713497
251	0xbdb01b3f	-0.08598947
252	0xbd926dc4	-0.071498424
253	0xbd20488e	-0.039131694
254	0xbd6fdfec	-0.058563158
255	0xbdce0768	-0.100600064

fc3.weight f4 [1, 300]
0	0x3a33f8e3	0.0006865395
1	0xbb32c1be	-0.0027276124
2	0x3cd94149	0.026520388
3	0xbcdd38fc	-0.027004711
4	0xbc96be79	-0.018401371
5	0x3c950df1	0.018195124
6	0x3be2653c	0.0069090407
7	0x3a6044c6	0.000855517
8	0x3cb2b191	0.021813186
9	0xbcdc3710	-0.026881725
10	0x3c96744f	0.018366007
11	0xbc7f824e	-0.015595032
12	0x3c88d911	0.016705068
13	0x3bf81c68	0.0075717457
14	0x3ca58b7e	0.020208117
15	0xbaa760b9	-0.0012769914
16	0x3bd1aea2	0.0063989917
17	0xbc8b60a9	-0.017013865
18	0xbcb5bb68	-0.022184089
19	0x3b7e2220	0.0038777664
20	0xbcbfd013	-0.023414647
21	0xbc254164	-0.010086391
22	0x396980c6	0.00022268583
23	0xbc171bbe	-0.009222923
24	0xbc5ca8cd	-0.01346798
25	0x3d0e1895	0.034691412
26	0xbcb9cfa9	-0.022682028
27	0x3c383031	0.0112419585
28	0x3caf5975	0.021404961
29	0x3b8cbae6	0.004294741
30	0x3cc4175d	0.023936922
31	0xbb798e7c	-0.0038079312
32	0xbc95918f	-0.018257884
33	0x3b098998	0.0020986553
34	0xbb731840	-0.0037093312
35	0x3a955585	0.0011393285
36	0x3c21df6d	0.009879929
37	0xbc1c6f21	-0.00954798
38	0x3c933a9d	0.017972285
39	0xbc8a0bd0	-0.016851336
40	0x3c9902cd	0.018678093
41	0x3c3ab801	0.011396409
42	0x3b1f5f51	0.0024318288
43	0x3cbb0c4a	0.022833008
44	0x3bf3c788	0.0074395575
45	0x3c8114a1	0.015756907
46	0xbac81c36	-0.0015267197
47	0xbc910809	-0.017704027
48	0xbcd88360	-0.026429832
49	0xbca83c8b	-0.020536682
50	0xbcdeb906	-0.027187835
51	0xbcaa7a1e	-0.020810183
52	0x3be57e29	0.007003565
53	0xbce1a64f	-0.027545122
54	0x3cbe973d	0.023265475
55	0xbbe17ed0	-0.0068815723
56	0x3cddd731	0.02708015
57	0xbc86be4d	-0.016448164
58	0x3cb6e1f0	0.022324532
59	0xbc00b54b	-0.007855724
60	0x3cbec17c	0.02328562
61	0xbce4512c	-0.027870737
62	0xbce968cd	-0.028492356
63	0x3cdf5ad0	0.027264982
64	0xbbc1d848	-0.0059156753
65	0xbcd09def	-0.025465934
66	0x39ca12ad	0.00038542357
67	0x3c9ced25	0.019156048
68	0xbc488d69	-0.012240746
69	0xb9aa33dd	-0.00032463568
70	0xbd0d203a	-0.03445456
71	0xbc3c4548	-0.011491127
72	0x3c5b0195	0.013367076
73	0xbba7cde7	-0.005120981
74	0xba2389bd	-0.0006238481
75	0x3a8d4ff1	0.0010781271
76	0x3c1abf98	0.009445094
77	0xbc83b0e8	-0.016075566
78	0x3c8022bd	0.015641565
79	0xbc5c9074	-0.013462175
80	0x3ce8a8f0	0.028400868
81	0xbc95fbcb	-0.01830854
82	0x3c3d05c4	0.011537019
83	0xbc8d1de0	-0.01722616
84	0xbcd77425	-0.0263005
85	0xbc625adc	-0.013815608
86	0x3c3c8dad	0.0115083875
87	0x3c483d3a	0.012221629
88	0x3cb111ce	0.021614935
89	0x3c90eaa1	0.017690005
90	0xba5bad00	-0.0008379966
91	0xb902fdcd	-0.00012492314
92	0xbb3eebac	-0.002913217
93	0xbc6ca7dc	-0.014444318
94	0xbccfaa08	-0.025349632
95	0x3bc62453	0.0060468107
96	0xbca01299	-0.019540118
97	0xbb2062d6	-0.0024472973
98	0xbca33fa7	-0.019927813
99	0xbab71ee8	-0.0013971003
100	0x3cc11112	0.02356771
101	0xbca5cd08	-0.020239368
102	0x3c778cf1	0.015109287
103	0x3c28fc3d	0.010314045
104	0xbcdeb07c	-0.027183764
105	0xbd16d6de	-0.036826007
106	0xbc482419	-0.012215638
107	0x3c54b32f	0.012982174
108	0x3cc93a47	0.024563922
109	0x3b883cb7	0.0041576284
110	0xbca27c2b	-0.019834599
111	0x3c928c67	0.017889215
112	0xbc35c0b5	-0.011093308
113	0xbcb04051	-0.021515043
114	0xbc2fdfa4	-0.010734472
115	0xbce0bbb4	-0.027433254
116	0xbbfb0b74	-0.0076612774
117	0x3c53bb40	0.012923062
118	0x3d073a8a	0.03301481
119	0xbcbef928	-0.023312166
120	0x3c14dca6	0.00908581
121	0xbc1dd660	-0.0096336305
122	0xbb9fc0fc	-0.0048753005
123	0x3cca5220	0.024697363
124	0xba067868	-0.0005129636
125	0xbb4c1a18	-0.0031143483
126	0x3bd98ee7	0.0066393497
127	0xbc98c106	-0.018646728
128	0x3c8dd92e	0.017315473
129	0xbcdf141a	-0.027231265
130	0x3bb64fc6	0.005563709
131	0xbca038ae	-0.019558277
132	0xbcb39421	-0.02192122
133	0xbc8be8fb	-0.017078867
134	0xbc403ae5	-0.011732792
135	0xbc7c10b9	-0.015384846
136	0x3c40a02c	0.011756938
137	0xbce89339	-0.028390514
138	0xbce51bb3	-0.02796731
139	0x3c8c20fe	0.017105576
140	0xbc11dc14	-0.008902568
141	0xbc33d266	-0.010975456
142	0xbc1300e0	-0.008972377
143	0xbb756ee0	-0.003745012
144	0xbcbf94bb	-0.02338635
145	0x3ca231d0	0.019799143
146	0xbc792d74	-0.015208591
147	0xbc133918	-0.00898578
148	0xbbae5734	-0.005320454
149	0xbb99c66f	-0.0046928446
150	0x3c71869f	0.014741569
151	0x3b30ebfe	0.002699613
152	0xbc030277	-0.007996193
153	0xbbe71efc	-0.007053254
154	0x3c2c1e1f	0.010505228
155	0xbceaae26	-0.028647494
156	0x3be82372	0.0070843035
157	0xbcd54bf0	-0.026037186
158	0x3cc75f18	0.024337336
159	0xbc88422f	-0.016633121
160	0xbc8e7bf1	-0.017393084
161	0xbbd9c7ad	-0.0066461177
162	0xbb253132	-0.0025206325
163	0x3bebbbc3	0.007194014
164	0xbc9e1c42	-0.019300584
165	0x3ca9c6cd	0.020724678
166	0x3b3fa454	0.0029242234
167	0xbbe75b3e	-0.0070604375
168	0xbb42566c	-0.0029653562
169	0x3cc7b96f	0.024380414
170	0x3b63fd8d	0.003478858
171	0xbbb16bef	-0.005414478
172	0xbcccac28	-0.024984434
173	0x3c67d0e5	0.014148925
174	0xbcf2d066	-0.029640388
175	0xbb1f9c34	-0.002435458
176	0xbbee1014	-0.0072651003
177	0x3c66cb49	0.014086553
178	0xbb48951a	-0.003060645
179	0xbbf70d59	-0.007539433
180	0xbc66d313	-0.01408841
181	0xbc04e7d3	-0.008111912
182	0x3b003033	0.001955998
183	0xbc6098e7	-0.01370833
184	0x3d07589d	0.033043493
185	0xbcab7427	-0.02092941
186	0x3cb1c0a9	0.021698313
187	0x3c700f08	0.014652021
188	0xbbc72f56	-0.006078641
189	0x3bc04556	0.0058676405
190	0xbcf1ccf1	-0.029516669
191	0x3cc93c21	0.024564805
192	0xbca9a169	-0.02070685
193	0xbcd2f55f	-0.025751768
194	0x3ca2b8a1	0.019863429
195	0x3c63e1ff	0.013908862
196	0xbcb32872	-0.021869872
197	0x3b402909	0.0029321334
198	0x3bff2aea	0.007787098
199	0x3cc4e248	0.02403368
200	0x3c81ab09	0.015828626
201	0x3c97feff	0.018554209
202	0x3cb66b61	0.022268
203	0x3aaa3720	0.0012986399
204	0xbc9475e8	-0.018122628
205	0x3b66169c	0.003510869
206	0x3cd780da	0.026306558
207	0xbbe4d5fa	-0.006983516
208	0x3b4bc819	0.003109461
209	0x3c36009a	0.011108542
210	0x3994c378	0.00028374395
211	0xbb736014	-0.0037136124
212	0x3cf4c2e2	0.029878084
213	0xbcb107e8	-0.021610215
214	0xbc2287c1	-0.009920062
215	0xbcad3c43	-0.0211469
216	0x3c07dc1c	0.008292224
217	0x3cebd448	0.028787747
218	0x3cd336b1	0.025782915
219	0x3c65d11c	0.014026906
220	0x3bc95e3d	0.0061452673
221	0xbccffc0d	-0.025388742
222	0xbd26efd1	-0.04075605
223	0xbc913ebc	-0.01773011
224	0x3d02a787	0.031898048
225	0xba55c386	-0.00081544404
226	0xbb524112	-0.0032082242
227	0x3ce2dd85	0.02769352
228	0xbcdc003a	-0.026855577
229	0xbcf8b871	-0.030361386
230	0x3ce4ac35	0.027914146
231	0xbad8829d	-0.0016518418
232	0x3cc3d24a	0.023903985
233	0xbbd0706f	-0.0063610594
234	0x3c14206b	0.009040932
235	0x3cbb1ff4	0.022842385
236	0xbca3953b	-0.01996862
237	0xbbae0a36	-0.005311276
238	0x3b841703	0.0040310635
239	0x3bc7f047	0.0061016413
240	0xbc0decdb	-0.008662428
241	0x3ca5d10f	0.020241288
242	0xbcca72a6	-0.024712872
243	0x3b0c6778	0.0021423977
244	0x3c443612	0.011975782
245	0xbc69db5b	-0.01427349
246	0x3ca4129e	0.020028409
247	0xbcf63dce	-0.030058768
248	0xbc4b8edb	-0.012424196
249	0x39bf6a89	0.00036509734
250	0xbc72d1cf	-0.01482053
251	0x3caba7bc	0.020954005
252	0x3bb2c66c	0.0054557826
253	0xbc339dd7	-0.010962925
254	0xbc07a480	-0.008278966
255	0x3ce0a4ee	0.027422395
