checkpoints/checkpoint_actor_3900.pth (torch, 542663 bytes, 6 tensors)

fc1.weight f4 [400, 33]
0.0060725277 0.22483991 -0.03546204 -0.07759717 0.15340126 0.00052900286 0.18331327 -0.19868562
-0.020600036 -0.15388803 -0.22026296 0.025671104 0.0017849472 0.003711551 0.0021209258 -0.006763818
0.050006256 0.007462299 -0.10846426 0.037085712 0.0416549 -0.10102749 -0.07176522 -0.08663847
-0.06327305 -0.048698723 -0.011032418 0.060158428 0.013552573 0.049657617 -0.06382772 -0.028602464
0.43598402 -0.26931453 -0.06535246 -0.031481847 -0.017566083 0.0010940363 -0.010962614 -0.047553778
0.06879822 0.08290759 -0.047182485 -0.110201575 0.022551617 -0.0054442845 0.01704489 0.08709678
0.011338121 0.018547535 -0.03380289 0.0007060324 0.0063081863 0.09457671 -0.03161777 0.036414694
-0.03870486 -0.006172044 -0.006058962 -0.10677375 0.008827844 0.025158126 -0.041183244 0.032188017
-0.011414509 0.41023755 0.17677581 0.06273564 -0.14923523 -0.03850033 0.059729137 0.023407776
0.07898546 0.015185225 0.051228836 0.038852353 0.06639578 -0.025299067 0.006765211 -0.040838867
0.0428857 0.06389375 0.066087656 0.053578645 -0.033160307 -0.011157863 0.052138735 0.064933725
0.009698745 -0.19758973 -0.0047002505 -0.074588194 -0.042763628 0.06555248 0.0386881 -0.034138605
-0.12704162 0.04606835 -0.7577763 -0.07127489 0.1868837 0.006293759 -0.031441826 0.06639491
0.05933523 -0.03550491 -0.0041583832 -0.0934389 -0.035237 -0.030916288 0.08355996 -0.063123345
0.09580424 0.038909234 0.03589219 0.0069162697 0.028949505 -0.049157012 0.004110606 -0.0030993477
-0.011157884 -0.027576849 0.05092751 0.06689346 0.018261533 -0.013656199 0.07243957 0.11879022
-5.0626695e-05 -0.11128061 -0.000518851 -1.0064603 0.22153907 0.25040394 0.32221776 -0.009320683
0.053798486 -0.06604031 -0.03844312 0.15032898 -0.103044994 -0.037704855 0.036836974 0.09913457
-0.06618884 -0.034666143 -0.06852111 -0.11802889 0.124161705 -0.006957523 0.111147754 -0.012709873
-0.085748434 0.085773095 -0.0057355193 -0.028812924 0.04537309 -0.05180014 -0.05601243 0.044114195
-0.08387123 -0.0379647 -0.06955609 -0.009385206 -0.098756 0.07722048 -0.05617831 0.11278665
0.10882281 -0.07513563 -0.009257634 -0.0844451 -0.095065966 -0.020173993 0.034564253 -0.046045996
0.019645542 -0.063911624 -0.16951169 0.24911593 -0.2223569 -0.072977796 0.0076413993 0.046177946
-0.024367942 -0.027769202 -0.064706616 0.10216384 0.005491003 0.11371263 -0.1305616 0.06905691
0.01853718 0.066937484 0.046912704 0.02719822 0.0009202771 -0.016014831 0.039515436 -0.0039508697
0.10705099 0.011572074 -0.083514065 0.045088924 0.072212845 -0.008750818 0.0382894 0.007846895
-0.015257204 -0.027143631 -0.064366825 -0.07634823 0.0007946347 -0.12742218 0.045928758 0.008144135
0.032198846 -0.037652582 -0.014066689 -0.029116899 0.004898842 -0.054858886 0.010341806 -0.061352897
0.11810038 -0.040157568 -0.05836133 -0.042831894 0.01927278 0.01055352 -1.2742785 0.046635658
0.3276956 0.06396615 0.12619434 -0.021947995 -0.15972167 0.09478693 -0.058567964 -0.28904137
-0.0622288 0.0040295636 0.34195274 -0.01750744 -0.056248315 -0.026587354 0.04992906 0.13281281
-0.066838875 0.026403373 -0.00017251185 0.06407709 0.09818396 0.027845483 0.013763841 -0.12079056
00000000: 0efc c63b 6f3c 663e a540 11bd 44eb 9ebd
00000010: 3815 1d3e c8ac 0a3a 79b6 3b3e 3e74 4bbe
00000020: 68c1 a8bc d394 1dbe 9d8c 61be 354c d23c
00000030: e4f4 e93a 7e3d 733b 3bff 0a3b 05a3 ddbb
00000040: 5cd3 4c3d 4d86 f43b 8322 debd 30e7 173d
00000050: 549e 2a3d 80e7 cebd a5f9 92bd 836f b1bd
00000060: 4d95 81bd 5078 47bd 51c1 34bc af68 763d
00000070: 9c0b 5e3c c965 4b3d 1cb8 82bd b74f eabc
00000080: 4c39 df3e 98e3 89be 83d7 85bd 1cf3 00bd
00000090: bfe6 8fbc c465 8f3a 899c 33bc c0c7 42bd
000000a0: 15e6 8c3d 74cb a93d 6c42 41bd 5db1 e1bd
000000b0: 2bbe b83c f865 b2bb baa1 8b3c cc5f b23d
000000c0: 87c3 393c 00f1 973c e674 0abd 0815 393a
000000d0: e7b4 ce3b 6fb1 c13d a381 01bd 9327 153d
000000e0: fd88 1ebd dc3e cabb 428a c6bb 32ac dabd
000000f0: a9a2 103c 6a18 ce3c c3af 28bd 95d7 033d
00000100: ec03 3bbc a80a d23e b804 353e 8b7b 803d
00000110: 1fd1 18be 86b2 1dbd 8aa6 743d aac1 bf3c
00000120: 21c3 a13d 73cb 783c 54d5 513d a523 1f3d
00000130: 83fa 873d fd3f cfbc b4ae dd3b a846 27bd
00000140: eaa8 2f3d bada 823d f758 873d 4875 5b3d
00000150: 1ad3 07bd 78cf 36bc 6d8f 553d f9fb 843d
00000160: 7ce7 1e3c f654 4abe 8f04 9abb b2c1 98bd
00000170: ea28 2fbd 6140 863d 6a77 1e3d ecd4 0bbd
00000180: 3317 02be 2bb2 3c3d a1fd 41bf 92f8 91bd
00000190: 715e 3f3e e13b ce3b 25c9 00bd 0efa 873d
000001a0: 8009 733d 996d 11bd 0c43 88bb e55c bfbd
000001b0: ac54 10bd 2844 fdbc 7c21 ab3d d046 81bd
000001c0: 0335 c43d 4a5f 1f3d b003 133d e0a1 e23b
000001d0: 8327 ed3c dd58 49bd 43b2 863b 6d1e 4bbb
000001e0: 8fcf 36bc d8e8 e1bc 5d99 503d 70ff 883d
000001f0: 3699 953c 40be 5fbc 335b 943d 4948 f33d
00000200: 0058 54b8 17e7 e3bd 8003 08ba b1d3 80bf
00000210: 23db 623e f234 803e baf9 a43e c7b5 18bc
00000220: cd5b 5c3d 2440 87bd 8876 1dbd d7ef 193e
00000230: 4109 d3bd 6870 1abd 5ee2 163d 1107 cb3d
00000240: 048e 87bd 16fe 0dbd cc54 8cbd 21b9 f1bd
00000250: 7e48 fe3d effb e3bb 6fa1 e33d 123d 50bc
00000260: e09c afbd cea9 af3d 06f1 bbbb 1509 ecbc
00000270: 22d9 393d 622c 54bd 4a6d 65bd 16b1 343d
00000280: aec4 abbd e080 1bbd 6c73 8ebd 68c4 19bc
00000290: 9640 cabd c525 9e3d 3a1b 66bd b0fc e63d
000002a0: 7ede de3d b6e0 99bd 55ad 17bc 8df1 acbd
000002b0: f2b1 c2bd ee43 a5bc 3f93 0d3d ba9a 3cbd
000002c0: b0ef a03c 19e4 82bd 7994 2dbe 3f18 7f3e
000002d0: 87b1 63be 6275 95bd b464 fa3b 1625 3d3d
000002e0: 479f c7bc 3d7c e3bc e784 84bd 463b d13d
000002f0: dfed b33b 2be2 e83d f1b1 05be b66d 8d3d
00000300: 49db 973c 8516 893d 8927 403d cdce de3c
00000310: c03e 713a 8931 83bc f0da 213d 4c76 81bb
00000320: 8d3d db3d cc98 3d3c 6c09 abbd 2aaf 383d
00000330: 54e4 933d 975f 0fbc 59d5 1c3d 4390 003c
00000340: 5af9 79bc 525c debc c1d2 83bd 765c 9cbd
00000350: 084f 503a f67a 02be cb1f 3c3d fa6e 053c
00000360: f0e2 033d 9839 1abd f877 66bc 9086 eebc
00000370: 7786 a03b b6b3 60bd ae70 293c 2d4d 7bbd
00000380: 9dde f13d 437c 24bd 4a0c 6fbd 7f70 2fbd
00000390: f3e1 9d3c ace8 2c3c 8f1b a3bf 0805 3f3d
000003a0: b8c7 a73e af00 833d 1739 013e 48cc b3bc
000003b0: 148e 23be a61f c23d f6e4 6fbd 3bfd 93be
000003c0: a0e3 7ebd 6e0a 843b 6e14 af3e c36b 8fbc
000003d0: a264 66bd b9cd d9bc 6a82 4c3d 1500 083e
000003e0: d2e2 88bd e34b d83c 4ce4 34b9 d93a 833d
000003f0: ac14 c93d 361c e43c bc81 613c 0b61 f7bd

fc1.bias f4 [400]
-0.15915011 -0.059414066 0.06960612 -0.068743855 -0.17879891 -0.15197927 -0.08554186 -0.24793942
-0.18228994 -0.111630015 0.030534772 -0.09850563 -0.0117140245 -0.072228014 -0.17278866 -0.17904493
-0.12619106 -0.221633 -0.30535334 -0.16208167 -0.16636455 -0.08674481 -0.14246501 -0.20350806
-0.14482574 -0.13164127 -0.004292583 0.11388429 0.07988671 -0.03967123 -0.20295373 -0.031252377
0.0704322 -0.10640652 -0.19864297 -0.011219704 -0.059744373 0.017085105 0.12942266 -0.16690198
0.02549076 0.009792193 0.06621895 0.030815816 -0.14018567 0.025784029 0.07106187 0.0309995
0.025216784 -0.1404085 -0.032677356 0.12722448 0.121620245 0.08639447 -0.2069224 0.09755908
-0.113589324 -0.14814988 -0.006867072 0.08806664 -0.26409107 -0.12105383 0.093777254 -0.0710763
-0.24946336 -0.21447112 -0.015262635 -0.15786481 0.030928984 -0.06751048 -0.016362023 -0.14676061
0.1023418 -0.20243478 -0.01653937 0.10294177 -0.21395938 -0.05660162 0.07570735 -0.16318624
-0.24152368 -0.18330908 -0.19439979 0.023186712 -0.052012447 0.093943745 -0.0087255575 -0.036629777
-0.005272262 -0.24044228 -0.20046811 -0.06364911 0.0017824544 -0.09589839 -0.13635658 -0.15012906
-0.047882143 0.0015218742 -0.1169104 0.10459459 -0.10273667 0.1239409 -0.18396594 0.20787972
-0.05226866 0.07992166 0.004331278 -0.121019855 -0.16281427 -0.21990734 0.09580494 -0.21021336
-0.047154564 0.0016209101 0.06135682 0.050504025 -0.16417983 -0.016888052 -0.18559419 -0.23181802
-0.34767962 -0.1601256 -0.16744381 -0.012372057 -0.21522003 0.041697532 0.026970275 -0.098065704
-0.0056053344 0.027584326 -0.27331474 0.13002773 0.05834112 -0.028684994 -0.2328052 0.08596173
-0.047952812 -0.009454153 0.14857483 -0.021288723 -0.0758405 -0.1914807 -0.13986953 0.14694102
-0.1330577 -0.07564472 -0.08023608 -0.17002414 -0.25230792 -0.15596889 -0.0635449 -0.071771145
0.041290708 -0.33349365 -0.025937656 -0.22151972 0.2184863 -0.186591 -0.07011832 -0.027971212
-0.20884068 0.010822759 0.01069245 -0.035610124 -0.00392177 0.0075112646 -0.018207526 0.13262342
-0.07927643 -0.05405654 -0.07582961 -0.23875818 0.065958254 -0.10224265 -0.23630384 0.033728067
-0.33459625 -0.20111036 0.099081635 -0.24370009 0.014244433 0.033831965 -0.14878793 -0.15147322
-0.08588774 -0.22827947 -0.24966586 -0.068935886 0.016030438 0.08147734 -0.15154566 -0.1609873
-0.23805219 0.14650334 0.03986578 -0.027653573 -0.22991708 -0.4567626 0.07999954 -0.06982701
-0.1516229 -0.17625897 -0.168365 -0.21148016 -0.2252014 -0.1251318 -0.14260967 -0.114253186
0.0071692653 -0.16207854 -0.10097726 0.10801768 -0.094319575 -0.3499425 0.06560928 -0.044574577
-0.17891096 -0.1310993 -0.08004255 0.070604354 -0.30892894 -0.22053005 -0.18738373 -0.22806458
0.17229378 -0.08792779 0.07548764 0.024593446 0.06963076 -0.23929052 0.0015815994 -0.03503161
-0.055882305 -0.25038388 -0.1599954 0.07544634 -0.18930821 -0.14623033 -0.115046896 -0.084622756
0.040251628 -0.11493976 -0.003311699 0.026196122 -0.1548959 -0.116182484 0.15210384 0.008354957
-0.19919631 -0.3397925 -0.0050675096 -0.04704277 -0.124918506 -0.08508893 0.1680882 0.05826999
00000000: 3ff8 22be 2a5c 73bd a78d 8e3d 94c9 8cbd
00000010: 1017 37be 74a0 1bbe 9230 afbd d5e3 7dbe
00000020: 37aa 3abe 479e e4bd 0f24 fa3c 52bd c9bd
00000030: 2eec 3fbc 48ec 93bd 83ef 30be 8e57 37be
00000040: 3b38 01be c3f3 62be 4657 9cbe bdf8 25be
00000050: 785b 2abe 43a7 b1bd 59e2 11be 6b64 50be
00000060: 334d 14be f8cc 06be cca8 8cbb 2b3c e93d
00000070: a59b a33d 4d7e 22bd 1ad3 4fbe 7e02 00bd
00000080: c23e 903d a9eb d9bd 1069 4bbe d9d2 37bc
00000090: 84b6 74bd 10f6 8b3c 6087 043e 5ae8 2abe
000000a0: 00d2 d03c 6f6f 203c cd9d 873d 7371 fc3c
000000b0: d58c 0fbe 0739 d33c e388 913d aaf2 fd3c
000000c0: 6e93 ce3c 3fc7 0fbe b1d8 05bd 2247 023e
000000d0: 0914 f93d 95ef b03d 77e3 53be 0ecd c73d
000000e0: 85a1 e8bd 9ab4 17be 2d05 e1bb 485c b43d
000000f0: f236 87be 12eb f7bd 4a0e c03d 7490 91bd
00000100: 5373 7fbe 519e 5bbe 2210 7abc 50a7 21be
00000110: c85e fd3c ef42 8abd a609 86bc 6a48 16be
00000120: 9498 d13d 104b 4fbe 937d 87bc 22d3 d23d
00000130: 2b18 5bbe 1ad7 67bd 750c 9b3d 4b1a 27be
00000140: fc51 77be 60b5 3bbe bd10 47be 0ff2 bd3c
00000150: 010b 55bd 9465 c03d a4f5 0ebc 1b09 16bd
00000160: f0c2 acbb 8036 76be 8347 4dbe 775a 82bd
00000170: 3fa1 e93a 6066 c4bd 0fa1 0bbe 6fbb 19be
00000180: 1120 44bd a079 c73a b86e efbd b035 d63d
00000190: 9a67 d2bd bad4 fd3d 9161 3cbe 6cde 543e
000001a0: aa17 56bd f8ad a33d 65ed 8d3b 42d9 f7bd
000001b0: c9b8 26be 642f 61be 6135 c43d 2c42 57be
000001c0: 2525 41bd b874 d43a 4a51 7b3d 4fdd 4e3d
000001d0: c21e 28be d058 8abc 670c 3ebe b461 6dbe
000001e0: 1003 b2be f7f7 23be 6476 2bbe 2bb4 4abc
000001f0: a462 5cbe 08cb 2a3d c4f0 dc3c acd6 c8bd
00000200: f4ac b7bb 86f8 e13c e9ef 8bbe fd25 053e
00000210: 19f7 6e3d cbfc eabc 7d64 6ebe b40c b03d
00000220: 2b6a 44bd 97e5 1abc 0024 183e b065 aebc
00000230: 4452 9bbd 8413 44be f539 0fbe b577 163e
00000240: 4740 08be 9eeb 9abd d052 a4bd cf1a 2ebe
00000250: 812e 81be 4fb6 1fbe d423 82bd c0fc 92bd
00000260: 7220 293d aebf aabe 357b d4bc 11d6 62be
00000270: dfba 5f3e b611 3fbe 329a 8fbd e223 e5bc
00000280: 55da 55be f151 313c 632f 2f3c ecdb 11bd
00000290: 3182 80bb 0e21 f63b f327 95bc 6fce 073e
000002a0: ae5b a2bd 646a 5dbd 8e4c 9bbd 067d 74be
000002b0: 1f15 873d 9864 d1bd a2f9 71be 7126 0a3d
000002c0: 3350 abbe e0ef 4dbe 50eb ca3d 848c 79be
000002d0: 7b61 693c 6393 0a3d dd5b 18be cc1b 1bbe
000002e0: e9e5 afbd 18c2 69be 68a8 7fbe 422e 8dbd
000002f0: 4452 833c 97dd a63d c92e 1bbe dbd9 24be
00000300: f4c3 73be f904 163e 4d4a 233d bf89 e2bc
00000310: 626f 6bbe cadc e9be ccd6 a33d 7701 8fbd
00000320: 0943 1bbe 3b7d 34be e067 2cbe 418e 58be
00000330: 329b 66be 8d22 00be 4508 12be 93fd e9bd
00000340: 28ec ea3b ebf7 25be 2acd cebd 6038 dd3d
00000350: 9f2a c1bd aa2b b3be 285e 863d d593 36bd
00000360: 6f34 37be e53e 06be 59ed a3bd 0499 903d
00000370: ef2b 9ebe a1d2 61be 85e1 3fbe c389 69be
00000380: c86d 303e 7c13 b4bd 4499 9a3d 3278 c93c
00000390: 929a 8e3d 9308 75be ab4d cf3a 4e7d 0fbd
000003a0: d8e4 64bd 5132 80be d6d5 23be 9c83 9a3d
000003b0: 03da 41be 67bd 15be b59d ebbd b24e adbd
000003c0: e4de 243d 8965 ebbd 1709 59bb 4099 d63c
000003d0: 089d 1ebe 15f1 edbd 1cc1 1b3e 3be3 083c
000003e0: 1efa 4bbe 48f9 adbe 5a0d a6bb ebaf 40bd
000003f0: 46d5 ffbd 1b43 aebd 501f 2c3e 83ac 6e3d

fc2.weight f4 [300, 400]
0.19072548 0.01585407 0.041793957 -0.15901229 0.036345173 -0.024809489 0.13085438 0.08831487
-0.19839239 0.011278621 -0.13262583 -0.022590911 -0.01731922 0.050296567 0.045168515 0.04875764
0.004934952 0.061331797 0.2461607 -0.0033116 0.22264273 -0.12643854 0.03425944 -0.20959854
-0.05835101 -0.067980185 -0.13510548 0.008393215 0.024084756 0.027875196 -0.12714766 0.11966438
-0.0693076 -0.0112829935 0.2389002 0.21788457 0.014606142 -0.11920874 -0.096099526 -0.046706617
-0.10921057 0.023167744 -0.11224257 -0.2762581 0.03149317 0.12712932 0.06317891 0.13125953
0.055585545 0.19169293 -0.0056599295 -0.066692226 -0.25550938 0.033891927 0.016808163 0.14125744
0.18466075 -0.06415661 0.12257535 -0.039819095 0.1417573 -0.09870964 -0.045303978 -0.044738352
-0.17111115 -0.022524927 0.040924903 -0.042061172 0.010746292 0.06319887 -0.14243443 -0.08624758
-0.12833086 -0.024437668 0.106249295 0.036709484 0.12355009 -0.017521618 -0.121428944 -0.16451693
-0.09495703 0.04755487 0.016218618 -0.026080206 0.10189209 0.13546078 -0.11978207 -0.20294182
-0.003683058 0.05032159 0.08862778 -0.052614503 0.07451771 -0.150146 -0.009567291 -0.05228078
0.104048744 0.100262344 0.046630204 0.103893325 -0.09827252 -0.00018903048 -0.17617327 -0.00066099525
0.024963863 -0.1585552 -0.036785644 0.16822977 -0.07677788 -0.092825614 0.033621434 0.02769811
0.12063444 0.004059501 -0.06369499 -0.011382761 -0.117961906 0.007187786 0.13633774 0.07595995
-0.018691488 0.003934522 -0.0310568 -0.07217474 -0.15779194 0.13440014 -0.018945834 -0.04604332
-0.121307336 0.043532077 0.10961561 0.07358891 0.0030364776 0.09422167 0.03434531 -0.00493666
0.046556257 0.062496394 0.12743461 -0.091881454 -0.00542466 -0.089781485 0.22947979 0.005815002
-0.06973342 -0.09288098 0.0603159 -0.14280896 0.19456425 -0.021255493 0.11517055 0.05377102
-0.078746594 -0.047324978 -0.12071568 0.15708645 0.035297554 0.102641046 -0.013702444 0.07984183
-0.07856362 0.12730391 0.025352437 0.067197524 -0.10767684 0.1572814 0.13082273 0.22793949
0.04394409 -0.050615337 0.054642856 0.20047978 0.005447654 0.055067837 -0.10669673 0.14172179
-0.221672 0.16999252 -0.1581087 0.08300936 -0.13657086 -0.008630371 0.08496639 -0.23560598
-0.09416914 0.028952627 0.19076717 0.15880471 0.10005688 0.00564922 0.115964025 -0.12704842
-0.16254053 0.048496656 -0.12877153 -0.18815681 -0.23750779 -0.067047834 0.00012242654 -0.013797218
-0.10953304 -0.1959405 0.043903336 -0.3621497 -0.019811329 -0.108821906 0.046731643 0.04488176
-0.109578066 0.08949205 -0.05500637 0.1775179 -0.20420691 -0.14891967 -0.05649501 0.112778254
-0.04320016 0.11113843 -0.063014075 -0.09173969 0.05734867 0.23655127 -0.02403116 0.0062818397
-0.23216586 0.09856817 0.08605293 -0.0072719706 -0.20683044 -0.038016874 -0.020511232 -0.06224274
0.12833071 -0.14743286 0.0668395 -0.05883818 -0.06824882 0.05877241 0.029718127 -0.02202256
0.069729276 -0.124789506 0.026621286 -0.15161248 0.050690986 -0.28490737 0.025470713 -0.05883404
-0.13324152 -0.0033568114 -0.042813648 0.41190192 0.13528052 0.05742732 -0.046907652 -0.074634485
00000000: 8a4d 433e 65e0 813c 2430 2b3d 1ed4 22be
00000010: adde 143d 453d cbbc b1fe 053e 6dde b43d
00000020: 6027 4bbe f7c9 383c 11cf 07be 9310 b9bc
00000030: 09e1 8dbc c603 4e3d 9f02 393d 17b6 473d
00000040: 61b5 a13b 0d37 7b3d 8d11 7c3e 6e07 59bb
00000050: 75fc 633e 1b79 01be a053 0c3d 00a1 56be
00000060: 7801 6fbd 3239 8bbd 1759 0abe b283 093c
00000070: 654d c53c 865a e43c ff32 02be 9912 f53d
00000080: 25f1 8dbd 4edc 38bc 41a2 743e 221d 5f3e
00000090: 9a4e 6f3c b623 f4bd d4cf c4bd 704f 3fbd
000000a0: cba9 dfbd 48ca bd3c 6fdf e5bd b471 8dbe
000000b0: fbfe 003d 302e 023e f263 813d e668 063e
000000c0: abad 633d 274b 443e ee76 b9bb ef95 88bd
000000d0: 20d2 82be 43d2 0a3d 46b1 893c caa5 103e
000000e0: b517 3d3e 8a64 83bd c908 fb3d 5919 23bd
000000f0: d328 113e 4828 cabd aa90 39bd 903f 37bd
00000100: c337 2fbe 3286 b8bc dfa0 273d 5648 2cbd
00000110: 3711 303c 696e 813d 55da 11be 92a2 b0bd
00000120: 2a69 03be 8131 c8bc 3b99 d93d af5c 163d
00000130: d407 fd3d 7f89 8fbc bdaf f8bd 2077 28be
00000140: d578 c2bd e5c8 423d e8dc 843c 28a6 d5bc
00000150: cdac d03d 3bb6 0a3e 4d50 f5bd fbcf 4fbe
00000160: 765f 71bb 031e 4e3d 7b82 b53d 4e82 57bd
00000170: be9c 983d dfbf 19be 20c0 1cbc 5f24 56bd
00000180: 8217 d53d 5856 cd3d 50ff 3e3d 06c6 d43d
00000190: 1a43 c9bd 7c36 46b9 c466 34be a446 2dba
000001a0: 0481 cc3c 4b5c 22be 8bac 16bd 6d44 2c3e
000001b0: b93d 9dbd 5b1b bebd a1b6 093d 26e7 e23c
000001c0: 300f f73d 9005 853b 8572 82bd c37e 3abc
000001d0: 0396 f1bd 8587 eb3b 1f9c 0b3e e490 9b3d
000001e0: e41e 99bc 2aed 803b d56a febc 5ad0 93bd
000001f0: 3694 21be 31a0 093e 4b34 9bbc ec97 3cbd
00000200: fb6f f8bd b14e 323d 267e e03d c8b5 963d
00000210: a4ff 463b 4af7 c03d abad 0c3d b5c3 a1bb
00000220: c6b1 3e3d 38fc 7f3d 387e 023e 582c bcbd
00000230: 59c1 b1bb 5bdf b7bd c0fc 6a3e c68b be3b
00000240: 65d0 8ebd 6238 bebd ce0d 773d 833c 12be
00000250: da3b 473e 0020 aebc 8ade eb3d 003f 5c3d
00000260: e545 a1bd d6d7 41bd c839 f7bd 45db 203e
00000270: 2b94 103d 7835 d23d 3780 60bc 1d84 a33d
00000280: f7e5 a0bd f55b 023e eaaf cf3c db9e 893d
00000290: ad85 dcbd 600e 213e 65f6 053e f868 693e
000002a0: b8fe 333d 0752 4fbd 30d1 5f3d 924a 4d3e
000002b0: 3c82 b23b d08e 613d d183 dabd 841f 113e
000002c0: fcfd 62be 8512 2e3e 3fe7 21be d000 aa3d
000002d0: 3bd9 0bbe 6666 0dbc dc02 ae3d b242 71be
000002e0: c0db c0bd 0f2e ed3c 7858 433e b49d 223e
000002f0: 9fea cc3d 181d b93b 8c7e ed3d fb18 02be
00000300: 0671 26be 6ea4 463d afdc 03be 2eac 40be
00000310: 3e35 73be 6050 89bd a05f 0039 ba0d 62bc
00000320: dc52 e0bd a0a4 48be fcd3 333d af6b b9be
00000330: 5e4b a2bc 05de debd ae69 3f3d f0d5 373d
00000340: 776a e0bd 9c47 b73d 5c4e 61bd 41c7 353e
00000350: 9e1b 51be 667e 18be 5067 67bd 49f8 e63d
00000360: a7f2 30bd 8c9c e33d 860d 81bd 05e2 bbbd
00000370: 70e6 6a3d 7f3a 723e ffdc c4bc e4d7 cd3b
00000380: e3bc 6dbe 1cde c93d 853c b03d b649 eebb
00000390: 5ccb 53be 95b7 1bbd 2c07 a8bc 3ef2 7ebd
000003a0: 2069 033e a4f8 16be 26e3 883d 4e00 71bd
000003b0: 0ac6 8bbd 57bb 703d 6e73 f33c a868 b4bc
000003c0: 39ce 8e3d a491 ffbd e214 da3c 4d40 1bbe
000003d0: 5aa1 4f3d 61df 91be f5a7 d03c f6fb 70bd
000003e0: 7770 08be f3fd 5bbb 5d5d 2fbd cfe4 d23e
000003f0: fa86 0a3e e938 6b3d 3d22 40bd f7d9 98bd

fc2.bias f4 [300]
0.04002734 -0.026229022 -0.029825168 0.0033002486 0.1107116 -0.046483617 0.0754826 0.10835859
0.0691383 0.07994209 -0.024792423 0.024187442 -0.2173943 -0.092163794 -0.07114894 -0.023149807
-0.004256523 -0.05189413 0.12416486 -0.025505358 -0.0016486266 -0.054099258 -0.06559248 -0.018032925
0.07279307 0.005238354 0.10340754 -0.094035886 0.020493472 0.0023137303 -0.094843894 -0.030907987
0.111257724 0.05480927 -0.12200328 0.107771836 0.052656915 0.01115319 -0.0017165762 0.079235025
-0.024556786 0.052338015 -0.121386655 -0.046461836 0.10646797 0.05159835 -0.0037706618 -0.22809331
-0.0043372903 0.0069428855 -0.14872892 -0.024684267 -0.011577121 -0.018612418 -0.0004701673 0.0057910113
-0.11610436 -0.038899343 -0.0059889564 0.023623995 -0.00011457731 0.085091606 -0.07562588 0.02384841
0.021179147 0.05063189 -0.031678267 -0.05062738 -0.015335112 0.070941806 0.03785881 -0.07999003
0.088617906 -0.023321375 0.049753845 0.008209198 0.0066704955 0.13727275 -0.029278519 -0.16097315
-0.113605075 -0.004230431 -0.030527191 0.04341831 0.004553722 -0.03348765 -0.07583126 -0.045111395
-0.05399477 0.1311121 0.0038285914 -0.14177382 0.007863177 0.059454307 0.051664278 0.025382802
-0.005189131 0.13020824 -0.12168511 0.010357519 0.035642225 0.016634656 -0.011985159 0.018325774
0.051820226 -0.025753384 0.0394479 0.018233966 -0.30415073 -0.0810908 0.007007945 0.024796758
0.05315809 0.02685522 -0.010165951 -0.008656204 0.035893865 0.121122465 -0.008655574 0.060402777
-0.12120326 -0.06937002 0.07974257 -0.038347628 0.046704914 -0.185436 0.06820246 0.056339215
0.0061869975 0.04570864 0.020936346 0.011061065 0.031839594 0.032290373 0.02620396 -0.04928604
0.013955022 0.094792336 -0.041034594 -0.04914027 -0.18046369 -0.0075624054 0.046004523 -0.00079161365
-0.040231876 0.06781476 -0.075451575 -0.004076479 -0.14778443 0.040100574 -0.05975724 0.07442515
0.055985864 -0.0024716714 0.06655769 0.094827995 -0.0098726135 0.03665276 -0.053845905 0.04712298
0.05833384 0.031276062 0.029479321 -0.00028559082 -0.10974915 -0.06943328 0.06251317 0.110397324
-0.14150798 0.035969287 -0.043122802 -0.0874308 -0.06798124 -0.011190961 0.09087461 0.05243759
-0.10601321 0.004750952 -0.17184067 0.06563637 0.041124295 -0.09204456 0.10639179 -0.029122978
0.018860642 -0.08721742 0.08141274 0.04530885 0.05291225 -0.014057104 -0.09385817 0.043864664
-0.06392602 -0.0026275967 0.10419486 0.07054248 -0.060375363 -0.023329435 -0.14264266 0.088700406
-0.06020308 -0.0712088 -0.11082574 0.04019516 0.041308448 0.09869274 -0.042968452 0.024511017
-0.074839346 0.008483626 -0.0036692729 -0.065506786 -0.12268792 0.011895116 -0.085541725 0.073662125
0.072816424 0.022943256 0.0703062 0.07429293 -0.1143364 -0.11370745 -0.046965476 -0.062633015
4.156171e-05 0.028227517 -0.0865703 -0.0033951837 -0.053265736 0.07415566 -0.038889214 -0.08093144
-0.25069243 0.09407139 -0.12116836 -0.12039563 -0.095675014 0.055404194 -0.033234023 -0.011444139
-0.069378614 0.08646224 0.022954227 -0.0491137 -0.07337953 -0.117147185 0.034957163 0.1091747
-0.053015422 -0.042907763 0.026530862 0.06620268 0.05090905 -0.09098951 -0.1176979 -0.09686899
00000000: b5f3 233d 3fde d6bc e953 f4bc fc48 583b
00000010: c3bc e23d 9b65 3ebd 9f96 9a3d 1ceb dd3d
00000020: 6298 8d3d aeb8 a33d 7b19 cbbc be24 c63c
00000030: 9d9c 5ebe 5fc0 bcbd 89b6 91bd aaa4 bdbc
00000040: 4e7a 8bbb f08e 54bd 254a fe3d 9df0 d0bc
00000050: bb16 d8ba 2f97 5dbd 5a55 86bd c9b9 93bc
00000060: 8814 953d 80a6 ab3b 55c7 d33d e395 c0bd
00000070: ede1 a73c f4a1 173b 843d c2bd bf32 fdbc
00000080: 17db e33d af7f 603d dbdc f9bd 7bb7 dc3d
00000090: c7ae 573d dfbb 363c bdfe e0ba f945 a23d
000000a0: 502b c9bc 6360 563d 9199 f8bd c44e 3ebd
000000b0: e10b da3d cb58 533d 351d 77bb 4b91 69be
000000c0: d41f 8ebb 2581 e33b 654c 18be a936 cabc
000000d0: f7ad 3dbc 1279 98bc c980 f6b9 86c2 bd3b
000000e0: 1fc8 edbd eb54 1fbd 023f c4bb 1c87 c13c
000000f0: 3a49 f0b8 8244 ae3d bee1 9abd be5d c33c
00000100: e47f ad3c 6263 4f3d 12c1 01bd a85e 4fbd
00000110: 1f40 7bbc f049 913d d711 1b3d d0d1 a3bd
00000120: 4e7d b53d 780c bfbc b0ca 4b3d df7f 063c
00000130: 2c94 da3b 3a91 0c3e 81d9 efbc 25d6 24be
00000140: c7a9 e8bd 6d9f 8abb 2914 fabc 66d7 313d
00000150: 6437 953b 592a 09bd 6b4d 9bbd bac6 38bd
00000160: 9f29 5dbd 4042 063e 1be9 7a3b 282d 11be
00000170: 8ed4 003c 5c86 733d ec9d 533d 98ef cf3c
00000180: 9609 aabb 4f55 053e 0b36 f9bd 95b2 293c
00000190: 95fd 113d 6745 883c 665d 44bc ef1f 963c
000001a0: 7241 543d c3f8 d2bc 1f94 213d 665f 953c
000001b0: a5b9 9bbe ef12 a6bd e7a2 e53b 9222 cb3c
000001c0: 4cbc 593d 7aff db3c 178f 26bc c0d2 0dbc
000001d0: 7205 133d 0e0f f83d 1cd0 0dbc e768 773d
000001e0: 6a39 f8bd de11 8ebd 1350 a33d 6712 1dbd
000001f0: a74d 3f3d efe2 3dbe bbad 8b3d f3c3 663d
00000200: 4cbc ca3b fc38 3b3d b382 ab3c 7839 353c
00000210: 3c6a 023d e942 043d b0a9 d63c 29e0 49bd
00000220: 9ba3 643c 7c22 c23d e413 28bd 4f47 49bd
00000230: 79cb 38be 0ece f7bb 3d6f 3c3d 4b84 4fba
00000240: 2eca 24bd 77e2 8a3d 5b86 9abd fc93 85bb
00000250: cd54 17be 8040 243d 02c4 74bd 376c 983d
00000260: 6f51 653d c4fb 21bb 664f 883d 2e35 c23d
00000270: bec0 21bc 3421 163d 868d 5cbd 0704 413d
00000280: 77ef 6e3d 541b 003d 9e7e f13c 5abb 95b9
00000290: 2ac4 e0bd 0933 8ebd e806 803d fe17 e23d
000002a0: 78e7 10be 8854 133d 89a1 30bd eb0e b3bd
000002b0: c039 8bbd 4b5a 37bc 781c ba3d ccc8 563d
000002c0: 741d d9bd e0ad 9b3b 00f7 2fbe 5c6c 863d
000002d0: f371 283d dc81 bcbd f0e3 d93d 5093 eebc
000002e0: a281 9a3c 0c9f b2bd b9bb a63d c695 393d
000002f0: 84ba 583d c44f 66bc b638 c0bd 6fab 333d
00000300: a5eb 82bd c233 2cbb 1d64 d53d 9378 903d
00000310: 284c 77bd 5f1d bfbc eb10 12be 8fa8 b53d
00000320: 8197 76bd ebd5 91bd 9bf8 e2bd aea3 243d
00000330: 0c33 293d 6b1f ca3d b0ff 2fbd 54cb c83c
00000340: 5f45 99bd e8fe 0a3c 2f78 70bb 6c28 86bd
00000350: ce43 fbbd bce3 423c 8030 afbd 2bdc 963d
00000360: c720 953d 7ff3 bb3c b2fc 8f3d e426 983d
00000370: 3429 eabd 74df e8bd df5e 40bd bd45 80bd
00000380: 8c52 2e38 653d e73c c54b b1bd bb81 5ebb
00000390: 2c2d 5abd ecde 973d 4c4a 1fbd 62bf a5bd
000003a0: c25a 80be 80a8 c03d 1e27 f8bd fc91 f6bd
000003b0: 43f1 c3bd 82ef 623d 6620 08bd 3380 3bbc
000003c0: 6016 8ebd 1d13 b13d 810a bc3c 722b 49bd
000003d0: 0248 96bd ddea efbd 3e2f 0f3d fc96 df3d
000003e0: b326 59bd 0dc0 2fbd 4057 d93c 4595 873d
000003f0: 0286 503d b558 babd 990b f1bd 4063 c6bd

fc3.weight f4 [4, 300]
-0.023222297 0.047367763 0.026499914 -0.35198873 0.15653732 0.3040423 -0.120680444 -0.30768952
-0.3433648 -0.20842151 0.057831958 0.05786578 0.34754047 0.2638325 -0.78003967 0.14297724
-0.2832399 0.24402663 -0.03395593 0.1237427 -0.18747725 0.49765828 -0.16762404 -0.31406763
0.20266429 0.43270758 0.638207 0.11233634 -0.17942193 0.40387022 0.40641364 0.20176353
0.1851498 0.01598113 0.058437373 0.37271878 -0.12438204 0.06571922 -0.1867836 -0.17449324
-0.31915727 0.57210577 0.16514009 -0.16254392 -0.17383324 -0.31940183 0.21605246 0.34557137
0.07053634 0.020854661 0.91299224 -0.10066791 0.27206174 0.4425253 0.14257646 -0.26074323
-0.27037993 0.06296453 -0.18264073 0.1987208 -0.18815951 0.038186077 0.28902143 -0.029811507
-0.12114624 0.42561838 -0.11307412 0.0067896647 0.43800214 0.079082996 0.11903655 0.33022675
-0.48716563 0.09125115 0.12907507 0.42455658 -0.36819732 0.09160462 0.049934298 0.17030539
0.218474 0.529019 0.47914088 -0.48545048 0.18227549 -0.7212569 -0.12668887 0.07941472
-0.24288243 0.019423038 -0.08026514 1.1914834 -0.2991251 -0.3151638 -0.16880602 0.2144398
0.31323963 -0.06733977 -0.27987176 0.22712292 -0.21540694 0.39981258 0.021780768 -0.34745932
-0.6535715 -0.06399882 -0.2616936 0.59734505 0.63600075 0.35217586 0.5373095 0.43308255
0.020112224 -0.027526975 -0.033022676 -0.51952076 0.4480768 0.0011231066 -0.04385354 -0.1167627
0.8221313 -0.47280088 -0.012964044 -0.14855102 0.12169584 0.55048 0.37239996 -0.14789999
0.45118237 0.27305672 -0.43686765 -0.31143406 -0.03361384 0.07460435 -0.008786315 0.11564544
0.48477826 -0.31500894 -0.65536004 0.3522368 0.263868 0.892571 -0.0701381 -0.3669758
0.5101116 -0.22283633 -0.43052977 -0.08323765 -0.29547223 -0.3109542 -0.37324676 0.13644545
-0.11664226 0.3858116 0.18629491 0.47633648 0.58282965 -0.068964966 0.3955656 -0.37285778
-0.18922427 -0.21385737 -0.05824567 0.3613487 0.24276637 -0.03516509 -0.10725519 -0.10153627
-0.026182476 -0.04980659 0.4383184 0.21484742 -0.5384769 0.24770293 -0.5747952 -0.0030747757
0.5837199 -0.013752317 0.10875589 -0.31054547 -0.090169236 0.18591958 -0.0399985 -0.4716889
-0.53884435 0.16552024 1.0763941 0.69787174 -0.5372774 0.33604217 0.51224613 -0.002674976
-0.85525894 -0.16106857 -0.31716007 0.26050457 -0.5633635 -0.28088665 0.14936492 -0.26164916
0.071253575 0.48768574 0.6272476 -0.38182324 -0.063160345 0.01959304 0.52693456 -0.06228441
-0.07883302 0.016629348 0.35635868 0.44224402 0.24288341 0.10169582 0.6766066 0.13642226
0.15229045 -0.39662713 0.51828164 0.2814591 -0.22263947 -0.09526515 0.48269358 -0.54896367
0.24694066 -0.055920783 0.3192683 0.14670786 0.23822583 -0.34125158 0.40574956 -0.06022797
0.76468253 -0.42954922 0.03313603 0.010741875 -0.10806377 -0.07838285 0.06493462 0.32423377
0.08793616 -0.6719508 0.26502255 -0.34763688 -0.51514196 0.09871198 0.37024313 -0.20963524
-0.4182045 -0.20454207 0.15862696 -0.16458741 0.60999036 0.95223784 0.111035936 0.343446
00000000: b03c bebc b304 423d 5916 d93c de37 b4be
00000010: 524b 203e 6fab 9b3e 4f27 f7bd 7b89 9dbe
00000020: 83cd afbe 736c 55be 34e1 6c3d ab04 6d3d
00000030: d3f0 b13e 0e15 873e aeb0 47bf a068 123e
00000040: d204 91be 1ee2 793e 6015 0bbd d06c fd3d
00000050: 09fa 3fbe 11cd fe3e a3a5 2bbe 79cd a0be
00000060: 3a87 4f3e d98b dd3e 8961 233f 9810 e63d
00000070: 62ba 37be 14c8 ce3e 7315 d03e 199b 4e3e
00000080: e997 3d3e dcea 823c 075c 6f3d ffd4 be3e
00000090: 03bc febd cc97 863d 3344 3fbe 5bae 32be
000000a0: 9568 a3be 8675 123f 7c1a 293e ea71 26be
000000b0: 5701 32be a388 a3be db3c 5d3e bbee b03e
000000c0: 5b75 903d 65d7 aa3c dcb9 693f fa2a cebd
000000d0: ad4b 8b3e ad92 e23e 90ff 113e 2380 85be
000000e0: 3d6f 8abe 8cf3 803d 2c06 3bbe 777d 4b3e
000000f0: e3ac 40be 0169 1c3d 9efa 933e 4337 f4bc
00000100: 851b f8bd a7ea d93e 6793 e7bd d67b de3b
00000110: d141 e03e 44f6 a13d 6fc9 f33d 7b13 a93e
00000120: c66d f9be e2e1 ba3d 412c 043e 7b5f d93e
00000130: 5c84 bcbe 349b bb3d e887 4c3d 8964 2e3e
00000140: a6b7 5f3e ca6d 073f f451 f53e f78c f8be
00000150: 6da6 3a3e 4ba4 38bf baba 01be 2fa4 a23d
00000160: 2cb6 78be 101d 9f3c 0d62 a4bd 8782 983f
00000170: ed26 99be 265d a1be 7cdb 2cbe 1b96 5b3e
00000180: f260 a03e 6fe9 89bd 5a4b 8fbe e992 683e
00000190: a393 5cbe 3cb4 cc3e 956d b23c 30e6 b1be
000001a0: 7650 27bf d011 83bd b4fc 85be 9beb 183f
000001b0: f2d0 223f 6550 b43e 1e8d 093f ffbc dd3e
000001c0: 64c2 a43c 4080 e1bc c942 07bd 50ff 04bf
000001d0: 536a e53e 3435 933a c59f 33bd 4821 efbd
000001e0: 3277 523f f512 f2be 2467 54bc c21d 18be
000001f0: ab3b f93d 42ec 0c3f 35ab be3e 1873 17be
00000200: 6001 e73e 17ce 8b3e 1ead dfbe 4974 9fbe
00000210: aaae 09bd 2aca 983d 7af4 0fbc 84d7 ec3d
00000220: db34 f83e da48 a1be adc5 27bf 6258 b43e
00000230: b519 873e 887f 643f 90a4 8fbd 41e4 bbbe
00000240: ac96 023f 352f 64be 666e dcbe 8078 aabd
00000250: 2348 97be 6435 9fbe 331a bfbe 5bb8 0b3e
00000260: 23e2 eebd 1989 c53e 18c4 3e3e 60e2 f33e
00000270: 5334 153f 813d 8dbd 9387 ca3e 37e7 bebe
00000280: 02c4 41be 6dfd 5abe 0393 6ebd b202 b93e
00000290: bf97 783e 4509 10bd 9ca8 dbbd 3ff2 cfbd
000002a0: a27c d6bc ff01 4cbd 456b e03e f600 5c3e
000002b0: 9fd9 09bf d6a5 7d3e c725 13bf 2d82 49bb
000002c0: ab6e 153f 6651 61bc 68bb de3d d1ff 9ebe
000002d0: a6aa b8bd b461 3e3e 78d5 23bd 3581 f1be
000002e0: b4f1 09bf 237e 293e 48c7 893f b9a7 323f
000002f0: 038b 09bf b80d ac3e 9022 033f a64e 2fbb
00000300: 40f2 5abf 29ef 24be ce62 a2be db60 853e
00000310: 9738 10bf 60d0 8fbe 1ef3 183e e1f6 85be
00000320: 65ed 913d f2b1 f93e 4c93 203f 567e c3be
00000330: 365a 81bd 9581 a03c 2fe5 063f f01d 7fbd
00000340: 3573 a1bd 453a 883c a574 b63e cf6d e23e
00000350: 6eb6 783e e645 d03d 1736 2d3f 47b2 0b3e
00000360: 07f2 1b3e b612 cbbe 1bae 043f 681b 903e
00000370: 9afb 63be 601a c3bd 9d23 f73e e288 0cbf
00000380: 03de 7c3e 310d 65bd 2277 a33e 963a 163e
00000390: 79f1 733e 87b8 aebe 68be cf3e 9bb1 76bd
000003a0: 3cc2 433f e0ed dbbe a5b9 073d b0fe 2f3c
000003b0: 8a50 ddbd 3087 a0bd 71fc 843d f801 a63e
000003c0: e017 b43d f804 2cbf 09b1 873e 76fd b1be
000003d0: 58e0 03bf 8229 ca3d 8290 bd3e 9faa 56be
000003e0: e61e d6be 7a73 51be 1b6f 223e 9a89 28be
000003f0: 5428 1c3f dcc5 733f cf66 e33d 27d8 af3e

fc3.bias f4 [4]
-0.080583826 0.046715356 0.012110012 0.009472311
00000000: 2209 a5bd 9a58 3f3d 1269 463c c031 1b3c
