checkpoints/checkpoint_actor_2800.pth (torch, 542663 bytes, 6 tensors)

fc1.weight f4 [400, 33]
0	0x3c03af0c	0.00803734
1	0x3e53a08b	0.20666711
2	0xbd95f0f3	-0.07321348
3	0x3d0d2825	0.034462113
4	0x3d9ebc3e	0.07750748
5	0x3d95386c	0.07286152
6	0x3d7f3ddf	0.062314864
7	0xbe42af8a	-0.19012275
8	0xbc94bb68	-0.018155769
9	0xbe4e4a23	-0.20145468
10	0xbe9a2c52	-0.3011194
11	0x3d9ae0c4	0.07562402
12	0x3cf8ab93	0.03035525
13	0x3c6715f1	0.014104352
14	0x3d99ace9	0.07503683
15	0xbc7a5629	-0.015279331
16	0x3d586136	0.052827083
17	0x3d91f517	0.07126825
18	0xbd7d56ef	-0.061850484
19	0xbcd08339	-0.025453197
20	0x3db0776a	0.086165264
21	0xbd5fdf1e	-0.05465614
22	0xbd2aa84e	-0.041664414
23	0xbd0833f1	-0.03325266
24	0xbcadd3dc	-0.021219186
25	0xbd6dff54	-0.058104828
26	0xbcb3de3b	-0.021956554
27	0x3b4be0e8	0.0031109396
28	0xbb411683	-0.002946288
29	0x3d4b65c9	0.049657617
30	0xbbde2bc5	-0.00678012
31	0xbcea4fb7	-0.028602464
32	0x3ec9abd7	0.39388916
33	0xbe86d6b0	-0.2633567
34	0xbdc1c65c	-0.09461662
35	0xbcc24724	-0.023715563
36	0x3b632e3c	0.003466501
37	0x3d1b1da6	0.03787007
38	0xbaca1694	-0.0015418106
39	0xbd0842e7	-0.033266928
40	0x3d9e1f52	0.077208176
41	0x3d5afc4e	0.053463273
42	0xbd4e8728	-0.050421864
43	0xbdfe22fe	-0.12409018
44	0x3c86c774	0.016452529
45	0x3d204a3d	0.0391333
46	0xbd0ae01f	-0.033905145
47	0x3dc5cbbb	0.09657999
48	0x3d2687c8	0.040656835
49	0x3d85bec0	0.06530523
50	0xbd73e604	-0.059545532
51	0xbcbca6e0	-0.023028791
52	0x3cb444cc	0.022005461
53	0x3cb59499	0.022165583
54	0xbd153f24	-0.03643717
55	0x3db639f0	0.088977695
56	0x3c9cfa1b	0.019162228
57	0xbceb3b00	-0.028714657
58	0x3bc0dc93	0.0058856695
59	0xbdd6ace4	-0.10482195
60	0x3b11afea	0.0022230097
61	0xbc1dc1a3	-0.009628686
62	0xbd28afc3	-0.041183244
63	0x3d1ee4bc	0.038792357
64	0xbc3b03ec	-0.011414509
65	0x3ec4c5ce	0.38432163
66	0x3e324e05	0.17412575
67	0x3d3d45e9	0.04620925
68	0xbe2244cd	-0.15846558
69	0x3b7d8863	0.003868603
70	0xb9c4088a	-0.00037390395
71	0x3d5541c0	0.052064657
72	0xbc9cadee	-0.019125905
73	0x3b81759c	0.0039507877
74	0x3cbf7e3e	0.023375627
75	0x3b1ebae2	0.0024220278
76	0x3da3f4b2	0.08005656
77	0xbce4d82e	-0.027935114
78	0x3b189c24	0.0023286426
79	0xbdb4efb3	-0.088347815
80	0x3d913bd0	0.070914865
81	0x3cc7e058	0.024398968
82	0x3d1d4aaf	0.038401302
83	0x3a9dfdb8	0.0012053763
84	0x3d4bed8e	0.049787097
85	0xbd892df8	-0.06698221
86	0x3e0ef5d3	0.13960962
87	0xbb9003eb	-0.0043949983
88	0xbc910947	-0.01770462
89	0xbe0d5f2d	-0.13805838
90	0xbd1b8fae	-0.03797882
91	0xbdbf45f8	-0.09339517
92	0xbdd83986	-0.10557847
93	0x3cdc220e	0.026871707
94	0x3ce2194f	0.027599959
95	0xbd0bd4ec	-0.034138605
96	0xbdb4f762	-0.08836247
97	0x3d3cb22b	0.04606835
98	0xbf24e9be	-0.6441916
99	0xbdfa05ef	-0.12208163
100	0x3de4c08a	0.111695364
101	0x3d36ab52	0.044596978
102	0xbd638b5e	-0.055552833
103	0xbd0171a9	-0.031602535
104	0x3c4fc9ea	0.012682417
105	0x3da10989	0.07863147
106	0xbce87750	-0.028377205
107	0xbe014333	-0.1262329
108	0x3abd337e	0.0014434902
109	0xbd203e2c	-0.03912179
110	0x3d96e62b	0.0736812
111	0xbd4b4f1d	-0.049635995
112	0x3d838852	0.064224854
113	0x3b5a967a	0.0033353851
114	0x3d492405	0.049106617
115	0x38d8e2b8	0.00010341912
116	0x3cccb185	0.024986992
117	0x3c04805c	0.008087244
118	0x3d12c35c	0.03583084
119	0xba604a9f	-0.0008556041
120	0xbb911b73	-0.004428321
121	0xbd1019d9	-0.0351809
122	0x3d8bca10	0.0682565
123	0xbc50c289	-0.012741693
124	0x3d301de1	0.042997245
125	0xbd6a7000	-0.057235718
126	0x3ca2053b	0.019777885
127	0x3dfb5d8b	0.12273701
128	0xb8545800	-5.0626695e-05
129	0xbd701aab	-0.058619183
130	0xba080380	-0.000518851
131	0xbf6ca191	-0.9243403
132	0x3e385a46	0.18003187
133	0x3e3c1f40	0.18371296
134	0x3e80c7dd	0.25152484
135	0xbd380c9f	-0.04493391
136	0x3d83484c	0.06410274
137	0x3d24a8c1	0.0402
138	0x3d239be6	0.0399436
139	0x3dbb0604	0.09132007
140	0xbe08082c	-0.13284367
141	0xbd018323	-0.031619202
142	0x3d543475	0.05180784
143	0x3e142572	0.14467409
144	0xbc952715	-0.018207112
145	0xbd868341	-0.065680034
146	0xbd905b47	-0.0704866
147	0xbde7730e	-0.11301242
148	0x3da5ac17	0.08089464
149	0x3dc651a7	0.09683543
150	0x3dc0d632	0.094158545
151	0x3cf0b637	0.029383762
152	0xbdb8bb41	-0.09020091
153	0x3df32236	0.118717596
154	0x3aac4467	0.0013142944
155	0xbcc76fff	-0.024345396
156	0xbb18b740	-0.0023302585
157	0xbd5aabe2	-0.053386576
158	0xbd9e912a	-0.077425316
159	0x3cc6fa24	0.024289198
160	0xbdd5f5d9	-0.10447282
161	0xbd1b80e0	-0.0379647
162	0xbd4bb0fa	-0.049729325
163	0xbc19c468	-0.009385206
164	0xbe0768ca	-0.13223568
165	0x3da20234	0.079105765
166	0xbd31f144	-0.04344298
167	0x3dc399c8	0.09550816
168	0xbca12528	-0.019671038
169	0xbd4fa466	-0.050693892
170	0x3da1b944	0.07896665
171	0x3d7986c8	0.060919553
172	0xbda70087	-0.081543975
173	0xbe018175	-0.1264704
174	0x3d23e35f	0.04001176
175	0xbd0b9465	-0.034077067
176	0xbd97191e	-0.073778376
177	0xbdb1938f	-0.08670723
178	0xbe1fc5a3	-0.15602736
179	0x3e379b45	0.17930324
180	0xbe4cd711	-0.20003916
181	0xbd8e8880	-0.06959629
182	0xbb9f34d4	-0.0048585925
183	0x3d4e4346	0.050357126
184	0x3d3064e5	0.04306497
185	0xbd3cd1c3	-0.046098482
186	0xbd910105	-0.070802726
187	0x3d2a6d8c	0.04160838
188	0xbd8556ae	-0.065106735
189	0x3e03ca5b	0.12870161
190	0xbd684274	-0.056704
191	0x3dbcb22f	0.09213673
192	0x3d56344b	0.052295964
193	0x3de20e87	0.11037927
194	0x3d402789	0.046912704
195	0xbbd6f829	-0.0065603447
196	0x3a713ec0	0.0009202771
197	0xbdb4f6d2	-0.0883614
198	0x3d091e6d	0.033476282
199	0x3b92a08e	0.004474706
200	0x3d4bf46c	0.049793646
201	0x3c6c51c6	0.014423793
202	0x3b2d6bba	0.0026461915
203	0xbb721ad6	-0.0036942265
204	0xbd447939	-0.04796717
205	0x3b046963	0.0020204417
206	0xbd20433e	-0.039126627
207	0x3c204acd	0.009783459
208	0x3c528888	0.012849934
209	0xbc682bbf	-0.014170586
210	0xbcedb324	-0.029016085
211	0xbdd0b08e	-0.10189925
212	0xbcdc5d89	-0.02690007
213	0xbe1184a6	-0.14210758
214	0xbc17053e	-0.009217558
215	0x3d8167e9	0.063186474
216	0x3cee27ba	0.029071677
217	0xbc4c8343	-0.012482467
218	0x3a65d55e	0.0008767451
219	0xbaf683a7	-0.0018807546
220	0x3d15babe	0.036555044
221	0xbd7539c6	-0.05986955
222	0x3b9eb6a7	0.004843551
223	0xbd8e6f5d	-0.069548346
224	0x3e127a89	0.14304556
225	0xbcdb6ee0	-0.026786268
226	0xbd71f14d	-0.059068013
227	0xbd2f707f	-0.042831894
228	0x3bc15e61	0.0059011434
229	0x3c2ce8ac	0.01055352
230	0xbf9c2edb	-1.2201799
231	0xbc239cff	-0.009986161
232	0x3e7b8bf3	0.24565105
233	0x3dd894a2	0.105752245
234	0x3ded72a3	0.11594131
235	0xbb2cae6d	-0.0026349083
236	0xbc8f7af1	-0.017514678
237	0xbaaed2d4	-0.0013337978
238	0x3d7c11e6	0.061540507
239	0xbe930a02	-0.28718573
240	0x3d356902	0.044289596
241	0x3d800ab4	0.062520415
242	0x3e9f6210	0.31129503
243	0xbd597f57	-0.053099956
244	0xbd90a431	-0.07062567
245	0xbd0972bc	-0.033556685
246	0x3d04b5bc	0.032399878
247	0x3e31759e	0.17330024
248	0xbdb41fb5	-0.0879511
249	0x3e3ec6d9	0.18630542
250	0x3d0a39f2	0.033746667
251	0x3d84e6d3	0.06489339
252	0x3dbcca2f	0.09218251
253	0xbb1c7314	-0.0023872303
254	0x3db7b8a3	0.089707635
255	0xbe5cd975	-0.21567328

fc1.bias f4 [400]
0	0xbdd11b91	-0.10210336
1	0xbd584f8c	-0.052810237
2	0x3dddc4b8	0.10828537
3	0xbc83be5e	-0.016081985
4	0xbe22ca40	-0.15897465
5	0xbe3e3175	-0.18573554
6	0xbdca9343	-0.09891369
7	0xbe4ca7aa	-0.19985834
8	0xbe500d86	-0.20317659
9	0xbd702a90	-0.05863434
10	0x3d55b4dc	0.052174434
11	0xbdbee898	-0.093217075
12	0x3d1454b6	0.0362136
13	0xbd1c33fb	-0.03813551
14	0xbe1fc9df	-0.15604351
15	0xbe25e27b	-0.16199677
16	0xbdde64fb	-0.10859104
17	0xbe37e5ac	-0.17958707
18	0xbe82daba	-0.255575
19	0xbdebe685	-0.115185775
20	0xbdf20868	-0.118180096
21	0xbd90c4b1	-0.07068766
22	0xbe00c105	-0.12573631
23	0xbe2c2c36	-0.1681374
24	0xbe07ae18	-0.13250005
25	0xbde5ae28	-0.11214858
26	0x3cb74eb8	0.022376403
27	0x3da1d78f	0.07902443
28	0x3ddc283b	0.10749861
29	0x3ca27d90	0.019835263
30	0xbe1579ec	-0.14597291
31	0xbcea8074	-0.028625704
32	0x3dd328bf	0.10310506
33	0xbda36d6c	-0.07979855
34	0xbe178331	-0.1479614
35	0xbc280fec	-0.010257702
36	0xbd9baba5	-0.07601098
37	0x3d26789b	0.040642362
38	0x3df73aa8	0.12071735
39	0xbe101229	-0.14069428
40	0x3d969719	0.07353038
41	0x3d6f276f	0.058387216
42	0x3dabb4e8	0.083841145
43	0x3d2dd3f3	0.04243846
44	0xbd9755d2	-0.07389416
45	0xbcf57aa5	-0.029965708
46	0x3dfa6f1c	0.12228224
47	0x3d60edbe	0.05491423
48	0x3d20ae40	0.039228678
49	0xbdc0a5bf	-0.094066136
50	0x3c126f9f	0.008937745
51	0x3e39a493	0.18129186
52	0x3e08fad2	0.1337693
53	0x3e14db93	0.14536886
54	0xbde2acce	-0.11068116
55	0x3e2f89c2	0.17142394
56	0xbd3d0f83	-0.04615737
57	0xbdc40b00	-0.095724106
58	0x3c330904	0.010927442
59	0x3e21e9e1	0.15811874
60	0xbe7679ee	-0.2406995
61	0xbdbfa79b	-0.0935814
62	0x3e03bd45	0.1286517
63	0xbda86d65	-0.0822399
64	0xbe652eb9	-0.22381105
65	0xbe1f375b	-0.1554846
66	0x3c01d62e	0.0079246
67	0xbe1dbc80	-0.15403938
68	0x3da59ded	0.080867626
69	0x3cd29593	0.025706088
70	0x3d51552a	0.05110661
71	0xbe023037	-0.12713705
72	0x3dc51e62	0.09624936
73	0xbe2d1d6d	-0.16905756
74	0x3db0fae3	0.08641603
75	0x3deaa4a5	0.11457185
76	0xbe3c64de	-0.18397853
77	0xbd05e94f	-0.032693204
78	0x3dbcd200	0.09219742
79	0xbe024a40	-0.12723637
80	0xbe01b2ec	-0.1266591
81	0xbdadcc75	-0.08486263
82	0xbe1829b5	-0.1485966
83	0x3cf29744	0.029613145
84	0xb98f41b6	-0.00027324044
85	0x3d8583b6	0.065192625
86	0x3d024ca6	0.03181138
87	0x3c9c9be8	0.01911731
88	0x3d50b658	0.050955147
89	0xbe43174a	-0.19051853
90	0xbe2faad9	-0.17155017
91	0xbd110d6a	-0.035413183
92	0x3c29d1d5	0.010364969
93	0xbd8fbcb2	-0.07018413
94	0xbd577ad4	-0.052607372
95	0xbdc5f0b2	-0.096650496
96	0xbc269517	-0.010167382
97	0x3d39e2d9	0.045382354
98	0xbd99cbe7	-0.075095944
99	0x3e36e6ff	0.17861556
100	0xbdb25ccf	-0.08709108
101	0x3e373a73	0.1789339
102	0xbe038f74	-0.12847692
103	0x3e6ad082	0.22931102
104	0xbb9b599c	-0.004740907
105	0x3e01d62d	0.12679358
106	0x3d974730	0.07386625
107	0xbd698e7a	-0.057020642
108	0xbdefa44c	-0.11701259
109	0xbe625ae1	-0.2210498
110	0x3cb5c195	0.022187034
111	0xbe2ef135	-0.170842
112	0x3c0c8ed7	0.008578978
113	0xbc0e08a5	-0.008669053
114	0x3de5e04f	0.11224424
115	0x3d8b574c	0.0680376
116	0xbd9d1f18	-0.07671946
117	0xbc95a4ca	-0.018267054
118	0xbe43c789	-0.19119085
119	0xbe30d7e2	-0.17269853
120	0xbeb380a2	-0.35059077
121	0xbdf46f40	-0.11935282
122	0xbe10be9e	-0.14135215
123	0x3d7ec542	0.06219984
124	0xbe145486	-0.14485368
125	0x3d6099ed	0.054834295
126	0x3d8e382f	0.0694431
127	0xbda12248	-0.07867867
128	0xbd5ef6a0	-0.05443442
129	0x3d93d7e4	0.07218912
130	0xbe605d09	-0.2191049
131	0x3ddd237c	0.10797784
132	0x3dbe1d11	0.09282888
133	0x3bf6acdd	0.007527931
134	0xbe5cb2d9	-0.215526
135	0x3d94dac1	0.072682865
136	0xbc55ff63	-0.013061377
137	0x3cdf616f	0.02726814
138	0x3e264eab	0.16240947
139	0xbb3f35cb	-0.002917635
140	0xbc85c326	-0.016328406
141	0xbe0bfbd8	-0.1367029
142	0xbdb82501	-0.08991433
143	0x3e14bad1	0.1452439
144	0xbe1f1cf7	-0.15538393
145	0xbd374abf	-0.044749018
146	0xbda01541	-0.07816554
147	0xbded93a1	-0.116004236
148	0xbe6e845e	-0.23292682
149	0xbe27e986	-0.16397676
150	0xbdc842a5	-0.097783364
151	0xbc3d3ee6	-0.011550641
152	0x3da31254	0.0796248
153	0xbea8c56c	-0.3296312
154	0xbd50cdd3	-0.05097754
155	0xbe561499	-0.20906295
156	0x3e574873	0.21023731
157	0xbe35946e	-0.17732403
158	0xbcc4dbff	-0.024030684
159	0xbc2223ad	-0.009896201
160	0xbe4436d0	-0.19161534
161	0x3c9ab691	0.018885883
162	0x3ce4d558	0.027933761
163	0x3c0bb711	0.008527533
164	0x3bd65934	0.0065413956
165	0xbc08dd48	-0.008353539
166	0x3a52a8cf	0.00080360187
167	0x3e341474	0.17585927
168	0xbc8e0475	-0.01733611
169	0xbd62266b	-0.05521242
170	0xbd24ec27	-0.040264275
171	0xbe3ad2d0	-0.18244481
172	0x3d407b17	0.046992388
173	0xbdb609e1	-0.08888603
174	0xbe2247bb	-0.15847676
175	0x3dd37bcb	0.10326346
176	0xbe9a95a5	-0.30192295
177	0xbe34929e	-0.17634055
178	0x3e1570e8	0.14593852
179	0xbe213078	-0.15741146
180	0x3d839adc	0.064260215
181	0x3d64a87e	0.05582475
182	0xbe20350c	-0.15645236
183	0xbe3179ca	-0.17331615
184	0x3b0b7781	0.0021280947
185	0xbe36adb4	-0.178397
186	0xbe6a6470	-0.22889876
187	0xbd1287ae	-0.035773925
188	0x3d89e18a	0.06732471
189	0x3ddefa00	0.108875275
190	0xbde553df	-0.11197638
191	0xbe16dfb0	-0.14733768
192	0xbe72934a	-0.23688999
193	0x3e241811	0.16024806
194	0x3d541325	0.05177607
195	0x3bd1f752	0.0064076567
196	0xbe4c1ff3	-0.19934063
197	0xbed1db05	-0.4098741
198	0x3dcebc86	0.10094552
199	0xbc9db765	-0.019252488
200	0xbdac2a2b	-0.084064804
201	0xbe18045e	-0.14845416
202	0xbe2367cb	-0.15957563
203	0xbe0d1c5d	-0.13780351
204	0xbe67e267	-0.2264496
205	0xbcb246e0	-0.021762311
206	0xbd930941	-0.071794994
207	0xbdcf6514	-0.10126701
208	0x3b0c601b	0.0021419588
209	0xbe242eea	-0.16033521
210	0xbd35d001	-0.04438782
211	0x3de9d878	0.11418241
212	0xbe145a38	-0.1448754
213	0xbe9e4a85	-0.3091623
214	0x3d8c77ad	0.06858764
215	0xbd2a8fe0	-0.041641116
216	0xbe220771	-0.15823151
217	0xbdc0f8fd	-0.09422491
218	0xbccf4e42	-0.02530587
219	0x3da6a381	0.08136655
220	0xbe8b188b	-0.27167162
221	0xbe5c286c	-0.21499795
222	0xbe32439b	-0.17408602
223	0xbe7489d3	-0.23880701
224	0x3e18c094	0.14917213
225	0xbd99145a	-0.07474585
226	0x3e14e268	0.14539492
227	0x3d3d0a5d	0.04615246
228	0x3d13ae90	0.036055148
229	0xbe67fa46	-0.22654065
230	0x3cf98dfe	0.030463215
231	0x3cfbb1ae	0.030724373
232	0xbd118be8	-0.035533816
233	0xbe7496e1	-0.2388568
234	0xbdba4a6a	-0.090962246
235	0x3e0d4e38	0.1379937
236	0xbdc51929	-0.096239395
237	0xbde40271	-0.11133278
238	0xbde204bb	-0.110360585
239	0x3c4a774a	0.012357542
240	0x3de5f779	0.11228842
241	0xbd676868	-0.056496054
242	0x3d3c7ae5	0.04601564
243	0x3de5cefd	0.112211205
244	0xbdcc618a	-0.099795416
245	0xbe0ace3b	-0.13555233
246	0x3e3046a5	0.17214449
247	0x3d8be475	0.06830684
248	0xbdfb4df2	-0.12270726
249	0xbe9cb8ca	-0.30609733
250	0xbca13142	-0.019676808
251	0x3cc09520	0.023508608
252	0xbd909020	-0.0705874
253	0xbd664e33	-0.05622692
254	0x3e292102	0.16516498
255	0x3daaf62d	0.083477356

fc2.weight f4 [300, 400]
0	0x3df4f9a4	0.11961678
1	0x3ad4410e	0.0016193704
2	0x3d22dec0	0.039763212
3	0xbd8e6e58	-0.0695464
4	0x3d3b213b	0.045685988
5	0xbd8fbf68	-0.0701893
6	0x3e455b6e	0.19273159
7	0x3d99dbad	0.07512603
8	0xbdffee9a	-0.124966815
9	0xbdbf7259	-0.09347982
10	0xbda250a3	-0.079255365
11	0xbb76d794	-0.0037665116
12	0xbdfd8e0c	-0.12380609
13	0x3da78d2b	0.081812225
14	0xbbccc610	-0.006249197
15	0xbd3c32cf	-0.045946892
16	0x3c88b967	0.01668997
17	0xbd9c3631	-0.07627524
18	0x3df62d6b	0.120203815
19	0xbd0dae2e	-0.03458994
20	0x3de3ff9d	0.11132739
21	0x3908268e	0.00012984333
22	0xbbee6489	-0.0072751683
23	0xbdea4ed6	-0.11440818
24	0xbc8ef806	-0.017452251
25	0xbd49376a	-0.049125113
26	0xbe012dbc	-0.12615103
27	0xbb9cb903	-0.0047827973
28	0xbc812c1a	-0.0157681
29	0xbc16f2fb	-0.0092132045
30	0xbe025048	-0.12725937
31	0x3d42e4dc	0.04758154
32	0xbe31f9ab	-0.17380397
33	0xbd33ed6e	-0.043927602
34	0x3d8bf136	0.06833117
35	0x3e280e44	0.16411692
36	0x3cbb4b95	0.022863189
37	0xbda6dfd9	-0.08148164
38	0xbd8d7b3e	-0.06908272
39	0xbd2479ae	-0.040155105
40	0x3c9add7e	0.018904444
41	0x3d6c3b51	0.057673756
42	0xbd74fc14	-0.059810713
43	0xbe65aa80	-0.22428322
44	0x3c6b8c33	0.014376688
45	0x3e1bf47f	0.15229987
46	0xbd9bef65	-0.0761402
47	0x3d12f354	0.035876587
48	0x3d6df41d	0.058094133
49	0x3e2eef45	0.17083462
50	0xbc903e79	-0.017607914
51	0x3c97fd90	0.018553525
52	0xbe27ecef	-0.16398977
53	0x3c9e8265	0.019349286
54	0xbe0e397a	-0.13889113
55	0x3dd3758c	0.10325155
56	0x3db906b6	0.09034483
57	0xbe472d6f	-0.19450925
58	0xbb821411	-0.0039696773
59	0x3c6cb027	0.014446295
60	0x3d308467	0.04309502
61	0xbdbf6274	-0.0934495
62	0xbdef9a03	-0.11699297
63	0xbdd5db2e	-0.10442196
64	0xbdf771d6	-0.12082259
65	0x3db89116	0.09012048
66	0x3cc15763	0.02360124
67	0xbe005f9e	-0.12536475
68	0xbd05be16	-0.032651983
69	0x3da90110	0.08252156
70	0xbda55935	-0.080736555
71	0xbc9f231f	-0.019425927
72	0xbddc0126	-0.107424065
73	0xbd271562	-0.040791877
74	0x3da6f775	0.081526674
75	0x3d1264a2	0.035740502
76	0xbb723566	-0.0036958097
77	0x3e28eb71	0.16496064
78	0xbdc5b9d0	-0.096545815
79	0xbea2cd08	-0.3179705
80	0xbd2d4cd4	-0.042309597
81	0x3dd1705b	0.10226508
82	0xbc011b22	-0.007880004
83	0x3ca5dd88	0.020247236
84	0x3c0462a1	0.008080156
85	0x3dd4dbb3	0.10393467
86	0xbdef70c1	-0.11691428
87	0xbe20ecae	-0.15715286
88	0xbd8f95a7	-0.07010966
89	0x3cfa21be	0.030533668
90	0x3cca2c1f	0.024679242
91	0x3d681682	0.05666209
92	0x3d81babf	0.06334447
93	0xbe0ea3fe	-0.13929746
94	0x3c7615f3	0.015019882
95	0xbd7be3dc	-0.0614966
96	0x3d016f67	0.031600382
97	0x3df69431	0.12039984
98	0xbd6a6eab	-0.057234447
99	0x3db8b50f	0.09018909
100	0xbd726649	-0.059179578
101	0x3d50a377	0.050937142
102	0xbe3de892	-0.1854575
103	0x3cf308c6	0.02966727
104	0xbdb3b817	-0.08775347
105	0xbe054bd5	-0.13017209
106	0xbd9aa83f	-0.07551622
107	0x3d6062bd	0.054781664
108	0xbdf63a89	-0.120228834
109	0xbddd0b6b	-0.107931934
110	0xbd017dcc	-0.03161411
111	0x3da385a5	0.07984475
112	0x3df965da	0.1217763
113	0x3cc156dd	0.02360099
114	0xbcc8975a	-0.024486233
115	0xbda0eb00	-0.07857323
116	0xbd6b3c33	-0.057430457
117	0x3cef5f19	0.02922015
118	0xbd19af5b	-0.037520748
119	0xbc1c644c	-0.009545397
120	0xbd484426	-0.048893116
121	0x3ce454ca	0.027872462
122	0x3da1f2fe	0.07907675
123	0xbd429156	-0.047501884
124	0xbd977c35	-0.073967375
125	0x3e16d8d1	0.14731146
126	0xbc82e88c	-0.015980028
127	0xbdc4bbbe	-0.096061215
128	0xbc507850	-0.012723997
129	0x3e0ea8e9	0.13931622
130	0x3ddd65b7	0.10810416
131	0xbcacaeae	-0.021079388
132	0xbd5b4cfb	-0.05354021
133	0x3ded0e36	0.11574976
134	0x3d4a0de8	0.04932967
135	0xbd6eb15d	-0.058274616
136	0x3df493df	0.11942267
137	0x3dcb5177	0.099276476
138	0x3df770ef	0.12082087
139	0xbc3badf8	-0.011455052
140	0x3d47905b	0.048721652
141	0xbe0d9645	-0.13826855
142	0x3e0e06f2	0.13869837
143	0x3d422678	0.047399968
144	0xbc863759	-0.016383814
145	0xbe38189e	-0.1797814
146	0x3da859f5	0.08220283
147	0xbdafef09	-0.08590514
148	0x3df66ce7	0.1203249
149	0xbd9316ec	-0.071821064
150	0x3d961ed8	0.07330102
151	0xbdc65bb2	-0.09685458
152	0xbe028234	-0.12744981
153	0xbdafbdd3	-0.08581128
154	0xbd606117	-0.054780092
155	0x3d63bd28	0.055600315
156	0x3c7baf89	0.015361675
157	0x3d1e1151	0.038590733
158	0xbda5bc0c	-0.08092508
159	0xbca203af	-0.019777147
160	0xbe2ef481	-0.17085458
161	0x3e57a026	0.21057186
162	0x3d6d8d41	0.05799604
163	0xbd12b5ae	-0.035817795
164	0xbdc905a3	-0.09815528
165	0x3e0ed58d	0.1394865
166	0x3e4e2bbd	0.20133872
167	0x3e1ad524	0.15120369
168	0xbcc5ee2f	-0.024161426
169	0xbe86852b	-0.26273474
170	0xbcf6f50b	-0.030146142
171	0x3db87525	0.090067185
172	0xbceb5a06	-0.02872945
173	0x3c43df3d	0.01195508
174	0xbda9c23f	-0.082890026
175	0x3d894324	0.06702259
176	0xbe309305	-0.17243584
177	0x3d369494	0.04457529
178	0xbe468304	-0.19385916
179	0x3dc746cc	0.097303
180	0xbdba4185	-0.09094528
181	0x3d35df98	0.04440269
182	0xbd1183da	-0.035526134
183	0xbe2992e9	-0.16559948
184	0xbdcf2b42	-0.10115673
185	0xbd000419	-0.031253908
186	0x3e34c55b	0.1765341
187	0x3dc1a5c5	0.09455446
188	0x3d9240af	0.07141244
189	0x3d8c62be	0.06854771
190	0x3d0b7705	0.034049053
191	0xbe112902	-0.141758
192	0xbcf76970	-0.030201644
193	0x3da8c4ca	0.082406595
194	0xbe04af90	-0.12957597
195	0xbddc4e36	-0.10757105
196	0xbe977ce4	-0.2958747
197	0xbc82fd74	-0.015989996
198	0x3d8b058f	0.067881696
199	0x3ddc9edf	0.1077249
200	0xbcd62115	-0.026138822
201	0xbd48420c	-0.048891112
202	0x3b2ed284	0.002667577
203	0xbea9457b	-0.33060822
204	0xbc8f0434	-0.017458059
205	0xbdd11bbb	-0.10210367
206	0x3d79188a	0.060814418
207	0x3d3af1ef	0.045640882
208	0xbdeae433	-0.11469307
209	0x3dcb80cf	0.09936678
210	0x3d46c5df	0.04852855
211	0xbbfa5e39	-0.0076406267
212	0xbe91ac07	-0.2845156
213	0xbdbb6dce	-0.09151803
214	0xbe2b3dcf	-0.16722797
215	0x3dc067fb	0.09394833
216	0xbdc1efcf	-0.09469568
217	0x3dc256d9	0.09489221
218	0x3d41b3c6	0.047290586
219	0xbdd2800c	-0.10278329
220	0x3e0b2877	0.13589655
221	0x3e07c72c	0.13259572
222	0xbca6a02a	-0.020340044
223	0xbc132876	-0.008981815
224	0xbe0453d4	-0.12922603
225	0x3dc55215	0.096347965
226	0x3e3df63a	0.18550959
227	0x3d375aa2	0.04476417
228	0xbe95c349	-0.29250553
229	0xbc49da5d	-0.012320128
230	0xbda65fcc	-0.081237406
231	0x3bcd7126	0.006269592
232	0x3dd58864	0.10426405
233	0xbde0b271	-0.10971535
234	0x3d688816	0.056770407
235	0x3b173747	0.002307372
236	0xbd8da127	-0.06915503
237	0x3d6a9996	0.057275377
238	0x3d8e5728	0.069502175
239	0x3dee3d7c	0.11632821
240	0x3deda8f7	0.11604493
241	0xbd608d19	-0.05482206
242	0x3dda0478	0.106453836
243	0xbe0c6765	-0.13711317
244	0x3de901f4	0.11377326
245	0xbeb8f7bf	-0.36126515
246	0x3c9e2374	0.019304015
247	0xbb63f3dc	-0.0034782803
248	0xbd57181e	-0.052513234
249	0xbe0e80f0	-0.13916373
250	0x3cf2c87d	0.029636616
251	0x3e864bd8	0.2622974
252	0x3db3000b	0.087402426
253	0x3d09ddfd	0.03365897
254	0x3a89f5cb	0.0010525523
255	0xbd9eae6c	-0.07748112

fc2.bias f4 [300]
0	0x3d3be38a	0.045871295
1	0xbc01a9cf	-0.007914021
2	0xb8c8f09d	-9.581561e-05
3	0x3cb47697	0.022029204
4	0x3df09874	0.11747828
5	0xbcdb7fc6	-0.026794326
6	0x3d9d0f56	0.07668941
7	0x3de6c0b3	0.11267223
8	0x3d9c40e3	0.07629564
9	0x3dca9d0f	0.09893238
10	0xbc12120f	-0.008915438
11	0x3d198413	0.03747947
12	0xbe377cf8	-0.17918766
13	0xbd82b6fc	-0.06382558
14	0xbd94a8c6	-0.072587535
15	0xbce1a53c	-0.02754461
16	0x3ae4aca5	0.0017446472
17	0xbcce6752	-0.025195751
18	0x3decdfda	0.11566134
19	0xbc4469f1	-0.011988149
20	0x3d07d416	0.033161245
21	0xbc9c47e1	-0.019077243
22	0xbbeb116e	-0.0071737086
23	0xbc2b1c0a	-0.010443697
24	0x3d990917	0.07472437
25	0xbb88c029	-0.004173298
26	0x3dd3a61e	0.10334419
27	0xbda3e5e8	-0.080028355
28	0x3cef167e	0.02918553
29	0x3bda8877	0.0066691
30	0xbd4f4f69	-0.05061284
31	0xbb92b862	-0.0044775466
32	0x3dff9545	0.12479643
33	0x3d8b85ae	0.06812607
34	0xbe03e5ef	-0.12880681
35	0x3db313c3	0.087440036
36	0x3d5805b3	0.05273981
37	0xbbab3032	-0.005224251
38	0x3ceee715	0.029162923
39	0x3dd48919	0.10377712
40	0xbcb70065	-0.022339055
41	0x3be7ae2e	0.0070703244
42	0xbdd3b1e0	-0.10336661
43	0xbcece105	-0.028915891
44	0x3dfc04af	0.12305581
45	0x3d5e9d89	0.054349456
46	0x3d1a217b	0.037629586
47	0xbe234df6	-0.15947708
48	0xbc81a1ff	-0.015824316
49	0x3b8caf1a	0.0042933347
50	0xbe0596d9	-0.13045825
51	0xbcfe9880	-0.031078577
52	0x3d1907d2	0.037360974
53	0x3c751224	0.014957938
54	0x3c641219	0.01392033
55	0x3be52e45	0.006994041
56	0xbde07973	-0.109606646
57	0x3bbc21b0	0.0057413206
58	0xbcb22e44	-0.021750577
59	0x398838c7	0.00025982244
60	0x3c855c1c	0.016279273
61	0x3d96f669	0.07371218
62	0xbd117c4c	-0.03551893
63	0x3d75dd49	0.060025487
64	0x3c83c131	0.016083332
65	0x3d008b45	0.031382818
66	0xbd26b95e	-0.040704124
67	0xbce95ed5	-0.028487602
68	0x3ceaf72e	0.028682318
69	0x3d604ddb	0.05476175
70	0x3da4fe50	0.08056319
71	0xbdb27654	-0.087139755
72	0x3d9a0eb1	0.075223334
73	0x3b922ed1	0.0044611474
74	0x3d54e453	0.05197556
75	0x3a5cb849	0.00084197946
76	0xbc8520ab	-0.016250929
77	0x3e19d80b	0.1502382
78	0xbca41aa5	-0.020032236
79	0xbdf5336e	-0.119727
80	0xbd74e9af	-0.05979317
81	0xbcd843b4	-0.02639947
82	0xbd3b1fae	-0.04568451
83	0x3c6f0f93	0.0145911155
84	0x3cac8866	0.021061134
85	0xbc6d9020	-0.014499694
86	0xbcd1d15d	-0.025612528
87	0xbd02dcdd	-0.031948913
88	0xbd5fdaa6	-0.05465188
89	0x3dff59cd	0.124683
90	0x3c1db082	0.009624602
91	0xbd903041	-0.07040454
92	0x3bd601e2	0.006530986
93	0x3d1b82da	0.037966587
94	0x3d0fda78	0.035120457
95	0x3d9ee994	0.07759395
96	0x3b132aad	0.0022455857
97	0x3dd02225	0.101627626
98	0xbde25a0a	-0.1105233
99	0x3b1da293	0.00240532
100	0x3cf9aa0e	0.030476596
101	0x3bb92e8d	0.0056513012
102	0xbd13b7de	-0.03606402
103	0x3cd8da89	0.026471393
104	0x3ce0a219	0.027421044
105	0x3c4885dc	0.012238946
106	0x3cbe56bc	0.023234718
107	0x3d0c05e0	0.03418529
108	0xbe8d2c0e	-0.27572674
109	0xbd842357	-0.06452053
110	0x3d6e0170	0.05810684
111	0x3d76f407	0.060291316
112	0x3db8f74b	0.090315424
113	0x3cb5a5d7	0.022173805
114	0xbd136932	-0.035988994
115	0xbc48d014	-0.012256641
116	0x3d93d128	0.07217628
117	0x3df6dbb0	0.12053621
118	0xbceb6ddf	-0.028738914
119	0x3dcbc564	0.09949759
120	0xbde96ae4	-0.11397341
121	0xbd806800	-0.062698364
122	0x3d9ef900	0.07762337
123	0xbc5a7388	-0.013333209
124	0x3d6e5053	0.058182072
125	0xbe298897	-0.16556011
126	0x3d3c6350	0.04599315
127	0x3d3b10b1	0.045670215
128	0x3d659b3f	0.056056257
129	0x3d8a8048	0.06762749
130	0x3cb63665	0.022242734
131	0xbc37e597	-0.011224172
132	0x3d0f1f60	0.03494203
133	0x3cbe8009	0.023254411
134	0x3d2862f2	0.041109987
135	0xbbc2a390	-0.0059399083
136	0x3cbbc35d	0.022920305
137	0x3db96d15	0.09054009
138	0xbd35d736	-0.044394694
139	0x3ccdd2b8	0.025124893
140	0xbe0530a4	-0.13006836
141	0x3c1585a4	0.009126101
142	0x3d373335	0.04472657
143	0x3a6de865	0.0009075462
144	0xbd5a0243	-0.053224813
145	0x3d56640d	0.05234151
146	0xbd1a5da1	-0.037686948
147	0x3bb54808	0.0055322684
148	0xbe1dcdaa	-0.15410486
149	0x3d1b9794	0.037986353
150	0xbd059d58	-0.032620758
151	0x3d8e9940	0.06962824
152	0x3d81f622	0.06345774
153	0x3cc5f1b3	0.024163103
154	0x3d8a8dbe	0.067653164
155	0x3d890d3e	0.06691979
156	0xbc5bf758	-0.013425671
157	0x3d33a382	0.043857105
158	0xbd61a53e	-0.055089228
159	0x3d953af7	0.07286637
160	0x3da63f6c	0.081175655
161	0x3d3e4210	0.04644972
162	0x3d25f345	0.040515203
163	0x3caefb81	0.02136016
164	0xbda34b2c	-0.07973322
165	0xbc7d66a8	-0.01546637
166	0x3d59836e	0.053103857
167	0x3dd86f63	0.1056812
168	0xbe05c11f	-0.13061951
169	0x3ce3e54a	0.027819294
170	0xbd800443	-0.06250813
171	0xbd803476	-0.06260006
172	0xbcee637b	-0.02910017
173	0x3c82fe62	0.01599044
174	0x3dbf39be	0.09337185
175	0x3d333b29	0.04375759
176	0xbdde9815	-0.10868851
177	0x3c6c8020	0.014434844
178	0xbdfe8818	-0.124283016
179	0x3d6e42b7	0.058169093
180	0x3d2ad9ed	0.041711736
181	0xbcd2f768	-0.025752738
182	0x3e039bb0	0.12852359
183	0xbbfcd43e	-0.007715731
184	0x3d31c2e4	0.043398753
185	0xbd064429	-0.032779846
186	0x3d9e60ac	0.077332824
187	0x3d59eab7	0.053202357
188	0x3d11faa3	0.035639416
189	0x3ca86868	0.020557597
190	0xbdb0c6fd	-0.08631704
191	0x3d74b6ac	0.059744522
192	0xbce0c480	-0.027437449
193	0x3d04804b	0.032348912
194	0x3de6c048	0.112671435
195	0x3d6d48b7	0.057930674
196	0xbd26a188	-0.040681392
197	0xbd058d18	-0.03260526
198	0xbdf3438b	-0.11878117
199	0x3da54663	0.08070066
200	0xbd1c83e7	-0.03821173
201	0xbd5df4ef	-0.054188665
202	0xbde5f686	-0.11228661
203	0x3d086b8a	0.033305682
204	0x3d09d9dd	0.033655036
205	0x3ddd1614	0.10795227
206	0xbcafe2dc	-0.02147048
207	0x3d170f05	0.036879558
208	0xbd8fa07d	-0.070130326
209	0x3ae14fbb	0.0017189899
210	0x3c213a03	0.009840491
211	0x3bd66e56	0.006543915
212	0xbdd9583b	-0.10612532
213	0xbb995565	-0.0046793693
214	0xbd5d3b3e	-0.054011576
215	0x3ddc7048	0.107636034
216	0x3d74e3f6	0.059787713
217	0xb9870220	-0.0002575079
218	0x3cb81332	0.02247009
219	0x3dd88d54	0.10573831
220	0xbdbb624e	-0.091496095
221	0xbdfaea9c	-0.122517794
222	0xbc55d600	-0.01305151
223	0xbc62c67e	-0.01384127
224	0x3c44c9d2	0.012011008
225	0x3c9990d4	0.018745817
226	0xbd6ba00c	-0.05752568
227	0x3d0449fc	0.03229712
228	0xbce6ac62	-0.02815837
229	0x3d8d3fde	0.06896947
230	0xbca543d8	-0.020173952
231	0xbd679cca	-0.05654601
232	0xbe019ce4	-0.12657505
233	0x3dba488a	0.09095867
234	0xbd877de3	-0.06615808
235	0xbdc4a4c3	-0.09601738
236	0xbdcba7f7	-0.09944146
237	0x3d16f763	0.03685702
238	0xbc36835e	-0.011139719
239	0xbc8af770	-0.01696369
240	0xbd69e595	-0.057103712
241	0x3d48f0b7	0.04905769
242	0x3d42867d	0.04749154
243	0xbd1eac30	-0.03873843
244	0xbdd1f5c6	-0.10251956
245	0xbde866ff	-0.1134777
246	0x3d42f759	0.04759917
247	0x3db1858d	0.08668051
248	0xbc32fb33	-0.010924148
249	0xbce2fcfb	-0.027708521
250	0x3d144f71	0.036208574
251	0x3daff739	0.08592076
252	0x3d5637d6	0.052299343
253	0xbd587a56	-0.052851044
254	0xbde92b68	-0.11385232
255	0xbdd91a5d	-0.106007315

fc3.weight f4 [4, 300]
0	0x3b00b1a3	0.001963713
1	0x3d3acf36	0.045607768
2	0x3b0b3990	0.0021244027
3	0xbe916250	-0.2839532
4	0x3e0326be	0.12807748
5	0x3e247479	0.16060056
6	0xbdd464c2	-0.103707805
7	0xbea44244	-0.32081807
8	0xbeddd56d	-0.43326893
9	0xbda38ede	-0.07986234
10	0x3ae105bb	0.0017167846
11	0x3c1ce08d	0.009575021
12	0x3e982514	0.29715788
13	0x3e2639fd	0.16233058
14	0xbf1b9e0a	-0.60788023
15	0x3e2dc795	0.16970666
16	0xbe637c9e	-0.22215506
17	0x3dc51897	0.09623831
18	0x3da010e8	0.078157246
19	0x3e1b8799	0.15188445
20	0xbe79e50c	-0.2440378
21	0x3ecb269d	0.39677897
22	0xbd65d9a1	-0.05611575
23	0xbe9ce532	-0.30643612
24	0xbd100a8e	-0.035166316
25	0x3e8b1cbc	0.2717036
26	0x3cbec852	0.02328888
27	0x3ce994dc	0.028513364
28	0xbdfee68b	-0.12446316
29	0x3f054a2d	0.5206631
30	0x3e4d132c	0.20026845
31	0x3e22558f	0.1585295
32	0x3e0e74d3	0.13911752
33	0xbca2b1be	-0.019860145
34	0xbc6823b9	-0.014168673
35	0x3e1cf82f	0.1532905
36	0xbe08ce49	-0.13359942
37	0x3d676b5e	0.056498878
38	0xbde25914	-0.110521466
39	0xbdef43ff	-0.11682891
40	0xbe7b82e0	-0.24561644
41	0xbca277ed	-0.019832576
42	0x3da417d4	0.08012357
43	0xbe078073	-0.13232593
44	0xbdd36f5c	-0.103239745
45	0xbe99aead	-0.3001608
46	0x3e4250c8	0.18976128
47	0x3ed23a1d	0.41059962
48	0xbda34857	-0.07972782
49	0xbdad8401	-0.08472443
50	0x3f61a4e6	0.8814224
51	0xbdaa8491	-0.08326066
52	0x3e860ea6	0.2618305
53	0x3e6a8c65	0.22905119
54	0xbe61bd21	-0.22044803
55	0xbd8fadb4	-0.07015553
56	0xbe2d619b	-0.16931765
57	0x3c5e31c2	0.013561668
58	0xbd5f18b9	-0.054466937
59	0x3e6753cb	0.22590558
60	0xbe4493b6	-0.19196972
61	0x3c59b525	0.013287817
62	0x3e155955	0.14584859
63	0xbcebd632	-0.02878866
64	0xbdd583cb	-0.10425528
65	0x3e8cb1eb	0.2747949
66	0x3e1b3d52	0.1516011
67	0x3d39ba19	0.045343492
68	0x3e7445fb	0.2385482
69	0x3d36f978	0.044671506
70	0x3cb5f54d	0.022211695
71	0x3e53191c	0.20615047
72	0xbf007276	-0.50174654
73	0x3c9b58d6	0.018963259
74	0x3e2de595	0.1698211
75	0x3eb9e8e1	0.36310485
76	0xbea94e64	-0.3306762
77	0x3dab290e	0.0835744
78	0xbde67864	-0.112534314
79	0x3e1978ad	0.1498744
80	0xbda2e779	-0.07954306
81	0x3f0152e2	0.50517094
82	0x3ef29d87	0.4738581
83	0xbec0e6f0	-0.3767619
84	0x3e4240fe	0.18970105
85	0xbf06afb6	-0.52611864
86	0xbd82641d	-0.06366751
87	0x3cd1c545	0.02560676
88	0xbe696c88	-0.22795308
89	0xbd781a31	-0.060571853
90	0x3c3260cb	0.010887335
91	0x3f8060d9	1.0029556
92	0xbe85757b	-0.26066193
93	0xbd149861	-0.036278132
94	0xbe570808	-0.20999157
95	0xbc12a60d	-0.008950722
96	0x3ed9383f	0.42425725
97	0xbe1b2691	-0.1515143
98	0xbebc4de2	-0.3677817
99	0x3e15d008	0.14630139
100	0xbe07cfc3	-0.13262849
101	0x3e7f5aad	0.24936934
102	0xbdba9af5	-0.09111587
103	0xbe80b5f8	-0.2513883
104	0xbf218a31	-0.6310149
105	0xbb8fae32	-0.0043847794
106	0xbea79643	-0.32731828
107	0x3f0e5da7	0.5561165
108	0x3f38066b	0.71884793
109	0x3e48a597	0.19594418
110	0x3ef42886	0.47687167
111	0x3ee8d44b	0.45474467
112	0xbd700e1a	-0.0586072
113	0x3c89a74e	0.01680341
114	0xbe2ded41	-0.16985036
115	0xbed4b8e8	-0.41547322
116	0x3dd70b17	0.10500162
117	0xbd37aa04	-0.044839874
118	0xbbcbfcf7	-0.006225224
119	0xbddf0adc	-0.10890743
120	0x3f22d384	0.63604
121	0xbea88d91	-0.32920507
122	0x36080df4	2.02737e-06
123	0xbc8ae964	-0.016956992
124	0x3ca5176d	0.020152772
125	0x3f1b8535	0.6075013
126	0x3da32288	0.07965571
127	0xbcf1f1e7	-0.029534293
128	0x3e02ce3e	0.12773988
129	0x3de29d10	0.110651135
130	0xbebf3c6c	-0.37350786
131	0xbe565b17	-0.20933186
132	0xbce9e78e	-0.028552797
133	0xbe57eabe	-0.21085641
134	0xbc8b4ff3	-0.017005896
135	0x3cb19a19	0.021679925
136	0x3f02bf21	0.5107289
137	0xbe8d8164	-0.2763778
138	0xbf09b9ca	-0.53799117
139	0x3e08d541	0.133626
140	0x3d817b8b	0.06322392
141	0x3f8a0b97	1.0784787
142	0x3d3f10ca	0.04664687
143	0xbe9cec3c	-0.30648983
144	0x3f07a0e4	0.52979875
145	0xbe4c0723	-0.19924597
146	0xbe4d26d9	-0.2003435
147	0xbea86516	-0.32889622
148	0xbe2f7328	-0.17133772
149	0xbe02b562	-0.12764505
150	0xbe8f5f83	-0.28002557
151	0x3e5a4ead	0.21319075
152	0xbe4fe206	-0.20301065
153	0x3e2cbd41	0.1686907
154	0xbb422276	-0.002962259
155	0x3cefaaae	0.029256191
156	0x3eeaf090	0.4588666
157	0xbdef6289	-0.11688716
158	0x3ea86030	0.32885885
159	0xbe7ec2ed	-0.24879046
160	0xbe288cb4	-0.16459924
161	0xbdcdbaf7	-0.10045426
162	0xbc98188f	-0.018566398
163	0x3e8791cf	0.2647843
164	0x3e880ceb	0.26572356
165	0x3c3655fe	0.011128901
166	0xbe43fbb2	-0.19138983
167	0xbdbaa70c	-0.09113893
168	0x3c3cbee9	0.011520126
169	0x3e0eeeb7	0.1395825
170	0x3ebd3f5d	0.36962405
171	0x3e78da7f	0.243021
172	0xbf0b9036	-0.54516923
173	0x3e5044dc	0.20338768
174	0xbf1ffe7b	-0.6249768
175	0xbd664ced	-0.056225706
176	0x3ee69a42	0.45039564
177	0x3d1c5e10	0.038175642
178	0x3e03aa90	0.12858033
179	0xbdf2e127	-0.11859351
180	0xbd968e51	-0.073513635
181	0x3e6f4b16	0.23368487
182	0xbca4f1d4	-0.020134844
183	0xbea5e367	-0.32400057
184	0xbe29acf1	-0.16569878
185	0xbd103449	-0.035206113
186	0x3f85ad1f	1.0443457
187	0x3e510cd7	0.20415054
188	0xbef2b222	-0.4740153
189	0x3ec0d34b	0.37661204
190	0x3eb80ce3	0.35947332
191	0x3d785994	0.060632303
192	0xbf3152d2	-0.69267
193	0xbdbec8b3	-0.09315624
194	0xbead4fd5	-0.3384997
195	0x3d52c0ae	0.051453285
196	0xbf0bc499	-0.5459686
197	0xbe71a0c1	-0.23596479
198	0x3d8ab8ce	0.0677353
199	0xbe7e78ce	-0.24850771
200	0xbd1c8e80	-0.038221836
201	0x3ecd3c39	0.4008501
202	0x3f028f78	0.51000166
203	0xbe99cf1a	-0.30040818
204	0xbda6091f	-0.081072085
205	0x3b902ebd	0.004400103
206	0x3ef88034	0.4853531
207	0xbe8edbe6	-0.27902144
208	0x3e11320c	0.14179248
209	0x3ca1754a	0.019709248
210	0x3e36a528	0.1783644
211	0x3f07ed03	0.53096026
212	0x3d2f1249	0.042742047
213	0x3d00a0a4	0.0314032
214	0x3ea47992	0.32124
215	0x3dd22689	0.10261256
216	0x3e2de71f	0.16982697
217	0xbea71628	-0.3263409
218	0x3dfd0f58	0.12356442
219	0x3df713b2	0.120643035
220	0xbdcd75e4	-0.100322515
221	0xbea9201c	-0.3303231
222	0x3eba93c3	0.36440858
223	0xbef19b20	-0.47188663
224	0x3e2d9f29	0.16955246
225	0xbd824835	-0.06361429
226	0x3e369f2c	0.17834157
227	0xbe7867aa	-0.24258295
228	0x3e82397a	0.25434476
229	0xbebce07e	-0.36890024
230	0x3ddc82c5	0.1076713
231	0xbda0dc71	-0.07854546
232	0x3f4fd45c	0.8118341
233	0xbe85073d	-0.25982085
234	0x3d44a137	0.04800531
235	0x3e0e7a1f	0.13913773
236	0xbe1c6d3a	-0.15276042
237	0xbd716df7	-0.05894276
238	0xbd8dea2b	-0.069294296
239	0x3e8356db	0.25652203
240	0xbc9398a5	-0.018017123
241	0xbf34acdf	-0.7057628
242	0xbd9dc9d3	-0.077045105
243	0xbc8c1249	-0.017098563
244	0xbf0214a0	-0.5081272
245	0x3e0fc354	0.14039356
246	0x3e970e2e	0.29503006
247	0xbea67e04	-0.32518017
248	0xbeca512b	-0.3951505
249	0xbe0cd17f	-0.13751791
250	0x3e03a206	0.12854776
251	0xbe1ca0d6	-0.15295729
252	0x3ebb6c6b	0.36606154
253	0x3f2b0af2	0.66813576
254	0x3ea2a189	0.31763867
255	0x3e4b57ac	0.19857663

fc3.bias f4 [4]
0	0xbd8f269c	-0.06989786
1	0x3d35426c	0.044252798
2	0x3cbbb948	0.022915497
3	0x3c7a00da	0.015258992
