checkpoints/checkpoint_critic_1600.pth (torch, 543887 bytes, 5 tensors)

fcs1.weight f4 [400, 33]
-0.15570049 -0.19319779 -0.038099974 0.35754058 0.05173931 -0.085422836 0.26924232 -0.12750198
-0.28525433 0.4610982 0.22509861 0.26987636 -0.16369164 -0.059670605 0.40481228 -0.45109934
0.07633467 -0.08012259 0.53927934 0.0063275583 0.1688676 0.24719262 0.4622504 0.0556528
0.27669692 0.014901033 0.24428862 0.7464001 0.41487733 0.018859606 -0.75457144 0.015230153
0.51568455 -0.44480762 0.09376431 -0.73813224 0.35633612 -0.39918 -0.1506553 0.87601495
-0.030346064 -0.70631933 -0.2687774 -0.2344292 0.06847026 -0.15366659 0.08097255 -0.17091356
0.6159312 -0.13520133 -0.22243175 0.11705026 0.16756868 -0.026655262 0.072968714 0.0067436206
0.096892126 -0.14607412 0.026634999 0.13584858 0.5988422 -0.5878245 -0.022063881 -0.6271698
0.04709514 -2.0401964 0.050519638 -0.4262094 0.6742878 -0.1332986 -0.14483991 0.13362588
0.24297838 0.10471241 -1.074398 0.1984403 0.6496839 0.1624439 0.59251004 0.15246314
0.38104925 -0.4596359 -0.22270556 -0.106987156 0.22321777 -0.38701203 0.20995693 0.09309243
-0.19299398 -0.22938998 0.060787596 -0.3174041 -0.17190263 0.22885644 -0.3495013 0.009961344
-0.18671322 -0.03622645 0.14908926 -0.63188076 -0.39150172 -0.23436399 -0.37166882 0.52638376
0.31400424 0.13285328 -0.10769804 -0.5452076 0.22593327 -0.43359977 -0.13282907 -0.2801385
0.49908948 0.295417 0.33716455 0.05366138 -0.12446123 -0.3496171 0.047243863 0.4619304
-0.21926063 0.22036621 0.32802185 -0.00453697 -0.06138372 0.054252755 1.0144775 0.052363407
-0.016846754 -0.94678056 -0.011744641 -0.1356291 -0.10946013 -0.12274211 -0.71686065 0.18300506
0.14705503 -0.12207077 -0.31142235 0.0233636 -0.25577462 -0.2105873 -0.22478703 0.29972446
-0.28401026 0.019678853 0.50744486 0.44159728 0.20149407 0.32308036 -0.15822226 0.23094788
0.040818647 0.09024296 0.01360162 0.03159234 0.24747717 0.09048115 -0.06407416 1.2389971
0.46992424 0.008769434 -1.2779931 -0.017129146 -1.2942797 0.57161707 -0.27927905 -0.4916105
0.4640189 0.16988811 0.18938863 0.3572204 0.07870452 -0.14937085 -0.06313744 0.46069092
-0.19765602 0.059248436 0.088586 0.046848085 0.6233327 -0.16579935 -0.1206875 -0.0336538
-0.017142614 -0.034431905 0.029122781 0.242698 -0.16293865 0.038549922 0.032534756 -0.47342905
1.0056015 -0.39878228 0.038334835 -0.9710875 0.03429221 -1.5006497 -0.051373772 -0.6992555
0.49169895 -0.19354437 -0.29650918 -0.22994134 0.2202864 0.009320631 -0.78277355 0.19859181
-0.14472379 -0.35236257 -0.38236624 0.12300214 0.4196615 -0.24710408 -0.3848412 0.53434336
0.17475422 0.11163136 -0.093262516 0.09130189 -0.09161018 0.1616878 0.14496596 -0.25090373
-0.084529795 0.7820613 0.35899848 0.01482043 -0.71133405 -0.027319385 1.2137533 -0.5371266
-0.14434823 0.6301849 -0.23979361 -0.32584387 -0.17949483 0.13260712 0.06884865 -0.023225874
-0.39943507 -0.1267413 -0.32378808 -0.0025029862 0.31640846 -0.13916579 -0.5183661 0.29425564
-0.09522737 0.07470249 -0.09013457 -0.21084523 -0.048314907 -0.05435236 0.38997716 0.00938384
00000000: f36f 1fbe a4d5 45be b80e 1cbd 8f0f b73e
00000010: 99ec 533d 2bf2 aebd 21da 893e e18f 02be
00000020: db0c 92be 1015 ec3e 4080 663e 3c2d 8a3e
00000030: c89e 27be 2a69 74bd 8e43 cf3e 7ef6 e6be
00000040: 5a55 9c3d 5017 a4bd 360e 0a3f 6857 cf3b
00000050: a1eb 2c3e 1020 7d3e 16ac ec3e 31f4 633d
00000060: 38ab 8d3e 7623 743c cc26 7a3e 1414 3f3f
00000070: cd6a d43e 767f 9a3c 982b 41bf e487 793c
00000080: e703 043f d3bd e3be 8107 c03d 3cf6 3cbf
00000090: b071 b63e 5261 ccbe 6245 1abe 8442 603f
000000a0: 4f98 f8bc 58d1 34bf 319d 89be 350e 70be
000000b0: 233a 8c3d c65a 1dbe f0d4 a53d f703 2fbe
000000c0: abad 1d3f 3872 0abe 26c5 63be 0cb8 ef3d
000000d0: 2097 2b3e 235c dabc 9f70 953d 97f9 dc3b
000000e0: 616f c63d 7494 15be a431 da3c e41b 0b3e
000000f0: b94d 193f ab7b 16bf 50bf b4bc 338e 20bf
00000100: d5e6 403d 9492 02c0 aeed 4e3d 1e38 dabe
00000110: 209e 2c3f 6e7f 08be ea50 14be 39d5 083e
00000120: 53cf 783e 7673 d63d e085 89bf ef33 4b3e
00000130: af51 263f b257 263e bdae 173f 4c1f 1c3e
00000140: e318 c33e 6655 ebbe ed0c 64be 151c dbbd
00000150: 3393 643e 7126 c6be f3fe 563e 3ea7 be3d
00000160: 37a0 45be 35e5 6abe 6afc 783d ca82 a2be
00000170: 3e07 30be 5859 6a3e d6f1 b2be e834 233c
00000180: c031 3fbe 3062 14bd dbaa 183e f0c2 21bf
00000190: ea72 c8be 1dfd 6fbe 604b bebe 16c1 063f
000001a0: 2ac5 a03e b10a 083e ca90 dcbd ba92 0bbf
000001b0: 0d5b 673e ca00 debe 5804 08be 506e 8fbe
000001c0: a888 ff3e e640 973e d5a0 ac3e 09cc 5b3d
000001d0: 88e5 febd 0301 b3be c882 413d 2482 ec3e
000001e0: dc85 60be aea7 613e 7bf2 a73e ddaa 94bb
000001f0: 7f6d 7bbd 2338 5e3d 66da 813f 037b 563d
00000200: 3402 8abc 3660 72bf 986c 40bc 5be2 0abe
00000210: a22c e0bd 3760 fbbd 2e84 37bf ae65 3b3e
00000220: 9895 163e 3d00 fabd c072 9fbe 0565 bf3c
00000230: e4f4 82be 32a4 57be 922e 66be 7c75 993e
00000240: cb69 91be 8c35 a13c e8e7 013f 0a19 e23e
00000250: 7654 4e3e ca6a a53e 0405 22be 9a7d 6c3e
00000260: 7431 273d 4dd1 b83d 54d9 5e3c f866 013d
00000270: a86a 7d3e 2e4e b93d 5039 83bd 7597 9e3f
00000280: e999 f03e acad 0f3c 4795 a3bf 6c52 8cbc
00000290: f5aa a5bf 7f55 123f aafd 8ebe 5fb4 fbbe
000002a0: e393 ed3e 26f7 2d3e 18ef 413e 98e5 b63e
000002b0: d62f a13d acf4 18be 344e 81bd aedf eb3e
000002c0: 5766 4abe 7dae 723d 946c b53d c7e3 3f3d
000002d0: bb92 1f3f 4ec7 29be 022b f7bd 91d8 09bd
000002e0: ab6e 8cbc 7808 0dbd e692 ee3c d385 783e
000002f0: 64d9 26be 86e6 1d3d 2a43 053d 4b65 f2be
00000300: 8db7 803f 312d ccbe fd04 1d3d 3199 78bf
00000310: fd75 0c3d 4a15 c0bf 4e6d 52bd 6902 33bf
00000320: f7bf fb3e 7f30 46be 0dd0 97be be75 6bbe
00000330: c292 613e 8fb5 183c d963 48bf a75b 4b3e
00000340: 7932 14be de68 b4be 82c5 c3be 8ce8 fb3d
00000350: dfdd d63e da08 7dbe e809 c5be baca 083f
00000360: c5f2 323e fc9e e43d 6b00 bfbd 7cfc ba3d
00000370: 1e9e bbbd 7d91 253e f571 143e 7476 80be
00000380: f51d adbd 2b35 483f a6ce b73e 64d1 723c
00000390: fd19 36bf e7cc dfbc 455c 9b3f 2181 09bf
000003a0: 06d0 13be cc53 213f 758c 75be 02d5 a6be
000003b0: 7ecd 37be 29ca 073e 8500 8d3d 3044 bebc
000003c0: c182 ccbe 79c8 01be 8dc7 a5be 2409 24bb
000003d0: 4a00 a23e 7a81 0ebe a4b3 04bf ada8 963e
000003e0: 9106 c3bd 9efd 983d 7998 b8bd d0e7 57be
000003f0: dae5 45bd 95a0 5ebd 16ab c73e adbe 193c

fcs1.bias f4 [400]
-0.8003868 -0.6827488 -0.04589068 -0.9654337 -1.4156119 -1.1204653 -0.883506 0.14156026
-1.340401 -1.099648 -0.5390689 -1.0283024 -1.1959472 -0.7625228 -1.0340692 -0.6305143
-1.6728612 -0.57523257 -0.6244273 -1.2118582 -0.9178712 -0.69840693 -0.7066072 -1.3552504
-0.868821 -1.4540923 -0.81946987 -0.78183454 -1.087709 -1.092744 -1.3733275 -0.38185343
-1.1358664 -0.6395075 -1.1097662 -0.27655438 -1.4111347 -1.4500663 -0.7796426 -0.97748333
-0.30660522 -0.3113769 -1.3336172 -0.57514644 -0.9078809 -0.25258842 -0.82843554 -1.2259744
-1.0164618 -1.6318787 -0.841471 -0.5407683 -1.1043415 -0.4917698 -0.90764064 -0.40089026
-0.43366498 -1.0011233 -0.9613242 -0.6974533 -1.7396142 -1.1249939 -0.41673082 -0.228369
-1.0183544 -0.8687217 -0.97798026 -0.5038386 -1.0397497 -0.6612208 -1.1108632 -0.20622224
-0.58067644 -0.9747098 -0.65442723 -0.9475031 -1.1291894 -1.267339 -0.24358802 -1.6009698
-0.46923402 -0.8990813 -0.7250925 -1.4773653 -1.0902352 -0.06265286 -1.4469793 -0.2626133
-0.9517556 -1.6731665 -0.513142 -1.5180521 -1.530256 -1.5761294 -1.1593772 -1.4017584
-0.81905013 -0.94130397 -0.8058238 -1.2611605 -1.522608 -0.61857575 -0.7819444 -0.108301505
-0.44999617 -0.66117996 -0.0008451242 -1.0317085 -1.5091798 -0.68247634 -0.7292386 -0.18882479
-1.3538406 -1.0102471 -0.43687508 -0.71385163 -0.6983146 -1.3015897 -1.2479446 -0.9794907
-1.6951494 -1.3093375 -0.57750845 -1.2775872 -1.4065175 -0.79518723 -0.8298403 0.30439693
-1.095131 -0.783672 -0.20463614 -0.47152683 -0.85692143 -1.4462723 -0.85130626 -1.0142174
-0.8530625 -1.0492423 -1.0524011 -0.59011245 -0.52771425 -0.5052818 -0.892734 -0.6143133
-1.0636529 -0.51053685 -1.0695014 -1.491051 -2.0182734 -1.129819 -1.717773 -0.8646018
-0.3975102 -1.153587 -1.3880533 -1.2019616 -1.3928874 -0.8475145 -0.8208359 -1.1765265
-1.4168725 -1.3437848 -0.68185776 -0.8205372 -0.2704764 -1.375908 -1.2001991 -0.5847324
-1.022136 -0.9169382 -0.8557404 -0.36872128 -1.4579486 -0.52685577 -1.0752922 -0.8503647
-1.1050107 -1.244163 -1.548442 -1.0399516 -1.4055364 -1.3513031 -1.059377 -0.9584555
-1.2297505 -0.83910954 -0.4772732 -0.7490414 -1.0251617 -0.9405152 -0.87589186 -0.08999435
-0.9562554 -0.9266122 -0.6961257 -1.3521819 -1.1214968 -1.2506306 -1.0620141 -1.259312
-1.5888975 0.1511626 -0.9748232 -1.0179626 -1.7811667 -0.85585934 -0.5752426 -0.7854751
-0.6837361 -0.093544506 -1.2904675 -0.7038427 -1.0552278 -0.9055727 -1.3730105 -0.4140842
0.12098761 0.29669306 -0.82838523 -0.67911464 -1.1324105 -0.6545707 -1.3468392 -0.90693146
-0.6025392 -1.1593604 -1.3436165 -0.970238 -1.5442313 -0.9183309 -1.2837636 -1.2468355
-0.744597 -0.6372521 -0.3509828 -1.1881092 -0.82069486 -1.2247959 -1.3842162 -0.26235032
-1.4976074 -1.5891016 -0.6953824 -0.9811608 -1.1855915 -0.62498266 -0.6326225 -0.84601784
-0.6202117 -0.8402391 -0.8586974 -1.076531 -1.0039307 -0.9915701 -1.2817248 -0.76957124
00000000: 26e6 4cbf a0c8 2ebf def7 3bbd aa26 77bf
00000010: c532 b5bf 686b 8fbf 732d 62bf 2cf5 103e
00000020: 4392 abbf 44c1 8cbf 6b00 0abf 6a9f 83bf
00000030: cc14 99bf b234 43bf 615c 84bf 6369 21bf
00000040: 5120 d6bf 7142 13bf 78da 1fbf 2b1e 9bbf
00000050: 9bf9 6abf ccca 32bf 36e4 34bf d878 adbf
00000060: 0e6b 5ebf b21f babf c7c8 51bf 4f26 48bf
00000070: 0c3a 8bbf 09df 8bbf 32c9 afbf 4b82 c3be
00000080: 1264 91bf c3b6 23bf d20c 8ebf 8998 8dbe
00000090: 10a0 b4bf c69b b9bf a896 47bf 593c 7abf
000000a0: 5cfb 9cbe cb6c 9fbe f8b3 aabf cc3c 13bf
000000b0: e26a 68bf 4553 81be 5a14 54bf bbec 9cbf
000000c0: 6c1b 82bf 67e1 d0bf a56a 57bf cb6f 0abf
000000d0: 105b 8dbf 40c9 fbbe 235b 68bf 7d41 cdbe
000000e0: 5609 debe cf24 80bf 5819 76bf 4d8c 32bf
000000f0: aeab debf cdff 8fbf be5d d5be 90d9 69be
00000100: 7059 82bf 8c64 5ebf ea5c 7abf 91fb 00bf
00000110: 8516 85bf c445 29bf c430 8ebf ec2b 53be
00000120: 36a7 14bf 9586 79bf 8b88 27bf 908f 72bf
00000130: 4789 90bf 2a38 a2bf 236f 79be 94ec ccbf
00000140: 713f f0be 312a 66bf a99f 39bf 4e1a bdbf
00000150: d48c 8bbf 2550 80bd 9e36 b9bf 4075 86be
00000160: 41a6 73bf 522a d6bf 465d 03bf 884f c2bf
00000170: 6edf c3bf 9cbe c9bf 7966 94bf d26c b3bf
00000180: 45ad 51bf 4cf9 70bf 784a 4ebf b56d a1bf
00000190: d2e4 c2bf fb5a 1ebf 822d 48bf 2ecd ddbd
000001a0: e665 e6be 1743 29bf 538b 5dba 060f 84bf
000001b0: ce2c c1bf c5b6 2ebf 62af 3abf 495b 41be
000001c0: a64a adbf c74f 81bf 17ae dfbe fbbe 36bf
000001d0: bfc4 32bf 7e9a a6bf a6bc 9fbf e7bf 7abf
000001e0: a8fa d8bf 5f98 a7bf 98d7 13bf fa87 a3bf
000001f0: c408 b4bf 6491 4bbf 6a70 54bf ead9 9b3e
00000200: 412d 8cbf ba9e 48bf 238c 51be f76b f1be
00000210: 345f 5bbf 731f b9bf 35ef 59bf e0d1 81bf
00000220: 4e62 5abf 924d 86bf 14b5 86bf 9c11 17bf
00000230: 4818 07bf 265a 01bf 378a 64bf a343 1dbf
00000240: c725 88bf 8bb2 02bf 6ce5 88bf c2da bebf
00000250: 642b 01c0 e99d 90bf fcdf dbbf 8b56 5dbf
00000260: 7586 cbbe bda8 93bf bbab b1bf e1d9 99bf
00000270: 224a b2bf b6f6 58bf 4d22 52bf 6c98 96bf
00000280: 145c b5bf 2401 acbf 3b8e 2ebf ba0e 52bf
00000290: e27b 8abe c11d b0bf 20a0 99bf 06b1 15bf
000002a0: 5ad5 82bf 76bc 6abf ce11 5bbf 09c9 bcbe
000002b0: 0f9e babf 05e0 06bf 2da3 89bf 80b1 59bf
000002c0: fe70 8dbf bc40 9fbf 5933 c6bf 221d 85bf
000002d0: 9ee8 b3bf 80f7 acbf aa99 87bf 575d 75bf
000002e0: 7768 9dbf e2cf 56bf 275d f4be 2dc1 3fbf
000002f0: 8038 83bf 9bc5 70bf 733a 60bf f54e b8bd
00000300: 27cd 74bf 7536 6dbf 4b35 32bf 4c14 adbf
00000310: 358d 8fbf aa14 a0bf 14f0 87bf 2331 a1bf
00000320: fe60 cbbf 5eca 1a3e 038e 79bf 994c 82bf
00000330: 45fd e3bf 9919 5bbf 1943 13bf e514 49bf
00000340: 5409 2fbf 4394 bfbd 0a2e a5bf 092f 34bf
00000350: b411 87bf 9dd3 67bf cfbe afbf d802 d4be
00000360: 5ac8 f73d 27e8 973e 0e11 54bf 75da 2dbf
00000370: d4f2 90bf f291 27bf 3a65 acbf a92c 68bf
00000380: 0240 1abf ec65 94bf a0fb abbf 8461 78bf
00000390: 5fa9 c5bf bc17 6bbf 5e52 a4bf 4e98 9fbf
000003a0: e99d 3ebf f422 23bf 04b4 b3be f613 98bf
000003b0: 0f19 52bf 1dc6 9cbf ff2d b1bf c852 86be
000003c0: 99b1 bfbf ae67 cbbf 9504 32bf 5b2d 7bbf
000003d0: 76c1 97bf ddfe 1fbf 8cf3 21bf a094 58bf
000003e0: 32c6 1ebf e919 57bf 98d3 5bbf c5cb 89bf
000003f0: cd80 80bf 8ad7 7dbf 8f0f a4bf 9f02 45bf

fc2.weight f4 [300, 404]
-0.008979489 -0.08442928 -0.06920518 -0.0409669 -0.023332622 -0.052785724 -0.015402287 -0.068082385
0.038019344 -0.14150536 -0.062439345 -0.14106664 0.050189797 -0.052468643 -0.048868258 -0.04739372
0.08207619 -0.0066375425 0.015915167 0.029478496 0.036076758 -0.014990207 -0.120767914 -0.06960954
0.021050952 -0.114149414 0.0025442094 -0.092642665 -0.058027163 0.019071369 0.010909463 -0.04224271
-0.028086714 -0.014902759 0.04245259 -0.019703329 -0.050027195 -0.00975208 -0.10683348 -0.032265034
0.01668941 -0.1385249 -0.14445758 -0.028093083 -0.018991154 -0.017541967 -0.020888474 -0.09222097
0.009869932 -0.007533806 -0.089017056 -0.033382736 -0.074315675 -0.05264275 0.034570202 -0.1637455
0.019039651 -0.12319172 -0.10921241 -0.086962685 -0.039408553 -0.1407599 -0.09127251 -0.14229456
0.099687725 0.017074436 -0.06296859 -0.028678343 0.039791387 -0.09080453 0.003340404 -0.06766269
-0.03755812 -0.0879488 -0.033169672 -0.025106324 -0.10988833 -0.12623994 -0.09205351 -0.034364995
-0.0899465 -0.033232793 -0.047306806 -0.09761314 -0.13073309 -0.031998746 0.0025629103 -0.108091064
0.0017491106 -0.058946896 -0.034359653 -0.033480834 0.005677784 -0.11945058 -0.10249851 -0.017734468
-0.118732035 -0.07551589 -0.043913953 -0.01368809 -0.02653725 -0.087706864 -0.1149209 0.033976708
-0.03298732 -0.08982312 -0.06461931 -0.1131785 -0.03544916 -0.051314887 0.049158193 -0.07722161
-0.03407075 -0.12235807 -0.14379884 -0.0660238 -0.08676845 -0.07641883 -0.07756464 -0.08472664
-0.034039475 -0.049261503 0.0057618874 0.0119956685 -0.0064026928 -0.0067433985 -0.04653266 0.00444592
-0.019998264 -0.13866003 -0.039891835 -0.034099195 0.0556252 -0.10599895 0.08118895 -0.020280527
-0.062384613 0.040733658 -0.04361496 -0.07841512 -0.10098314 0.042329356 -0.05375524 -0.10750274
0.0022853585 -0.17389098 -0.022603873 -0.014311731 0.0166528 -0.063601084 -0.011364079 -0.025861766
-0.040152688 -0.07183388 0.013199186 -0.032748193 -0.054511525 -0.15803452 -0.026550405 0.026423633
0.008432115 0.06299172 -0.0668347 -0.08883915 -0.08736373 0.021071076 -0.013541362 -0.09882306
-0.019979661 -0.010365544 -0.03432838 -0.06792447 -0.05242852 -0.039875984 -0.0088727 -0.026906716
0.060737893 0.064773016 -0.054198943 0.040716544 -0.015436248 0.033090364 -0.02431217 -0.058115814
0.0887256 -0.0005998579 0.0076555195 -0.10722228 0.02081062 0.017494123 -0.14120096 0.00930466
-0.042596877 -0.044245746 0.027480923 0.10262045 0.006578868 -0.07293288 -0.06880625 0.040074352
0.13149033 -0.022647433 -0.052454937 0.022685327 -0.046693414 -0.052024294 -0.1328644 -0.0057098046
-0.17490937 0.011548968 0.10651044 -0.10069276 0.035055526 -0.07777099 0.006661874 -0.14254622
-0.02542526 -0.010384067 -0.082203515 -0.034361314 -0.033086997 -0.085181706 -0.062312488 -0.03693464
-0.032890696 -0.026004119 0.0150589645 -0.07842932 0.0046978146 -0.015024175 -0.037443824 -0.08841564
-0.0023282794 -0.051127832 -0.15326123 0.007328915 -0.0416702 -0.07493233 0.009374914 -0.069814116
-0.02482639 -0.027987989 0.008271492 -0.09141063 -0.047738608 -0.0077241757 -0.09015383 0.07437358
-0.025838 -0.14611913 0.009691864 -0.03679383 -0.102931745 -0.11464588 -0.018149637 -0.0849771
00000000: b51e 13bc 42e9 acbd 72bb 8dbd e8cc 27bd
00000010: 0e24 bfbc d835 58bd e059 7cbc c76e 8bbd
00000020: 2cba 1b3d c8e6 10be 66c0 7fbd c673 10be
00000030: d193 4d3d 5ce9 56bd 152a 48bd eb1f 42bd
00000040: 9017 a83d be7f d9bb 8660 823c e37c f13c
00000050: 39c5 133d 7c99 75bc 2b55 f7bd 728f 8ebd
00000060: 0c73 ac3c 2bc7 e9bd c0bc 263b 70bb bdbd
00000070: e4ad 6dbd 8f3b 9c3c 9bbd 323c b106 2dbd
00000080: 1c16 e6bc b42a 74bc c4e2 2d3d e068 a1bc
00000090: 51e9 4cbd 30c7 1fbc 83cb dabd 5728 04bd
000000a0: 3bb8 883c 79d9 0dbe b0ec 13be 7723 e6bc
000000b0: 5693 9bbc 2cb4 8fbc 4e1e abbc 59de bcbd
000000c0: 7fb5 213c 25de f6bb 934e b6bd 56bc 08bd
000000d0: d132 98bd ed9f 57bd 7c99 0d3d e6ac 27be
000000e0: 0bf9 9b3c f14b fcbd c2aa dfbd 7e19 b2bd
000000f0: dd6a 21bd 5d23 10be 15ed babd aab5 11be
00000100: 1429 cc3d b0df 8b3c adf5 80bd d8ee eabc
00000110: 4bfc 223d baf7 b9bd aeea 5a3b bd92 8abd
00000120: 8bd6 19bd 801e b4bd ecdc 07bd c7ab cdbc
00000130: 220d e1bd 0b45 01be 8d86 bcbd 4fc2 0cbd
00000140: df35 b8bd 1c1f 08bd c8c4 41bd 66e9 c7bd
00000150: e5de 05be 1e11 03bd 80f6 273b d95e ddbd
00000160: 6a42 e53a 4d72 71bd b5bc 0cbd 3323 09bd
00000170: b40c ba3b 81a2 f4bd bdea d1bd e047 91bc
00000180: c829 f3bd 13a8 9abd 1edf 33bd 0344 60bc
00000190: a664 d9bc a89f b3bd a65b ebbd 292b 0b3d
000001a0: b61d 07bd 2ff5 b7bd 2157 84bd 21ca e7bd
000001b0: 2333 11bd 8f2f 52bd 1a5a 493d 5d26 9ebd
000001c0: c58d 0bbd de96 fabd 0140 13be 7c37 87bd
000001d0: a8b3 b1bd 7a81 9cbd 36da 9ebd 2985 adbd
000001e0: fa6c 0bbd 6ec6 49bd 37ce bc3b 7b89 443c
000001f0: aecd d1bb baf7 dcbb 0899 3ebd 15af 913b
00000200: 66d3 a3bc e5fc 0dbe 9f65 23bd 99ab 0bbd
00000210: 40d7 633d fa15 d9bd 6446 a63d 5923 a6bc
00000220: 0287 7fbd 56d8 263d 9aa5 32bd 1b98 a0bd
00000230: 40d0 cebd 8c61 2d3d 742e 5cbd 662a dcbd
00000240: f4c5 153b 7a10 32be c22b b9bc c07b 6abc
00000250: 746b 883c 4941 82bd 6730 3abc 0edc d3bc
00000260: 2577 24bd a41d 93bd 6641 583c f822 06bd
00000270: 7a47 5fbd cdd3 21be 3c80 d9bc 6076 d83c
00000280: db26 0a3c ce01 813d a2e0 88bd 4df1 b5bd
00000290: c1eb b2bd 409d ac3c 97dc 5dbc bf63 cabd
000002a0: 63ac a3bc 3ed4 29bc ea9b 0cbd fc1b 8bbd
000002b0: 4abf 56bd 0055 23bd cd5e 11bc 796b dcbc
000002c0: 4cc8 783d b7a7 843d b6ff 5dbd 64c6 263d
000002d0: 51e8 7cbc c389 073d 512a c7bc d90a 6ebd
000002e0: c4b5 b53d c83f 1dba 27db fa3b 5b97 dbbd
000002f0: 097b aa3c d64f 8f3c fc96 10be 9372 183c
00000300: 107a 2ebd 073b 35bd ac1f e13c ac2a d23d
00000310: 8b93 d73b d55d 95bd 4bea 8cbd 0125 243d
00000320: 67a5 063e 1c87 b9bc fdda 56bd 94d6 b93c
00000330: 9841 3fbd 6d17 55bd 9b0d 08be 5019 bbbb
00000340: 711b 33be e237 3d3c 2522 da3d 0138 cebd
00000350: 6296 0f3d 6646 9fbd d94b da3b a3f7 11be
00000360: a348 d0bc ef21 2abc 515a a8bd 73be 0cbd
00000370: 3b86 07bd bf73 aebd 613b 7fbd c748 17bd
00000380: 65b8 06bd 9706 d5bc e0b9 763c 8d9f a0bd
00000390: 20f0 993b f527 76bc b25e 19bd 4213 b5bd
000003a0: 0c96 18bb 6b6b 51bd 83f0 1cbe 6527 f03b
000003b0: 5fae 2abd 1f76 99bd 3d99 193c b4fa 8ebd
000003c0: b760 cbbc 1147 e5bc 2785 073c 7f35 bbbd
000003d0: 8f89 43bd 151b fdbb 92a2 b8bd 2d51 983d
000003e0: 37aa d3bc 41a0 15be a0ca 1e3c 21b5 16bd
000003f0: e1cd d2bd 76cb eabd 8cae 94bc 7908 aebd

fc2.bias f4 [300]
-0.13364021 -0.0069702715 -0.11502755 -0.09446034 -0.020489417 -0.068565235 -0.02627334 -0.1325893
-0.028431505 -0.08620609 -0.010500457 -0.026892021 -0.11636979 -0.043797236 0.5620048 -0.1365689
-0.07913962 -0.15278934 -0.081453614 -0.070165664 -0.009965397 -0.48130995 -0.08341279 -0.10325522
-0.091286175 1.3098373 -0.113698594 -0.0532843 -0.02496371 -0.06403594 1.3119811 -0.10775415
-0.112954445 -0.10863243 -0.056040667 -0.08389376 -0.022695638 -0.11702489 -0.07939787 -0.08925991
-0.096265554 -0.13320448 -0.06256673 0.19572204 -0.06155372 -0.07520595 -0.07443967 -0.04902202
-0.10420949 -0.07309401 -0.048897978 -0.050300214 -0.029676143 -0.031325623 -0.12418227 -0.008172222
-0.024088966 -0.05977256 -0.05925946 0.0044519138 -0.14597958 0.06803251 -0.12567589 -0.023283593
-0.04261588 -0.009413539 -0.053863566 -0.12960726 -0.100778975 -0.047332525 -0.07928427 -0.055710923
-0.120621815 -0.006778453 -0.11618724 -0.080471575 -0.1013133 -0.1602075 0.5973681 -0.030467343
0.030172704 -0.037420154 -0.048096452 -0.06762141 -0.11525205 -0.11642573 -0.07514489 -0.042829987
-0.06653034 -0.12720501 -0.08685904 -0.028551523 -0.049885288 -0.10842264 -0.045228623 -0.10637148
-0.048070423 -0.07892519 -0.56807625 -0.09420049 -0.07328989 -0.13007286 -0.037917674 -0.029936673
-0.072631456 -0.87444866 -0.5708722 -0.100811474 -0.06769996 -0.038233016 0.009371274 -0.0062960847
-0.12900707 -0.089827284 -0.24836224 -0.07987889 -0.113964394 -0.047708143 0.77342236 -0.024270523
-0.12461575 -0.06615379 0.016315792 -0.055032656 -0.098324895 -0.034602426 -0.07620654 -0.08379089
-0.044161387 -0.1341222 -0.06463928 -0.024414463 -0.042647548 -0.04271741 -0.11314143 -0.055058837
-0.123758085 -0.0826426 -0.18770297 -0.083691515 -0.045836557 -0.06379544 -0.15582052 -0.045817114
-0.04322637 -0.11310575 -0.066559 -0.09161264 -0.11397681 -0.055524558 -0.14243618 -0.04090286
-0.6929641 -0.14472683 -0.08403941 -0.12484752 -0.10904224 -0.027211014 -0.111144155 -0.35799465
-0.0888743 -0.11409295 -0.04139965 -0.11485231 -0.11595723 0.26156986 -0.09912613 -0.05390869
-0.10385827 -0.093272164 -0.03476293 -0.057491656 -0.044625908 -0.23357195 -0.11291882 -0.06407239
-0.10362748 -0.039296385 -0.03016807 -0.099941924 -0.8016721 -0.08597858 -0.23619561 -0.101422906
0.66565686 -0.015937898 -0.046807177 -0.13530472 -0.09268525 -0.06881483 -0.0383151 -0.046367086
-0.018399766 -0.03710387 -0.07584808 -0.036846854 -0.13175435 -0.06522804 -0.09712917 -0.05204357
-0.06215424 0.66655487 -0.062036082 -0.06377758 -0.12054149 -0.08452929 -0.14611508 -0.07006271
-0.02494074 -0.059844866 -0.1158589 -0.025787415 -0.06376186 -0.07032859 -0.113493145 -0.11063136
-0.08036141 -0.14407107 -0.10374335 -0.017195007 -0.07164174 -0.10780977 -0.13946062 -0.096861795
0.4717633 -0.051024616 -0.093042724 -0.066575594 -0.089212105 -0.07094608 -0.09299949 -0.025305346
-0.007822271 -0.052225873 0.009267831 0.4162584 -0.116930395 -0.030540535 -0.083408445 -0.10654922
-0.11807452 -0.04611168 -0.038018595 -0.01317903 -0.1020276 -0.06616276 0.57894725 -0.03706962
-0.050438464 -0.057429176 -0.06713497 -0.08598947 -0.071498424 -0.039131694 -0.058563158 -0.100600064
00000000: fbd8 08be e066 e4bb 9093 ebbd 6c74 c1bd
00000010: 6cd9 a7bc ee6b 8cbd 303b d7bc 7dc5 07be
00000020: 30e9 e8bc d28c b0bd 1c0a 2cbc a84c dcbc
00000030: 4953 eebd bb64 33bd 8cdf 0f3f b8d8 0bbe
00000040: f413 a2bd cf74 1cbe 27d1 a6bd 04b3 8fbd
00000050: e845 23bc 426e f6be 53d4 aabd 7977 d3bd
00000060: 3ff4 babd c0a8 a73f cfda e8bd a340 5abd
00000070: b280 ccbc 4625 83bd ffee a73f 35ae dcbd
00000080: a954 e7bd ae7a debd e68a 65bd 7ed0 abbd
00000090: 34ec b9bc bfaa efbd 5a9b a2bd e6cd b6bd
000000a0: e026 c5bd c166 08be fc22 80bd 5c6b 483e
000000b0: c11f 7cbd 9405 9abd d373 98bd 50cb 48bd
000000c0: c96b d5bd 50b2 95bd 3f49 48bd 9907 4ebd
000000d0: 621b f3bc 4c4f 00bd 4653 febd c9e4 05bc
000000e0: 3956 c5bc 12d4 74bd 0cba 72bd 5ce1 913b
000000f0: ac7b 15be a154 8b3d 2eb1 00be 3cbd bebc
00000100: fd8d 2ebd 3f3b 1abc 0ba0 5cbd c4b7 04be
00000110: 3565 cebd c0df 41bd cb5f a2bd 2331 64bd
00000120: 9208 f7bd c91d debb 93f3 edbd 48ce a4bd
00000130: 597d cfbd 6f0d 24be 1eed 183f a696 f9bc
00000140: bf2c f73c e045 19bd c900 45bd 187d 8abd
00000150: 4409 ecbd 9d70 eebd 90e5 99bd 7f6e 2fbd
00000160: 0f41 88bd 0842 02be 27e3 b1bd e2e4 e9bc
00000170: 8454 4cbd b00c debd a641 39bd 4ad9 d9bd
00000180: 7ee5 44bd 88a3 a1bd 726d 11bf 30ec c0bd
00000190: 0319 96bd d231 05be 904f 1bbd c13d f5bc
000001a0: cdbf 94bd dedb 5fbf ae24 12bf 3f76 cebd
000001b0: 47a6 8abd 399a 1cbd f989 193c 634f cebb
000001c0: 6e1a 04be 5ef7 b7bd ac52 7ebe 8b97 a3bd
000001d0: 2a66 e9bd 9d69 43bd 02ff 453f fad2 c6bc
000001e0: 8b36 ffbd a37b 87bd b2a8 853c ec69 61bd
000001f0: 905e c9bd 46bb 0dbd 2d12 9cbd 8f9a abbd
00000200: 92e2 34bd 5457 09be 9961 84bd d700 c8bc
00000210: 32af 2ebd 73f8 2ebd b2b6 e7bd 6085 61bd
00000220: e174 fdbd 8640 a9bd 3535 40be 7566 abbd
00000230: 1dbf 3bbd 2fa7 82bd 6a8f 1fbe baaa 3bbd
00000240: 220e 31bd fda3 e7bd 1650 88bd 689f bbbd
00000250: ac6c e9bd b86d 63bd cada 11be c289 27bd
00000260: 1866 31bf 4533 14be db1c acbd 0eb0 ffbd
00000270: 8a51 dfbd a2e9 debc 8c9f e3bd 134b b7be
00000280: bb03 b6bd 91a9 e9bd ae92 29bd b037 ebbd
00000290: fc7a edbd 7cec 853e a402 cbbd 5ccf 5cbd
000002a0: a5b3 d4bd 7a05 bfbd 9363 0ebd 5f7c 6bbd
000002b0: a8c9 36bd 7c2d 6fbe fb41 e7bd 6338 83bd
000002c0: a53a d4bd 3ff5 20bd 0723 f7bc 5aae ccbd
000002d0: 623a 4dbf 8a15 b0bd 43dd 71be d0b6 cfbd
000002e0: 7d68 2a3f 3290 82bc e2b8 3fbd 528d 0abe
000002f0: c4d1 bdbd caee 8cbd 4bf0 1cbd 6aeb 3dbd
00000300: 1bbb 96bc 3afa 17bd 3d56 9bbd baec 16bd
00000310: 9dea 06be 4796 85bd a9eb c6bd a32b 55bd
00000320: 7295 7ebd 57a3 2a3f 8c19 7ebd d29d 82bd
00000330: 75de f6bd b11d adbd 319f 15be 0a7d 8fbd
00000340: 8650 ccbc e41f 75bd 6e47 edbd 2140 d3bc
00000350: 9495 82bd 7008 90bd 186f e8bd b292 e2bd
00000360: 8694 a4bd 5e87 13be 6577 d4bd 8bdc 8cbc
00000370: e8b8 92bd 5ecb dcbd c4ce 0ebe 7a5f c6bd
00000380: f68a f13e 30ff 50bd 2f8d bebd c958 88bd
00000390: d6b4 b6bd 2e4c 91bd 8476 bebd 284d cfbc
000003a0: fc28 00bc ccea 55bd 1ad8 173c d21f d53e
000003b0: 3479 efbd 2530 fabc 0cd2 aabd 7a36 dabd
000003c0: 0ed1 f1bd 9adf 3cbd 63b9 1bbd dcec 57bc
000003d0: d9f3 d0bd 5780 87bd e335 143f 50d6 17bd
000003e0: 9098 4ebd db3a 6bbd 0f7e 89bd 3f1b b0bd
000003f0: c46d 92bd 8e48 20bd ecdf 6fbd 6807 cebd

fc3.weight f4 [1, 300]
0.0006865395 -0.0027276124 0.026520388 -0.027004711 -0.018401371 0.018195124 0.0069090407 0.000855517
0.021813186 -0.026881725 0.018366007 -0.015595032 0.016705068 0.0075717457 0.015277486 -0.0012769914
0.0063989917 -0.017013865 -0.022184089 0.0038777664 -0.023414647 -0.012010503 0.00022268583 -0.009222923
-0.01346798 0.020520143 -0.022682028 0.0112419585 0.021404961 0.004294741 0.025390092 -0.0038079312
-0.018257884 0.0020986553 -0.0037093312 0.0011393285 0.009879929 -0.00954798 -0.012707023 -0.016851336
0.02178062 0.011396409 0.0024318288 0.033591866 0.0074395575 0.015756907 -0.0015267197 -0.017704027
-0.031094616 -0.020536682 -0.027187835 0.010691692 0.007003565 -0.027545122 0.023265475 0.0027530615
0.02708015 -0.016448164 0.07103222 -0.007855724 0.02328562 -0.019534994 -0.028492356 0.027264982
-0.0059156753 -0.025465934 0.00038542357 0.019156048 -0.012240746 -0.00032463568 -0.03445456 -0.011491127
0.013367076 -0.005120981 -0.0006238481 0.0010781271 0.009445094 -0.016075566 0.03908261 -0.013462175
0.014277973 -0.01830854 0.011537019 -0.023290735 -0.0263005 -0.013815608 0.0115083875 0.012221629
0.021614935 0.017690005 -0.0008379966 0.029255716 -0.002913217 -0.014444318 -0.025349632 0.0060468107
-0.019540118 -0.0024472973 -0.043200303 -0.0013971003 0.02356771 -0.020239368 0.015109287 0.010314045
-0.027183764 -0.014538958 -0.011965295 0.012982174 0.024563922 0.0041576284 -0.019834599 -0.0071879416
-0.011093308 -0.021515043 -0.040852815 -0.027433254 0.03746279 0.012923062 0.017138965 -0.023312166
0.00908581 -0.0096336305 -0.0048753005 0.024697363 -0.0005129636 -0.0031143483 0.0066393497 -0.018646728
0.017315473 -0.027231265 0.005563709 -0.019558277 -0.02192122 -0.017078867 -0.011732792 -0.015384846
0.011756938 0.0029938633 0.0035579144 -0.014266502 -0.025594672 -0.010975456 -0.009057263 -0.003745012
-0.02338635 0.019799143 -0.015208591 0.018721616 -0.005320454 -0.0046928446 0.014741569 0.002699613
-0.033174705 -0.007053254 0.010505228 0.011838539 0.0070843035 -0.026037186 0.024337336 -0.010018887
0.014327706 -0.0066461177 -0.0025206325 0.007194014 -0.019300584 0.0115046855 0.0029242234 -0.0070604375
-0.0029653562 0.024380414 0.003478858 -0.005414478 -0.024984434 0.014148925 -0.029640388 -0.002435458
-0.0072651003 0.014086553 -0.003060645 -0.007539433 -0.020972878 -0.008111912 0.001955998 -0.01370833
0.027183637 -0.02092941 0.021698313 0.014652021 0.009064662 0.0058676405 -0.029516669 0.024564805
0.007508267 -0.025751768 0.019863429 0.013908862 -0.021869872 0.0029321334 0.007787098 0.02403368
0.015828626 0.01861731 0.022268 0.0012986399 -0.018122628 0.003510869 0.026306558 -0.006983516
0.003109461 0.011108542 0.00028374395 -0.0037136124 0.029878084 -0.021610215 -0.009920062 -0.0211469
0.008292224 0.028787747 0.025782915 0.014026906 0.0061452673 -0.025388742 -0.04075605 -0.01773011
0.014296545 -0.00081544404 -0.0032082242 0.02769352 -0.026855577 -0.030361386 0.027914146 -0.0016518418
0.023903985 -0.0063610594 0.009040932 0.02019234 -0.01996862 -0.005311276 0.0040310635 0.0061016413
-0.008662428 0.020241288 -0.024712872 0.0021423977 0.011975782 -0.01427349 0.011532109 -0.030058768
-0.012424196 0.00036509734 -0.01482053 0.020954005 0.0054557826 -0.010962925 -0.008278966 0.027422395
00000000: e3f8 333a bec1 32bb 4941 d93c fc38 ddbc
00000010: 79be 96bc f10d 953c 3c65 e23b c644 603a
00000020: 91b1 b23c 1037 dcbc 4f74 963c 4e82 7fbc
00000030: 11d9 883c 681c f83b 6c4e 7a3c b960 a7ba
00000040: a2ae d13b a960 8bbc 68bb b5bc 2022 7e3b
00000050: 13d0 bfbc b3c7 44bc c680 6939 be1b 17bc
00000060: cda8 5cbc dc19 a83c a9cf b9bc 3130 383c
00000070: 7559 af3c e6ba 8c3b e2fe cf3c 7c8e 79bb
00000080: 8f91 95bc 9889 093b 4018 73bb 8555 953a
00000090: 6ddf 213c 216f 1cbc 1e31 50bc d00b 8abc
000000a0: 456d b23c 01b8 3a3c 515f 1f3b a097 093d
000000b0: 88c7 f33b a114 813c 361c c8ba 0908 91bc
000000c0: 23ba febc 8b3c a8bc 06b9 debc 352c 2f3c
000000d0: 297e e53b 4fa6 e1bc 3d97 be3c b56c 343b
000000e0: 31d7 dd3c 4dbe 86bc 5779 913d 4bb5 00bc
000000f0: 7cc1 be3c da07 a0bc cd68 e9bc d05a df3c
00000100: 48d8 c1bb ef9d d0bc ad12 ca39 25ed 9c3c
00000110: 698d 48bc dd33 aab9 3a20 0dbd 4845 3cbc
00000120: 9501 5b3c e7cd a7bb bd89 23ba f14f 8d3a
00000130: 98bf 1a3c e8b0 83bc 1615 203d 7490 5cbc
00000140: 29ee 693c cbfb 95bc c405 3d3c 36cc bebc
00000150: 2574 d7bc dc5a 62bc ad8d 3c3c 3a3d 483c
00000160: ce11 b13c a1ea 903c 00ad 5bba afa9 ef3c
00000170: aceb 3ebb dca7 6cbc 08aa cfbc 5324 c63b
00000180: 9912 a0bc d662 20bb cdf2 30bd e81e b7ba
00000190: 1211 c13c 08cd a5bc f18c 773c 3dfc 283c
000001a0: 7cb0 debc cf34 6ebc 160a 44bc 2fb3 543c
000001b0: 473a c93c b73c 883b 2b7c a2bc d388 ebbb
000001c0: b5c0 35bc 5140 b0bc 4855 27bd b4bb e0bc
000001d0: 9572 193d 40bb 533c 0467 8c3c 28f9 bebc
000001e0: a6dc 143c 60d6 1dbc fcc0 9fbb 2052 ca3c
000001f0: 6878 06ba 181a 4cbb e78e d93b 06c1 98bc
00000200: 2ed9 8d3c 1a14 dfbc c64f b63b ae38 a0bc
00000210: 2194 b3bc fbe8 8bbc e53a 40bc b910 7cbc
00000220: 2ca0 403c b134 443b e62b 693b 0cbe 69bc
00000230: ebab d1bc 66d2 33bc ea64 14bc e06e 75bb
00000240: bb94 bfbc d031 a23c 742d 79bc 135e 993c
00000250: 3457 aebb 6fc6 99bb 9f86 713c feeb 303b
00000260: 33e2 07bd fc1e e7bb 1f1e 2c3c 6ef6 413c
00000270: 7223 e83b f04b d5bc 185f c73c 4226 24bc
00000280: c1be 6a3c adc7 d9bb 3231 25bb c3bb eb3b
00000290: 421c 9ebc 267e 3c3c 54a4 3f3b 3e5b e7bb
000002a0: 6c56 42bb 6fb9 c73c 8dfd 633b ef6b b1bb
000002b0: 28ac ccbc e5d0 673c 66d0 f2bc 349c 1fbb
000002c0: 1410 eebb 49cb 663c 1a95 48bb 590d f7bb
000002d0: 50cf abbc d3e7 04bc 3330 003b e798 60bc
000002e0: 38b0 de3c 2774 abbc a9c0 b13c 080f 703c
000002f0: f383 143c 5645 c03b f1cc f1bc 213c c93c
00000300: e907 f63b 5ff5 d2bc a1b8 a23c ffe1 633c
00000310: 7228 b3bc 0929 403b ea2a ff3b 48e2 c43c
00000320: 09ab 813c 5483 983c 616b b63c 2037 aa3a
00000330: e875 94bc 9c16 663b da80 d73c fad5 e4bb
00000340: 19c8 4b3b 9a00 363c 78c3 9439 1460 73bb
00000350: e2c2 f43c e807 b1bc c187 22bc 433c adbc
00000360: 1cdc 073c 48d4 eb3c b136 d33c 1cd1 653c
00000370: 3d5e c93b 0dfc cfbc d1ef 26bd bc3e 91bc
00000380: 0e3c 6a3c 86c3 55ba 1241 52bb 85dd e23c
00000390: 3a00 dcbc 71b8 f8bc 35ac e43c 9d82 d8ba
000003a0: 4ad2 c33c 6f70 d0bb 6b20 143c 686a a53c
000003b0: 3b95 a3bc 360a aebb 0317 843b 47f0 c73b
000003c0: dbec 0dbc 0fd1 a53c a672 cabc 7867 0c3b
000003d0: 1236 443c 5bdb 69bc 2cf1 3c3c ce3d f6bc
000003e0: db8e 4bbc 896a bf39 cfd1 72bc bca7 ab3c
000003f0: 6cc6 b23b d79d 33bc 80a4 07bc eea4 e03c
