checkpoints/checkpoint_actor_1500.pth (torch, 542663 bytes, 6 tensors)

fc1.weight f4 [400, 33]
0	0xbd376226	-0.044771336
1	0x3e15c8f2	0.14627436
2	0xbc012635	-0.007882644
3	0x3dc82330	0.097723365
4	0xbd993431	-0.07480658
5	0xbd3e5cd5	-0.04647525
6	0xbdff03d3	-0.12451901
7	0xbd983448	-0.07431847
8	0xbe3e3730	-0.1857574
9	0xbe698a7c	-0.22806734
10	0xbe660d32	-0.22465971
11	0x3dc9de37	0.09856837
12	0x3ccf078a	0.02527215
13	0xbd23f950	-0.040032685
14	0x3da35097	0.07974356
15	0x3c849594	0.016184606
16	0xbd6ab0e2	-0.057297595
17	0x3c36aed1	0.011150078
18	0xbd12966c	-0.035787985
19	0xbd0be2b1	-0.034151737
20	0x3c89cc5f	0.016821085
21	0xbdd3db2a	-0.103445366
22	0xbde29695	-0.110638775
23	0xbcee972e	-0.029124822
24	0xbd196945	-0.03745391
25	0xbd9eaa35	-0.07747308
26	0xbd721805	-0.059104938
27	0xbd3a496d	-0.04548018
28	0x3b970d9a	0.0046097757
29	0x3d4b65c9	0.049657617
30	0x3d2b41f7	0.041810956
31	0xbcea4fb7	-0.028602464
32	0x3e9d9ca2	0.30783564
33	0xbe5b32bc	-0.21406072
34	0xbdbfed7b	-0.09371468
35	0x3c199ade	0.009375302
36	0x3d0f773e	0.035025828
37	0xbc9759ee	-0.018475499
38	0x3cae2dc9	0.021262066
39	0xbd13b21b	-0.036058526
40	0x3e00041c	0.12501568
41	0x3b81e549	0.0039641005
42	0xbdaca64c	-0.08430156
43	0xbd5d3083	-0.054001343
44	0xbda3b008	-0.0799256
45	0x3d1a64b5	0.037693698
46	0xbbb59f7c	-0.0055426937
47	0x3d5f75fb	0.054555874
48	0x3c48dbf5	0.012259473
49	0xbc796b5f	-0.015223353
50	0x3bf87307	0.0075820717
51	0x3b56266c	0.003267671
52	0x3db1ef51	0.08688224
53	0xbd9ae89a	-0.075638965
54	0xbd4e5770	-0.050376356
55	0xbda3f58f	-0.08005821
56	0x3d2a6945	0.0416043
57	0xbda729be	-0.081622586
58	0xbd345e45	-0.044035215
59	0xbbfb189b	-0.0076628453
60	0xbc9c32aa	-0.019067127
61	0x3c3c5730	0.0114953965
62	0xbd28afc3	-0.041183244
63	0x3d7618e8	0.060082346
64	0xbc3b03ec	-0.011414509
65	0x3e84396a	0.25825053
66	0x3dc45d23	0.09588077
67	0x3ce00e43	0.02735055
68	0xbe4499cc	-0.19199294
69	0xbcb94206	-0.02261449
70	0xbd453e91	-0.04815537
71	0xbc098696	-0.008393904
72	0x3d3be3ae	0.04587143
73	0x3c570462	0.013123604
74	0xb9ecaf22	-0.00045143912
75	0xbb7f275a	-0.0038933367
76	0x3d235162	0.039872535
77	0x3cce8171	0.025208207
78	0xbd6c229a	-0.057650186
79	0xbc84ddbd	-0.016219014
80	0x3db16e1d	0.086635806
81	0x3d3b1e89	0.045683417
82	0x3d48bd50	0.049008667
83	0x3d8c75b5	0.06858388
84	0x3d8d7078	0.06906217
85	0x3a02a1cb	0.00049832155
86	0x3e12de06	0.14342508
87	0xbd43e012	-0.047821112
88	0xbcd8041c	-0.026369147
89	0xbe01a6c7	-0.12661277
90	0x3d6ddd6a	0.058072485
91	0xbd53560d	-0.051595736
92	0xbd8889bb	-0.06666895
93	0x3b0da6fa	0.0021614418
94	0xbcc5cfd5	-0.024146954
95	0xbd0bd4ec	-0.034138605
96	0xbd825b9a	-0.06365128
97	0x3d3cb22b	0.04606835
98	0xbeb5d4ff	-0.35514066
99	0xbdfd42c3	-0.123662494
100	0x3d49ed69	0.049298678
101	0x3d56a5c3	0.052404176
102	0xbd6e8ffd	-0.058242787
103	0xbe036175	-0.12830146
104	0x3d93a282	0.0720873
105	0x3b8d33e9	0.0043091667
106	0x3d118a93	0.035532545
107	0xbe1ce60a	-0.15322128
108	0xbb1ecc3e	-0.0024230625
109	0xbd8a6b41	-0.06758738
110	0x3da4b681	0.08042622
111	0xbdccf5da	-0.1000783
112	0x3d16317c	0.036668286
113	0x3bf27b0e	0.007399923
114	0x3d2cfaa8	0.042231232
115	0xbd215611	-0.03938872
116	0x3cc134fa	0.023584832
117	0xbcf5e3f0	-0.030015916
118	0x3ca492c9	0.020089524
119	0xbc86fa24	-0.016476698
120	0x3cd8cac3	0.026463872
121	0xbc2d728b	-0.010586391
122	0x3d57543a	0.05257056
123	0xbc84e951	-0.016224535
124	0xbca0c185	-0.019623527
125	0xbdc1a255	-0.094547905
126	0xbc1a8e05	-0.009433274
127	0x3d6223b1	0.05520982
128	0xb8545800	-5.0626695e-05
129	0xbcf0e967	-0.02940817
130	0xba080380	-0.000518851
131	0xbf4ce93d	-0.80043393
132	0x3df54d22	0.119776025
133	0x3dba0688	0.09083277
134	0x3dd70832	0.1049961
135	0xbd7a44b8	-0.06110069
136	0x3af41563	0.0018622096
137	0xbd84d93d	-0.064867474
138	0x3c34094c	0.010988545
139	0xbcfc422a	-0.030793268
140	0xbda7a089	-0.081849165
141	0x3d246610	0.040136397
142	0x3d5eba87	0.054377105
143	0x3df47d6b	0.11937984
144	0x3c836eea	0.016044099
145	0xbd9c0556	-0.07618205
146	0xbd15e2e2	-0.036593325
147	0xbe27e037	-0.16394125
148	0x3dfd9afe	0.12383078
149	0x3dcfa712	0.10139288
150	0x3dc3d0d8	0.09561318
151	0xbd3d7d10	-0.046261847
152	0xbddf5335	-0.10904542
153	0x3da0fef0	0.078611255
154	0x3d33cef5	0.04389854
155	0xbcdbe2d9	-0.026841568
156	0x3d44886f	0.047981676
157	0xbd5b11c4	-0.05348374
158	0xbdd668bf	-0.104691975
159	0x3b7c94b0	0.0038540773
160	0xbe10ff2c	-0.1415984
161	0xbd1b80e0	-0.0379647
162	0xbceff9e7	-0.029293967
163	0xbc19c468	-0.009385206
164	0x3d4de505	0.05026724
165	0x3de135d8	0.10996598
166	0x3d899e00	0.06719589
167	0x3df67e2c	0.12035784
168	0x3d56392f	0.05230063
169	0xbd8560f0	-0.0651263
170	0xbbc8cefb	-0.0061281896
171	0xbb5d2de6	-0.0033749281
172	0xbde91afd	-0.11382101
173	0xbe025658	-0.1272825
174	0x3ccd5e5e	0.025069412
175	0xbc40764c	-0.011746954
176	0xbd0e87f8	-0.03479764
177	0xbd04fbfe	-0.03246688
178	0xbe2ae53a	-0.16689005
179	0x3e27014d	0.1630909
180	0xbe1f9a2c	-0.15586156
181	0x3d09e0f6	0.033661805
182	0x3ca0393b	0.01955854
183	0x3d3fa77a	0.046790577
184	0xbd922f93	-0.0713798
185	0x3b9c1c6b	0.00476413
186	0xbd29c078	-0.041443318
187	0x3d8dc022	0.06921412
188	0xbd13613f	-0.035981413
189	0x3e413ec8	0.18871605
190	0x3c269c36	0.0101690795
191	0x3d87d195	0.066317715
192	0x3c92ac30	0.017904371
193	0x3dc63a10	0.09679043
194	0x3d402789	0.046912704
195	0x3ce3fe49	0.027831214
196	0x3a713ec0	0.0009202771
197	0xbd8b1940	-0.067919254
198	0xba870fb9	-0.0010304368
199	0x3dab5fe5	0.083679
200	0x3d00d6d4	0.031454876
201	0xbccb86e4	-0.024844594
202	0xbbab34da	-0.0052248063
203	0xbc4b433d	-0.012406168
204	0xbda670a7	-0.081269555
205	0xbd44c01c	-0.048034772
206	0x3b49a8d5	0.0030770798
207	0x3da19982	0.078906074
208	0x3d86cc0c	0.065818876
209	0x3c2a6a01	0.01040125
210	0x3cc882c8	0.024476424
211	0xbd8d2fee	-0.068939075
212	0x3cccb2af	0.024987547
213	0xbdb4185e	-0.0879371
214	0x3c26a17b	0.010170336
215	0x3d5615dd	0.052266944
216	0xbc8ce728	-0.017200068
217	0xbcf9cc8e	-0.030493047
218	0x3d67a8dc	0.05655752
219	0xbdb09c33	-0.08623543
220	0x3d81036c	0.06299481
221	0x3b9fde36	0.0048787845
222	0xbce241f3	-0.027619338
223	0xbd20b1ff	-0.03923225
224	0x3de1b180	0.110201836
225	0x3cf8be31	0.030364128
226	0x3af05361	0.0018335396
227	0xbd2f707f	-0.042831894
228	0xbd51ea4d	-0.051248837
229	0x3c2ce8ac	0.01055352
230	0xbf89bb6c	-1.0760322
231	0x3c62973b	0.0138300015
232	0x3e212f8e	0.15740797
233	0x3c5d01c0	0.013489187
234	0x3db11041	0.08645678
235	0xbdcaed7d	-0.099085785
236	0xbdad660b	-0.08466729
237	0x3d592c34	0.05302067
238	0x3b64fbff	0.003494024
239	0xbdeffd27	-0.11718207
240	0x3cd12f08	0.025535122
241	0x3d0ff855	0.035148937
242	0x3dd2d5ce	0.10294686
243	0xbd420e83	-0.04737712
244	0xbc0c7a4e	-0.008574082
245	0xbd55cade	-0.052195422
246	0x3d83b325	0.064306535
247	0x3dac36fc	0.08408925
248	0xbb7f3c00	-0.0038945675
249	0x3cfb2d24	0.030661173
250	0xbcbc34f5	-0.02297447
251	0x3d62e2c1	0.05539203
252	0x3d1c6fdf	0.038192626
253	0x3d69ce9d	0.057081807
254	0x3e069f07	0.13146602
255	0xbe6fcca9	-0.23417915

fc1.bias f4 [400]
0	0xbd5b3027	-0.05351272
1	0xbd011b05	-0.03151991
2	0x3e08305f	0.13299702
3	0x3c571c04	0.013129238
4	0xbe0dddc1	-0.13854124
5	0xbe1af9c9	-0.15134348
6	0xbe1fcf41	-0.15606405
7	0xbe222de7	-0.15837823
8	0xbe4a8bc1	-0.19779874
9	0xbc2b2524	-0.010445867
10	0x3dadcc9a	0.0848629
11	0xbdb09147	-0.086214595
12	0x3d93c60f	0.07215511
13	0xbbae6905	-0.005322578
14	0xbe0ba4b7	-0.13637052
15	0xbdd0b79a	-0.10191269
16	0xbd90c6a9	-0.070691414
17	0xbe121520	-0.14265871
18	0xbe78957d	-0.24275775
19	0xbdaa264c	-0.08308086
20	0xbdabb4a2	-0.08384062
21	0xbd942268	-0.07233125
22	0xbd5add0f	-0.053433474
23	0xbe219227	-0.15778409
24	0xbdb25be3	-0.08708932
25	0xbe09a191	-0.13440539
26	0x3b8a5113	0.0042210906
27	0x3df61e4f	0.120175
28	0x3e43a340	0.19105244
29	0xbd06a361	-0.032870654
30	0xbd4a52f3	-0.049395513
31	0x3d0c8922	0.034310468
32	0x3df377e5	0.118881024
33	0xbd082c9e	-0.033245675
34	0xbdd5ad56	-0.10433452
35	0xbc21dede	-0.009879796
36	0xbe0338c5	-0.12814625
37	0x3db9d30f	0.09073459
38	0x3d9ed1f5	0.0775489
39	0xbddce8be	-0.107865795
40	0x3db7afac	0.089690536
41	0x3d67036d	0.05639975
42	0x3dee809a	0.116456226
43	0x3d78be30	0.060728252
44	0xbd88fa29	-0.06688339
45	0x3d286e56	0.04112085
46	0x3dcb9cfe	0.09942053
47	0x3df8c22b	0.121464096
48	0x3dbb858d	0.09156332
49	0xbd8e36b1	-0.06944025
50	0xbb836146	-0.0040093986
51	0x3e8102fb	0.25197586
52	0x3ce2c414	0.027681388
53	0x3e274ef8	0.16338718
54	0xbd140978	-0.036141843
55	0x3e3c0e0d	0.18364735
56	0x3c1bc34a	0.00950701
57	0xbd685161	-0.056718234
58	0x3d6a4fd4	0.057205036
59	0x3e2db092	0.16961887
60	0xbe24f909	-0.16110624
61	0xbdbc857d	-0.09205148
62	0x3e2fb012	0.17157009
63	0xbdf66b97	-0.1203224
64	0xbe15a862	-0.14615014
65	0xbdb78bda	-0.089622214
66	0x3d854bd7	0.06508606
67	0xbde57538	-0.11203998
68	0x3c8ac3a5	0.016938994
69	0x3c9925c8	0.018694773
70	0x3da97385	0.08273987
71	0xbe1d13b7	-0.15339552
72	0x3d444642	0.047918566
73	0xbe289c23	-0.16465811
74	0x3d1cd98b	0.038293403
75	0x3df6e324	0.120550424
76	0xbe03f836	-0.12887654
77	0x3c81aa49	0.015828269
78	0x3e01d1a7	0.12677632
79	0xbe0b5388	-0.13606083
80	0xbe011d5a	-0.12608853
81	0xbdabe952	-0.08394112
82	0xbd6159e5	-0.05501737
83	0x3d540067	0.051758196
84	0x3bec6f65	0.0072154277
85	0x3d94b401	0.072608955
86	0x3d15f5b9	0.036611293
87	0x3d37c8d4	0.04486926
88	0x3d6fd455	0.058552105
89	0xbe058411	-0.1303866
90	0xbdf92877	-0.12165921
91	0xbd7201c7	-0.059083726
92	0x3d5cb097	0.053879347
93	0xbd59374a	-0.053031243
94	0xbd28560c	-0.041097686
95	0xbda356b1	-0.079755194
96	0x3c88a499	0.016680049
97	0x3da8eee5	0.082486905
98	0xbd8eac3b	-0.06966444
99	0x3e36fd14	0.17869979
100	0xbd336cc6	-0.043804906
101	0x3e501968	0.20322192
102	0xbdaa6d81	-0.083216675
103	0x3e576dfc	0.2103805
104	0xb8d76e69	-0.000102725644
105	0x3e0ae939	0.1356553
106	0x3dd8bf57	0.1058337
107	0xbc9586cb	-0.01825275
108	0xbd2d9f81	-0.042388443
109	0xbe36d459	-0.17854442
110	0x3d9b1c2e	0.07573734
111	0xbdef2b28	-0.11678153
112	0x3c8457ad	0.016155088
113	0x3c8b4006	0.016998302
114	0x3e0cfb73	0.13767795
115	0x3dbfa307	0.09357267
116	0x3be5b29b	0.007009817
117	0xbd9712e4	-0.0737665
118	0xbe579f64	-0.21056896
119	0xbe17055a	-0.14748135
120	0xbe83533e	-0.25649446
121	0xbdd910eb	-0.1059893
122	0xbe022a8c	-0.12711543
123	0x3d4fc224	0.050722256
124	0xbe305a09	-0.17221846
125	0x3d25e1c6	0.040498517
126	0x3dee03e2	0.11621834
127	0xbd574521	-0.05255616
128	0xbcc565d0	-0.0240964
129	0x3db924f8	0.09040254
130	0xbe67ad9d	-0.22624822
131	0x3dadba9d	0.08482859
132	0x3e2dcf3a	0.16973582
133	0x3d5bec5d	0.05369221
134	0xbe28e60f	-0.1649401
135	0x3e177a5c	0.1479277
136	0xbca87ba1	-0.020566763
137	0x3c561f39	0.0130689675
138	0x3e484301	0.1955681
139	0x3c803b7d	0.015653366
140	0x3d1f5ccc	0.038906857
141	0xbdeacccd	-0.11464844
142	0xbdcc6f2e	-0.09982143
143	0x3e13c192	0.1442931
144	0xbe150356	-0.14552054
145	0x3d00e71e	0.03147041
146	0xbd0fc4fb	-0.035099965
147	0xbd851f8d	-0.065001585
148	0xbe7fc368	-0.24976885
149	0xbe26b2f1	-0.16279198
150	0xbda27752	-0.07932915
151	0x3c8cba47	0.017178668
152	0x3d805138	0.06265491
153	0xbebddc7f	-0.37082288
154	0xbd693f9b	-0.056945425
155	0xbe592f29	-0.21209396
156	0x3e81ba24	0.25337327
157	0xbe0529f4	-0.13004285
158	0xbcf24000	-0.029571533
159	0xbbff4ec9	-0.0077913743
160	0xbe35b9d3	-0.17746668
161	0x3dbc3846	0.09190421
162	0x3d9c5fca	0.07635458
163	0x3d216522	0.03940309
164	0x3cf3b2c2	0.029748324
165	0x3d3b0453	0.04565842
166	0x3d04cc26	0.032421254
167	0x3e429aaa	0.19004312
168	0x389bbf2a	7.426583e-05
169	0xbad94cfe	-0.0016578732
170	0xbd46dda0	-0.0485512
171	0xbe0cbf5d	-0.13744874
172	0x3cc0946c	0.023508273
173	0xbd16a1f6	-0.03677555
174	0xbe1baee3	-0.15203433
175	0x3e0dd956	0.13852438
176	0xbe8d6bbd	-0.2762126
177	0xbdd45097	-0.10366934
178	0x3e37dbb7	0.17954908
179	0xbda3aa4e	-0.079914674
180	0x3dc4b6fb	0.09605213
181	0x3dcc3bc0	0.09972334
182	0xbe17a44e	-0.14808771
183	0xbe1b8b34	-0.1518982
184	0xbd270f74	-0.04078622
185	0xbdf62666	-0.12019043
186	0xbe0ccd74	-0.13750249
187	0xbcc64b89	-0.02420594
188	0x3de88b45	0.113546886
189	0x3dfc952c	0.1233314
190	0xbd93b9f1	-0.072132
191	0xbdb37c86	-0.08763985
192	0xbdea8b11	-0.11452306
193	0x3e365783	0.1780682
194	0x3cb6ce65	0.022315213
195	0x3c27e163	0.0102466075
196	0xbe2851cc	-0.16437453
197	0xbebab45a	-0.36465722
198	0x3e04e18e	0.12976667
199	0x3ad180da	0.0015983835
200	0xbd399210	-0.04530531
201	0xbd903cea	-0.070428684
202	0xbde4b1b3	-0.11166706
203	0xbdcb02c0	-0.09912634
204	0xbe505df4	-0.2034834
205	0x3d5b6b82	0.053569324
206	0xbd5d5738	-0.054038256
207	0xbddb52d1	-0.10709155
208	0x3c46d58b	0.012135874
209	0xbdbbff88	-0.09179598
210	0x3d2c2dac	0.042035744
211	0x3dc3fed1	0.09570087
212	0xbe210a08	-0.15726483
213	0xbe8f67d4	-0.28008902
214	0x3d4d27ed	0.050086904
215	0xbce7a280	-0.028275728
216	0xbe2d4ff4	-0.16925031
217	0xbd94562d	-0.07242999
218	0x3c9df79b	0.019283107
219	0x3df01f80	0.11724758
220	0xbe887e30	-0.26658773
221	0xbe2a1dd9	-0.16612948
222	0xbe0eff15	-0.13964494
223	0xbe555503	-0.2083321
224	0x3e3a5535	0.18196566
225	0x3aedc288	0.001813964
226	0x3e2f1809	0.17099012
227	0x3db2c996	0.08729856
228	0x3d82ee25	0.06393079
229	0xbe397756	-0.1811193
230	0x3d47e22d	0.048799682
231	0x3d93eec8	0.07223278
232	0xbcb40960	-0.021977127
233	0xbe3eebdd	-0.18644662
234	0xbd77bdf9	-0.060483906
235	0x3e17f706	0.14840326
236	0xbda886e4	-0.08228853
237	0xbde7a977	-0.1131162
238	0xbdb369bb	-0.08760401
239	0x3cd8ed9e	0.026480492
240	0x3df408f9	0.11915774
241	0xbcd93b16	-0.026517432
242	0x3dc9ca2e	0.09853016
243	0x3dc39c06	0.095512435
244	0xbd5ffa2a	-0.054681934
245	0xbe06d84d	-0.1316845
246	0x3e4abfac	0.1979968
247	0x3da3adfd	0.0799217
248	0xbdaae1ab	-0.08343824
249	0xbe8bb275	-0.2728459
250	0xbc690734	-0.014222909
251	0x3d8ed0fb	0.069734536
252	0xbd93343c	-0.07187697
253	0xbdc0136b	-0.09378704
254	0x3e4d621e	0.2005696
255	0x3dfb8eb5	0.122830786

fc2.weight f4 [300, 400]
0	0x3d499e05	0.049222965
1	0x3cacef9b	0.021110347
2	0x3d468a3a	0.048471667
3	0xbd9fb835	-0.077988066
4	0x3da7ba9b	0.08189889
5	0xbcb50615	-0.022097627
6	0x3e25cc49	0.1619121
7	0x3db5ad67	0.088709645
8	0xbd3629ca	-0.044473447
9	0xbd3f0c90	-0.04664284
10	0xbdc8c55b	-0.098032676
11	0xbc201c1b	-0.009772326
12	0x3d1cdf8a	0.03829912
13	0x3d914edf	0.070951216
14	0x3cee6a6c	0.02910348
15	0xbdc6c42a	-0.09705384
16	0x3c7caa25	0.015421425
17	0xbd842d95	-0.064540066
18	0x3dafaec3	0.08578255
19	0xbdfc2be6	-0.123130605
20	0x3e12c05d	0.14331193
21	0xbd167e31	-0.03674144
22	0x3d8ed3f2	0.06974019
23	0xbd2ac724	-0.04169382
24	0x3cf1c56b	0.029513082
25	0xbd3f0f51	-0.046645466
26	0xbded977f	-0.11601161
27	0xbd0feda2	-0.035138734
28	0xbda1ca71	-0.07899941
29	0x3caa5140	0.020790696
30	0x3c0e8282	0.008698108
31	0xbdbc29c3	-0.09187653
32	0xbd8d5734	-0.06901398
33	0xbc848f90	-0.016181737
34	0xbd6173a7	-0.055041935
35	0x3e191da2	0.1495271
36	0xbc0f82a6	-0.008759176
37	0xbe035456	-0.1282514
38	0xbdac0311	-0.08399022
39	0xbd85a1b0	-0.0652498
40	0x3d9ba8c8	0.07600552
41	0x3d53c243	0.051698934
42	0x3d1229be	0.03568434
43	0xbe08fcd3	-0.13377695
44	0x3dc10d77	0.09426396
45	0x3d6c6df9	0.057722066
46	0x3cd63667	0.026148988
47	0x3d1db0fa	0.038498856
48	0x3c25bed6	0.0101163
49	0x3e0d23d7	0.13783203
50	0x3da7934b	0.08182391
51	0x3d9b7ff1	0.07592762
52	0xbd5bb5ae	-0.05364006
53	0xbc452ab7	-0.01203411
54	0xbd8c4daa	-0.06850751
55	0x3dc8caac	0.098042816
56	0x3bfb5276	0.007669742
57	0xbdb0e798	-0.08637923
58	0x3d15c1d1	0.03656179
59	0x3d90c3ab	0.07068571
60	0x3c514b60	0.012774318
61	0xbcafcb95	-0.02145938
62	0xbd6d6561	-0.05795801
63	0xbdb22aca	-0.086995676
64	0xbd8c9d49	-0.06865937
65	0x3bff061c	0.0077827107
66	0x3d50b185	0.050950546
67	0xbd476d3a	-0.04868815
68	0xbc3a77d2	-0.011381106
69	0x3dc53be0	0.09630561
70	0xbc908a0d	-0.017643953
71	0x3cab5581	0.020914795
72	0xbe0b7759	-0.13619746
73	0x3d2c6241	0.04208589
74	0x3da17e0b	0.07885369
75	0xbd11a184	-0.035554424
76	0xbd5250b5	-0.0513465
77	0x3da274fc	0.07932469
78	0x3c8a946f	0.016916482
79	0xbe5dd421	-0.21662952
80	0xbdc27eae	-0.094968185
81	0x3d0249c7	0.03180864
82	0xbbe8c387	-0.007103387
83	0xbd020da3	-0.031751286
84	0xbcccbbe7	-0.024991943
85	0x3df422f3	0.119207285
86	0x3c26c065	0.010177706
87	0xbb70a258	-0.0036717858
88	0xbe107a51	-0.1410916
89	0x3ca3cf64	0.019996352
90	0xbd35c01a	-0.044372655
91	0x3d8ea808	0.06965643
92	0xbc6c24cb	-0.014413069
93	0xbcec2d50	-0.0288302
94	0x3cd79e96	0.026320737
95	0xbd3cc1d9	-0.046083305
96	0xbd44c5ea	-0.048040308
97	0x3e00339f	0.12519692
98	0xbd3e7a48	-0.046503335
99	0x3e01e6b4	0.12685663
100	0x3c17dfb8	0.009269647
101	0x3cd627ec	0.026142083
102	0xbbe59783	-0.007006587
103	0x3d644f1d	0.05573951
104	0xbe03959f	-0.12850045
105	0xbde90014	-0.11376968
106	0xbc1b157d	-0.009465572
107	0x3db1f47e	0.08689211
108	0xbc4f3307	-0.012646443
109	0xbd62113f	-0.05519223
110	0xbd1dec07	-0.03855517
111	0x3d3d59a8	0.04622808
112	0x3dd99a32	0.106251135
113	0xbc5930e5	-0.013256286
114	0x3cde603c	0.027145498
115	0xbd4fd738	-0.050742358
116	0xbde68bad	-0.1125711
117	0xbce8c47d	-0.028414005
118	0xbb8d1082	-0.0043049464
119	0x3cb86cf8	0.022512898
120	0x3ca9cb33	0.020726776
121	0x3c350a73	0.011049855
122	0x3b580431	0.0032961483
123	0xbbdcb049	-0.006734882
124	0xbc2bd348	-0.010487385
125	0x3dfea7ae	0.12434326
126	0x3d1a236d	0.03763144
127	0xbc8b7874	-0.01702521
128	0xbbbf1295	-0.0058310726
129	0x3d96d19e	0.073642
130	0x3dee4473	0.116341494
131	0xbbfe8073	-0.007766777
132	0xbdab584f	-0.08366453
133	0x3debf27a	0.11520858
134	0xbd9bd2d4	-0.07608572
135	0xbd10b50d	-0.035328913
136	0x3df82400	0.121162415
137	0x3e0239df	0.12717389
138	0x3d9b6897	0.07588308
139	0xbc6a5ae5	-0.0143038975
140	0x3d3bf7bc	0.045890555
141	0xbd4727e7	-0.04862204
142	0x3d8dd0bc	0.069245785
143	0x3dcb6e0b	0.099330984
144	0x3d8dad0a	0.0691777
145	0xbdc2d41d	-0.09513114
146	0x3d59a4c3	0.053135645
147	0xbcabccdb	-0.020971706
148	0x3dbf38c4	0.09336999
149	0xbbb43f90	-0.0055007413
150	0xbd416701	-0.047217373
151	0xbcf4aa4c	-0.02986636
152	0xbd2e9b4c	-0.04262857
153	0xbd74b9c6	-0.05974748
154	0xbdc1a188	-0.09454638
155	0xb93108b7	-0.00016883282
156	0x3c703341	0.014660657
157	0xbd86fb83	-0.06590941
158	0x3d4d7aa1	0.050165776
159	0xbca21c38	-0.019788846
160	0xbd686ea0	-0.056746125
161	0x3dfc0d3f	0.12307214
162	0x3d2efb71	0.042720262
163	0xbcd1e078	-0.02561973
164	0xbd473857	-0.048637714
165	0x3d240700	0.04004574
166	0xba6f2c35	-0.0009123714
167	0x3e2f3b06	0.1711236
168	0xbc5275c9	-0.012845465
169	0xbe1c7362	-0.1527839
170	0xbde29a8c	-0.11064634
171	0x3d9b67f2	0.07588185
172	0x3d363f76	0.044494115
173	0x3cd19eb4	0.02558837
174	0xbcefc29c	-0.029267602
175	0x3d278847	0.04090145
176	0xbdbbbf55	-0.09167353
177	0x3d3738d4	0.04473193
178	0xbd849a96	-0.064747974
179	0x3d4b3462	0.049610503
180	0xbd5414e1	-0.051777724
181	0x3d287004	0.04112245
182	0xbd05c5c3	-0.032659303
183	0xbe5766b0	-0.21035266
184	0xbe01ee07	-0.12688456
185	0x3cd45be1	0.025922718
186	0x3dc43cc0	0.095819
187	0x3d08d0eb	0.033402365
188	0x3e34e42f	0.1766517
189	0x3de0ae70	0.10970771
190	0x3d8781d5	0.0661656
191	0xbdbe3ecf	-0.092893235
192	0xbc70dff6	-0.014701834
193	0x3d5e6aeb	0.054301184
194	0xbdb90bea	-0.090354756
195	0xbcc6187f	-0.024181603
196	0xbe5248cd	-0.20535584
197	0x3bf7ee11	0.0075662215
198	0x3d7acb51	0.061229054
199	0x3d812453	0.063057564
200	0x3ae773f4	0.0017658458
201	0x3ce4e7d5	0.027942577
202	0x3c971894	0.018444337
203	0xbe210dc1	-0.15727903
204	0xbd216dd0	-0.039411366
205	0xbd53f844	-0.051750436
206	0x3de1e8bc	0.11030719
207	0x3d421d7e	0.047391407
208	0xbdab2fa3	-0.08358695
209	0x3dd2e6cc	0.10297927
210	0x3cd3d254	0.025857128
211	0xbd3ef64d	-0.04662161
212	0xbe07e2d8	-0.13270128
213	0xbd838487	-0.06421762
214	0xbd702524	-0.05862917
215	0x3d4966f3	0.049170446
216	0xbdac9cbb	-0.084283315
217	0x3d93895a	0.07203932
218	0x3bb1c56f	0.0054251472
219	0xbd912950	-0.07087958
220	0xbc16e9be	-0.009211002
221	0x3d337aeb	0.043818396
222	0xbde82c0e	-0.11336528
223	0x3d0de82d	0.03464525
224	0xbe0bcf74	-0.13653356
225	0x3dffb6ae	0.12486015
226	0x3dda0e89	0.106473036
227	0x3d9dec71	0.07711113
228	0xbe3d9969	-0.18515553
229	0x3c888d61	0.016668977
230	0xbd1b568e	-0.03792434
231	0xbd3a5308	-0.04548934
232	0x3d2f6b40	0.04282689
233	0xbd453f21	-0.048155908
234	0x3d3208df	0.04346549
235	0xbba0ff9f	-0.004913285
236	0xbd5b7833	-0.053581428
237	0x3c56c7af	0.013109132
238	0x3d8ffa53	0.070301674
239	0x3d967e7f	0.07348346
240	0x3e071c01	0.13194276
241	0xbd81ca59	-0.06337423
242	0x3bc5e08f	0.0060387324
243	0xbddb57b2	-0.10710086
244	0x3d86a2eb	0.06574043
245	0xbe45324c	-0.19257468
246	0x3ca4746b	0.020075044
247	0x3d3286a8	0.04358545
248	0xbd865662	-0.06559445
249	0xbbb0dae7	-0.005397189
250	0x3c859bca	0.016309638
251	0x3e4c8804	0.19973761
252	0x3d141e23	0.036161553
253	0x3d64bb4d	0.055842686
254	0xba5aedb8	-0.0008351463
255	0xbcd67822	-0.02618033

fc2.bias f4 [300]
0	0x3d839ea3	0.06426742
1	0xbc310588	-0.010804541
2	0x3c910a62	0.017705146
3	0x3d447ad5	0.047968704
4	0x3e196a3c	0.14981931
5	0x3c9e0aa8	0.01929219
6	0x3d28ebd5	0.041240532
7	0x3deee2c6	0.11664347
8	0x3db01316	0.0859739
9	0x3dc6e38f	0.09711372
10	0xbb9f641f	-0.0048642303
11	0x3c80a761	0.015704812
12	0xbe24d52a	-0.1609694
13	0x3c55c425	0.013047253
14	0xbd331265	-0.043718714
15	0xbc32becc	-0.010909747
16	0x3cd02f94	0.025413312
17	0x3c894e6a	0.016761024
18	0x3dfc393d	0.12315605
19	0x3bc45eb6	0.0059927357
20	0x3d2f7843	0.0428393
21	0x3b5bb8dd	0.0033526935
22	0x3ca75841	0.020427825
23	0x3c919ef9	0.017776
24	0x3ddd36c9	0.10801465
25	0xbd52cb0f	-0.051463183
26	0x3db8f9fe	0.09032057
27	0xbd26c4ae	-0.040714912
28	0x3d17b187	0.037034538
29	0x3cc6811b	0.024231484
30	0xba5fc72f	-0.00085364556
31	0x3c1faf9b	0.009746457
32	0x3dbdfe41	0.09277011
33	0x3da91271	0.082554705
34	0xbdaf955f	-0.08573412
35	0x3d97c99a	0.07411499
36	0x3d412519	0.04715452
37	0xbc363420	-0.011120826
38	0x3ce59cbf	0.028028844
39	0x3dd52512	0.10407461
40	0xbc2e68f5	-0.010645141
41	0x3d031cc3	0.03200985
42	0xbd772583	-0.06033851
43	0x3cbe293a	0.023213018
44	0x3e0983d2	0.13429192
45	0x3d828ff1	0.06375111
46	0x3d05678e	0.03256946
47	0xbdff200f	-0.124572866
48	0x3c8e8e58	0.01740186
49	0x3c8d5f23	0.017257279
50	0xbd942d8f	-0.07235252
51	0xbb2c61d4	-0.0026303427
52	0x3cef9280	0.029244661
53	0x3da12ef0	0.07870281
54	0xbc9a8d01	-0.018866064
55	0x3c571e28	0.013129748
56	0xbdbc64e5	-0.091989316
57	0x3bd4d3e2	0.006494985
58	0xbcd66853	-0.026172793
59	0xb9987428	-0.00029078242
60	0x3d2d4e8e	0.042311244
61	0x3d8cfe74	0.068844706
62	0xbc91d2f4	-0.017800786
63	0x3d5f925c	0.05458294
64	0x3d4cf474	0.050037816
65	0x3d576b7e	0.052592747
66	0xbc20c73c	-0.009813126
67	0xbc321e67	-0.010871506
68	0x3d793d73	0.06084962
69	0x3dacfff2	0.08447255
70	0x3d902a31	0.07039297
71	0xbdb7af35	-0.08968965
72	0x3d595bd8	0.053066105
73	0x3b3dead8	0.002897909
74	0x3cec3104	0.028831966
75	0x3cfadbf1	0.030622454
76	0xbcbc9193	-0.023018634
77	0x3e12fdec	0.14354676
78	0x3a8fd416	0.0010973241
79	0xbd9a7b77	-0.0754308
80	0xbd0b3754	-0.033988312
81	0xbc9330d1	-0.017967613
82	0xbccdb329	-0.025109844
83	0x3cb97c9c	0.022642426
84	0x3d15593c	0.036462054
85	0x3cac486a	0.021030623
86	0xbc8b0dea	-0.016974408
87	0x3c6b5a43	0.014364782
88	0xbd1dc4c3	-0.038517725
89	0x3e002ec8	0.12517846
90	0x3d1a463e	0.037664644
91	0xbcb53b78	-0.022123083
92	0x3d33e683	0.043921005
93	0x3d2c0f11	0.042006556
94	0x3cfb2167	0.030655576
95	0x3d9f55df	0.077800505
96	0x3c27b385	0.010235672
97	0x3dd50455	0.10401217
98	0xbdd8b307	-0.10581022
99	0x3d437fdd	0.04772936
100	0x3cebb782	0.028774027
101	0x3d085e86	0.03329327
102	0xbd08b0d1	-0.03337175
103	0x3cb93e51	0.022612723
104	0x3d532be9	0.051555548
105	0x3c9000c7	0.017578496
106	0x3d1e2f6d	0.038619447
107	0x3d81bac9	0.063344546
108	0xbe5973ff	-0.21235655
109	0xbce02a24	-0.027363844
110	0x3d1c2528	0.038121372
111	0x3d992ab1	0.07478846
112	0x3d9f0018	0.0776369
113	0xbcc0bda0	-0.02352792
114	0xbc31793e	-0.010832129
115	0x3923d4b9	0.00015624137
116	0x3d8a1011	0.06741346
117	0x3dd69fc3	0.10479691
118	0x3c43c877	0.01194965
119	0x3da8207f	0.08209323
120	0xbd981925	-0.07426671
121	0xbd4ead60	-0.050458312
122	0x3d93d960	0.07219195
123	0xbc673a7e	-0.014113067
124	0x3d8b5763	0.06803777
125	0xbde9adee	-0.114101276
126	0x3d45a946	0.048257135
127	0x3d33c700	0.043890953
128	0x3d848d3b	0.0647225
129	0x3d73136c	0.059344694
130	0x3c5d0d86	0.013491994
131	0x3c8c3be8	0.01711841
132	0x3d802b7e	0.062582955
133	0x3bd4ca3b	0.0064938343
134	0x3d0b3850	0.03398925
135	0xbbd2ad44	-0.0064293463
136	0x3d37bb60	0.04485643
137	0x3dba957b	0.091105424
138	0xbd05da48	-0.032678872
139	0x3d4bc4a2	0.04974807
140	0xbd88c66a	-0.066784695
141	0xbc082ae7	-0.00831101
142	0x3c2769e8	0.010218121
143	0xbb67ca2b	-0.0035368304
144	0xbbcae5db	-0.0061919517
145	0x3d417aa8	0.047236115
146	0xbd06dd52	-0.03292591
147	0xba808fd6	-0.0009808491
148	0xbd96c06f	-0.073609225
149	0x3d2a00aa	0.04150454
150	0xbd781fa8	-0.060577065
151	0x3db3db46	0.087820575
152	0x3d4b776a	0.04967443
153	0x3db0f5b9	0.08640618
154	0x3d541adb	0.051783424
155	0x3dbf0c04	0.09328464
156	0x3d0fc9b5	0.035104472
157	0x3d16ed36	0.036847316
158	0xbc9db3a0	-0.019250691
159	0x3d861deb	0.06548675
160	0x3d8531a8	0.06503612
161	0x3d39b99d	0.04534303
162	0x3d37fde5	0.044919867
163	0x3c0a9080	0.008457303
164	0xbdf557ca	-0.11979635
165	0xbd5872c1	-0.052843813
166	0x3c9ac8df	0.01889461
167	0x3db67c10	0.08910382
168	0xbdf763ea	-0.12079604
169	0x3d2dea20	0.042459607
170	0xbcf0654b	-0.029345175
171	0xbd293939	-0.041314337
172	0x3bdf62a5	0.0068171793
173	0x3cedadcf	0.029013542
174	0x3d96d1fe	0.073642716
175	0x3d2e6b55	0.04258283
176	0xbd84afed	-0.06478868
177	0x3c62e435	0.013848354
178	0xbdaef502	-0.08542825
179	0x3d8b2ec6	0.06796031
180	0x3d10855a	0.035283424
181	0x3d4cc31d	0.049990762
182	0x3e01e8b9	0.12686433
183	0xbae8f876	-0.0017774242
184	0x3d40f9a1	0.047113065
185	0x3c1ebaca	0.009688089
186	0x3d6da4a2	0.058018334
187	0x3cfb4897	0.030674262
188	0x3d5e1eea	0.0542287
189	0x3c5abe58	0.013351046
190	0xbd6856e4	-0.05672349
191	0x3da20c8e	0.07912551
192	0xbc65969c	-0.014012959
193	0xbb25b261	-0.0025283324
194	0x3dbe6d7e	0.09298228
195	0x3d907448	0.07053429
196	0x3b6da3c8	0.0036260951
197	0x3caba89c	0.020954423
198	0xbdd4bd16	-0.10387628
199	0x3db7e88e	0.08979903
200	0x3cdce1b1	0.026963087
201	0xbd66a0c2	-0.056305654
202	0xbd9df199	-0.07712097
203	0x3cd68068	0.026184276
204	0x3d307b99	0.043086622
205	0x3dbb742b	0.09153017
206	0x3c3b737d	0.011441109
207	0x3d278979	0.04090259
208	0xbd708a92	-0.0587259
209	0x3c2a41d0	0.0103916675
210	0xbcdbd082	-0.026832823
211	0x3bf3ad36	0.00743642
212	0xbd98fdcc	-0.07470283
213	0x3d08c8dd	0.033394683
214	0xbc7890a3	-0.015171203
215	0x3e080e44	0.13286692
216	0x3d274ac8	0.0408428
217	0x3b2d10cb	0.0026407714
218	0x3c22083b	0.009889658
219	0x3e0b9068	0.13629305
220	0xbd9362b5	-0.07196561
221	0xbdb1f101	-0.08688546
222	0xbc8bc93c	-0.01706373
223	0x3bd86e37	0.0066049355
224	0x3d2d3974	0.04229112
225	0xbca9e620	-0.020739615
226	0xbd0c0e46	-0.0341933
227	0x3d092557	0.033482876
228	0xbd297b9a	-0.04137764
229	0x3d5ac81d	0.0534135
230	0x3c1ec26e	0.00968991
231	0xbbc11879	-0.00589281
232	0xbdf156cf	-0.117841356
233	0x3d96bb39	0.07359929
234	0xbcae7d9c	-0.02130013
235	0xbcdd95b1	-0.027048917
236	0xbdd35d97	-0.10320585
237	0x3d3cdcc2	0.04610897
238	0x3c38379b	0.011243726
239	0xbd32e5d7	-0.043676224
240	0xbd21f438	-0.039539546
241	0x3d8e4ed3	0.06948628
242	0x3d65d6ba	0.056112982
243	0xbd4154c5	-0.047199983
244	0xbd5df246	-0.054186128
245	0xbd2fa1eb	-0.042879026
246	0x3d5d3b01	0.05401135
247	0x3d52a16e	0.051423483
248	0x3c4c9489	0.012486585
249	0xbc36a73e	-0.011148272
250	0x3d60e831	0.054908935
251	0x3dbb3f9e	0.091429934
252	0x3d4523a0	0.048129678
253	0xbcd83d2c	-0.026396357
254	0xbd8134bc	-0.063088864
255	0xbd5224fc	-0.051304802

fc3.weight f4 [4, 300]
0	0xbdd5ae74	-0.10433665
1	0x3cc33199	0.023827361
2	0xbc088d18	-0.008334421
3	0xbe23ee55	-0.16008885
4	0x3e222c08	0.15837109
5	0x3bec7a14	0.0072167013
6	0xbe2a2be1	-0.16618301
7	0xbead4644	-0.3384267
8	0xbebd0fc5	-0.36926094
9	0x3e6304c4	0.22169787
10	0xbc9e615c	-0.019333534
11	0x3e181213	0.14850645
12	0x3ec5a60e	0.38603252
13	0x3d223883	0.039604675
14	0xbeb91407	-0.36148092
15	0x3da6b3e8	0.08139783
16	0xbde3ea7d	-0.111287095
17	0x3e1c8523	0.15285163
18	0x3dd01079	0.10159392
19	0x3e305428	0.17219603
20	0xbdafd7ca	-0.0858608
21	0x3e9b3b46	0.3031866
22	0xbd6f314c	-0.058396623
23	0xbe5e7c43	-0.2172709
24	0xbd279ebd	-0.04092287
25	0xbc7d0570	-0.015443191
26	0xbcd50436	-0.026002984
27	0x3c55f01b	0.013057734
28	0xbc305554	-0.010762531
29	0x3e5e85aa	0.21730676
30	0x3dab7246	0.08371405
31	0x3e51b273	0.20478229
32	0x3d42222e	0.047395878
33	0x3cdccd5a	0.026953388
34	0x3da476c6	0.08030467
35	0x3db7fddb	0.08983966
36	0xbe1374ef	-0.14400075
37	0x3db5ed93	0.08883204
38	0xbe25d5e9	-0.16194881
39	0xbdd93d71	-0.10607422
40	0xbe987e87	-0.29784033
41	0x3c9fbad3	0.019498264
42	0x3cd330fc	0.025780194
43	0xbe0bb830	-0.1364448
44	0xbe6db57f	-0.23213767
45	0xbc17fa68	-0.00927601
46	0x3e6ddd0a	0.23228851
47	0x3e36721f	0.17816971
48	0xbe1f7daa	-0.15575281
49	0xbe3f0837	-0.18655477
50	0x3edeac82	0.43490988
51	0xbdd197fc	-0.10234067
52	0x3e7a1501	0.24422075
53	0x3d94a028	0.0725711
54	0xbeb0e80d	-0.3455204
55	0xbd334fad	-0.043777157
56	0x3d3054b3	0.043049525
57	0xbcf4e5ba	-0.029894698
58	0xbd900000	-0.0703125
59	0x3e093a1d	0.13401075
60	0xbe767708	-0.24068844
61	0x3d47768f	0.04869705
62	0x3e0bbadc	0.136455
63	0xbd6da726	-0.058020733
64	0x3c8dd52a	0.017313559
65	0x3dad2245	0.08453802
66	0x3e42481b	0.18972819
67	0x3ce2ed2b	0.027700981
68	0x3e460236	0.19336781
69	0x3dbc169a	0.091839984
70	0x3bbfb6fa	0.00585067
71	0x3d57ffaf	0.052734073
72	0xbe0b6413	-0.13612394
73	0x3c606eaa	0.013698259
74	0x3e48025e	0.19532153
75	0x3e4b89ff	0.1987686
76	0xbcc99c46	-0.02461065
77	0x3d7be9f6	0.06150242
78	0xbd9abb66	-0.07555275
79	0x3d3bedd9	0.045881126
80	0xbc195d51	-0.009360627
81	0x3eb0d351	0.34536222
82	0x3e810ce0	0.25205135
83	0xbe2ee348	-0.17078888
84	0x3e4e6880	0.20157051
85	0xbeec7693	-0.46184215
86	0xbe08f56c	-0.13374871
87	0x3c15bb10	0.009138837
88	0xbe6e948e	-0.23298857
89	0xbd6b188c	-0.057396457
90	0xbc2453ce	-0.010029746
91	0x3f21940a	0.63116515
92	0xbe3f70ed	-0.18695422
93	0x3d47c46c	0.048771307
94	0xbe24d5e2	-0.16097215
95	0xbc69b2ed	-0.014263851
96	0x3e3891c9	0.18024363
97	0xbde0ade0	-0.10970664
98	0xbe13b0da	-0.14422932
99	0x3d98cde4	0.074611455
100	0xbde16ef9	-0.110074945
101	0x3e895135	0.2681977
102	0xbe029a20	-0.12754107
103	0xbe7c93b1	-0.24665715
104	0xbeeb1f55	-0.45922342
105	0xbbf45323	-0.0074561997
106	0xbe920ccc	-0.28525388
107	0x3e97ec85	0.29672638
108	0x3f291d49	0.6606031
109	0x3d54f54e	0.051991753
110	0x3e258458	0.16163766
111	0x3ecd20ad	0.40063992
112	0xbe0a8b62	-0.13529733
113	0xbb317279	-0.0027076288
114	0xbe163d9c	-0.1467194
115	0xbec3d21b	-0.38246235
116	0xbd0f0bd7	-0.0349234
117	0x3d20069c	0.039068803
118	0x3c98b69f	0.018641768
119	0x3c12bbef	0.00895594
120	0x3e342519	0.17592277
121	0xbe8c2433	-0.27371368
122	0x3c256719	0.010095381
123	0xbc2aaa0c	-0.010416519
124	0x3d8ce078	0.068787515
125	0x3f0d5f8a	0.55223906
126	0x3e376c6a	0.1791245
127	0xbca1f1ad	-0.01976856
128	0xbe0e9da2	-0.1392732
129	0x3d1c9dd2	0.038236447
130	0xbeb233a0	-0.34805012
131	0xbdcb081d	-0.09913657
132	0xbe6f9b2a	-0.23399034
133	0xbe3e613a	-0.18591776
134	0x3bb35ef1	0.0054739644
135	0x3d59a078	0.05313155
136	0x3e11c8d2	0.14236763
137	0xbd7b0a68	-0.06128922
138	0xbe67b13f	-0.22626208
139	0x3e08ac25	0.13346918
140	0xbe9d05bc	-0.30668437
141	0x3f035271	0.5129767
142	0x3c9416c2	0.018077258
143	0xbe51e3aa	-0.20497003
144	0x3e472c6c	0.1945054
145	0xbe3f63bc	-0.1869039
146	0x3cb86795	0.02251033
147	0xbe49bd7a	-0.19701186
148	0xbe84a762	-0.25908953
149	0xbd2f056f	-0.04272979
150	0xbe926c91	-0.28598455
151	0x3decd5fc	0.11564252
152	0xbe54f0b0	-0.2079494
153	0x3d4e5cf4	0.050381616
154	0x3d0843bc	0.03326772
155	0x3e05498a	0.13016334
156	0x3e184209	0.1486894
157	0xbd9abb61	-0.07555271
158	0x3e6ea9c1	0.23306943
159	0xbd7d8aa1	-0.061899785
160	0xbe54359d	-0.20723577
161	0xbdd84230	-0.10559499
162	0xbc80a1ed	-0.015702212
163	0x3df74a7e	0.12074755
164	0xbce137d8	-0.027492449
165	0xbdd87d0f	-0.10570728
166	0xbe59b7bf	-0.212615
167	0xbdbdc8bc	-0.09266803
168	0x3dd73f2d	0.10510097
169	0x3deaebf9	0.114707895
170	0x3e876035	0.26440588
171	0x3e00f5cb	0.12593763
172	0xbed44537	-0.41459057
173	0x3e5726e9	0.21010937
174	0xbee6f9db	-0.451125
175	0xbd10d1f8	-0.03535649
176	0x3e9dc241	0.30812266
177	0x3d8bcc30	0.06826055
178	0x3d1db8ea	0.038506426
179	0xbc67a005	-0.014137273
180	0x3d10b1f6	0.035325967
181	0x3cca3853	0.02468506
182	0xbc58ba2d	-0.0132279815
183	0xbe974f93	-0.29552898
184	0x3d2bac29	0.04191223
185	0xbc52d4c6	-0.012868112
186	0x3efca021	0.4934092
187	0xbc67fbd1	-0.014159159
188	0xbeaea2e7	-0.3410866
189	0x3e7698d3	0.24081735
190	0x3c0b12fb	0.008488412
191	0x3db9a086	0.090638205
192	0xbecf7d15	-0.40525118
193	0xbd6501a8	-0.055909783
194	0xbead9703	-0.33904275
195	0x3cf355cf	0.029704003
196	0xbe6607fc	-0.22463983
197	0xbe645b67	-0.22300492
198	0xbc693e36	-0.014236024
199	0xbe8d9160	-0.27649975
200	0xbcc7fe9f	-0.024413405
201	0x3e506ca0	0.20353937
202	0x3ebfa04a	0.37426978
203	0xbe9e1f14	-0.30883086
204	0xbc179494	-0.009251732
205	0xbd18f2b0	-0.03734082
206	0x3e517d97	0.20458065
207	0xbe85a670	-0.26103544
208	0x3c2e4891	0.010637418
209	0xbd095a27	-0.03353324
210	0x3d842282	0.06451894
211	0x3e3f044b	0.18653981
212	0xbdc57cf9	-0.09642977
213	0xbd7d12d3	-0.06178553
214	0x3e3a0662	0.18166497
215	0x3de61fd2	0.11236538
216	0x3e702efa	0.2345542
217	0xbe8edcb0	-0.27902746
218	0x3e0852d0	0.1331284
219	0x3e2adc2d	0.16685553
220	0xbe6d6ccb	-0.23186032
221	0xbe4af902	-0.19821551
222	0x3e87aa13	0.26496944
223	0xbe7644d5	-0.24049695
224	0x3e140a63	0.14457087
225	0xbdb6a157	-0.08917492
226	0x3d672181	0.056428436
227	0xbe08c678	-0.1335696
228	0x3e8c4592	0.27396828
229	0xbecdedb4	-0.40220416
230	0x3e078ac7	0.13236533
231	0x3db0ea13	0.08638396
232	0x3ef0172f	0.46892688
233	0xbd4f77b9	-0.050651286
234	0xbd735c71	-0.05941433
235	0x3e1f9bd7	0.15586792
236	0xbda94387	-0.08264833
237	0xbc447f5b	-0.011993255
238	0xbd0596d4	-0.032614544
239	0xbdd4cb2f	-0.10390317
240	0xbe0a9092	-0.13531712
241	0xbefeb013	-0.4974371
242	0x3d43637a	0.04770229
243	0xbc91bc9b	-0.01779013
244	0xbf001c12	-0.5004283
245	0x3e1c5b6a	0.15269247
246	0x3e919f8a	0.2844203
247	0xbea6a49e	-0.32547468
248	0xbe98d576	-0.29850358
249	0xbd7d8ac7	-0.061899927
250	0x3dd864cc	0.105661005
251	0xbddf37ac	-0.108992904
252	0x3e9a2b39	0.301111
253	0xbcfbae2f	-0.030722706
254	0x3e0b373f	0.13595293
255	0xbc246494	-0.010033745

fc3.bias f4 [4]
0	0xbcab5532	-0.020914648
1	0x3d035c08	0.03207019
2	0x3d1114ad	0.03542011
3	0x3c6c8f7a	0.014438504
