checkpoints/checkpoint_critic_300.pth (torch, 543815 bytes, 5 tensors)

fcs1.weight f4 [400, 33]
0	0xbe545ea1	-0.20739223
1	0x3e193642	0.14962104
2	0x3e7836ce	0.24239656
3	0x3e8ce6e1	0.27519897
4	0x3e47a9b6	0.19498333
5	0x3d8067a0	0.06269765
6	0x3ece5de1	0.40306
7	0xbe4dbc22	-0.20091298
8	0x3b3bb022	0.002863892
9	0x3d0cf065	0.034408946
10	0x3deb73ab	0.11496671
11	0x3e13bd39	0.14427651
12	0x3e059514	0.1304515
13	0x3dab6025	0.083679475
14	0x3f042287	0.51615185
15	0xbd9c8214	-0.07641998
16	0xbed4b8c8	-0.41547227
17	0x3e19b9c8	0.15012276
18	0x3f00fff0	0.5039053
19	0xbe97da40	-0.296587
20	0xbce3f703	-0.027827745
21	0xbd4c9781	-0.049949173
22	0xbca99f4f	-0.020705847
23	0x3d3a0f71	0.045424882
24	0x3e7afc66	0.24510345
25	0x3dff5c9c	0.12468836
26	0x3e70e936	0.23526463
27	0x3e0f0bd2	0.13969353
28	0x3e483837	0.19552694
29	0x3c9a7f76	0.018859606
30	0xbe176a04	-0.14786536
31	0x3c7987e4	0.015230153
32	0x3edd7cf8	0.43259406
33	0xbec011ab	-0.3751348
34	0x3dc4ea36	0.09614985
35	0xbea176eb	-0.3153604
36	0x3e8d4a7e	0.27595896
37	0xbe41b66c	-0.18917245
38	0xbe05b015	-0.13055451
39	0x3cfde04d	0.030990744
40	0xbd7fba7a	-0.062433697
41	0x3e192c1e	0.14958236
42	0x3dd5866f	0.10426032
43	0xbe370c6a	-0.1787583
44	0xbe04ebff	-0.1298065
45	0x3c1fad84	0.009745959
46	0xbd896cc2	-0.06710197
47	0x3d25cf4b	0.040480893
48	0x3ea53b49	0.32271793
49	0x3e53594c	0.20639533
50	0xbe42ed25	-0.19035776
51	0x3e1f191c	0.15536922
52	0x3e752fe1	0.23944046
53	0x3d2a45d5	0.041570503
54	0xbd4fb3dc	-0.050708637
55	0x3d92bea3	0.07165267
56	0xbc16c5ad	-0.009202403
57	0x3e29eb4b	0.16593663
58	0xbdd97c08	-0.1061936
59	0x3e5f1c02	0.21788028
60	0x3e4810e7	0.19537698
61	0xbe9e5c6c	-0.30929887
62	0xbcb4bf50	-0.022063881
63	0xbe651305	-0.22370537
64	0x3d40e6d5	0.04709514
65	0xbf03b1f3	-0.51443404
66	0x3d8b2eab	0.067960106
67	0xbb0a08fc	-0.0021062484
68	0x3ec58e4a	0.3858512
69	0xbe0649ff	-0.13114165
70	0xbe9658d4	-0.29364645
71	0x3ed7d8ac	0.42157495
72	0x3ba62471	0.005070262
73	0x3da39c7e	0.07988833
74	0xbdb5e06f	-0.08880698
75	0xbe91658c	-0.28397787
76	0xbdc7b08e	-0.09750472
77	0x3d8bb86c	0.06822285
78	0xbd61e185	-0.055146713
79	0x3d9a03a7	0.07520228
80	0x3dd5d0c3	0.10440209
81	0xbe1a3ec2	-0.15063003
82	0xbe52202f	-0.2052009
83	0xbd5fa01f	-0.054596063
84	0x3e6f2727	0.23354779
85	0xbf128c93	-0.5724575
86	0x3e5cb4fa	0.21553412
87	0xbd04c212	-0.032411642
88	0xbe3a9525	-0.18220957
89	0x3cd66be9	0.026174502
90	0xbe12c0bb	-0.14331333
91	0xbe08f42d	-0.13374396
92	0xbcd7d69b	-0.026347449
93	0x3e7955ea	0.2434918
94	0xbe2e41c5	-0.17017277
95	0x3c2334e8	0.009961344
96	0xbe4e2e11	-0.2013476
97	0xbd146230	-0.03622645
98	0xbed94373	-0.42434272
99	0xbeb55b28	-0.3542111
100	0x3e064b8c	0.13114756
101	0xbe3bd9cc	-0.18344802
102	0x3ee21bdc	0.4416188
103	0xbe6b4d46	-0.22978696
104	0x3e09554d	0.13411446
105	0xbe03821d	-0.12842603
106	0x3dbfc449	0.0936361
107	0x3e6ce484	0.23134047
108	0x3e40edcc	0.18840712
109	0xbdda9bf2	-0.106742755
110	0x3e28179e	0.16415259
111	0xbcd1d14d	-0.025612498
112	0x3e5acdde	0.21367595
113	0x3a19a882	0.00058615964
114	0xbddc5482	-0.10758306
115	0x3e00e01d	0.12585492
116	0xbcf24a16	-0.029576343
117	0xbea1ccdf	-0.31601617
118	0x3e081438	0.13288963
119	0x3e2fb826	0.17160091
120	0xbd9abf49	-0.07556016
121	0x3de48500	0.1115818
122	0x3d5d7f25	0.054076333
123	0xbd71ec29	-0.05906311
124	0xbd8030b7	-0.062592916
125	0xbc59a831	-0.013284729
126	0x3e8eaf26	0.27868003
127	0xbdf945b4	-0.12171498
128	0xbc8a0234	-0.016846754
129	0xbe580b70	-0.21098113
130	0xbc406c98	-0.011744641
131	0x3f0e5995	0.5560544
132	0xbb914c43	-0.00443414
133	0xbd0cf0e6	-0.034409426
134	0xbe4822d6	-0.19544539
135	0x3e78d1fe	0.24298856
136	0x3ca36e2f	0.01995
137	0x3e459bc6	0.19297704
138	0xbe90acd7	-0.28256866
139	0xbde9880c	-0.11402902
140	0x3d07a9da	0.033120967
141	0xbe8b5cfb	-0.27219376
142	0x3de23e7d	0.11047075
143	0x3e43e58c	0.19130534
144	0x3ce5336b	0.02797862
145	0xbcea05ba	-0.028567184
146	0x3d4aa87b	0.04947708
147	0x3cb7939d	0.022409255
148	0x3e30fe36	0.17284474
149	0x3de7cc89	0.11318309
150	0xbb382461	-0.0028097855
151	0x3ad64b3f	0.0016349329
152	0x3b8e5abb	0.004344312
153	0xbe118196	-0.1420959
154	0x3d9e82a0	0.077397585
155	0x3cbc68a9	0.022999125
156	0xbc45db52	-0.012076216
157	0xbd8a3364	-0.06748083
158	0xbe18f62c	-0.14937657
159	0x3ec08686	0.37602633
160	0x3d8fa43f	0.07013749
161	0x3c0fadac	0.008769434
162	0xbed47dc8	-0.41502213
163	0xbc8c526c	-0.017129146
164	0xbe85e386	-0.2615015
165	0x3df11cf1	0.11773098
166	0x3d0b3302	0.03398419
167	0xbd326d67	-0.043561365
168	0xbe4e401e	-0.20141646
169	0x3dcbed2a	0.09957345
170	0xbe28b6c8	-0.16475976
171	0x3ba88691	0.0051429947
172	0x3e066deb	0.13127868
173	0xbda6a02e	-0.081360206
174	0xbe142bf4	-0.14469892
175	0x3da87aaa	0.08226521
176	0xbba9e7bc	-0.0051850956
177	0x3dc3da07	0.0956307
178	0x3c5e1354	0.013554413
179	0x3d8b3876	0.067978784
180	0x3e0bd1e8	0.13654292
181	0x3eb846b9	0.35991457
182	0xbd427cd2	-0.04748232
183	0xbb84c53b	-0.004051832
184	0x3e15a983	0.14615445
185	0xbd77a91b	-0.060464006
186	0xbd64b2e0	-0.05583465
187	0x3d6ca215	0.05777176
188	0xbbd8dcaf	-0.0066181044
189	0x3cbf388d	0.023342395
190	0xbe41e0dd	-0.18933435
191	0xbd9f699b	-0.077838145
192	0x3f1ad061	0.6047421
193	0xbe047a45	-0.12937267
194	0x3d1d04fd	0.038334835
195	0xbf11fa39	-0.57022434
196	0x3d0c75fd	0.03429221
197	0x3d23d58d	0.03999858
198	0x3ab9f78f	0.0014188158
199	0xbd40593a	-0.046960093
200	0x3e89eba6	0.26937598
201	0xbd9d73c2	-0.07688095
202	0x3d09eba2	0.033671983
203	0x3e0418c5	0.12900074
204	0x3ecbf5c2	0.39835936
205	0xbe148da6	-0.1450716
206	0xbe30f82b	-0.17282169
207	0xbd4dd66e	-0.050253324
208	0x3ce9b3d9	0.02852814
209	0xbb7938fc	-0.003802835
210	0x3d5d93ec	0.054096147
211	0x3e0765d4	0.13222438
212	0x3d1a8b89	0.037730727
213	0xbf04efa0	-0.5192814
214	0xbe1df9f9	-0.15427388
215	0x3df7bfc6	0.12097125
216	0xbcb6ce19	-0.022315072
217	0x3ecab1f4	0.39588892
218	0xbd7a4e8e	-0.06111007
219	0x3dd6b815	0.104843296
220	0xbcc82657	-0.024432344
221	0x3d49a6e8	0.04923144
222	0x3d34fb85	0.04418518
223	0xbe5a5269	-0.213205
224	0xbd39488f	-0.045235213
225	0x3e69a75c	0.22817749
226	0x3ed54ea1	0.41661552
227	0x3c72d164	0.01482043
228	0xbe213a5a	-0.15744916
229	0xbcdfcce7	-0.027319385
230	0x3f1e2eab	0.6178996
231	0xbe2a183c	-0.16610807
232	0xbb4bc7a3	-0.0031094335
233	0x3e4bcf95	0.19903405
234	0xbe924133	-0.28565368
235	0xbe013afa	-0.12620154
236	0xbed05e2c	-0.40696847
237	0x3ccf60dc	0.02531474
238	0x3dd75f61	0.10516239
239	0xbdef05b9	-0.116710134
240	0xbe0e8f7a	-0.1392192
241	0xbce01085	-0.027351627
242	0xbc99fa62	-0.01879615
243	0x3db5d388	0.08878237
244	0x3e7c4bb6	0.24638256
245	0x3e4e0b47	0.2012149
246	0xbec5000e	-0.38476604
247	0x3e4c23de	0.19935557
248	0x3e1a8b36	0.15092167
249	0xbd8931f8	-0.06698984
250	0x3e470b5c	0.19437927
251	0xbda61ba8	-0.08110744
252	0x3d902944	0.07039121
253	0xbcc1dedd	-0.02366584
254	0x3e06b2c8	0.13154137
255	0x3dd66827	0.10469084

fcs1.bias f4 [400]
0	0xbe465485	-0.19368179
1	0xbe8efdc9	-0.27927998
2	0xbd77e848	-0.060524255
3	0xbe6b25be	-0.22963616
4	0xbf0d7a1d	-0.55264455
5	0xbf38377c	-0.7195966
6	0xbea8c450	-0.32962275
7	0xbd910d78	-0.07082647
8	0xbf0ca9af	-0.54946417
9	0xbeef4ad4	-0.46736777
10	0xbeb3a619	-0.3508766
11	0xbeef9bf4	-0.4679867
12	0xbdc9afb7	-0.09847968
13	0xbeec78f5	-0.46186033
14	0xbf148fa6	-0.5803169
15	0xbdc8df1c	-0.0980818
16	0xbf02d015	-0.5109876
17	0xbe8d81cb	-0.27638087
18	0xbeea4bea	-0.45761043
19	0xbecf4d7d	-0.40488806
20	0xbef755be	-0.48307604
21	0xbef1345e	-0.47110265
22	0xbee7ae20	-0.45250034
23	0xbf17b418	-0.59259176
24	0xbe8f9ba3	-0.2804843
25	0xbf0118ab	-0.50428265
26	0xbe94b93d	-0.29047576
27	0xbb8eaca8	-0.0043540783
28	0xbf2d64de	-0.67732036
29	0xbea0235a	-0.3127697
30	0xbeb54772	-0.3540607
31	0xbe821bb4	-0.2541176
32	0xbe84b830	-0.25921774
33	0xbea55da7	-0.32298014
34	0xbf369467	-0.71320194
35	0xbde3be64	-0.111202985
36	0xbf2ed238	-0.6828952
37	0xbf2b8cb7	-0.6701159
38	0xbbb3dd34	-0.005489016
39	0xbedaa190	-0.42701387
40	0xbe219313	-0.1577876
41	0xbdb83e38	-0.08996242
42	0xbf292725	-0.66075355
43	0xbee806c0	-0.4531765
44	0xbe403b15	-0.18772538
45	0xbe38394f	-0.17990611
46	0xbe725241	-0.2366419
47	0xbea2c0cf	-0.31787726
48	0xbeda0bcc	-0.42587125
49	0xbf3a8604	-0.7286074
50	0xbe641ff9	-0.22277822
51	0xbe30f94e	-0.17282602
52	0xbee2fb12	-0.44332176
53	0xbe82d642	-0.2555409
54	0xbe8552e3	-0.260398
55	0xbdef039b	-0.116706096
56	0xbf0c9c30	-0.54925823
57	0xbf2747c9	-0.6534391
58	0xbeb5673c	-0.35430324
59	0xbe402b10	-0.18766427
60	0xbefb80b9	-0.49121645
61	0xbf13a26e	-0.57669723
62	0xbe914db8	-0.28379607
63	0xbde28abe	-0.11061619
64	0xbf274178	-0.6533427
65	0xbef94c27	-0.48690912
66	0xbeaf7406	-0.34268206
67	0xbec8b7ab	-0.39202628
68	0xbf069f83	-0.52587146
69	0xbe24b503	-0.16084675
70	0xbe79ef5f	-0.24407719
71	0x3cbb03e5	0.022829005
72	0xbd9646ea	-0.073377445
73	0xbf10169d	-0.56284505
74	0xbdafc3db	-0.08582278
75	0xbe821c6a	-0.25412303
76	0xbee0f462	-0.4393645
77	0xbeb20b8d	-0.34774438
78	0xbcbb1ac7	-0.022839917
79	0xbf06861b	-0.5254838
80	0xbeaaed1b	-0.33384022
81	0xbe556a67	-0.2084137
82	0xbed86736	-0.42266244
83	0xbec01238	-0.375139
84	0xbeaf5978	-0.34247947
85	0x3dc6f097	0.097138576
86	0xbf21a133	-0.63136595
87	0xbd6662be	-0.05624651
88	0xbe44d68c	-0.19222468
89	0xbf3c3e6a	-0.73532736
90	0xbe45c4c5	-0.19313343
91	0xbf1ac246	-0.6045269
92	0xbf00ac1f	-0.50262636
93	0xbf477a1b	-0.77920693
94	0xbecae9f7	-0.39631626
95	0xbf2c50d0	-0.6731081
96	0xbeb2a3eb	-0.34890684
97	0xbeb07b3e	-0.34469026
98	0xbe961184	-0.29310238
99	0xbeaa6e11	-0.332871
100	0xbf04a928	-0.5182061
101	0xbdfb8873	-0.12281885
102	0xbe36fda7	-0.17870198
103	0xbe1d7659	-0.15377177
104	0xbe71456e	-0.23561642
105	0xbea6401f	-0.32470796
106	0x3cb5e1ce	0.022202399
107	0xbeb20395	-0.34768358
108	0xbf21e45e	-0.63239086
109	0xbe86f74c	-0.26360548
110	0xbe636838	-0.22207725
111	0xbe8144ad	-0.25247708
112	0xbf2a2711	-0.6646586
113	0xbedf4500	-0.4360733
114	0xbe47752e	-0.19478294
115	0xbdbb64a7	-0.09150057
116	0xbf0d75b6	-0.5525774
117	0xbe4151c9	-0.18878855
118	0xbf3e9235	-0.74441844
119	0xbebf2726	-0.37334555
120	0xbf0a3c34	-0.5399811
121	0xbea05519	-0.31314924
122	0xbeb59bfd	-0.35470572
123	0xbeef6035	-0.46753088
124	0xbf3b280e	-0.73107994
125	0xbe8aa1f6	-0.2707669
126	0xbe778f82	-0.24175838
127	0xbe51ab36	-0.20475468
128	0xbea0b9fb	-0.31391892
129	0xbeeba92c	-0.46027505
130	0xbe1ac212	-0.15113094
131	0xbd808808	-0.06275946
132	0xbe8eef09	-0.27916744
133	0xbf36f30b	-0.71464604
134	0xbe2bb0c3	-0.16766648
135	0xbecc1052	-0.398562
136	0xbef9fe57	-0.48826858
137	0xbe672a57	-0.22574745
138	0xbe89b0a9	-0.26892594
139	0xbe9ef95a	-0.31049615
140	0x3a5719fe	0.0008205472
141	0xbe97ff00	-0.29686737
142	0xbe5338c3	-0.20627122
143	0xbdf2f18c	-0.11862478
144	0xbed9be9c	-0.42528236
145	0xbe8660df	-0.26245782
146	0xbec08895	-0.37604204
147	0xbf088b0f	-0.53337187
148	0xbf113b3e	-0.5673102
149	0xbedccd5b	-0.43125424
150	0xbf468359	-0.7754417
151	0xbe53d4fd	-0.20686717
152	0xbddd2ce4	-0.10799578
153	0xbf101729	-0.5628534
154	0xbef27415	-0.4735419
155	0xbec8b0a8	-0.39197278
156	0xbe9e1d05	-0.30881515
157	0xbeb0f1f6	-0.34559602
158	0xbea03135	-0.31287542
159	0xbf02d2b9	-0.5110279
160	0xbf1e9b8f	-0.61956114
161	0xbedebfac	-0.4350561
162	0xbe423336	-0.18964848
163	0xbee1ef72	-0.44127995
164	0x3e168aa9	0.14701332
165	0xbeb84aaf	-0.3599448
166	0xbeda7640	-0.42668343
167	0xbdb00f87	-0.085967116
168	0xbf076d0e	-0.5290078
169	0xbeff79f0	-0.49897718
170	0xbe3fb5ff	-0.1872177
171	0xbd94c0a8	-0.07263309
172	0xbf03fdaa	-0.51558936
173	0xbec56582	-0.38554007
174	0xbf06e127	-0.52687305
175	0xbea59bba	-0.32345372
176	0xbf0cdb3f	-0.55022043
177	0xbed345f6	-0.41264313
178	0xbef8de39	-0.48607042
179	0xbf015c11	-0.5053111
180	0xbf17cc79	-0.59296376
181	0xbf3ac933	-0.72963256
182	0xbf2365d5	-0.6382726
183	0xbea7c7f7	-0.3276975
184	0xbee2aef9	-0.4427412
185	0xbe94359d	-0.28947154
186	0xbe89df1c	-0.2692803
187	0xbec1fa83	-0.37886438
188	0xbe2ae510	-0.16688943
189	0xbe796287	-0.24353991
190	0xbed85b59	-0.42257193
191	0xbe5b0a12	-0.2139056
192	0xbead5a85	-0.33858123
193	0xbe5404ca	-0.20704952
194	0xbeab9493	-0.3351179
195	0xbf0f7929	-0.5604425
196	0xbf240787	-0.64073986
197	0xbe9519c1	-0.2912121
198	0xbee51d49	-0.44748905
199	0xbf090357	-0.5352072
200	0xbf087a13	-0.5331127
201	0xbd2fce29	-0.04292122
202	0xbecc13a5	-0.39858738
203	0xbe9e69e0	-0.3094015
204	0xbf0ababb	-0.5419118
205	0x3cacf29e	0.021111783
206	0xbeaebb51	-0.34127286
207	0x3bcfc7e0	0.0063409656
208	0xbdb034d0	-0.08603823
209	0xbe0a1f43	-0.13488488
210	0xbef50892	-0.478581
211	0xbea3d977	-0.3200185
212	0xbee3daff	-0.44503018
213	0xbebafcda	-0.36521035
214	0xbe5c0b0d	-0.2148859
215	0xbe63797a	-0.22214308
216	0xbea5f0b5	-0.32410207
217	0xbdc947f9	-0.09828181
218	0xbe8c30b6	-0.27380913
219	0xbe7e787b	-0.24850647
220	0xbed771a1	-0.4207888
221	0xbf0eb6b3	-0.55747527
222	0xbe907f09	-0.2822192
223	0xbebd81c7	-0.37013075
224	0xbe4feb7f	-0.20304678
225	0xbee5df2d	-0.44896832
226	0xbed72736	-0.42022103
227	0xbece8e2e	-0.4034285
228	0xbf34dc4c	-0.70648646
229	0xbf2e9866	-0.6820129
230	0xbf2c8621	-0.67392164
231	0xbebda613	-0.37040767
232	0xbe909e81	-0.2824593
233	0xbdf63115	-0.120210804
234	0xbe8a551d	-0.2701806
235	0xbeb1e268	-0.34743047
236	0xbea5567d	-0.32292548
237	0xbee18e95	-0.44054094
238	0xbf0619bf	-0.52383035
239	0xbe6b2755	-0.22964223
240	0xbf27bdcc	-0.6552398
241	0xbf1d38a0	-0.6141453
242	0xbe32ce8d	-0.17461605
243	0xbea40dc3	-0.3204175
244	0xbf03259c	-0.5122926
245	0xbe1d9c91	-0.15391757
246	0xbb8e3c9f	-0.0043407227
247	0xbeb8840e	-0.3603825
248	0xbe8e94a3	-0.27847776
249	0xbeb9cbc7	-0.36288282
250	0xbf00de1a	-0.503389
251	0xbf064b5a	-0.5245873
252	0xbe0ca062	-0.13733056
253	0xbe9d5a25	-0.30732837
254	0xbe99868f	-0.29985473
255	0xbe61f8dd	-0.2206759

fc2.weight f4 [300, 404]
0	0x3c08eaad	0.008356732
1	0xbcaaa5eb	-0.020831069
2	0xbceb7095	-0.028740207
3	0xbc876b18	-0.016530558
4	0xbd30b46d	-0.043140817
5	0x3c36fa27	0.011168039
6	0xbd1b3af6	-0.037898026
7	0x3a1bd83e	0.00059450034
8	0x3c652e79	0.013988131
9	0xbd351ca4	-0.044216767
10	0xbc5c6c5b	-0.013453568
11	0xbd10752b	-0.03526799
12	0x3c34d0f8	0.01103615
13	0x3c9e2815	0.019306222
14	0xbd8a6117	-0.067568
15	0xbd953958	-0.07286328
16	0x3c99d4cb	0.018778225
17	0xbd49b1d7	-0.049241867
18	0x3c9e823c	0.01934921
19	0x3be0a344	0.0068554003
20	0x3d23a728	0.039954334
21	0xbbd84452	-0.0065999413
22	0xbca2d8b3	-0.01987872
23	0xbcf77d96	-0.030211251
24	0x3d1f55e8	0.038900286
25	0xbd6bfb52	-0.057612725
26	0xbbfe6fb0	-0.007764779
27	0xbd93929a	-0.072056964
28	0xbd2c0bab	-0.042003315
29	0xbce704f2	-0.0282006
30	0x3d1b85c2	0.03796936
31	0xbc52a5d1	-0.0128569165
32	0xbce6161c	-0.028086714
33	0x3c593f76	0.013259759
34	0x3cd3c38b	0.025850078
35	0x3c588b75	0.013216843
36	0xbc41584d	-0.011800838
37	0xbd2f90e3	-0.042862784
38	0xbd679543	-0.05653883
39	0xbd80fa56	-0.06297748
40	0x3d09730e	0.03355699
41	0xbd73fdd5	-0.059568245
42	0xbd356149	-0.04428223
43	0x3c971d97	0.018446727
44	0xbd49babc	-0.04925035
45	0xbbad2beb	-0.0052847764
46	0xbc83a374	-0.016069151
47	0xbca42403	-0.020036703
48	0x3d13ca3a	0.03608153
49	0x3c87aa8a	0.016560812
50	0xbdb64e93	-0.089017056
51	0xbd80f4a3	-0.06296661
52	0xbd2a0231	-0.041505996
53	0xbd20d4df	-0.03926551
54	0x3af93ea9	0.0019015867
55	0xbd9ea58c	-0.07746419
56	0x3ba6bd63	0.0050884946
57	0xbce48af6	-0.027898293
58	0xbd84c53c	-0.06482932
59	0xbb7ab3d2	-0.0038254154
60	0xbd9b1a52	-0.075733796
61	0xbdd8ddcf	-0.10589182
62	0xbc873776	-0.016505938
63	0xbd4b58b7	-0.049645152
64	0x3d0a39a2	0.03374637
65	0x3c8bdfb0	0.017074436
66	0xbd82dccb	-0.06389769
67	0x3cb23c3f	0.021757243
68	0x3cb27578	0.02178453
69	0xbce5ab42	-0.028035764
70	0xbc88d405	-0.016702661
71	0x3a87e7fe	0.0010368822
72	0x3be9b1a9	0.0071317744
73	0xbd734d59	-0.059399936
74	0xbd6ae318	-0.05734548
75	0x3c67ae8d	0.014140737
76	0xbd80b641	-0.06284762
77	0xbd0a42c9	-0.033755098
78	0xbc9ff018	-0.019523665
79	0xbd827014	-0.063690335
80	0xbd817a5d	-0.06322167
81	0x3cd7c50c	0.026339076
82	0xbd8833c6	-0.066505
83	0xbdc2ef56	-0.09518306
84	0xbd7f9c5d	-0.06240498
85	0xb9197363	-0.00014634202
86	0x3d0d2b9b	0.034465414
87	0xbd3b5f88	-0.045745403
88	0x3ae5426a	0.0017491106
89	0xbd87f742	-0.066389576
90	0x3d32d5ee	0.04366105
91	0xbd8da482	-0.06916143
92	0x3bba0cb4	0.005677784
93	0xbd35ebd0	-0.04441434
94	0xbd54409f	-0.05181944
95	0x3b1a7566	0.002356851
96	0xbdb66b76	-0.08907215
97	0xbd9aa813	-0.07551589
98	0xbd157882	-0.03649188
99	0xbc604403	-0.01368809
100	0xbc44a343	-0.012001815
101	0xbc862f85	-0.016380081
102	0xbd9a308d	-0.075287916
103	0x3cdef6c9	0.027217286
104	0xbc6a0a00	-0.014284611
105	0xbd4f1c1e	-0.050563924
106	0x3c846f76	0.01616643
107	0xbda43a70	-0.080189586
108	0xbd113323	-0.03544916
109	0xbcd6a463	-0.026201433
110	0x3cec625f	0.0288555
111	0xbbcf9856	-0.0063352985
112	0xbb669baf	-0.003518801
113	0xbd8fa544	-0.07013944
114	0xbdc065c1	-0.09394408
115	0xbcf1433b	-0.029451003
116	0xbcd3bdef	-0.025847403
117	0xbd8fe687	-0.070263915
118	0xbd43407d	-0.047668923
119	0xbccc674f	-0.024951605
120	0xbc78ed09	-0.015193232
121	0xbdc3f0d3	-0.09567418
122	0xbc31f00c	-0.010860454
123	0xbb1b27eb	-0.0023674916
124	0xbd5a54de	-0.053303592
125	0x3c698ac2	0.014254274
126	0xbd3b6b98	-0.045756906
127	0x3d133c86	0.03594639
128	0xbc7ee37c	-0.015557166
129	0xbd9a03df	-0.075202696
130	0xbacf74da	-0.0015827671
131	0x3c98ae25	0.018637726
132	0x3c13fbe8	0.009032227
133	0xbcc67479	-0.02422546
134	0x3cb242b4	0.021760322
135	0xbd559af9	-0.052149747
136	0xbc5229e1	-0.0128273675
137	0xbad6be8f	-0.0016383695
138	0xbda9b236	-0.08285944
139	0xbd21b696	-0.03948077
140	0xbd983c3a	-0.07433362
141	0x3bf8eccd	0.007596588
142	0x3ce9ac47	0.028524531
143	0xbdac909a	-0.08426018
144	0x3d57a55d	0.052647937
145	0xbd9c2de3	-0.0762594
146	0xbc8010ef	-0.015633075
147	0xbc6a7bc0	-0.014311731
148	0x3c2aa91b	0.010416294
149	0xbd1cb5ee	-0.03825944
150	0xbc3a3067	-0.011364079
151	0xbd28ce4e	-0.041212372
152	0xbd17db55	-0.037074406
153	0x3c00c917	0.007860444
154	0x3cfec815	0.031101266
155	0xbd34f9ba	-0.04418347
156	0xbd5f477a	-0.054511525
157	0xbda16c5d	-0.07881997
158	0xbd65da74	-0.056116536
159	0x3ce8d11f	0.02842003
160	0x3d01d061	0.031692866
161	0xbc04deba	-0.008109743
162	0xbbdb0977	-0.006684478
163	0xbcf56210	-0.029953986
164	0xbd87fba1	-0.06639791
165	0x3d1f2e2c	0.038862392
166	0x3cdf0fdd	0.027229244
167	0xbc65de48	-0.014030047
168	0xbd825078	-0.063630044
169	0xbc4eb131	-0.012615488
170	0x3c1c6e1f	0.009547739
171	0xbdcd8b4e	-0.10036336
172	0xbd2b1f08	-0.04177764
173	0xbc256044	-0.010093752
174	0xbc115ecd	-0.0088727
175	0xbd192c23	-0.037395608
176	0x3d0e7332	0.034777828
177	0x3c66d4e8	0.014088847
178	0xbd5dffb6	-0.054198943
179	0x3c7c29d9	0.015390837
180	0x3c410264	0.011780355
181	0x3d24836e	0.040164404
182	0x3cf1145c	0.029428653
183	0xbd1a954b	-0.037740033
184	0x3d331687	0.043722656
185	0xbc75787f	-0.014982342
186	0xbca4ead7	-0.020131512
187	0xbcee49aa	-0.02908786
188	0x3c0e271c	0.008676317
189	0x3d5f9a64	0.054590598
190	0xbcad8fae	-0.021186676
191	0xbc5a7ea9	-0.013335862
192	0xbcb2999d	-0.021801764
193	0xbd6c8d57	-0.05775198
194	0x3cd1fc1a	0.025632907
195	0x3c7614ef	0.015019639
196	0xbcce79c5	-0.025204549
197	0xbd0450df	-0.032303687
198	0xbd06a0ae	-0.03286808
199	0x3d242501	0.040074352
200	0x3d9954d9	0.074868865
201	0xbcc277a0	-0.023738682
202	0xbc134a89	-0.008989939
203	0x3cc94c63	0.024572557
204	0xbd3f4198	-0.046693414
205	0xbc9d68b5	-0.019214967
206	0xbd3075f3	-0.043081235
207	0xbc20c4d0	-0.009812549
208	0xbd771c6d	-0.060329843
209	0x3ccbf0ae	0.024895038
210	0x3b438dec	0.002983923
211	0xbd3534c9	-0.044239793
212	0x3d0a7068	0.033798605
213	0xbc9f405f	-0.019439874
214	0x3c839ff1	0.016067477
215	0xbcf17e6b	-0.029479226
216	0x3c034ba2	0.008013638
217	0xbc03352c	-0.008008283
218	0xbc1ad464	-0.009450052
219	0xbd3de41e	-0.046360128
220	0x3d3be7da	0.045875408
221	0xbd901dd7	-0.070369415
222	0xbd9ffa98	-0.07811469
223	0x3d146729	0.036231194
224	0x3d5293e2	0.051410563
225	0xbcdc60c5	-0.026901612
226	0x3c63049f	0.013856082
227	0xbda09f8d	-0.07842932
228	0xbcdf5ed5	-0.0272669
229	0xbc7b2416	-0.015328428
230	0xbd2876c2	-0.04112888
231	0xbcf0b4b6	-0.029383045
232	0xbcf45e5c	-0.02983015
233	0xbc87a5b0	-0.016558498
234	0xbcd95fce	-0.026534941
235	0xbc012283	-0.007881763
236	0xbd0cd955	-0.03438695
237	0xbd5d974e	-0.054099374
238	0xbcf69629	-0.030100899
239	0xbd0862b9	-0.033297274
240	0xbccb60b7	-0.02482639
241	0xbc639d4b	-0.013892482
242	0xbc8e44b1	-0.017366739
243	0xbd91970f	-0.0710889
244	0xbd4dd69b	-0.05025349
245	0x3c9868ee	0.018604722
246	0xbda41435	-0.08011667
247	0x3cf4afb4	0.029868938
248	0xbd837dc4	-0.06420472
249	0xbd04204b	-0.03225736
250	0x3d1228e0	0.035683513
251	0xbd7cdcb8	-0.06173393
252	0xbd286594	-0.041112497
253	0xbdaaa3e9	-0.08332045
254	0xbc94ae8c	-0.018149637
255	0xbd4ef904	-0.05053045

fc2.bias f4 [300]
0	0xbd41100d	-0.047134448
1	0x3beb24c4	0.0071760137
2	0xbdc3ff5c	-0.0957019
3	0xbda3a82e	-0.07991062
4	0xbca7d96c	-0.020489417
5	0xbd3a8d1c	-0.04554473
6	0xbcd73b30	-0.02627334
7	0xbdb0bfb8	-0.086303174
8	0x3be16d28	0.0068794675
9	0xbd967a8c	-0.07347593
10	0x3cfd11cf	0.03089228
11	0x3c9e1d21	0.019301
12	0xbd94e450	-0.0727011
13	0x3ba53a3f	0.005042344
14	0x3dbc7b14	0.09203163
15	0xbda02592	-0.07819666
16	0xbda213f4	-0.07913962
17	0xbdfc759a	-0.12327118
18	0xbd7ab8f1	-0.06121153
19	0xbd1f56b0	-0.03890103
20	0x3a050b7f	0.00050752604
21	0xbdacc4b1	-0.084359534
22	0xbd2e0de7	-0.042493727
23	0xbd82cb46	-0.063864276
24	0xbdbaf43f	-0.091286175
25	0x3e9f2150	0.31080103
26	0xbd5a8cef	-0.05335706
27	0xbceb5a90	-0.028729707
28	0x3b406eeb	0.0029362987
29	0xbd5210db	-0.051285606
30	0x3e8ffbe6	0.2812187
31	0xbd72a803	-0.05924226
32	0xbd8ccc5e	-0.068749174
33	0xbdb041b6	-0.08606283
34	0xbc963e29	-0.018340187
35	0xbdabd07e	-0.08389376
36	0x3d21bbda	0.03948579
37	0xbdafec03	-0.085899375
38	0xbd5136e2	-0.05107773
39	0xbd72ace9	-0.05924693
40	0xbdc526e0	-0.096265554
41	0xbd92a6b7	-0.071607046
42	0xbbd0adc9	-0.006368373
43	0xbd5273d7	-0.051380005
44	0xbd7c1fc1	-0.06155372
45	0xbd30b87c	-0.043144688
46	0xbd9873d3	-0.07443967
47	0x3a10f47f	0.0005529597
48	0x3e3f1f08	0.18664181
49	0xbd3b0536	-0.045659266
50	0xb92b5854	-0.00016340736
51	0xbd4e0799	-0.050300214
52	0xbc19c2c8	-0.009384818
53	0xbd004f4c	-0.031325623
54	0xbd02d1cb	-0.031938355
55	0x3cc63188	0.02419354
56	0xbcc55639	-0.024088966
57	0xbd3ccdf5	-0.046094853
58	0xbdb348cc	-0.08754119
59	0x3cdaa258	0.02668874
60	0xbcb78ff4	-0.02240751
61	0x3e51d2a5	0.20490511
62	0xbdcd4d96	-0.10024564
63	0xba6e3353	-0.00090866274
64	0xbd2e8dfd	-0.04261588
65	0xb8876ae7	-6.457214e-05
66	0xbcc160b8	-0.02360569
67	0xbdb98935	-0.09059373
68	0xbdce6535	-0.100778975
69	0xbcec3b1b	-0.028836777
70	0xbd4838f9	-0.04888246
71	0xbd643123	-0.055710923
72	0xbdc5edf0	-0.096645236
73	0x3cb8de5d	0.022566969
74	0xbdbae114	-0.091249615
75	0xbd871750	-0.065962434
76	0xbd6b49fd	-0.057443608
77	0xbd747d15	-0.0596896
78	0x3d7654e8	0.060139567
79	0xbcf996a6	-0.030467343
80	0xba50c12f	-0.0007963357
81	0xbc09b86f	-0.008405789
82	0xbd4500c9	-0.048096452
83	0xbcf3ffd0	-0.029785067
84	0xbd403dac	-0.046933815
85	0xbdee709d	-0.11642573
86	0xbd99e590	-0.07514489
87	0xbd2f6e7f	-0.042829987
88	0xbcba9c88	-0.022779718
89	0xbdcfe492	-0.10151018
90	0xbd3c57c1	-0.045982126
91	0xbcd02bf6	-0.025411587
92	0xbd23f1af	-0.04002541
93	0xbd57e0c6	-0.052704595
94	0xbcbec156	-0.02328555
95	0xbda9ce16	-0.08291261
96	0x3bbe1aaf	0.005801521
97	0xbd6d3837	-0.05791494
98	0xbd8f9dce	-0.07012521
99	0xbd9a22f8	-0.07526201
100	0xbcd92e35	-0.026511291
101	0xbd7e7920	-0.062127233
102	0xbd1b4f90	-0.037917674
103	0x3a99fdc4	0.0011748602
104	0xbc8d01d1	-0.01721278
105	0xbcf4b71b	-0.029872468
106	0x3ddd10f3	0.107942484
107	0xbd925326	-0.071447656
108	0xbd069640	-0.032858133
109	0xbc193d32	-0.009352969
110	0x3d150347	0.03638008
111	0xbbce4f63	-0.0062960847
112	0xbdbe5ae2	-0.09294678
113	0xbd4c1aae	-0.04983013
114	0xbc32007c	-0.010864373
115	0xbcc37d97	-0.023863597
116	0xbdc385e9	-0.09547026
117	0xbc59facd	-0.0133044245
118	0x3dfdd812	0.12394728
119	0x3bd606f1	0.006531589
120	0xbdcef347	-0.10104995
121	0xbd181340	-0.037127733
122	0x3c85a8b2	0.016315792
123	0xbb57aa25	-0.003290781
124	0xbd5bbe7e	-0.053648464
125	0xbd0dbb46	-0.034602426
126	0xbd3dd098	-0.04634151
127	0xbcf6bf19	-0.03012042
128	0xbc4ad616	-0.012380144
129	0xbda0fa4a	-0.07860239
130	0xbd846199	-0.06463928
131	0xbcc800d7	-0.024414463
132	0xbcc5b2ae	-0.024133053
133	0xbcf0a773	-0.029376721
134	0xbdb054aa	-0.086098984
135	0xbd618560	-0.055058837
136	0xbdbe778a	-0.09300144
137	0xbda94086	-0.0826426
138	0xbdd42cda	-0.10360117
139	0xbcbd9787	-0.023143543
140	0xbd260ac1	-0.0405376
141	0xbb33fddb	-0.0027464542
142	0xbdc5db6b	-0.09660991
143	0xbcea329c	-0.028588586
144	0x3bb20849	0.0054331166
145	0xbd3c7019	-0.046005342
146	0xbd12ee59	-0.035871837
147	0xbd84038a	-0.064459875
148	0xbdfec7d5	-0.12440459
149	0xbd3a2db3	-0.04545374
150	0xbdfb2593	-0.12263026
151	0xbc74e05f	-0.014946072
152	0xbca1e676	-0.019763213
153	0xbda79fb5	-0.081847586
154	0xbda13363	-0.07871129
155	0xbdc0a2b6	-0.09406035
156	0xbddf518a	-0.10904224
157	0xbb26d921	-0.0025459009
158	0xbd76a5b6	-0.060216628
159	0xbca4ce71	-0.02011797
160	0xbd99e883	-0.07515051
161	0xbdb2b355	-0.08725611
162	0xbcbd7aa2	-0.023129765
163	0xbd9bb41c	-0.076027125
164	0xbd96b865	-0.07359389
165	0xbd468249	-0.048464093
166	0xbdcb02a4	-0.09912613
167	0xbcc395a2	-0.023875061
168	0xbd974569	-0.07386286
169	0xbd8395bd	-0.06425045
170	0xbc71158f	-0.014714613
171	0xbd2155e6	-0.03938856
172	0xbc6ced88	-0.014460929
173	0xbdedc543	-0.1160989
174	0xbde741fb	-0.11291882
175	0xbccf05f0	-0.025271386
176	0xbd883b69	-0.066519566
177	0xbc684216	-0.014175912
178	0x3a94d6e6	0.0011355549
179	0xbd98be26	-0.07458143
180	0xbe0d26e2	-0.13784364
181	0xbd60c021	-0.05487073
182	0xbd82ee5b	-0.06393119
183	0xbd93260b	-0.071849905
184	0x3d9d5795	0.076827206
185	0x3c702e59	0.014659488
186	0xbbbb0422	-0.00570728
187	0xbd2cd828	-0.04219833
188	0xbd78c3ff	-0.06073379
189	0xbc058d51	-0.008151368
190	0xbc4503f5	-0.012024869
191	0xbd3deb6a	-0.046367086
192	0xbc96bb1b	-0.018399766
193	0xbb44ef3f	-0.0030049828
194	0xbd36df67	-0.044646647
195	0xbc2429e2	-0.010019751
196	0xbd381428	-0.044941097
197	0xbd2195c8	-0.039449483
198	0xbdaa266d	-0.083081104
199	0xbcc2778a	-0.023738641
200	0xbd0a0493	-0.03369577
201	0x3e5b8fdb	0.21441595
202	0xbd025c1a	-0.031826116
203	0xbd829dd2	-0.06377758
204	0xbd88c04c	-0.06677303
205	0xbd5b256a	-0.053502478
206	0xbcecf8a4	-0.028927155
207	0xbc8b0a69	-0.016972737
208	0xbccc5086	-0.02494074
209	0xbd317ea5	-0.04333367
210	0xbda3d4bb	-0.079995595
211	0xbcd34021	-0.025787415
212	0xbd553253	-0.052049946
213	0xbd02eb38	-0.031962603
214	0xbdb69f6e	-0.089171275
215	0xbdb8e7e1	-0.090286024
216	0xbd4ddf66	-0.050261877
217	0xbda90431	-0.082527526
218	0xbd346033	-0.044037055
219	0x3bdd68ae	0.0067568636
220	0xbd92b8e8	-0.07164174
221	0xbda12119	-0.07867641
222	0xbcaaa367	-0.02082987
223	0xbd9ce4dd	-0.0766084
224	0x3d92070a	0.07130249
225	0xbc84aa9a	-0.01619463
226	0xbc3c7480	-0.011502385
227	0xbd173eea	-0.036925234
228	0xbd931b22	-0.071829095
229	0x3b1523d6	0.0022756956
230	0xba32ad7e	-0.00068160135
231	0xbc7531da	-0.014965499
232	0x3d0800ce	0.033203892
233	0xbcccb24d	-0.024987364
234	0x3cbcac10	0.023031265
235	0xbd2070d7	-0.039170112
236	0xbdb01775	-0.08598224
237	0x3c4c4a03	0.012468818
238	0xbdaad20c	-0.083408445
239	0xbdda367a	-0.10654922
240	0xbdb42461	-0.08796001
241	0xbd04448f	-0.032291945
242	0xbc81398c	-0.01577451
243	0x3b7614e3	0.003754907
244	0xbdd0f3d9	-0.1020276
245	0xbd878057	-0.06616276
246	0x3e202a6c	0.15641183
247	0xbc73a524	-0.014870916
248	0xbb9f1777	-0.004855092
249	0xbd0a517c	-0.033769116
250	0xbd65f06f	-0.0561375
251	0xbd46d1c9	-0.04853991
252	0xbb4b1a1a	-0.00309909
253	0xbc4d80e3	-0.012542936
254	0xbd6fdfec	-0.058563158
255	0xbc8c1f18	-0.01710467

fc3.weight f4 [1, 300]
0	0xbc3c651c	-0.011498716
1	0x3c39529c	0.0113111995
2	0xbc853389	-0.016259925
3	0xbcec5e89	-0.028853672
4	0xbc96be79	-0.018401371
5	0x3d233ba5	0.039851803
6	0x3be2653c	0.0069090407
7	0xbbfd41c6	-0.007728788
8	0x3cb8a63b	0.022540202
9	0x3b114173	0.0022164255
10	0x3899dfab	7.33727e-05
11	0xbc1f865d	-0.009736625
12	0x3c09b3e1	0.008404703
13	0xbc2ba3e2	-0.010476084
14	0x3d3ed9f5	0.04659458
15	0x3cf81d3c	0.030287378
16	0x3bd1aea2	0.0063989917
17	0x3c637d39	0.013884836
18	0xbc4f73dc	-0.0126619
19	0xbce33672	-0.027735922
20	0x3c354e8f	0.011066093
21	0xbc7ac842	-0.015306534
22	0xbc731354	-0.014836151
23	0xb8174bf3	-3.607194e-05
24	0xbc5ca8cd	-0.01346798
25	0x3d132a31	0.03592891
26	0xbcba6909	-0.022755163
27	0x3c1a7dba	0.00942939
28	0xbc0c2b36	-0.008555224
29	0x39ceab45	0.00039418988
30	0x3d07fd43	0.033200514
31	0xbb9d1d1a	-0.004794729
32	0xbbfaf926	-0.0076590953
33	0xbc1dfce7	-0.009642816
34	0x3b3a65a3	0.0028441928
35	0x3a955585	0.0011393285
36	0x3c1f8947	0.009737319
37	0x3cb37deb	0.021910628
38	0x3c97957e	0.0185039
39	0x3c6c8334	0.014435578
40	0x3cb26d45	0.02178062
41	0x3c3437d4	0.010999639
42	0xbb120aa9	-0.0022284186
43	0x3b0df261	0.0021659362
44	0x3bf3c788	0.0074395575
45	0xbc03ff25	-0.008056437
46	0xbac81c36	-0.0015267197
47	0x39dc664a	0.0004203788
48	0xbbd8282d	-0.006596586
49	0xbc4b4ea2	-0.012408884
50	0x39f7af39	0.00047242062
51	0x3c2f2c35	0.010691692
52	0xba77d7f4	-0.0009454482
53	0xbce1a64f	-0.027545122
54	0x3c19f57e	0.009396909
55	0xba4b28cd	-0.0007749915
56	0x3cddd731	0.02708015
57	0x3b06db8e	0.0020577642
58	0x3b9dcc64	0.004815625
59	0x3be32952	0.006932416
60	0x3c6ba3ef	0.0143823465
61	0xbc2ebb0a	-0.010664711
62	0x3b1ce215	0.0023938466
63	0x3b1351c0	0.0022479147
64	0xbbc1d848	-0.0059156753
65	0xbc6812e9	-0.014164665
66	0x3cc3472f	0.023837654
67	0x3c955450	0.01822868
68	0xbc488d69	-0.012240746
69	0xbc73417a	-0.014847154
70	0x3bce35c4	0.0062930305
71	0xbc3c4548	-0.011491127
72	0xbc048a3b	-0.008089597
73	0xbcf74279	-0.030183064
74	0x3cb18a0d	0.021672273
75	0xbc17dc1a	-0.009268785
76	0xbbe77fb5	-0.0070647844
77	0x3c89af93	0.016807353
78	0x3d4cfabd	0.05004381
79	0xbc5c9074	-0.013462175
80	0x3cab215b	0.020889929
81	0x3c3093c7	0.01077742
82	0x3c3d05c4	0.011537019
83	0xbcb21569	-0.021738725
84	0xbccc350d	-0.02492764
85	0xbc625adc	-0.013815608
86	0x3c3c8dad	0.0115083875
87	0x3c483d3a	0.012221629
88	0xbc8c776f	-0.017146794
89	0xbc558fa6	-0.013034737
90	0xbab82bd7	-0.0014051151
91	0xb9dedf62	-0.00042509573
92	0x3d2c7546	0.04210403
93	0x3c013aa5	0.007887517
94	0x3b01319b	0.0019713405
95	0xbca40a6d	-0.020024503
96	0xbc1ded19	-0.009639048
97	0xbc3c441f	-0.011490851
98	0x3a1b268a	0.00059185235
99	0xbc9efd3a	-0.019407857
100	0xbc2449bd	-0.010027346
101	0xbaeb5fa8	-0.0017957585
102	0x3c778cf1	0.015109287
103	0x3a594522	0.00082881947
104	0x3cd3176f	0.02576801
105	0xbc383e93	-0.011245388
106	0xbc03d6b4	-0.008046795
107	0xbc9485b2	-0.018130157
108	0xbce49285	-0.027901897
109	0x3d028be4	0.03187169
110	0x3b4a8e9d	0.0030907758
111	0xbbeb88d3	-0.0071879416
112	0xbae1705e	-0.0017199626
113	0xbb7c53df	-0.003850214
114	0x3cd4d694	0.025981225
115	0x3a3c88fb	0.00071920425
116	0x3c11a4f6	0.008889427
117	0x37b24079	2.1249276e-05
118	0x3cc72bf1	0.024312945
119	0x3bef4956	0.0073024435
120	0xbc8af66f	-0.016963212
121	0x3c95ff12	0.018310104
122	0xbb9fc0fc	-0.0048753005
123	0xbc716f62	-0.014736028
124	0xbabef929	-0.0014570105
125	0xbb4c1a18	-0.0031143483
126	0xbcb121da	-0.021622587
127	0xbbb2ef45	-0.005460652
128	0x3c926f8e	0.017875459
129	0xba632958	-0.00086655235
130	0x3bb64fc6	0.005563709
131	0xbca038ae	-0.019558277
132	0xbcbef24b	-0.023308894
133	0x3aff020a	0.0019455564
134	0x3c8956c9	0.016765015
135	0xbc7c10b9	-0.015384846
136	0xbab9a32e	-0.0014163011
137	0x3b4434b1	0.0029938633
138	0x3c8a85b1	0.016909452
139	0xbcf32445	-0.02968038
140	0x394305b3	0.00018598772
141	0xbc2e7dc5	-0.010650103
142	0x3aa469a2	0.0012543688
143	0xbc8e3956	-0.017361324
144	0xb926e9b0	-0.00015918049
145	0x3ba814d5	0.0051294365
146	0x3c85309c	0.01625853
147	0xbc46988b	-0.01212133
148	0xbbbe8196	-0.0058137877
149	0x3c4cd705	0.0125024365
150	0xbc051c5b	-0.008124436
151	0x3cd62385	0.026139984
152	0xbc80998a	-0.015698213
153	0xbae97e97	-0.0017814216
154	0x3c4da518	0.012551568
155	0xbc95c178	-0.01828073
156	0x3be82372	0.0070843035
157	0x3b54123b	0.00323595
158	0xbca5b83f	-0.020229457
159	0xba0493b1	-0.0005057408
160	0x3aeeb394	0.0018211477
161	0x3c92e05e	0.017929252
162	0xbcce062a	-0.025149424
163	0xbbbb4bf5	-0.005715842
164	0xbbf5203f	-0.0074806507
165	0x3c3b5bfb	0.011435504
166	0x3b3fa454	0.0029242234
167	0x3cc04e37	0.023474796
168	0x3cdee9f1	0.027211161
169	0xbbe75f64	-0.007060932
170	0xbcaec7b6	-0.021335464
171	0xbc9aa9cf	-0.0188798
172	0x3bd012be	0.0063498905
173	0x3db42f8c	0.08798131
174	0xbcf2d066	-0.029640388
175	0xba1b7aec	-0.00059310975
176	0x3b185d43	0.0023248948
177	0xbc3f7673	-0.011685955
178	0x37d37505	2.5207652e-05
179	0xbc526c4b	-0.012843202
180	0xbc29aea3	-0.010356578
181	0x3cbb4dec	0.022864304
182	0x3c9378c9	0.01800193
183	0x3c8b6d08	0.017019764
184	0x3cc76076	0.024337988
185	0x3c26d972	0.010183679
186	0x3c008e03	0.007846358
187	0x39ee8456	0.00045493495
188	0xbb71359e	-0.003680564
189	0x3b5ce2ed	0.0033704594
190	0x3af3c5fc	0.0018598433
191	0x3cc93c21	0.024564805
192	0x3bf607e9	0.007508267
193	0x3bb4889c	0.005509449
194	0xbc40fd92	-0.011779206
195	0xbc7f7db7	-0.015593938
196	0xbbb26c58	-0.0054450445
197	0xbcc43d24	-0.023954935
198	0xbc997d3e	-0.018736478
199	0xbbf2c0cc	-0.007408237
200	0xbb58f9fa	-0.0033107982
201	0x3d9ab8eb	0.075548016
202	0xbc0ed07e	-0.008716701
203	0x3aaa3720	0.0012986399
204	0xbcdd28a8	-0.026996925
205	0xbcdfd2f1	-0.027322264
206	0x3caeb70a	0.021327514
207	0xbab4d0eb	-0.0013795173
208	0x3b4bc819	0.003109461
209	0xbc69e90e	-0.014276756
210	0xbcea8828	-0.028629377
211	0xbb736014	-0.0037136124
212	0xbaa9b609	-0.0012947927
213	0x3c90dbe2	0.017682973
214	0x3caa42c3	0.020783788
215	0x3b154454	0.0022776322
216	0x3c4813a5	0.012211715
217	0xbc771e61	-0.0150829265
218	0xbc205252	-0.009785252
219	0x3cb738e1	0.02236599
220	0x3bc95e3d	0.0061452673
221	0x3ba806b8	0.005127754
222	0x3c5fbe45	0.013656204
223	0x3baaa617	0.0052077877
224	0x3d3976d8	0.045279354
225	0xbc184daf	-0.009295865
226	0xbbf02907	-0.0073291096
227	0xbb80460f	-0.0039146016
228	0x3b5b783c	0.0033488413
229	0x3c94379f	0.018092928
230	0x3a145bd9	0.00056594383
231	0xbcdabfc2	-0.026702765
232	0xbbdc1994	-0.0067169163
233	0x3c54e22b	0.012993376
234	0xbca09442	-0.019601945
235	0x39ea93e0	0.00044742133
236	0x3c23d3a4	0.0099991895
237	0xbc9e4f1f	-0.019324837
238	0x3b841703	0.0040310635
239	0x3bc7f047	0.0061016413
240	0x3c9f9e3a	0.019484628
241	0x3ca85ca0	0.02055198
242	0x3bb46f93	0.0055064647
243	0xb9e46dfe	-0.000435695
244	0x3c443612	0.011975782
245	0xbc69db5b	-0.01427349
246	0x3d324549	0.043523107
247	0xba4a09ac	-0.00077071297
248	0xbca28d3a	-0.019842733
249	0x3b8f1189	0.004366104
250	0x3bf6757e	0.0075213304
251	0x3c9c85c8	0.01910676
252	0xbb6498b9	-0.003488107
253	0x3c96dfaf	0.018417208
254	0xbc07a480	-0.008278966
255	0xbc74cca6	-0.01494137
