checkpoints/checkpoint_critic_1500.pth (torch, 543887 bytes, 5 tensors)

fcs1.weight f4 [400, 33]
0	0xbe186168	-0.14880908
1	0xbe4867d1	-0.19570853
2	0x3c11e8cf	0.008905604
3	0x3e77a496	0.24183878
4	0xbc6649ab	-0.01405565
5	0xbe2ea18d	-0.17053814
6	0x3ea892c9	0.32924488
7	0xbe09fb4a	-0.13474765
8	0xbe18bbf2	-0.14915445
9	0x3eea5586	0.45768374
10	0x3e2e5253	0.17023592
11	0x3e98a678	0.29814506
12	0xbd94c2de	-0.072637305
13	0xbd4c2149	-0.04983643
14	0x3ec2f843	0.38080034
15	0xbef93692	-0.48674446
16	0x3a7bb0f8	0.00096012605
17	0xbd278699	-0.040899847
18	0x3f3057a6	0.6888374
19	0x3dacf422	0.08445002
20	0x3e692550	0.2276814
21	0x3e800ea2	0.25011164
22	0x3edf2b24	0.435876
23	0x3e2c00e0	0.16797209
24	0x3e9b1f85	0.30297485
25	0x3c67373f	0.014112293
26	0x3e7a7c27	0.24461423
27	0x3f322e83	0.6960222
28	0x3ec499f9	0.38398722
29	0x3c9a7f76	0.018859606
30	0xbf344607	-0.70419353
31	0x3c7987e4	0.015230153
32	0x3f0c5b29	0.548266
33	0xbeda13e1	-0.4259329
34	0x3d18ca51	0.03730232
35	0xbf3995e3	-0.72494334
36	0x3e84b291	0.25917485
37	0xbecf0897	-0.4043624
38	0xbdd6e742	-0.10493328
39	0x3f3f08e9	0.7462297
40	0xbbb55cf7	-0.005534764
41	0xbf2a342e	-0.6648587
42	0xbe8cfc2d	-0.27536145
43	0xbe880f33	-0.26574096
44	0x3ce3a62c	0.027789198
45	0xbe143319	-0.14472617
46	0x3d947bed	0.072501995
47	0xbe2af261	-0.16694023
48	0x3f151d4e	0.5824784
49	0xbdd62e68	-0.1045807
50	0xbe44a01b	-0.192017
51	0x3d033118	0.03202924
52	0x3e8d28ae	0.275701
53	0xbd57035c	-0.052493438
54	0x3db61460	0.08890605
55	0x3b9876cf	0.004652835
56	0x3d44e554	0.048070267
57	0xbdab568a	-0.083661154
58	0x3d909afe	0.070608124
59	0x3e128773	0.14309482
60	0x3f18fb2b	0.5975825
61	0xbf12d099	-0.57349545
62	0xbcb4bf50	-0.022063881
63	0xbf203ba5	-0.6259101
64	0x3d40e6d5	0.04709514
65	0xc0004b05	-2.0045788
66	0x3dad2536	0.08454363
67	0xbecca2ab	-0.39967856
68	0x3f3b2038	0.73096037
69	0xbe182bbd	-0.14860435
70	0xbe019f1f	-0.12658356
71	0x3e008809	0.12551893
72	0x3e72c27a	0.23707
73	0x3d8d3eca	0.06896742
74	0xbf878111	-1.0586263
75	0x3e1f23da	0.1554102
76	0x3f1ce0ea	0.6128069
77	0x3e285d35	0.16441806
78	0x3f1d8c3d	0.6154211
79	0x3e288ccb	0.16459958
80	0x3ebb6c14	0.36605895
81	0xbee31e87	-0.44359228
82	0xbe822b0e	-0.25423473
83	0xbd11d4d8	-0.035603374
84	0x3e58418d	0.21118756
85	0xbed7b81a	-0.42132646
86	0x3e64ece4	0.22355992
87	0x3dd690c8	0.104768336
88	0xbe6a97b5	-0.22909434
89	0xbe550cff	-0.20805739
90	0x3d33aa58	0.043863624
91	0xbeb25a32	-0.3483444
92	0xbe2aed51	-0.16692092
93	0x3e7d4efc	0.24737161
94	0xbeaf522b	-0.34242377
95	0x3c2334e8	0.009961344
96	0xbe522764	-0.20522839
97	0xbd146230	-0.03622645
98	0x3e3928fb	0.18082039
99	0xbf1b4c0e	-0.60662925
100	0xbedeff07	-0.43553945
101	0xbe979cff	-0.29611966
102	0xbee509f0	-0.44734144
103	0x3f02e0f6	0.51124513
104	0x3eb430a6	0.35193366
105	0x3c4cef0a	0.012508163
106	0x3d349a57	0.044092502
107	0xbf01379c	-0.5047548
108	0x3e40cb26	0.18827495
109	0xbed807a5	-0.42193332
110	0xbcb464bd	-0.022020692
111	0xbeaff406	-0.34365863
112	0x3efd9b30	0.4953246
113	0x3e96103b	0.29309258
114	0x3e8fb2d6	0.28066128
115	0x3d1d298b	0.038369697
116	0xbd4fc611	-0.050726
117	0xbebb5aff	-0.36592862
118	0x3b960e0d	0.0045793117
119	0x3ee0f9b0	0.43940496
120	0xbe988297	-0.29787132
121	0x3e441f97	0.19152676
122	0x3e96c480	0.29446793
123	0x3d8505cd	0.06495247
124	0xbdf81680	-0.121136665
125	0xbbbd635f	-0.005779668
126	0x3f6dd78b	0.9290702
127	0x3c817003	0.015800482
128	0xbc8a0234	-0.016846754
129	0xbf5c82ef	-0.8613729
130	0xbc406c98	-0.011744641
131	0xbe47eb22	-0.1952329
132	0xbdcad5b1	-0.0990404
133	0xbdefc50b	-0.11707505
134	0xbf39396e	-0.72353256
135	0x3e21b245	0.1579066
136	0x3e65ea87	0.22452746
137	0xbe58494f	-0.21121715
138	0xbe893663	-0.26799306
139	0xbc90515f	-0.017616926
140	0xbde24a89	-0.11049373
141	0xbdbb272a	-0.09138329
142	0xbe16a13d	-0.14709945
143	0x3e9c9a87	0.30586645
144	0xbea1f9e8	-0.31635976
145	0xbca1b5df	-0.019740043
146	0x3ef786cd	0.48345032
147	0x3ecb8b8c	0.39754903
148	0x3ece3358	0.40273547
149	0x3ea50aa0	0.3223467
150	0xbded95e4	-0.11600855
151	0x3eb3f043	0.35144243
152	0x3d633074	0.05546613
153	0x3c5cddd4	0.013480622
154	0x3e109eb4	0.1412304
155	0x3d3485b5	0.044072825
156	0x3e430814	0.1904605
157	0x3da986e0	0.082776785
158	0xbe1acea9	-0.15117897
159	0x3f990002	1.1953127
160	0x3ef8c616	0.48588628
161	0x3c0fadac	0.008769434
162	0xbf9dfdd4	-1.2343087
163	0xbc8c526c	-0.017129146
164	0xbf962dd3	-1.1732734
165	0x3f12993c	0.5726507
166	0xbe907f92	-0.28222328
167	0xbec20f4c	-0.37902296
168	0x3eab59af	0.3346686
169	0x3df9c6ac	0.12196097
170	0x3e946a54	0.28987372
171	0x3ec2d215	0.38050905
172	0x3da6e75d	0.08149598
173	0xbe089e36	-0.13341603
174	0x3d774eed	0.060378004
175	0x3eec6513	0.46170864
176	0xbe7e501f	-0.24835251
177	0x3e12d488	0.14338887
178	0x3dc76646	0.09736304
179	0x3da1f0fb	0.079072915
180	0x3f101499	0.5628143
181	0xbd3319b5	-0.043725688
182	0xbd786e88	-0.060652286
183	0x3cd66d46	0.026175153
184	0xbdb09fa1	-0.08624197
185	0xbcc4e4cf	-0.024034886
186	0x3d6f2bd9	0.058391426
187	0x3e89a82d	0.2688612
188	0xbdfefa0c	-0.124500364
189	0x3c86185e	0.016369041
190	0xbd39b34d	-0.04533701
191	0xbef2e07f	-0.47436902
192	0x3f83c629	1.0294849
193	0xbea9191a	-0.33026963
194	0x3d1d04fd	0.038334835
195	0xbf7eb67a	-0.9949719
196	0x3d0c75fd	0.03429221
197	0xbfc6bb7b	-1.5525964
198	0xbdad81b5	-0.08472005
199	0xbf1a3a27	-0.60244983
200	0x3ef2d48c	0.47427785
201	0xbe25a0fc	-0.16174692
202	0xbe7fa4f5	-0.2496527
203	0xbe4438b3	-0.19162254
204	0x3ea01e1e	0.31272978
205	0x3d7053e5	0.058673758
206	0xbf3be73d	-0.73399717
207	0x3e1f14fe	0.15535352
208	0xbe2bc48d	-0.16774197
209	0xbecfa355	-0.405543
210	0xbecc377c	-0.3988608
211	0x3df4ae46	0.119473025
212	0x3ee475e4	0.44621193
213	0xbe76d43b	-0.24104397
214	0xbeab7036	-0.33484048
215	0x3f1e9891	0.6195155
216	0x3e0f16cc	0.1397354
217	0x3cb89839	0.022533523
218	0xbc193e07	-0.009353167
219	0x3e0726f1	0.13198449
220	0xbdb93a61	-0.09044338
221	0x3dbe9102	0.09305002
222	0x3e1a7192	0.15082386
223	0xbe5abe08	-0.21361554
224	0xbdb0f868	-0.0864113
225	0x3f40a9e8	0.75259256
226	0x3ecc20e3	0.3986884
227	0x3c72d164	0.01482043
228	0xbf2e8eba	-0.68186533
229	0xbcdfcce7	-0.027319385
230	0x3fa6661b	1.299991
231	0xbefe1969	-0.4962876
232	0xbe1a94a2	-0.15095761
233	0x3f1be5a0	0.60897255
234	0xbe716dc7	-0.23577033
235	0xbea2a433	-0.317659
236	0xbe327e24	-0.17430931
237	0x3d7eac4a	0.062176026
238	0x3d59e6f9	0.05319879
239	0xbd627546	-0.055287622
240	0xbecc7f46	-0.39940852
241	0xbdbbc555	-0.091684975
242	0xbe8fb4e6	-0.28067702
243	0x3b252562	0.0025199284
244	0x3ea9a00f	0.33129928
245	0xbde21634	-0.11039391
246	0xbf070982	-0.5274888
247	0x3ea18865	0.31549373
248	0xbd2cd625	-0.04219641
249	0x3e001c29	0.12510742
250	0xbd9154ba	-0.070962384
251	0xbe430eac	-0.19048566
252	0xbd76fd25	-0.06030001
253	0xbbb956ee	-0.005656115
254	0x3ec4a508	0.3840716
255	0x3c85fd8b	0.01635625

fcs1.bias f4 [400]
0	0xbf400096	-0.75000894
1	0xbf2e7613	-0.68148917
2	0xbd83e740	-0.06440592
3	0xbf614966	-0.8800262
4	0xbfaf9b54	-1.3719277
5	0xbf927a03	-1.1443485
6	0xbf5aa231	-0.85403734
7	0x3db56262	0.08856656
8	0xbfa38613	-1.2775291
9	0xbf79ca1d	-0.97574025
10	0xbf09f246	-0.53885305
11	0xbf802374	-1.001082
12	0xbf8e5895	-1.1120783
13	0xbf3e185b	-0.74255913
14	0xbf78440a	-0.9697882
15	0xbf16a80c	-0.5885017
16	0xbfca9bdb	-1.5828813
17	0xbf133ce1	-0.5751477
18	0xbf1d6a9b	-0.6149079
19	0xbf9756f5	-1.1823412
20	0xbf609620	-0.8772907
21	0xbf3706dd	-0.7149485
22	0xbf2cea57	-0.67545074
23	0xbfa40c49	-1.2816249
24	0xbf4a0e19	-0.7892776
25	0xbfad82ff	-1.3555602
26	0xbf486c9f	-0.7829074
27	0xbf433f59	-0.76268536
28	0xbf8776e9	-1.0583163
29	0xbf855989	-1.0417949
30	0xbfa21027	-1.2661179
31	0xbead367e	-0.33830637
32	0xbf8addfd	-1.0848995
33	0xbf2bc573	-0.6709816
34	0xbf84f084	-1.03859
35	0xbe89e45b	-0.26932034
36	0xbfb29b40	-1.3953629
37	0xbfb96186	-1.4482887
38	0xbf3d3f34	-0.73924565
39	0xbf6977c5	-0.9119838
40	0xbe9db6ff	-0.30803677
41	0xbea9c007	-0.33154318
42	0xbfa098c8	-1.2546625
43	0xbf20c18e	-0.6279534
44	0xbf54b0fd	-0.8308256
45	0xbe746fb4	-0.23870736
46	0xbf524357	-0.82134
47	0xbf9c7cfc	-1.2225642
48	0xbf770c92	-0.96503556
49	0xbfca35d9	-1.5797683
50	0xbf4c1781	-0.79723364
51	0xbf03c3a5	-0.51470405
52	0xbf8c76ce	-1.0973756
53	0xbebc7af6	-0.36812562
54	0xbf64bec2	-0.89353573
55	0xbebc3027	-0.36755487
56	0xbf024fab	-0.50902814
57	0xbf7adf57	-0.9799704
58	0xbf6f12b6	-0.93387926
59	0xbf31fe49	-0.69528633
60	0xbfd2f5e6	-1.6481292
61	0xbf88e9e7	-1.0696381
62	0xbed79a82	-0.42110068
63	0xbe944441	-0.28958324
64	0xbf806515	-1.0030848
65	0xbf657326	-0.8962883
66	0xbf6c4692	-0.9229518
67	0xbf08d3f8	-0.5344844
68	0xbf83d683	-1.0299839
69	0xbf30b4a5	-0.6902564
70	0xbf850874	-1.0393205
71	0xbe1fe076	-0.15612969
72	0xbf09ddd8	-0.5385413
73	0xbf7c26c8	-0.98496675
74	0xbf211c47	-0.6293377
75	0xbf583011	-0.84448344
76	0xbf8f13c8	-1.1177912
77	0xbf9a6e5e	-1.2064931
78	0xbe830a0c	-0.25593603
79	0xbfc62ec7	-1.5483025
80	0xbefa0cbe	-0.48837847
81	0xbf5ad489	-0.8548055
82	0xbf2f823e	-0.6855811
83	0xbfb6476f	-1.424055
84	0xbf864394	-1.0489373
85	0xbd026fef	-0.03184503
86	0xbfbe6538	-1.487464
87	0xbe5f2f98	-0.217955
88	0xbf6f398c	-0.93447185
89	0xbfce6a58	-1.6126204
90	0xbefe53e6	-0.49673384
91	0xbfbbc6af	-1.4670008
92	0xbfbdacff	-1.4818419
93	0xbfc704b1	-1.5548307
94	0xbf917873	-1.1364883
95	0xbfa8d5a8	-1.3190203
96	0xbf4c0860	-0.7970028
97	0xbf65bbb1	-0.8973952
98	0xbf45d4d8	-0.772779
99	0xbf9c35a8	-1.2203875
100	0xbfc139c6	-1.5095756
101	0xbf247852	-0.64246094
102	0xbf402bb2	-0.75066674
103	0xbde229c5	-0.11043123
104	0xbedc0794	-0.42974532
105	0xbf33876d	-0.7012852
106	0xbc819290	-0.015816957
107	0xbf7aa8a4	-0.97913575
108	0xbfbb4314	-1.4629846
109	0xbf2ca368	-0.6743684
110	0xbf38afd6	-0.72143304
111	0xbe593331	-0.21210934
112	0xbfaf39c9	-1.368951
113	0xbf7de28b	-0.991738
114	0xbefec0e2	-0.49756533
115	0xbf338123	-0.7011892
116	0xbf3084c5	-0.6895259
117	0xbf91cbea	-1.1390355
118	0xbf975912	-1.1824057
119	0xbf781a60	-0.96915245
120	0xbfd32fa2	-1.6498911
121	0xbf984930	-1.1897335
122	0xbf20bf5d	-0.62792
123	0xbfa3d133	-1.2798218
124	0xbfb1b7bb	-1.3884195
125	0xbf3f7dc3	-0.7480127
126	0xbf46200a	-0.7739264
127	0x3e7b13d5	0.24519284
128	0xbf8a565f	-1.0807608
129	0xbf478299	-0.7793365
130	0xbe6894ac	-0.22712964
131	0xbee573f6	-0.44815034
132	0xbf4dc175	-0.80373317
133	0xbfb37a24	-1.4021649
134	0xbf497456	-0.7869314
135	0xbf82228f	-1.0166796
136	0xbf521ec2	-0.8207818
137	0xbf81b33f	-1.0132827
138	0xbf7e1cbd	-0.992626
139	0xbf0ffad5	-0.56242114
140	0xbf05fdf6	-0.5234064
141	0xbee5a057	-0.44848892
142	0xbf67b355	-0.90508014
143	0xbf1cd906	-0.6126865
144	0xbf8032ef	-1.0015544
145	0xbef65b4d	-0.48116532
146	0xbf859a65	-1.0437742
147	0xbfb6e6ce	-1.4289186
148	0xbff91c6b	-1.9461797
149	0xbf8ba74e	-1.0910432
150	0xbfd56fb1	-1.667471
151	0xbf4cbddc	-0.799772
152	0xbeb29411	-0.3487859
153	0xbf889a8f	-1.0672168
154	0xbfa82111	-1.3135091
155	0xbf9180e3	-1.1367458
156	0xbfab6bda	-1.3392289
157	0xbf48d3ce	-0.7844819
158	0xbf56757f	-0.83773035
159	0xbf949a64	-1.1609616
160	0xbfae8304	-1.3633733
161	0xbfa46c54	-1.2845559
162	0xbf1fe5e1	-0.6246014
163	0xbf5e715f	-0.8689174
164	0xbe8867b0	-0.26641607
165	0xbfae97c9	-1.3640071
166	0xbf98ced9	-1.1938125
167	0xbf088502	-0.53327954
168	0xbf6fb32a	-0.9363276
169	0xbf62795d	-0.88466436
170	0xbf5313f8	-0.82452345
171	0xbea863b8	-0.3288858
172	0xbfb8dd16	-1.444247
173	0xbf07bbf6	-0.5302118
174	0xbf873c3f	-1.0565261
175	0xbf553a92	-0.83292496
176	0xbf875f35	-1.057593
177	0xbfa2a904	-1.270783
178	0xbfbd57f5	-1.4792467
179	0xbf858558	-1.0431318
180	0xbfb69582	-1.4264376
181	0xbfa80d0e	-1.3128984
182	0xbf888e6d	-1.0668465
183	0xbf711099	-0.9416595
184	0xbf9ec8c6	-1.2405021
185	0xbf503d89	-0.81343895
186	0xbef3b722	-0.47600657
187	0xbf349a8c	-0.7054832
188	0xbf79dcba	-0.97602427
189	0xbf675f35	-0.9037965
190	0xbf64f9ab	-0.89443463
191	0xbdc685e8	-0.09693509
192	0xbf696d29	-0.9118219
193	0xbf568389	-0.83794457
194	0xbf2e91e6	-0.68191373
195	0xbfa280d5	-1.2695566
196	0xbf896ba1	-1.0735971
197	0xbf9c2374	-1.219832
198	0xbf735373	-0.9504921
199	0xbf988839	-1.1916572
200	0xbfcc9686	-1.5983436
201	0x3dcec470	0.10096061
202	0xbf6c962d	-0.9241665
203	0xbf802bad	-1.0013329
204	0xbfd85925	-1.6902205
205	0xbf46f67f	-0.77719873
206	0xbf0d2e9a	-0.55149233
207	0xbf463567	-0.77425236
208	0xbf28e61a	-0.6597611
209	0xbde89c18	-0.113578975
210	0xbfa67539	-1.3004524
211	0xbf2a1682	-0.66440594
212	0xbf849dbc	-1.0360637
213	0xbf6849ac	-0.90737414
214	0xbfa61038	-1.29737
215	0xbecfe26a	-0.40602428
216	0x3d81309f	0.06308102
217	0x3e450673	0.19240741
218	0xbf4978bc	-0.7869985
219	0xbf35df0f	-0.71043485
220	0xbf8fd748	-1.1237574
221	0xbf1f3568	-0.62190866
222	0xbf9c27eb	-1.2199682
223	0xbf57c9f9	-0.8429256
224	0xbf122b38	-0.57097197
225	0xbf8efa5e	-1.1170156
226	0xbfa8dd2d	-1.3192497
227	0xbf78c68b	-0.9717795
228	0xbfc1bfe6	-1.5136688
229	0xbf6af135	-0.917743
230	0xbfa6b143	-1.3022846
231	0xbf956101	-1.1670228
232	0xbf34e80c	-0.70666575
233	0xbf1c575e	-0.6107081
234	0xbebe8f6e	-0.37218803
235	0xbf9759a6	-1.1824234
236	0xbf4383b9	-0.7637287
237	0xbf917c65	-1.1366087
238	0xbfb0bc5a	-1.380748
239	0xbe825ba9	-0.25460556
240	0xbfbe4304	-1.4864202
241	0xbfc699f0	-1.5515728
242	0xbf2440fd	-0.64161664
243	0xbf74d852	-0.9564258
244	0xbf8ffc9d	-1.1248966
245	0xbf177b6f	-0.5917272
246	0xbf1a2e69	-0.60227066
247	0xbf57dd37	-0.8432192
248	0xbf1aff46	-0.60545766
249	0xbf4c223a	-0.79739726
250	0xbf57d1ec	-0.8430469
251	0xbf87423a	-1.0567086
252	0xbf7bee88	-0.98410845
253	0xbf6f7e53	-0.9355213
254	0xbfa254a7	-1.2682084
255	0xbf310e5f	-0.69162554

fc2.weight f4 [300, 404]
0	0xbd09f809	-0.03368381
1	0xbce4fbcd	-0.0279521
2	0xbd981033	-0.07424965
3	0xbd27cce8	-0.0409669
4	0xbd30b46d	-0.043140817
5	0xbd62042f	-0.05517977
6	0xbd4d7000	-0.05015564
7	0xbcbaf1f7	-0.022820456
8	0x3cbcc084	0.023041017
9	0xbe10e6c8	-0.14150536
10	0xbd0932c6	-0.033495687
11	0xbe07ac04	-0.13249213
12	0x3c35212a	0.01105527
13	0xbc2d62c9	-0.010582634
14	0xbd8a6117	-0.067568
15	0xbd421feb	-0.04739372
16	0x3d499763	0.04921664
17	0xbcba3b3c	-0.022733323
18	0x3c826086	0.015915167
19	0x3c68e57a	0.014214868
20	0x3d13c539	0.036076758
21	0x3ca50c8f	0.02014759
22	0xbd4e024a	-0.05029515
23	0xbdc4947c	-0.09598634
24	0x3cac730c	0.021050952
25	0xbde9c72b	-0.114149414
26	0x3d047bac	0.032344505
27	0xbdbdbb70	-0.092642665
28	0xbd6dade4	-0.058027163
29	0xbce704f2	-0.0282006
30	0x3d1b85c2	0.03796936
31	0xbd2d06b1	-0.04224271
32	0xbce6161c	-0.028086714
33	0xbc742ab4	-0.014902759
34	0x3ce7a5b6	0.02827726
35	0x3c588b75	0.013216843
36	0xbd4ce951	-0.050027195
37	0xbd1557fe	-0.03646087
38	0xbdc3a338	-0.09552616
39	0xbd0ee087	-0.034882095
40	0x3d3214a3	0.043476712
41	0xbddc4770	-0.10755813
42	0xbded8059	-0.11596746
43	0xbcaf83c4	-0.021425135
44	0xbd6815fc	-0.05666159
45	0xbd0b1107	-0.033951785
46	0xbcfd48e1	-0.03091854
47	0xbd04d81b	-0.032432657
48	0x3d58b747	0.052909162
49	0xba219e63	-0.0006165264
50	0xbdb64e93	-0.089017056
51	0xbd08bc56	-0.033382736
52	0xbd9832d1	-0.074315675
53	0xbd6f4229	-0.058412705
54	0x3af93ea9	0.0019015867
55	0xbe27ace6	-0.1637455
56	0x3c9bf90b	0.019039651
57	0xbdbc0470	-0.09180534
58	0xbddfaac2	-0.10921241
59	0xbd0dc096	-0.034607492
60	0xbcf3863e	-0.029727098
61	0xbe10235d	-0.1407599
62	0xbd80057f	-0.06251048
63	0xbe0ec4af	-0.13942216
64	0x3d4fa00c	0.050689742
65	0x3c8bdfb0	0.017074436
66	0xbd82dccb	-0.06389769
67	0xbceaeed8	-0.028678343
68	0x3d0ad663	0.03389586
69	0xbd2e04f3	-0.04248519
70	0x3ace62c0	0.0015745983
71	0xbd0832af	-0.03325146
72	0x3be9b1a9	0.0071317744
73	0xbd8fc057	-0.07019108
74	0xbd07dcec	-0.033169672
75	0xbccdabc7	-0.025106324
76	0xbde10d22	-0.10988833
77	0xbd8aa9ac	-0.067706436
78	0xbda82380	-0.08209896
79	0xbd0cc24f	-0.034364995
80	0xbd817a5d	-0.06322167
81	0xbb1d2f3f	-0.002398446
82	0xbd41c4c8	-0.047306806
83	0xbdc7e966	-0.09761314
84	0xbe05dee5	-0.13073309
85	0xbd338e22	-0.04383672
86	0x3b27f680	0.0025629103
87	0xbd9e64f0	-0.07734096
88	0x3ae5426a	0.0017491106
89	0xbd71724d	-0.058946896
90	0xbc800cf4	-0.015631177
91	0xbda3d1df	-0.07999014
92	0x3bba0cb4	0.005677784
93	0xbdbe7814	-0.09300247
94	0xbdb083fc	-0.08618924
95	0xbc9147e0	-0.017734468
96	0xbdf40823	-0.119156145
97	0xbd9aa813	-0.07551589
98	0xbd2c4ff1	-0.042068426
99	0xbc604403	-0.01368809
100	0xbcd964a6	-0.02653725
101	0xbc862f85	-0.016380081
102	0xbe0a98e7	-0.1353489
103	0x3d0b2b29	0.033976708
104	0xbd97126f	-0.07376563
105	0xbdb7f52f	-0.08982312
106	0xbca65a74	-0.020306803
107	0xbde7ca21	-0.1131785
108	0xbd113323	-0.03544916
109	0xbd2e0151	-0.042481724
110	0x3d495a1a	0.049158193
111	0xbdb04c6a	-0.08608325
112	0xbd0b8dc5	-0.03407075
113	0xbdfa96de	-0.12235807
114	0xbdac3e93	-0.084103726
115	0xbd7434de	-0.05962073
116	0xbdb1b3a8	-0.08676845
117	0xbdf74dd7	-0.12075394
118	0xbd9eda36	-0.07756464
119	0xbdd5744c	-0.104225725
120	0xbd0b6cfa	-0.034039475
121	0xbd49c66e	-0.049261503
122	0x3c2d5909	0.01058031
123	0x3c44897b	0.0119956685
124	0xbd5a54de	-0.053303592
125	0xbbdcf7ba	-0.0067433985
126	0xbd4f11f0	-0.050554216
127	0x3d1f185e	0.038841598
128	0xbca3d366	-0.019998264
129	0xbe0dfce5	-0.13866003
130	0xbd108316	-0.035281263
131	0x3cb0eb9d	0.021596724
132	0x3d150d56	0.03638967
133	0xbd898682	-0.067151085
134	0x3ce1ef37	0.027579887
135	0xbd5cd7c2	-0.0539167
136	0xbcff1b38	-0.031140909
137	0x3d26d856	0.040733658
138	0xbd98e973	-0.07466402
139	0xbd81f90b	-0.06346329
140	0xbdccbfcd	-0.099975206
141	0x3b03acb3	0.002009195
142	0xbc8cc179	-0.017182099
143	0xbe05634e	-0.13026163
144	0x3d57a55d	0.052647937
145	0xbdf7a240	-0.120914936
146	0xbce95f98	-0.028487965
147	0xbc6a7bc0	-0.014311731
148	0x3c886b74	0.0166528
149	0xbdd8319d	-0.10556338
150	0xbc3a3067	-0.011364079
151	0xbcd3dc0e	-0.025861766
152	0xbd3e1009	-0.04640201
153	0xbcbf8b29	-0.023381786
154	0xbcbde1a4	-0.023178883
155	0xbd45d3d1	-0.048297707
156	0xbd5f477a	-0.054511525
157	0xbdde05cf	-0.10840952
158	0xbce14379	-0.027497994
159	0x3cd87660	0.026423633
160	0x3c0a26db	0.008432115
161	0xbc04deba	-0.008109743
162	0xbd0b3692	-0.03398759
163	0xbd79f981	-0.06102896
164	0xbd8fd743	-0.0702348
165	0x38526615	5.0162973e-05
166	0x3cdf0fdd	0.027229244
167	0xbd9431a7	-0.07236033
168	0xbd37e880	-0.044899464
169	0xb88b6cbb	-6.648289e-05
170	0x3c1c6e1f	0.009547739
171	0xbdf8b1eb	-0.1214331
172	0xbd56bf4a	-0.05242852
173	0xbd235500	-0.039875984
174	0xbc115ecd	-0.0088727
175	0xbd192c23	-0.037395608
176	0x3d78c84c	0.060737893
177	0x3c66d4e8	0.014088847
178	0xbd5dffb6	-0.054198943
179	0x3d01c192	0.031678744
180	0xbc7ce851	-0.015436248
181	0x3d0789c3	0.033090364
182	0x3cf1145c	0.029428653
183	0xbd1fde36	-0.039030276
184	0x3d19229c	0.03738652
185	0xbd2cf8e8	-0.042229563
186	0xbd2568db	-0.0403832
187	0xbddb975b	-0.10722228
188	0x3d32d319	0.04365835
189	0xbc775507	-0.015095956
190	0xbd5b097f	-0.053475853
191	0x3b8d2a3e	0.004308014
192	0xbd2e7a10	-0.042596877
193	0xbd137a9a	-0.036005594
194	0x3d3e4120	0.046448827
195	0x3dab2cb3	0.08358135
196	0xbcc076ef	-0.023494212
197	0xbd955dd5	-0.07293288
198	0xbd06a0ae	-0.03286808
199	0x3d242501	0.040074352
200	0x3d9954d9	0.074868865
201	0xbcdfc4c4	-0.027315505
202	0xbcceb578	-0.025233015
203	0x3ce38a68	0.027775958
204	0xbd3f4198	-0.046693414
205	0xbd5080cd	-0.050904084
206	0xbe010d77	-0.12602793
207	0xbc20c4d0	-0.009812549
208	0xbdd59ac5	-0.104299106
209	0x3bee9f8a	0.007282202
210	0x3d8db3cc	0.06919059
211	0xbdce3801	-0.10069276
212	0x3d0f9662	0.035055526
213	0xbcf989f1	-0.030461283
214	0x3d3852c8	0.04500082
215	0xbd8b67c9	-0.06806905
216	0xbb6e22ba	-0.0036336617
217	0xbcefe81f	-0.029285489
218	0xbd50adb0	-0.05094689
219	0xbd10680e	-0.035255484
220	0xbb8f3b32	-0.0043710703
221	0xbd493c4a	-0.04912976
222	0xbd7f3b61	-0.062312488
223	0xbc17dc3f	-0.009268819
224	0xbd06b865	-0.032890696
225	0xbd90e084	-0.07074073
226	0x3c63049f	0.013856082
227	0xbda09f8d	-0.07842932
228	0x3b99f020	0.0046978146
229	0xbc7627f5	-0.015024175
230	0xbd195eb2	-0.037443824
231	0xbd74b897	-0.05974635
232	0x3b9f5e86	0.004863563
233	0xbd1b4512	-0.037907667
234	0xbd9880df	-0.07446455
235	0x3bf02765	0.007328915
236	0xbd2aae5f	-0.0416702
237	0xbd99761f	-0.07493233
238	0x3c19993d	0.009374914
239	0xbce56a00	-0.028004646
240	0xbccb60b7	-0.02482639
241	0xbd0b683f	-0.034034964
242	0xbcb6ab31	-0.022298427
243	0xbdbb357f	-0.09141063
244	0xbd43898f	-0.047738608
245	0xbcb23732	-0.021754835
246	0xbdb8a292	-0.09015383
247	0x3d98512d	0.07437358
248	0xbcd3aa37	-0.025838
249	0xbdd80de2	-0.10549523
250	0xbc88e950	-0.016712815
251	0xbd7cdcb8	-0.06173393
252	0xbd81d940	-0.06340265
253	0xbdaaa3e9	-0.08332045
254	0xbc94ae8c	-0.018149637
255	0xbdac2c76	-0.08406918

fc2.bias f4 [300]
0	0xbdbe1f24	-0.09283283
1	0xbbe466e0	-0.0069702715
2	0xbdeb9390	-0.11502755
3	0xbdc1746c	-0.09446034
4	0xbca7d96c	-0.020489417
5	0xbd8c6bee	-0.068565235
6	0xbcd73b30	-0.02627334
7	0xbe07c57d	-0.1325893
8	0xbce8e930	-0.028431505
9	0xbdb08cd2	-0.08620609
10	0xbc2c0a1c	-0.010500457
11	0xbcdc4ca8	-0.026892021
12	0xbdee5349	-0.11636979
13	0xbd3364bb	-0.043797236
14	0x3f048b33	0.517749
15	0xbe0bd8b8	-0.1365689
16	0xbda213f4	-0.07913962
17	0xbe1c74cf	-0.15278934
18	0xbda6d127	-0.081453614
19	0xbd8fb304	-0.070165664
20	0xbc2345e8	-0.009965397
21	0xbebf5117	-0.37366554
22	0xbdaad453	-0.08341279
23	0xbdd37779	-0.10325522
24	0xbdbaf43f	-0.091286175
25	0x3fa0f19f	1.2573737
26	0xbde8dacf	-0.113698594
27	0xbd5a40a3	-0.0532843
28	0xbccc80b2	-0.02496371
29	0xbd832546	-0.06403594
30	0x3f9d85be	1.230644
31	0xbddcae35	-0.10775415
32	0xbde754a9	-0.112954445
33	0xbdde7aae	-0.10863243
34	0xbd3e2f92	-0.046432085
35	0xbdabd07e	-0.08389376
36	0xbcb9ec34	-0.022695638
37	0xbdefaabf	-0.11702489
38	0xbda29b5a	-0.07939787
39	0xbdb6cde6	-0.08925991
40	0xbdc526e0	-0.096265554
41	0xbe0866c1	-0.13320448
42	0xbd8022fc	-0.06256673
43	0x3e17f557	0.14839683
44	0xbd7c1fc1	-0.06155372
45	0xbd9a0594	-0.07520595
46	0xbd9873d3	-0.07443967
47	0xbd48cb50	-0.04902202
48	0xbd7d2c26	-0.06180968
49	0xbd95b250	-0.07309401
50	0xbd48493f	-0.048897978
51	0xbd4e0799	-0.050300214
52	0xbcf31b62	-0.029676143
53	0xbd004f4c	-0.031325623
54	0xbdfe5346	-0.12418227
55	0xbc05e4c9	-0.008172222
56	0xbcc55639	-0.024088966
57	0xbd74d412	-0.05977256
58	0xbdc60601	-0.09669114
59	0x3b91e15c	0.0044519138
60	0xbe157bac	-0.14597958
61	0x3dad782c	0.084701866
62	0xbe00b12e	-0.12567589
63	0xbcbebd3c	-0.023283593
64	0xbd2e8dfd	-0.04261588
65	0xbc1a3b3f	-0.009413539
66	0xbd5ca00b	-0.053863566
67	0xbe04b7c4	-0.12960726
68	0xbdce6535	-0.100778975
69	0xbd41dfc0	-0.047332525
70	0xbda25fcb	-0.07928427
71	0xbd643123	-0.055710923
72	0xbdf70892	-0.120621815
73	0xbbde1dc9	-0.006778453
74	0xbdedf393	-0.11618724
75	0xbda4ce48	-0.080471575
76	0xbdcf7d59	-0.1013133
77	0xbe240d6f	-0.1602075
78	0x3f116af5	0.5680383
79	0xbcf996a6	-0.030467343
80	0x3d3bb798	0.045829386
81	0xbd1945e0	-0.037420154
82	0xbd4500c9	-0.048096452
83	0xbd8a7d18	-0.06762141
84	0xbdec0944	-0.11525205
85	0xbdee709d	-0.11642573
86	0xbd99e590	-0.07514489
87	0xbd2f6e7f	-0.042829987
88	0xbd88410f	-0.06653034
89	0xbe024208	-0.12720501
90	0xbdb1e327	-0.08685904
91	0xbce9e4e2	-0.028551523
92	0xbd4c5484	-0.049885288
93	0xbdde0cb0	-0.10842264
94	0xbd3941a6	-0.045228623
95	0xbdd9d94a	-0.10637148
96	0xbd44e57e	-0.048070423
97	0xbda1a388	-0.07892519
98	0xbf0d3a08	-0.55166674
99	0xbdc0ec30	-0.09420049
100	0xbd961903	-0.07328989
101	0xbe0531d2	-0.13007286
102	0xbd1b4f90	-0.037917674
103	0xbcf53dc1	-0.029936673
104	0xbd94bfcd	-0.072631456
105	0xbf5a4ca4	-0.85273194
106	0xbf00c9c7	-0.5030789
107	0xbdce763f	-0.100811474
108	0xbd8aa647	-0.06769996
109	0xbd1c9a39	-0.038233016
110	0x3c1989f9	0.009371274
111	0xbbce4f63	-0.0062960847
112	0xbe041a6e	-0.12900707
113	0xbdb7f75e	-0.089827284
114	0xbe613a8e	-0.21994993
115	0xbda3978b	-0.07987889
116	0xbde9662a	-0.113964394
117	0xbd43699d	-0.047708143
118	0x3f398e02	0.7248231
119	0xbcc6d2fa	-0.024270523
120	0xbdff368b	-0.12461575
121	0xbd877ba3	-0.06615379
122	0x3c85a8b2	0.016315792
123	0xbd6169ec	-0.055032656
124	0xbdc95e90	-0.098324895
125	0xbd0dbb46	-0.034602426
126	0xbd9c122d	-0.07620654
127	0xbdab9a8f	-0.08379089
128	0xbd34e292	-0.044161387
129	0xbe095754	-0.1341222
130	0xbd846199	-0.06463928
131	0xbcc800d7	-0.024414463
132	0xbd2eaf32	-0.042647548
133	0xbd2ef873	-0.04271741
134	0xbde7b6b2	-0.11314143
135	0xbd618560	-0.055058837
136	0xbdfd74e1	-0.123758085
137	0xbda94086	-0.0826426
138	0xbe403535	-0.18770297
139	0xbdab6675	-0.083691515
140	0xbd3bbf1d	-0.045836557
141	0xbd82a72f	-0.06379544
142	0xbe1b1365	-0.15144117
143	0xbd3baaba	-0.045817114
144	0xbd310e22	-0.04322637
145	0xbde7a3fd	-0.11310575
146	0xbd885016	-0.066559
147	0xbdbb9f68	-0.09161264
148	0xbde96cac	-0.11397681
149	0xbd636db8	-0.055524558
150	0xbe11daca	-0.14243618
151	0xbd2789c2	-0.04090286
152	0xbf2a178f	-0.664422
153	0xbe143345	-0.14472683
154	0xbdac1cdb	-0.08403941
155	0xbdffb00e	-0.12484752
156	0xbddf518a	-0.10904224
157	0xbcdee9a2	-0.027211014
158	0xbde39f8c	-0.111144155
159	0xbea010dd	-0.31262866
160	0xbdb603bb	-0.0888743
161	0xbde9a991	-0.11409295
162	0xbd2992ae	-0.04139965
163	0xbdeb37b0	-0.11485231
164	0xbded7afc	-0.11595723
165	0x3e6ad18c	0.22931498
166	0xbdcb02a4	-0.09912613
167	0xbd5ccf5c	-0.05390869
168	0xbdd4b3a5	-0.10385827
169	0xbdbf057a	-0.093272164
170	0xbd0e6393	-0.03476293
171	0xbd6b7c5f	-0.057491656
172	0xbd36c9a8	-0.044625908
173	0xbe6f2d7c	-0.23357195
174	0xbde741fb	-0.11291882
175	0xbd833863	-0.06407239
176	0xbdd43aa5	-0.10362748
177	0xbd20f53f	-0.039296385
178	0xbcf72307	-0.03016807
179	0xbdccae5a	-0.099941924
180	0xbf3fe54d	-0.7495926
181	0xbdb0158a	-0.08597858
182	0xbe71dd43	-0.23619561
183	0xbdcfb6d0	-0.101422906
184	0x3f206ed6	0.6266912
185	0xbc829032	-0.015937898
186	0xbd3fb8e2	-0.046807177
187	0xbe0a8d52	-0.13530472
188	0xbd9cd4b1	-0.07657755
189	0xbd8ceeca	-0.06881483
190	0xbd1cf04b	-0.0383151
191	0xbd3deb6a	-0.046367086
192	0xbc96bb1b	-0.018399766
193	0xbd17fa3a	-0.03710387
194	0xbd9b563d	-0.07584808
195	0xbd16ecba	-0.036846854
196	0xbe06ea9d	-0.13175435
197	0xbd859647	-0.06522804
198	0xbdc6eba9	-0.09712917
199	0xbd552ba3	-0.05204357
200	0xbd7e9572	-0.06215424
201	0x3f270af3	0.6525108
202	0xbd7e198c	-0.062036082
203	0xbd829dd2	-0.06377758
204	0xbdf6de75	-0.12054149
205	0xbd5b256a	-0.053502478
206	0xbe159f31	-0.14611508
207	0xbd8f7d0a	-0.07006271
208	0xbccc5086	-0.02494074
209	0xbd751fe4	-0.059844866
210	0xbded476e	-0.1158589
211	0xbcd34021	-0.025787415
212	0xbd829594	-0.06376186
213	0xbd900870	-0.07032859
214	0xbde86f18	-0.113493145
215	0xbde292b2	-0.11063136
216	0xbda49486	-0.08036141
217	0xbe13875e	-0.14407107
218	0xbdd47765	-0.10374335
219	0xbc8cdc8b	-0.017195007
220	0xbd92b8e8	-0.07164174
221	0xbddccb5e	-0.10780977
222	0xbe0ecec4	-0.13946062
223	0xbdc65f7a	-0.096861795
224	0x3ed50ab8	0.4160974
225	0xbd50ff30	-0.051024616
226	0xbdbe8d2f	-0.093042724
227	0xbd8858c9	-0.066575594
228	0xbdb6b4d6	-0.089212105
229	0xbd914c2e	-0.07094608
230	0xbdbe7684	-0.09299949
231	0xbccf4d28	-0.025305346
232	0xbc0028fc	-0.007822271
233	0xbd55eacc	-0.052225873
234	0x3c17d81a	0.009267831
235	0x3eb1e775	0.347469
236	0xbdef7934	-0.116930395
237	0xbcfa3025	-0.030540535
238	0xbdaad20c	-0.083408445
239	0xbdda367a	-0.10654922
240	0xbdb42461	-0.08796001
241	0xbd3cdf9a	-0.04611168
242	0xbd1bb963	-0.038018595
243	0xbc57ecdc	-0.01317903
244	0xbdd0f3d9	-0.1020276
245	0xbd878057	-0.06616276
246	0x3f108e4c	0.5646713
247	0xbd17d650	-0.03706962
248	0xbd4e9890	-0.050438464
249	0xbd6b3adb	-0.057429176
250	0xbd897e0f	-0.06713497
251	0xbdb01b3f	-0.08598947
252	0xbd926dc4	-0.071498424
253	0xbd20488e	-0.039131694
254	0xbd6fdfec	-0.058563158
255	0xbdce0768	-0.100600064

fc3.weight f4 [1, 300]
0	0x3c712af8	0.014719717
1	0xbb32c1be	-0.0027276124
2	0x3cd94149	0.026520388
3	0xbcdd38fc	-0.027004711
4	0xbc96be79	-0.018401371
5	0x3c950df1	0.018195124
6	0x3be2653c	0.0069090407
7	0x3a6044c6	0.000855517
8	0x3cb2b191	0.021813186
9	0xbcdc3710	-0.026881725
10	0x3c96744f	0.018366007
11	0xbc7f824e	-0.015595032
12	0x3c88d911	0.016705068
13	0x3bf81c68	0.0075717457
14	0x3cb4555e	0.022013362
15	0xbaa760b9	-0.0012769914
16	0x3bd1aea2	0.0063989917
17	0xbc8b60a9	-0.017013865
18	0xbcb5bb68	-0.022184089
19	0x3b7e2220	0.0038777664
20	0xbcbfd013	-0.023414647
21	0xbc981f38	-0.018569574
22	0x396980c6	0.00022268583
23	0xbc171bbe	-0.009222923
24	0xbc5ca8cd	-0.01346798
25	0x3ca33589	0.019922988
26	0xbcb9cfa9	-0.022682028
27	0x3c383031	0.0112419585
28	0x3caf5975	0.021404961
29	0x3b8cbae6	0.004294741
30	0x3cc8fadc	0.024533682
31	0xbb798e7c	-0.0038079312
32	0xbc95918f	-0.018257884
33	0x3b098998	0.0020986553
34	0xbcd57871	-0.026058408
35	0x3a955585	0.0011393285
36	0x3c21df6d	0.009879929
37	0xbc1c6f21	-0.00954798
38	0xbc50311e	-0.012707023
39	0xbc8a0bd0	-0.016851336
40	0x3cb26d45	0.02178062
41	0x3c3ab801	0.011396409
42	0x3b1f5f51	0.0024318288
43	0x3cfc8692	0.030825887
44	0x3bf3c788	0.0074395575
45	0x3c8114a1	0.015756907
46	0xbac81c36	-0.0015267197
47	0xbc910809	-0.017704027
48	0xbd0a4f59	-0.033767078
49	0xbca83c8b	-0.020536682
50	0xbcdeb906	-0.027187835
51	0x3c2f2c35	0.010691692
52	0x3be57e29	0.007003565
53	0xbce1a64f	-0.027545122
54	0x3cbe973d	0.023265475
55	0x3b346cb5	0.0027530615
56	0x3cddd731	0.02708015
57	0xbc86be4d	-0.016448164
58	0x3cca8543	0.024721747
59	0xbc00b54b	-0.007855724
60	0x3cbec17c	0.02328562
61	0xbc9b200f	-0.018936185
62	0xbce968cd	-0.028492356
63	0x3cdf5ad0	0.027264982
64	0xbbc1d848	-0.0059156753
65	0xbcd09def	-0.025465934
66	0x39ca12ad	0.00038542357
67	0x3c9ced25	0.019156048
68	0xbc488d69	-0.012240746
69	0xb9aa33dd	-0.00032463568
70	0xbd0d203a	-0.03445456
71	0xbc3c4548	-0.011491127
72	0x3c5b0195	0.013367076
73	0xbba7cde7	-0.005120981
74	0xba2389bd	-0.0006238481
75	0x3a8d4ff1	0.0010781271
76	0x3c1abf98	0.009445094
77	0xbc83b0e8	-0.016075566
78	0x3d375d31	0.04476661
79	0xbc5c9074	-0.013462175
80	0x3c6f2313	0.014595765
81	0xbc95fbcb	-0.01830854
82	0x3c3d05c4	0.011537019
83	0xbcbecc36	-0.023290735
84	0xbcd77425	-0.0263005
85	0xbc625adc	-0.013815608
86	0x3c3c8dad	0.0115083875
87	0x3c483d3a	0.012221629
88	0x3cb111ce	0.021614935
89	0x3c90eaa1	0.017690005
90	0xba5bad00	-0.0008379966
91	0x3cefa9af	0.029255716
92	0xbb3eebac	-0.002913217
93	0xbc6ca7dc	-0.014444318
94	0xbccfaa08	-0.025349632
95	0x3bc62453	0.0060468107
96	0xbca01299	-0.019540118
97	0xbb2062d6	-0.0024472973
98	0xbd07c4d5	-0.033146698
99	0xbab71ee8	-0.0013971003
100	0x3cc11112	0.02356771
101	0xbca5cd08	-0.020239368
102	0x3c778cf1	0.015109287
103	0x3c28fc3d	0.010314045
104	0xbcdeb07c	-0.027183764
105	0xbc763b39	-0.015028768
106	0xbc5526f0	-0.013009772
107	0x3c54b32f	0.012982174
108	0x3cc93a47	0.024563922
109	0x3b883cb7	0.0041576284
110	0xbca27c2b	-0.019834599
111	0xbbeb88d3	-0.0071879416
112	0xbc35c0b5	-0.011093308
113	0xbcb04051	-0.021515043
114	0xbd32dfb0	-0.043670356
115	0xbce0bbb4	-0.027433254
116	0x3d197295	0.03746279
117	0x3c53bb40	0.012923062
118	0x3c90e6bd	0.01768815
119	0xbcbef928	-0.023312166
120	0x3c14dca6	0.00908581
121	0xbc1dd660	-0.0096336305
122	0xbb9fc0fc	-0.0048753005
123	0x3cca5220	0.024697363
124	0xba067868	-0.0005129636
125	0xbb4c1a18	-0.0031143483
126	0x3bd98ee7	0.0066393497
127	0xbc98c106	-0.018646728
128	0x3c8dd92e	0.017315473
129	0xbcdf141a	-0.027231265
130	0x3bb64fc6	0.005563709
131	0xbca038ae	-0.019558277
132	0xbcb39421	-0.02192122
133	0xbc8be8fb	-0.017078867
134	0xbc403ae5	-0.011732792
135	0xbc7c10b9	-0.015384846
136	0x3c40a02c	0.011756938
137	0x3b4434b1	0.0029938633
138	0x3b692be6	0.0035579144
139	0xbc69be0c	-0.014266502
140	0xbcd1abeb	-0.025594672
141	0xbc33d266	-0.010975456
142	0xbcd7638d	-0.026292587
143	0xbb756ee0	-0.003745012
144	0xbcbf94bb	-0.02338635
145	0x3ca231d0	0.019799143
146	0xbc792d74	-0.015208591
147	0x3c995e13	0.018721616
148	0xbbae5734	-0.005320454
149	0xbb99c66f	-0.0046928446
150	0x3c71869f	0.014741569
151	0x3b30ebfe	0.002699613
152	0xbcd3aace	-0.025838282
153	0xbbe71efc	-0.007053254
154	0x3c2c1e1f	0.010505228
155	0x3c41f66e	0.011838539
156	0x3be82372	0.0070843035
157	0xbcd54bf0	-0.026037186
158	0x3cc75f18	0.024337336
159	0xbc9ef304	-0.019402988
160	0x3c6abec1	0.014327706
161	0xbbd9c7ad	-0.0066461177
162	0xbb253132	-0.0025206325
163	0x3bebbbc3	0.007194014
164	0xbc9e1c42	-0.019300584
165	0x3c7e1040	0.015506804
166	0x3b3fa454	0.0029242234
167	0xbbe75b3e	-0.0070604375
168	0xbb42566c	-0.0029653562
169	0x3cc7b96f	0.024380414
170	0x3b63fd8d	0.003478858
171	0xbbb16bef	-0.005414478
172	0xbcccac28	-0.024984434
173	0x3c67d0e5	0.014148925
174	0xbcf2d066	-0.029640388
175	0xbb1f9c34	-0.002435458
176	0xbbee1014	-0.0072651003
177	0x3c66cb49	0.014086553
178	0xbb48951a	-0.003060645
179	0xbbf70d59	-0.007539433
180	0xbca87f68	-0.020568565
181	0xbc04e7d3	-0.008111912
182	0x3b003033	0.001955998
183	0xbc6098e7	-0.01370833
184	0x3cdaca5d	0.026707822
185	0xbcab7427	-0.02092941
186	0x3cb1c0a9	0.021698313
187	0x3c700f08	0.014652021
188	0x3cd0ab59	0.02547233
189	0x3bc04556	0.0058676405
190	0xbcf1ccf1	-0.029516669
191	0x3cc93c21	0.024564805
192	0x3bf607e9	0.007508267
193	0xbcd2f55f	-0.025751768
194	0x3ca2b8a1	0.019863429
195	0x3c63e1ff	0.013908862
196	0xbcb32872	-0.021869872
197	0x3b402909	0.0029321334
198	0x3bff2aea	0.007787098
199	0x3cc4e248	0.02403368
200	0x3c81ab09	0.015828626
201	0x3c9f25f4	0.019427277
202	0x3cb66b61	0.022268
203	0x3aaa3720	0.0012986399
204	0xbc9475e8	-0.018122628
205	0xbcdfd2f1	-0.027322264
206	0x3cd780da	0.026306558
207	0xbbe4d5fa	-0.006983516
208	0x3b4bc819	0.003109461
209	0x3c36009a	0.011108542
210	0x3994c378	0.00028374395
211	0xbb736014	-0.0037136124
212	0x3cf4c2e2	0.029878084
213	0xbcb107e8	-0.021610215
214	0xbc2287c1	-0.009920062
215	0xbcad3c43	-0.0211469
216	0x3c07dc1c	0.008292224
217	0x3cebd448	0.028787747
218	0x3cd336b1	0.025782915
219	0x3c65d11c	0.014026906
220	0x3bc95e3d	0.0061452673
221	0xbccffc0d	-0.025388742
222	0xbd26efd1	-0.04075605
223	0xbc913ebc	-0.01773011
224	0x3c54d0f3	0.0129892705
225	0xba55c386	-0.00081544404
226	0xbb524112	-0.0032082242
227	0x3ce2dd85	0.02769352
228	0xbcdc003a	-0.026855577
229	0xbcf8b871	-0.030361386
230	0x3ce4ac35	0.027914146
231	0xbad8829d	-0.0016518418
232	0x3cc3d24a	0.023903985
233	0xbbd0706f	-0.0063610594
234	0x3c14206b	0.009040932
235	0x3d10d954	0.03536351
236	0xbca3953b	-0.01996862
237	0xbbae0a36	-0.005311276
238	0x3b841703	0.0040310635
239	0x3bc7f047	0.0061016413
240	0x3c9f9e3a	0.019484628
241	0x3ca5d10f	0.020241288
242	0xbcca72a6	-0.024712872
243	0x3b0c6778	0.0021423977
244	0x3c443612	0.011975782
245	0xbc69db5b	-0.01427349
246	0x3c448307	0.01199413
247	0xbcf63dce	-0.030058768
248	0xbc4b8edb	-0.012424196
249	0x39bf6a89	0.00036509734
250	0xbc72d1cf	-0.01482053
251	0x3caba7bc	0.020954005
252	0x3bb2c66c	0.0054557826
253	0xbc339dd7	-0.010962925
254	0xbc07a480	-0.008278966
255	0x3ce0a4ee	0.027422395
