checkpoints/checkpoint_actor_2200.pth (torch, 542663 bytes, 6 tensors)

fc1.weight f4 [400, 33]
-0.046875257 0.16673292 -0.015003826 0.06960711 0.035625525 -0.015225678 0.0034702262 -0.17368306
-0.10917724 -0.1795455 -0.25000486 0.10435598 0.08107649 -0.0015802517 0.0697316 -0.0042757145
0.0572048 0.048766777 -0.059903152 -0.04583836 0.020970212 -0.031160554 -0.049388167 -0.042436015
-0.042467672 -0.12332815 -0.0543352 -0.010621564 -0.0038055002 0.049657617 0.0069523766 -0.028602464
0.3648575 -0.28288016 -0.10358322 0.028446559 0.058189485 0.043462254 0.023068814 -0.08837868
0.11149658 0.07579779 -0.01362752 -0.083095 -0.07674667 0.06093208 -0.034793884 0.063976526
0.036948573 0.011288971 -0.0067000347 -0.054382645 0.05008778 -0.055349525 -0.03701331 0.035707492
0.07319638 -0.06322523 -0.028724462 -0.10546924 -0.024073578 -0.02227933 -0.041183244 0.06508944
-0.011414509 0.35597256 0.16106007 0.0679541 -0.1333513 0.012331019 0.0066186697 0.0940296
0.07419005 -0.034429215 -0.03763496 -0.048596267 0.055168066 -0.027342478 -0.020949045 -0.07450725
0.073643684 0.04067224 0.03158451 -0.015355709 0.084339604 -0.016431488 0.17352234 -0.028304588
-0.027779356 -0.11506526 0.01093463 -0.05965631 -0.1206176 0.018628128 0.014474054 -0.034138605
-0.08011834 0.04606835 -0.6112087 -0.11036566 0.070030466 0.056166586 0.030984867 -0.044400383
0.021090847 0.03956006 0.0052812616 -0.11877939 -0.04039874 -0.06560117 0.050424483 -0.058243744
0.08543241 0.0058959886 0.0435294 -0.034114145 0.06497408 -0.0591922 0.04546518 0.034454122
0.00699408 -0.006823428 0.0992534 -0.007379098 0.073363274 -0.058735773 -0.009713523 0.07631042
-5.0626695e-05 -0.029127736 -0.000518851 -0.8947812 0.16720037 0.1690861 0.16628014 -0.037187986
-0.0320891 0.031148218 0.010535132 -0.017219216 -0.07014102 -0.01923474 0.06065387 0.13146195
0.039518084 -0.07661948 -0.04301294 -0.14791223 0.108020596 0.055194717 0.09283319 -0.023878146
-0.06906248 0.13428085 0.011560169 0.008044635 0.03731122 -0.051034074 -0.10445093 0.023507936
-0.14031652 -0.0379647 -0.048948094 -0.009385206 -0.06881366 0.09018217 -0.025907727 0.0771846
0.054481626 -0.123989284 0.0024584085 0.027292313 -0.086245745 -0.09909 -0.014593318 -0.07172172
0.00015719038 -0.064387664 -0.17774156 0.19576527 -0.20333242 0.051035598 -0.036095887 0.08641309
-0.0015306935 -0.026405515 -0.04936727 0.06954332 -0.010531055 0.13182491 -0.036667485 0.08152286
0.04422823 0.10194089 0.046912704 0.0015070847 0.0009202771 -0.09903181 0.042762905 0.06269504
0.007079023 -0.015634544 0.015705395 -0.02300253 -0.049659085 -0.048611216 -0.05920966 0.06020311
0.052561607 0.04935532 0.04185586 -0.06778072 0.010500964 -0.13623223 -0.039658803 0.06878955
0.035312936 -0.017056214 0.010120148 -0.043139566 0.015167111 -0.056460753 0.04691514 -0.047323383
0.13955337 0.020890407 -0.036920324 -0.042831894 -0.04177529 0.01055352 -1.1531514 -0.021896375
0.15931576 0.06675607 0.1738956 -0.053214386 -0.03653078 0.036191598 0.08383495 -0.31059656
0.06479086 0.07490219 0.2028492 -0.019416915 -0.07226796 -0.050848145 0.025672931 0.08723212
-0.010760371 0.12765293 -0.018008452 0.09789018 0.14960699 0.025870113 0.097847 -0.21710874
00000000: 4500 40bd 09bc 2a3e 9bd2 75bc 2c8e 8e3d
00000010: 12ec 113d 1f75 79bc bc6c 633b f9d9 31be
00000020: 5198 dfbd c7da 37be a300 80be 97b8 d53d
00000030: 6e0b a63d 7320 cfba 71cf 8e3d 4b1b 8cbb
00000040: 954f 6a3d acbf 473d 025d 75bd 01c1 3bbd
00000050: b9c9 ab3c 6b44 ffbc 3f4b 4abd 63d1 2dbd
00000060: 95f2 2dbd 7893 fcbd 968e 5ebd 1206 2ebc
00000070: b365 79bb c965 4b3d c3d0 e33b b74f eabc
00000080: 9ace ba3e abd5 90be 7023 d4bd c208 e93c
00000090: 1958 6e3d 7a05 323d cffa bc3c e2ff b4bd
000000a0: 5258 e43d df3b 9b3d f645 5fbc b62d aabd
000000b0: 5c2d 9dbd eb93 793d 0884 0ebd 2006 833d
000000c0: 6357 173d 60f5 383c f78b dbbb 56c0 5ebd
000000d0: d828 4d3d 2fb6 62bd 459b 17bd 0542 123d
000000e0: fce7 953d 3b7c 81bd 904f ebbc 4200 d8bd
000000f0: f435 c5bc 2483 b6bc c3af 28bd 9d4d 853d
00000100: ec03 3bbc 0942 b63e eeec 243e 852b 8b3d
00000110: 3e8d 08be 0b08 4a3c 6de1 d83b 9792 c03d
00000120: f4f0 973d a605 0dbd 1e27 1abd e10c 47bd
00000130: e9f7 613d 55fd dfbc 559d abbc 4297 98bd
00000140: 80d2 963d ef97 263d c25e 013d 8396 7bbc
00000150: 3eba ac3d 549b 86bc d7af 313e 06df e7bc
00000160: 8891 e3bc 56a7 ebbd 2a27 333c 2d5a 74bd
00000170: 5c06 f7bd 049a 983c 9524 6d3c ecd4 0bbd
00000180: 1615 a4bd 2bb2 3c3d 2c78 1cbf 6407 e2bd
00000190: 226c 8f3d ef0e 663d fad3 fd3c 2ddd 35bd
000001a0: b6c6 ac3c bb09 223d 6f0e ad3b 9c42 f3bd
000001b0: 2679 25bd e859 86bd e789 4e3d fe90 6ebd
000001c0: 30f7 ae3d 2333 c13b e24b 323d 46bb 0bbd
000001d0: 2111 853d 8573 72bd b239 3a3d c41f 0d3d
000001e0: 982e e53b 1097 dfbb 5e45 cb3d 5ccc f1bb
000001f0: 7c3f 963d ec94 70bd 7825 1fbc a348 9c3d
00000200: 0058 54b8 4a9d eebc 8003 08ba 6110 65bf
00000210: 9336 2b3e e824 2d3e 5745 2a3e 6e52 18bd
00000220: dc6f 03bd 8c2a ff3c 8c9b 2c3c 500f 8dbc
00000230: 18a6 8fbd 2c92 9dbc 3170 783d f69d 063e
00000240: b7dd 213d adea 9cbd 562e 30bd 4e76 17be
00000250: e739 dd3d db13 623d 541f be3d 1a9c c3bc
00000260: a170 8dbd eb80 093e dd66 3d3c a5cd 033c
00000270: a6d3 183d 1b09 51bd 5fea d5bd b793 c03c
00000280: 22af 0fbe e080 1bbd cc7d 48bd 68c4 19bc
00000290: 2dee 8cbd 6eb1 b83d 713c d4bc f612 9e3d
000002a0: 2028 5f3d 18ee fdbd 401d 213b 2194 df3c
000002b0: 9ca1 b0bd b3ef cabd d018 6fbc d6e2 92bd
000002c0: 79d3 2439 aedd 83bd e201 36be b176 483e
000002d0: 6036 50be b40a 513d 48d9 13bd 59f9 b03d
000002e0: 8da1 c8ba 6150 d8bc 5635 4abd ba6c 8e3d
000002f0: 728a 2cbc 1cfd 063e a530 16bd 75f5 a63d
00000300: a928 353d 63c6 d03d 8927 403d 5f89 c53a
00000310: c03e 713a 31d1 cabd 2828 2f3d 4266 803d
00000320: 26f7 e73b 0414 80bc 9aa8 803c cd6f bcbc
00000330: 5367 4bbd 8e1c 47bd d485 72bd 8997 763d
00000340: d74a 573d ce28 4a3d 0d71 2b3d 9ed0 8abd
00000350: 3c0c 2c3c 7680 0bbe 4571 22bd 89e1 8c3d
00000360: 4ca4 103d 79b9 8bbc face 253c 1db3 30bd
00000370: 797f 783c 6443 67bd 172a 403d 2ad6 41bd
00000380: 14e7 0e3e 5c22 ab3c c439 17bd 7f70 2fbd
00000390: 911c 2bbd ace8 2c3c 779a 93bf 0760 b3bc
000003a0: ac23 233e 68b7 883d b011 323e 54f7 59bd
000003b0: 4da1 15bd a43d 143d a9b1 ab3d 8306 9fbe
000003c0: 12b1 843d 5266 993d b3b7 4f3e 3910 9fbc
000003d0: 3901 94bd 2546 50bd 0a50 d23c c1a6 b23d
000003e0: 444c 30bc 73b7 023e 7686 93bc a67a c83d
000003f0: 9332 193e 8fed d33c 0264 c83d c151 5ebe

fc1.bias f4 [400]
-0.088371135 -0.026513431 0.11652949 0.013409426 -0.1581948 -0.17766795 -0.14659019 -0.16600674
-0.18430409 -0.027265882 0.071877696 -0.07421465 0.069278784 -0.03989518 -0.14504333 -0.11160752
-0.09074028 -0.18118659 -0.23915474 -0.07987236 -0.101828784 -0.082074404 -0.078961045 -0.15798199
-0.13172804 -0.111536756 0.026331816 0.07628964 0.14067568 0.017402891 -0.07796387 -0.027680488
0.13974118 -0.05677222 -0.10371751 -0.004899582 -0.084996246 0.08553101 0.12536412 -0.13239412
0.099089555 0.07394743 0.093491994 0.049361 -0.07616132 0.0122454595 0.116757356 0.11124758
0.09100844 -0.063254535 0.006201345 0.22268923 0.078641586 0.15176289 -0.053901315 0.15945828
-0.016057217 -0.0845394 0.03187014 0.16445568 -0.20365036 -0.09465109 0.15636064 -0.076021396
-0.18747187 -0.1362132 0.04949981 -0.14597097 0.059588384 0.038096264 0.055855107 -0.11481025
0.06528399 -0.16977932 0.041655954 0.10807437 -0.18005337 0.010806382 0.12193043 -0.13012333
-0.118775986 -0.049880818 -0.11145357 0.042774174 -0.0195394 0.05647082 0.010759884 0.018499011
0.07140094 -0.14003032 -0.14201957 -0.0076131606 0.08686528 -0.06027258 -0.052953284 -0.080084555
-0.001936378 0.0687631 -0.06445004 0.16309626 -0.080497526 0.22176754 -0.12064384 0.22656998
-0.0010360433 0.10643796 0.08573946 -0.02092543 -0.081634425 -0.21338107 0.019733094 -0.14883922
0.01309827 0.015468652 0.10921306 0.06953624 -0.018132474 -0.056486063 -0.2023097 -0.14176513
-0.33741927 -0.13100506 -0.13608958 0.045910604 -0.17788193 0.06325255 0.09543408 -0.084163986
-0.04369299 0.080724254 -0.20744242 0.121407725 0.11727515 0.024491198 -0.19405372 0.119618535
-0.026263293 0.028734904 0.17023687 0.003054879 -0.007491021 -0.121636674 -0.1095109 0.13752466
-0.13973986 -0.010946811 -0.046328444 -0.07782474 -0.2221415 -0.17815787 -0.09360941 0.010804934
0.10091031 -0.34303126 -0.051621117 -0.24092929 0.21978603 -0.13871771 -0.01645593 -0.02960147
-0.17602794 0.04586771 0.057975195 0.01687017 0.013950842 0.0153566515 0.023126153 0.17789757
-0.0067007667 -0.016255645 -0.07610348 -0.17098388 0.04886593 -0.023086904 -0.14613804 0.10645958
-0.28738272 -0.13348731 0.18545489 -0.11005084 0.059558645 0.07897239 -0.17121774 -0.1550387
0.008153728 -0.16041121 -0.186455 -0.01526759 0.0925479 0.13422456 -0.070688255 -0.093327716
-0.14544179 0.16255578 0.050335415 0.016859468 -0.17760937 -0.4032524 0.12875485 0.0151600875
-0.053466063 -0.110606425 -0.14297804 -0.1490494 -0.2129935 0.00016001114 -0.06793442 -0.09989067
0.030662535 -0.11310807 0.006946294 0.10709442 -0.15503326 -0.3356946 0.025170539 -0.037938718
-0.14468649 -0.08645666 -0.010342638 0.057415202 -0.2752487 -0.16389155 -0.15046859 -0.20554562
0.15819682 -0.053515796 0.17174514 0.06869089 0.06939746 -0.22927292 0.052668072 0.037232168
-0.0039976025 -0.229777 -0.07564251 0.15051521 -0.07310677 -0.10160149 -0.08395371 0.047248557
0.11477214 -0.037008625 0.06982324 0.11131554 -0.10508338 -0.1432923 0.17194092 0.0740232
-0.10975942 -0.30041018 -0.019418268 0.024719413 -0.0822602 -0.07591824 0.1779651 0.1252596
00000000: edfb b4bd b232 d9bc 03a7 ee3d 36b3 5b3c
00000010: d1fd 21be 96ee 35be bd1b 16be acfd 29be
00000020: 36ba 3cbe b35c dfbc 9d34 933d dafd 97bd
00000030: 09e2 8d3d 2169 23bd 3d86 14be 7c92 e4bd
00000040: 0ad6 b9bd fa88 39be fbe4 74be 1f94 a3bd
00000050: 9c8b d0bd a016 a8bd 54b6 a1bd 08c6 21be
00000060: b7e3 06be 626d e4bd d2b5 d73c be3d 9c3d
00000070: 490d 103e 8290 8e3c 85ab 9fbd 31c2 e2bc
00000080: 5018 0f3e fd89 68bd d969 d4bd ac8c a0bb
00000090: 8312 aebd e22a af3d 745f 003e 5392 07be
000000a0: 77ef ca3d c071 973d bb78 bf3d c32e 4a3d
000000b0: 77fa 9bbd 2ea1 483c 7b1e ef3d c5d5 e33d
000000c0: a262 ba3d 988b 81bd a734 cb3b a508 643e
000000d0: d70e a13d bb67 1b3e a0c7 5cbd 0849 233e
000000e0: 6d8a 83bc fe22 adbd 448a 023d 1267 283e
000000f0: b889 50be 6ed8 c1bd 011d 203e 1bb1 9bbd
00000100: a0f8 3fbe 797b 0bbe 50c0 4a3d 6a79 15be
00000110: f312 743d d40a 1c3d 53c8 643d a321 ebbd
00000120: 9db3 853d a1da 2dbe 6f9f 2a3d 1856 dd3d
00000130: e95f 38be 400d 313c a9b6 f93d 0d3f 05be
00000140: d340 f3bd d44f 4cbd c541 e4bd f933 2f3d
00000150: 1711 a0bc f24d 673d 394a 303c 3d8b 973c
00000160: a83a 923d 1c64 0fbe 946d 11be d277 f9bb
00000170: 6de6 b13d 61e0 76bd 8be5 58bd 5f03 a4bd
00000180: 10ce fdba abd3 8c3d 62fe 83bd b502 273e
00000190: e3db a4bd 0817 633e 1e14 f7bd f601 683e
000001a0: d8cb 87ba 25fc d93d 2c98 af3d cf6b abbc
000001b0: f32f a7bd 9180 5abe 4ca7 a13c 4f69 18be
000001c0: 209a 563c 3b70 7d3c 19ab df3d 0469 8e3d
000001d0: 8e8a 94bc ee5d 67bd 462a 4fbe e12a 11be
000001e0: 38c2 acbe 3126 06be 115b 0bbe c20c 3c3d
000001f0: ae26 36be 8e8a 813d f172 c33d 2b5e acbd
00000200: 6cf7 32bd c252 a53d c96b 54be 9da4 f83d
00000210: f42d f03d c4a1 c83c 05b6 46be 90fa f43d
00000220: 1e26 d7bc 7665 eb3c 9352 2e3e 5d34 483b
00000230: 3d77 f5bb a61c f9bd 4047 e0bd 44d3 0c3e
00000240: f717 0fbe 415a 33bc e5c2 3dbd 9462 9fbd
00000250: 1079 63be 046f 36be 4ab6 bfbd 2e07 313c
00000260: 11aa ce3d cba1 afbe aa70 53bd 2bb6 76be
00000270: 970f 613e 040c 0ebe 96ce 86bc c87e f2bc
00000280: ab40 34be c8df 3b3d 6677 6d3d 5033 8a3c
00000290: 1392 643c 779a 7b3c 0f73 bd3c c82a 363e
000002a0: 1b92 dbbb 8f2a 85bc 24dc 9bbd 6616 2fbe
000002b0: a427 483d bf20 bdbc 36a5 15be 7b07 da3d
000002c0: d423 93be e6b0 08be e3e7 3d3e 5662 e1bd
000002d0: c4f3 733d 47bc a13d b453 2fbe 77c2 1ebe
000002e0: 3797 053c d642 24be 0fee 3ebe ea24 7abc
000002f0: c189 bd3d 2a72 093e 01c5 90bd 9a22 bfbd
00000300: b1ee 14be 0675 263e 822c 4e3d de1c 8a3c
00000310: 3bdf 35be 1977 cebe 50d8 033e 0462 783c
00000320: 3bff 5abd 9f85 e2bd d668 12be 68a0 18be
00000330: f81a 5abe aac8 2739 3421 8bbd 7b93 ccbd
00000340: ff2f fb3c 34a5 e7bd bd9d e33b 5254 db3d
00000350: 0ac1 1ebe 2ae0 abbe 7232 ce3c a165 1bbd
00000360: b228 14be 3010 b1bd 2b74 29bc 342c 6b3d
00000370: 66ed 8cbe 30d3 27be 7014 1abe 8d7a 52be
00000380: 59fe 213e 6133 5bbd f5dd 2f3e cfad 8c3d
00000390: 4120 8e3d 85c6 6abe 7aba 573d c280 183d
000003a0: 52fe 82bb a94a 6bbe 76ea 9abd a920 1a3e
000003b0: 01b9 95bd 7114 d0bd ecef abbd b487 413d
000003c0: a80d eb3d 5b96 17bd 7dff 8e3d 67f9 e33d
000003d0: f535 d7bd 37bb 12be 4811 303e 7a99 973d
000003e0: 8cc9 e0bd 5dcf 99be 0f13 9fbc 5e80 ca3c
000003f0: 0978 a8bd 067b 9bbd 7c3c 363e 0d44 003e

fc2.weight f4 [300, 400]
0.09685838 0.00983378 0.065889075 -0.041525517 0.08744462 0.008247545 0.20352772 0.036124002
-0.08375966 -0.047435846 -0.06991762 -0.004453051 0.011538941 0.086503446 0.040731955 -0.09188226
0.010512649 -0.0835783 0.12947641 -0.09040047 0.13385372 -0.009748599 0.049916446 -0.097711295
-0.028318249 -0.0377524 -0.100568525 0.0074172383 -0.052257646 0.010763695 -0.044084378 0.0077504665
-0.1315553 -0.02212389 0.028818775 0.19583681 0.031302385 -0.08034085 -0.06746475 -0.08250738
0.012267431 0.030081112 0.030563038 -0.15305828 0.04447218 0.10532901 -0.018221175 0.0012329449
0.030234812 0.14884795 -0.014912763 0.06149414 -0.121549144 0.045778293 -0.059363168 0.11326873
0.13387471 -0.18325841 0.008883103 0.007979145 0.039865527 -0.06764649 -0.10127145 -0.18356247
-0.1092481 0.050426297 0.035172068 -0.056929458 -0.059504587 0.09970794 -0.026798882 -0.041732326
-0.112975925 0.0032682356 0.027553622 0.03420647 -0.049848612 0.23125885 -0.09534259 -0.24358712
-0.12639372 0.10230683 0.007081144 -0.033933718 -0.019490043 0.042087015 -0.06309503 -0.13426358
-0.11609832 0.018937387 -0.010194371 0.0370426 0.04098414 -0.10534265 0.013481377 -0.04974723
0.010126575 0.13176191 -0.07653664 0.11596689 -0.0054251617 0.041435353 -0.025237182 0.019138832
-0.12509292 -0.12246916 -0.10883232 0.06098892 -0.08438307 -0.15439373 -0.07404111 0.09700192
0.07487838 -0.0012690383 -0.00021287835 -0.05868438 -0.063320525 0.025509657 -0.02070789 -0.005815627
-0.042613745 0.021499312 0.089161046 -0.0497094 -0.021133661 0.12195823 -0.0013666552 -0.029490624
0.054582734 0.15424773 0.10876858 -0.021797625 -0.08333831 0.10604989 0.0054207053 -0.021323616
0.12233969 0.1287629 0.094246455 -0.044655867 0.08098726 -0.07596213 0.11353352 0.08342932
0.060270883 -0.19219008 0.07277168 -0.026473952 0.061267637 -0.10402418 -0.06634808 -0.06586435
-0.0754728 -0.09074503 -0.05837858 0.039021425 0.0014306857 0.030189632 -0.012304693 -0.0078088916
-0.103744455 0.21898223 0.044491805 -0.05696797 -0.078201994 0.13185029 0.08637959 0.1877116
-0.046041857 -0.21949175 -0.028562514 0.10526203 0.017663186 0.005084848 -0.107890494 0.071475714
-0.16389902 0.036924135 -0.10817489 0.09917197 -0.06493795 0.06623439 -0.03834388 -0.16725023
-0.12817822 -0.021480298 0.14871424 0.093782485 0.07287106 0.117494464 -0.022166375 -0.15052839
0.009082042 0.06643528 -0.10654282 -0.06823374 -0.24205169 -0.037002653 0.10641751 0.08914845
-0.0029162653 -0.044040915 0.016494205 -0.12485584 -0.09330616 -0.11461156 0.08627476 0.0077925124
-0.098792896 0.13842562 0.045867924 -0.074495904 -0.22013256 -0.08554833 -0.11349018 0.07125021
-0.09032745 0.07232568 0.015365936 -0.12794302 0.16246538 0.07259133 -0.08807318 0.0009742526
-0.1415721 0.12794764 0.13103041 0.032359663 -0.28484067 0.020578282 -0.08885497 -0.058515184
0.066940494 -0.061890952 0.042465962 0.013627424 -0.10796962 0.042986948 0.099901885 0.0769278
0.0987041 -0.08665449 0.105434805 -0.11032062 0.09888739 -0.31149277 -0.015110606 0.021467756
-0.041412275 -0.088447176 0.027611652 0.26153097 0.032256532 0.03526089 0.007996559 -0.020157555
00000000: b05d c63d dd1d 213c daf0 863d a916 2abd
00000010: 2a16 b33d b620 073c 9269 503e c3f6 133d
00000020: 2f8a abbd 174c 42bd f830 8fbd e6ea 91bb
00000030: d40d 3d3c b828 b13d 8dd6 263d c42c bcbd
00000040: 3f3d 2c3c 1a2b abbd 7795 043e e223 b9bd
00000050: f310 093e 96b8 1fbc 3075 4c3d dc1c c8bd
00000060: acfb e7bc 43a2 1abd dff6 cdbd 4e0c f33b
00000070: 1d0c 56bd 365a 303c d291 34bd a0f7 fd3b
00000080: 6fb6 06be 293d b5bc 5a15 ec3c 7289 483e
00000090: ee36 003d be89 a4bd f52a 8abd a1f9 a8bd
000000a0: 56fd 483c aa6c f63c 565f fa3c 4fbb 1cbe
000000b0: 7628 363d bcb6 d73d 9344 95bc c49a a13a
000000c0: ffae f73c 996b 183e a954 74bc 48e1 7b3d
000000d0: c2ee f8bd 0582 3b3d cb26 73bd 70f9 e73d
000000e0: 7416 093e 18a8 3bbe 6f8a 113c f6ba 023c
000000f0: 094a 233d 3e8a 8abd 6867 cfbd cdf7 3bbe
00000100: 78bd dfbd ce8b 4e3d 9610 103d dd2e 69bd
00000110: 15bb 73bd ad33 cc3d 5489 dbbc 84ef 2abd
00000120: ec5f e7bd e52f 563b 22b8 e13c 151c 0c3d
00000130: 0f2e 4cbd 1fcf 6c3e fa42 c3bd e76e 79be
00000140: 5b6d 01be 3e86 d13d f108 e83b 15fe 0abd
00000150: 95a9 9fbc 6f63 2c3d f837 81bd 647c 09be
00000160: f5c4 edbd 9422 9b3c 4b06 27bc fbb9 173d
00000170: fcde 273d e3bd d7bd fee0 5c3c c0c3 4bbd
00000180: efe9 253c 98ec 063e 3ebf 9cbd 0c80 ed3d
00000190: 8ec5 b1bb 1eb8 293d 35be cebc 0ac9 9c3c
000001a0: 5c18 00be 1cd1 fabd 7be3 debd 85cf 793d
000001b0: 08d1 acbd 6419 1ebe dea2 97bd f1a8 c63d
000001c0: d659 993d dc55 a6ba 1938 5fb9 085f 70bd
000001d0: 31ae 81bd a1f9 d03c 98a3 a9bc 0491 bebb
000001e0: c08b 2ebd 531f b03c 119a b63d 159c 4bbd
000001f0: 8020 adbc 3dc5 f93d 5721 b3ba 5296 f1bc
00000200: 2592 5f3d 1ef3 1d3e 10c2 de3d ef90 b2bc
00000210: 47ad aabd af30 d93d 2ca0 b13b ddae aebc
00000220: 3b8d fa3d 6cda 033e 4904 c13d 12e9 36bd
00000230: a6dc a53d 0992 9bbd 4384 e83d fedc aa3d
00000240: 9ade 763d 7acd 44be 5209 953d e7df d8bc
00000250: c6f3 7a3d a10a d5bd 81e1 87bd e3e3 86bd
00000260: 7c91 9abd 88d8 b9bd 611e 6fbd eed4 1f3d
00000270: d985 bb3a 3f50 f73c a099 49bc bbe1 ffbb
00000280: f977 d4bd e13c 603e 0a3d 363d 3f57 69bd
00000290: 5e28 a0bd c303 073e c8e7 b03d 7837 403e
000002a0: 6396 3cbd 72c2 60be effb e9bc 9f93 d73d
000002b0: 63b2 903c cc9e a63b b1f5 dcbd dc61 923d
000002c0: 25d5 27be c33d 173d cc8a ddbd ac1a cb3d
000002d0: 30fe 84bd e5a5 873d 790e 1dbd a543 2bbe
000002e0: 2741 03be 73f7 afbc 8c48 183e 0811 c03d
000002f0: 6c3d 953d f0a0 f03d 4296 b5bc 1d24 1abe
00000300: d8cc 143c 380f 883d 1f33 dabd 22be 8bbd
00000310: 66dc 77be 1890 17bd 6cf1 d93d 7693 b63d
00000320: d01e 3fbb 3f64 34bd db1e 873c 6bb4 ffbd
00000330: 4d17 bfbd 77b9 eabd d2b0 b03d 5558 ff3b
00000340: ee53 cabd 72bf 0d3e 01e0 3b3d 4f91 98bd
00000350: 6e6a 61be f633 afbd 8a6d e8bd a1eb 913d
00000360: 99fd b8bd 7c1f 943d 68c1 7b3c 7f03 03be
00000370: 535d 263e c3aa 943d b65f b4bd fc64 7f3a
00000380: 47f8 10be b504 033e d62c 063e 918b 043d
00000390: a3d6 91be c993 a83c 98f9 b5bd 9ead 6fbd
000003a0: 1918 893d 5e81 7dbd caf0 2d3d 8f45 5f3c
000003b0: 2d1f ddbd 1513 303d 5c99 cc3d 538c 9d3d
000003c0: 6025 ca3d e977 b1bd 34ee d73d c7ef e1bd
000003d0: 7985 ca3d fb7b 9fbe 7a92 77bc 26dd af3c
000003e0: eb9f 29bd cb23 b5bd d531 e23c 63e7 853e
000003f0: 6d1f 043d b96d 103d 0004 033c 7521 a5bc

fc2.bias f4 [300]
0.055464886 -0.009154018 -0.0030763287 0.031290703 0.14382838 0.006962066 0.05506186 0.120368406
0.08067331 0.088665344 -0.0114675285 0.0317679 -0.17105307 -0.015480931 -0.05899888 -0.017701112
0.011427151 -0.003399312 0.12236739 -0.0044777715 0.03597017 0.00029588153 0.0058360626 -0.020861462
0.096004255 -0.033065483 0.06604865 -0.0689493 0.02673675 0.017129747 -0.03400615 -0.001496876
0.10918161 0.09611479 -0.10235865 0.08446062 0.050269984 -0.0042705527 0.029637499 0.11661536
0.005083072 0.016001532 -0.10459367 -0.0036450103 0.12456369 0.044874325 0.030580798 -0.16724016
0.0078430455 0.008522257 -0.11867704 -0.024171175 0.029394709 0.046213746 0.01855373 0.015091047
-0.09555295 0.00805582 -0.014350277 -0.0030278508 0.032737814 0.07532213 -0.021866305 0.07058083
0.027449798 0.034996197 -0.042404108 -0.011719476 0.06325027 0.071226716 0.07706797 -0.102135815
0.059543096 0.0019106276 0.03509993 0.0029527354 -0.025369346 0.16577387 -0.015630139 -0.094044626
-0.060632076 -0.028167129 -0.04576986 0.030268319 0.033708505 -0.004180787 -0.023019738 -0.019972583
-0.0567833 0.114527866 0.029003028 -0.059425075 0.031080527 0.03744651 0.033257745 0.070389464
-0.009730073 0.10073288 -0.114625886 0.0032003021 0.027133733 0.01721732 -0.04308496 0.029992482
0.029321406 0.003196543 0.03948719 0.040080935 -0.26167858 -0.049177185 0.06503287 0.065914124
0.07368265 0.014204088 -0.0036097826 -0.01142961 0.06452918 0.09802032 0.005260491 0.08104816
-0.11369016 -0.05496341 0.05770512 -0.014094733 0.051277626 -0.15015878 0.045305178 0.0469404
0.08023938 0.07241881 0.014834599 0.008761577 0.053538445 0.0026973295 0.034141984 -0.007600224
0.05489249 0.085331485 -0.0528238 0.044220038 -0.10733435 0.0007145389 0.023538258 0.001909965
-0.03312771 0.042064857 -0.04933385 -0.001459254 -0.13510835 0.043154355 -0.05174022 0.068269774
0.052229367 0.071056165 0.056535475 0.07595873 -0.01453519 0.04818326 -0.04187874 0.08035843
0.08090759 0.05513858 0.04511966 0.009260619 -0.09654813 -0.021511639 0.055827603 0.098524295
-0.12543376 0.029308444 -0.051136687 -0.051106162 -0.011729531 0.029792607 0.07649381 0.043791108
-0.0938924 0.016973484 -0.11601224 0.055353146 0.04198146 0.029935926 0.11726388 -0.011112801
0.043810293 -0.0016463639 0.06172014 0.042218976 0.032777682 0.013911775 -0.073516235 0.0713344
-0.012139311 0.02309113 0.08240461 0.05845612 -0.04526546 -0.008961469 -0.12168959 0.09053255
-0.03530264 -0.059301037 -0.08912488 0.0390087 0.029545859 0.10235548 -0.015206413 0.041124802
-0.07279821 -0.009903526 0.0014781829 -0.012034093 -0.107622445 0.0115055265 -0.046383 0.117858864
0.0474539 -0.0042081694 0.022003416 0.12778392 -0.09041075 -0.11030881 0.0013724323 -0.017013317
0.02612319 0.009387291 -0.04181031 0.03756049 -0.037812117 0.067810126 -0.0018789569 -0.015569819
-0.111093044 0.073199674 -0.043724835 -0.045723267 -0.11858808 0.041904382 -0.020365989 -0.024303274
-0.056320917 0.06244575 0.06682411 -0.03910458 -0.089873284 -0.08303768 0.036799423 0.073205166
-0.009426212 -0.010438276 0.030837879 0.07674369 0.05374271 -0.042220946 -0.096203245 -0.07552492
00000000: 262f 633d bcfa 15bc 3b9c 49bb ae2a 003d
00000010: bf47 133e 0b22 e43b 8b88 613d b683 f63d
00000020: 0c38 a53d 2d96 b53d 4de2 3bbc 0f1f 023d
00000030: 8928 2fbe bba3 7dbc cfa8 71bd ec01 91bc
00000040: f238 3b3c fec6 5ebb c19b fa3d 45ba 92bb
00000050: 7555 133d 8c20 9b39 713c bf3b a8e5 aabc
00000060: e19d c43d ac6f 07bd 8444 873d 4a35 8dbd
00000070: 0707 db3c af53 8c3c 084a 0bbd d332 c4ba
00000080: 9c9a df3d d5d7 c43d 69a1 d1bd b1f9 ac3d
00000090: e6e7 4d3d feef 8bbb 57ca f23c 09d4 ee3d
000000a0: e68f a63b a515 833c 3535 d6bd 20e1 6ebb
000000b0: 3f1b ff3d 24ce 373d 9584 fa3c 0141 2bbe
000000c0: 1e80 003c f0a0 0b3c f30c f3bd a102 c6bc
000000d0: 2ccd f03c a04a 3d3d fefd 973c 7040 773c
000000e0: 44b1 c3bd 8ffc 033c 6d1d 6bbc e86e 46bb
000000f0: 1618 063d 7d42 9a3d f720 b3bc af8c 903d
00000100: 66de e03c 2c58 0f3d eeaf 2dbd 0c03 40bc
00000110: 5c89 813d 50df 913d d0d5 9d3d 952c d1bd
00000120: 76e3 733d 066e fa3a f2c4 0f3d ae82 413b
00000130: 60d3 cfbc a0c0 293e c70a 80bc 789a c0bd
00000140: 5759 78bd c0be e6bc 2d79 3bbd 44f5 f73c
00000150: ee11 0a3d fcfe 88bb e493 bcbc 8b9d a3bc
00000160: 9b95 68bd 968d ea3d c297 ed3c b567 73bd
00000170: 979c fe3c 8361 193d 4639 083d 5a28 903d
00000180: e26a 1fbc 0a4d ce3d fac0 eabd 29bc 513b
00000190: 9047 de3c 560b 8d3c db79 30bd cbb2 f53c
000001a0: 7233 f03c 187d 513b 52bd 213d e82b 243d
000001b0: bcfa 85be 046e 49bd f42f 853d fcfd 863d
000001c0: eee6 963d 43b8 683c 1a92 6cbb 4243 3bbc
000001d0: e027 843d e1be c83d 3260 ac3b 94fc a53d
000001e0: 63d6 e8bd 5021 61bd 345c 6c3d 98ed 66bc
000001f0: 7d08 523d 39c3 19be ec91 393d 9444 403d
00000200: 8b54 a43d 5050 943d d10c 733c b88c 0f3c
00000210: 214b 5b3d aec5 303b 77d8 0b3d 4d0b f9bb
00000220: f3d6 603d 46c2 ae3d c55d 58bd 1220 353d
00000230: 1dd2 dbbd e54f 3b3a 4ed3 c03c ca57 fa3a
00000240: ecb0 07bd 334c 2c3d 4b12 4abd 7044 bfba
00000250: d859 0abe 9fc2 303d 8eed 53bd 06d1 8b3d
00000260: 76ee 553d e585 913d be91 673d 4090 9b3d
00000270: 0125 6ebc cf5b 453d 0b89 2bbd f692 a43d
00000280: e1b2 a53d fed8 613d 65cf 383d dab9 173c
00000290: 07bb c5bd 2d39 b0bc 7cab 643d 1bc7 c93d
000002a0: b571 00be 4318 f03c b474 51bd b254 51bd
000002b0: 382d 40bc a00f f43c c9a8 9c3d 4e5e 333d
000002c0: a94a c0bd fa0b 8b3c d397 edbd fbb9 623d
000002d0: c0f4 2b3d 303c f53c 0c28 f03d 7712 36bc
000002e0: 6c72 333d ceca d7ba 42ce 7c3d ceed 2c3d
000002f0: e441 063d 37ee 633c ae8f 96bd c517 923d
00000300: f6e3 46bc 9c29 bd3c c0c3 a83d af6f 6f3d
00000310: 4668 39bd 20d3 12bc 6438 f9bd 2169 b93d
00000320: 8099 10bd a5e5 72bd 1b87 b6bd 96c7 1f3d
00000330: 280a f23c c09f d13d 5224 79bc 7b72 283d
00000340: 3a17 95bd 6642 22bc 96bf c13a a52a 45bc
00000350: 2869 dcbd ad81 3c3c 1afc 3dbd fd5f f13d
00000360: 055f 423d afe4 89bb 8240 b43c cad9 023e
00000370: 4529 b9bd 96e9 e1bd 30e3 b33a 835f 8bbc
00000380: 4d00 d63c 27cd 193c 4a41 2bbd 07d9 193d
00000390: e1e0 1abd 09e0 8a3d 5547 f6ba 8e18 7fbc
000003a0: c084 e3bd b6e9 953d d018 33bd 5248 3bbd
000003b0: 4fde f2bd eea3 2b3d 93d6 a6bc a917 c7bc
000003c0: c3b0 66bd 1dc7 7f3d 14db 883d 202c 20bd
000003d0: 7c0f b8bd a90f aabd feba 163d 97ec 953d
000003e0: 6670 1abc 4e05 2bbc b89f fc3c cc2b 9d3d
000003f0: 5121 5c3d dfef 2cbd 3506 c5bd cfac 9abd

fc3.weight f4 [4, 300]
0.034549598 0.03528503 0.08554218 -0.25621343 0.1269347 0.14792095 -0.13814047 -0.40076554
-0.48245534 0.13064727 0.0025423772 -0.019801464 0.29539484 -0.02171877 -0.56918633 0.12621215
-0.081544586 0.118755475 0.12465582 0.19844756 -0.21962292 0.35977378 -0.08262696 -0.1371945
-0.071487784 0.09736476 -0.018287707 0.04420829 -0.124997295 0.47975576 0.17762753 0.18527332
0.14720798 -0.016203567 0.030707775 0.12581871 -0.14337994 0.07421248 -0.09827468 -0.10940509
-0.3274397 -0.056113843 -0.022742167 -0.11180154 -0.16631334 -0.31180522 0.21607254 0.35207516
-0.1681426 -0.05434766 0.7088848 -0.09036753 0.25492105 0.115899846 -0.34939474 -0.047451474
-0.1645917 -0.030937888 -0.07947911 0.10909189 -0.24889351 0.027024908 0.14971967 -0.03884175
-0.07796475 0.2239661 0.1926336 0.019107012 0.21016288 0.0642266 0.036553364 0.18241966
-0.44935796 0.052349128 0.20530348 0.2548062 -0.13166909 0.07848293 -0.14110042 0.11634714
-0.017971674 0.3846883 0.3867956 -0.39076692 0.16218856 -0.49341792 -0.13469982 -0.04427957
-0.28363705 -0.027863689 -0.010053606 0.9203705 -0.22270608 0.002958506 -0.17757918 -0.091520846
0.20859411 -0.09471126 -0.31393287 0.16229148 -0.18031403 0.31445748 -0.11436738 -0.26219574
-0.7325386 -0.010032457 -0.31203398 0.34506705 0.8096524 0.09352841 0.08401822 0.4373983
-0.28728223 0.01102605 -0.14971784 -0.44810075 -0.033774808 -0.03595124 -0.012022055 -0.124151535
0.33364645 -0.3150226 0.023912154 0.014658398 0.032876216 0.56732184 0.10330209 -0.03352151
0.11277058 0.15821014 -0.35108265 -0.14706163 -0.24832657 -0.16802901 0.005603983 0.016308993
0.4973477 -0.26319167 -0.3734298 0.120569244 -0.32074395 0.8171605 0.014404518 -0.28829074
0.404235 -0.25893134 -0.07409455 -0.26916307 -0.09587674 -0.12938072 -0.42280522 0.13109575
-0.19839948 0.023416145 0.07473131 0.14516534 0.3459342 -0.10870131 0.28417736 -0.20778298
-0.18972662 -0.13252562 -0.05321296 0.1953098 0.27244416 -0.047597338 -0.19213192 -0.06942992
0.07784948 0.09785646 0.36863294 0.22729138 -0.4502244 0.19951537 -0.57495666 -0.050781973
0.4849057 0.04353823 0.142552 -0.07026759 -0.09260379 0.12890969 -0.0008053292 -0.28163505
-0.059670854 -0.035624 0.9341467 0.04246484 -0.4223637 0.39070103 0.19781318 0.056596696
-0.6813931 -0.07113892 -0.3416513 0.045687694 -0.48872426 -0.16209663 -0.057678893 -0.27004236
-0.027304059 0.34575438 0.3332068 -0.32561108 -0.0718283 -0.018773157 0.41465524 -0.27605656
0.05114869 0.005797635 0.092202865 0.29579574 -0.1285949 0.025096023 0.13176192 0.08923294
0.18879472 -0.30295366 0.12797618 0.20136435 -0.14582837 -0.27704343 0.40161002 -0.39539278
0.17478965 -0.054074008 0.11967757 -0.3119103 0.2717675 -0.45755935 0.08295176 -0.014913349
0.5070287 -0.14549568 -0.01239887 0.09207842 -0.21472174 -0.08038678 -0.19323671 0.06349176
-0.0702504 -0.6596847 -0.14557934 -0.091493614 -0.53503644 0.19548155 0.28518474 -0.4054534
-0.40511176 -0.0887119 0.13744742 -0.11900268 0.4359173 0.47750774 0.22369374 0.17404859
00000000: e183 0d3d 0987 103d bd30 af3d 682e 83be
00000010: 2cfb 013e 9778 173e b274 0dbe 2431 cdbe
00000020: 6304 f7be 66c8 053e 039e 263b ae36 a2bc
00000030: fe3d 973e 90eb b1bc 32b6 11bf c23d 013e
00000040: d900 a7bd 1236 f33d 8d4b ff3d d635 4b3e
00000050: d5e4 60be 4534 b83e 5338 a9bd b77c 0cbe
00000060: 3068 92bd 2d67 c73d 1ad0 95bc c013 353d
00000070: 95fe ffbd 8ca2 f53e fee3 353e 4ab8 3d3e
00000080: b0bd 163e 58bd 84bc df8e fb3c 9fd6 003e
00000090: 31d2 12be b6fc 973d 3c44 c9bd c70f e0bd
000000a0: 2da6 a7be a1d7 65bd c84d babc 35f8 e4bd
000000b0: 0b4e 2abe efa4 9fbe 1f42 5d3e 3243 b43e
000000c0: 932d 2cbe a79b 5ebd 7979 353f 9d12 b9bd
000000d0: 0385 823e e65c ed3d dee3 b2be 7a5c 42bd
000000e0: ba8a 28be 7471 fdbc f2c5 a2bd 926b df3d
000000f0: f1dd 7ebe 5763 dd3c 1d50 193e 8718 1fbd
00000100: fcab 9fbd 5f57 653e be41 453e 4f86 9c3c
00000110: f034 573e 3c89 833d fbb8 153d 38cc 3a3e
00000120: 3f12 e6be 0a6c 563d 133b 523e f575 823e
00000130: 43d4 06be a9bb a03d a17c 10be 6947 ee3d
00000140: 5539 93bc ddf5 c43e 130a c63e 9a12 c8be
00000150: c214 263e 46a1 fcbe c0ee 09be 7f5e 35bd
00000160: e038 91be 6442 e4bc e1b7 24bc 679d 6b3f
00000170: 100d 64be 7fe3 413b 51d7 35be 486f bbbd
00000180: b299 553e faf7 c1bd cfbb a0be bd2f 263e
00000190: 3ea4 38be 9200 a13e 7239 eabd 853e 86be
000001a0: a687 3bbf 2d5f 24bc ebc2 9fbe a1ac b03e
000001b0: 6145 4f3f d38b bf3d bf11 ac3d acf2 df3e
000001c0: a816 93be 9ba6 343c a24f 19be 766d e5be
000001d0: 7457 0abd 9c41 13bd 27f8 44bc 2943 febd
000001e0: b5d3 aa3e a44a a1be 6ce3 c33c c729 703c
000001f0: 36a9 063d 013c 113f 0c90 d33d da4d 09bd
00000200: 43f4 e63d d701 223e 1bc1 b3be 5397 16be
00000210: 5249 7ebe cc0f 2cbe 9ea1 b73b 709a 853c
00000220: 5ca4 fe3e 0fc1 86be 3132 bfbe 02ed f63d
00000230: 8d38 a4be 6e31 513f ed00 6c3c d89a 93be
00000240: e4f7 ce3e a692 84be e2be 97bd becf 89be
00000250: 065b c4bd 617c 04be ed79 d8be f73d 063e
00000260: 3c29 4bbe 37d3 bf3c bb0c 993d 39a6 143e
00000270: 4a1e b13e cb9e debd b27f 913e 10c5 54be
00000280: b247 42be ccb4 07be d5f5 59bd 4bff 473e
00000290: cd7d 8b3e 6df5 42bd 3bbe 44be 4631 8ebd
000002a0: 8c6f 9f3d f868 c83d 75bd bc3e 12bf 683e
000002b0: d083 e6be c24d 4c3e 5c30 13bf c200 50bd
000002c0: 8f45 f83e 2555 323d 27f9 113e 74e8 8fbd
000002d0: 0ea7 bdbd e700 043e ba1c 53ba 7832 90be
000002e0: 6d69 74bd 79ea 11bd 3d24 6f3f 9def 2d3d
000002f0: 0e40 d8be f709 c83e 8a8f 4a3e f0d1 673d
00000300: c76f 2ebf 48b1 91bd ebec aebe 0523 3b3d
00000310: 113a fabe a9fc 25be b440 6cbd fe42 8abe
00000320: c3ac dfbc b806 b13e 159a aa3e 7fb6 a6be
00000330: b71a 93bd 2aca 99bc b14d d43e 4957 8dbe
00000340: 4a81 513d 16fa bd3b dbd4 bc3d 8a72 973e
00000350: 62ae 03be 2d96 cd3c 99ec 063e c2bf b63d
00000360: 6753 413e be1c 9bbe 300c 033e 7532 4e3e
00000370: 0854 15be a3d8 8dbe d49f cd3e ec70 cabe
00000380: 0ffc 323e b57c 5dbd 8419 f53d b5b2 9fbe
00000390: 1c25 8b3e 3845 eabe 9de2 a93d 1f57 74bc
000003a0: a2cc 013f d2fc 14be a124 4bbc 9c93 bc3d
000003b0: 04e0 5bbe d3a1 a4bd d8df 45be f807 823d
000003c0: 71df 8fbd 19e1 28bf c012 15be 0161 bbbd
000003d0: 26f8 08bf 512c 483e bc03 923e 9797 cfbe
000003e0: cf6a cfbe 96ae b5bd 04bf 0c3e adb7 f3bd
000003f0: 8d30 df3e e57b f43e f90f 653e cb39 323e

fc3.bias f4 [4]
-0.060623176 0.05400041 0.031226613 0.006392355
00000000: 0250 78bd 892f 5d3d f4ce ff3c f676 d13b
