checkpoints/checkpoint_actor_2600.pth (torch, 542663 bytes, 6 tensors)

fc1.weight f4 [400, 33]
000000 63 28 8d bc 83 84 3a 3e db f2 a3 bc cc a4 9c 3d
       -0.017231172 0.18214612 -0.020013263 0.0764862
000010 95 da 87 3d e3 64 6f 3d 93 d5 1d 3d 7f a9 31 be
       0.06633488 0.058445822 0.03853376 -0.17349814
000020 74 ca da bd 54 e9 4f be 08 a7 94 be d3 f6 aa 3d
       -0.10683146 -0.20303851 -0.29033685 0.08347859
000030 ad c7 53 3d db bd 75 3c 82 84 60 3d b8 65 cc 3c
       0.051704098 0.014998878 0.05481387 0.024950847
000040 78 5e 1f 3d 7c db a1 bc 75 6c 34 bd 2f 65 9d bc
       0.03890845 -0.019757979 -0.044048745 -0.019213287
000050 d4 6c 9d 3d 57 45 9d bd 9d e5 3b bd f5 a9 38 bd
       0.07686773 -0.07679241 -0.045873273 -0.04508396
000060 bf ea 38 bd 71 b4 de bd a5 60 fb bc 0d 4e 1a bc
       -0.045145746 -0.1087426 -0.030685732 -0.009418023
000070 7a 27 e3 3c c9 65 4b 3d ee 60 bc 3b b7 4f ea bc
       0.027728785 0.049657617 0.0057488596 -0.028602464
000080 0e e9 d0 3e 81 e2 94 be ee 0a cb bd a5 95 21 bc
       0.40802807 -0.2907906 -0.09914194 -0.009862338
000090 54 15 05 3d 35 17 07 3d 62 c9 d4 bc 1f 5f ac bd
       0.032491043 0.032981116 -0.025974933 -0.084165804
0000a0 f0 80 a2 3d b0 e5 28 3d 2b 25 01 bd 4a c4 db bd
       0.07934749 0.041234672 -0.031529587 -0.107307985
0000b0 31 33 8e bc 4a 3c 94 3d ad 88 2f bd 21 06 8f 3d
       -0.017358394 0.07238062 -0.042854954 0.06983591
0000c0 f3 ee 28 3d 2b 60 16 3d 10 91 65 bd 71 7a 3a bc
       0.041243505 0.036712807 -0.056046546 -0.011381731
0000d0 da c3 a7 3d 9b 4e 47 3c 9a 60 57 bd b4 35 9b 3d
       0.081916526 0.012164737 -0.05258236 0.075786024
0000e0 85 73 47 3d 24 57 7d bd 6e a9 51 bb ef e6 eb bd
       0.048694152 -0.061850682 -0.0031991857 -0.115186565
0000f0 c4 e8 70 bc 4c bc 43 bc c3 af 28 bd 15 3a 64 3d
       -0.014703933 -0.011946749 -0.041183244 0.055719454
000100 ec 03 3b bc 55 4d af 3e d4 47 23 3e de 51 3e 3d
       -0.011414509 0.34238687 0.15945369 0.046464793
000110 bd 95 12 be b7 03 27 bc ec 65 b1 bc 45 ee 99 3d
       -0.14314933 -0.010193757 -0.021655045 0.075161494
000120 76 d8 38 3d a1 23 05 3b 36 70 0b bc 34 aa 69 bd
       0.04512831 0.0020315426 -0.00851064 -0.057047084
000130 ab fd d7 3c f3 21 dd bc 22 53 40 bc ee 7a cd bd
       0.026366076 -0.026993727 -0.01173857 -0.100332126
000140 73 44 a1 3d 04 2f b3 3c ac c2 a5 3c bb cd 6f 3c
       0.07874384 0.021873005 0.020234428 0.014636452
000150 b0 9b 8a 3d cb 09 69 bd 95 fb 15 3e 9c 8c c9 bb
       0.06767976 -0.056894105 0.14646752 -0.006150795
000160 62 32 8f bd a5 40 02 be 63 29 45 bc fa cd 8c bd
       -0.06992032 -0.12719972 -0.012033793 -0.068752244
000170 12 ff dd bd 89 8b e0 3c 37 03 f9 3c ec d4 0b bd
       -0.108396664 0.027410286 0.03039704 -0.034138605
000180 9f 11 b6 bd 2b b2 3c 3d a4 f1 23 bf 7b 15 f1 bd
       -0.0889008 0.04606835 -0.6404059 -0.11771675
000190 fd d5 ee 3d 51 0b 2b 3d d6 b5 59 bd e3 2c 59 bd
       0.11661909 0.04175884 -0.053151928 -0.053021323
0001a0 82 05 01 3b 62 27 46 3d ae a5 95 bc 58 5f 12 be
       0.001968712 0.048377402 -0.018267479 -0.14294183
0001b0 59 eb 45 bc 22 9c 5f bd 81 e2 91 3d d8 18 85 bd
       -0.012080037 -0.05459226 0.0712328 -0.06498879
0001c0 91 4b 85 3d 8f b5 85 3c 4d ef 2f 3d a2 c0 ea bc
       0.06508554 0.016321925 0.042952824 -0.028656308
0001d0 9c dd 1b 3c 81 0a 8e bb 90 80 bb 3c c3 61 b9 3c
       0.009513285 -0.0043347483 0.022888452 0.022629624
0001e0 00 14 62 bc 03 ce c2 bc b6 91 54 3d 1e aa b7 3a
       -0.013798714 -0.023779875 0.051896773 0.0014012491
0001f0 fb 40 94 3d b1 25 63 bd c9 6e ac 3c 12 01 ed 3d
       0.072389565 -0.055455867 0.02104892 0.1157247
000200 00 58 54 b8 13 4f 75 bd 80 03 08 ba 50 2e 67 bf
       -5.0626695e-05 -0.059889864 -0.000518851 -0.9030504
000210 35 38 32 3e db 88 1b 3e cc 90 68 3e c9 de af bc
       0.17404254 0.15188925 0.22711486 -0.021468537
000220 a2 0e a3 3b 5c ec 0c 3d 6c e2 9d 3d e4 3d 1e 3d
       0.0049761096 0.034405097 0.07709202 0.038633242
000230 e4 0a cb bd 5c 9c 27 3b ff 2b 76 3d 38 97 09 3e
       -0.099141866 0.0025575375 0.06010055 0.13436592
000240 3f 5e 95 b9 0a 83 ab bd 58 8e ac bd ab bb ed bd
       -0.00028489713 -0.08374603 -0.084255874 -0.116080604
000250 bd 9d fc 3d 58 0d 6f 3d 3f 8f bf 3d c6 c0 ad 3c
       0.12334774 0.058362335 0.09353494 0.021210086
000260 fb 88 93 bd 0c 89 bb 3d 50 a0 40 bc 1f 81 39 3b
       -0.07203861 0.09156999 -0.0117569715 0.0028305722
000270 04 2f a4 3b 23 fc 83 bd 4a cb d6 bd a5 f4 17 3c
       0.0050104875 -0.06444576 -0.10487993 0.009274636
000280 51 30 f1 bd e0 80 1b bd e1 30 0e bd 68 c4 19 bc
       -0.11776794 -0.0379647 -0.034714583 -0.009385206
000290 83 64 f5 bd b4 9c 9b 3d 09 20 e9 bc 7f 45 9b 3d
       -0.11982062 0.07598248 -0.028457658 0.07581615
0002a0 4e 9c 09 bc 74 c8 dd bd 96 07 9c 3d 35 b6 b2 3d
       -0.008399082 -0.10829249 0.076186344 0.087261595
0002b0 f8 cd 32 bd c8 66 d6 bd f9 7b 80 3d 5b 7c a9 bb
       -0.04365346 -0.10468823 0.06273646 -0.005172295
0002c0 f7 22 5b bd 8f a2 8e bd a9 12 2a be 1f a8 37 3e
       -0.053500142 -0.06964599 -0.16608681 0.17935227
0002d0 8b 3b 48 be 1a 24 90 bd cc 73 28 bc 67 e8 bc 3b
       -0.19553964 -0.07038136 -0.010281514 0.005765009
0002e0 9e d9 46 3d ac 35 59 bd 00 7b 61 bd 92 bc 43 3d
       0.04854738 -0.0530297 -0.055048943 0.047787257
0002f0 3c 01 74 bd 80 b9 01 3e 54 44 59 bd 76 5d ab 3d
       -0.05957149 0.12668419 -0.05304368 0.08367436
000300 87 4b 87 3d 0c 24 e2 3d 89 27 40 3d ab 84 a6 bc
       0.066062026 0.11042032 0.046912704 -0.020326933
000310 c0 3e 71 3a f2 29 c5 bd 13 a3 02 3d fb 6f 85 3c
       0.0009202771 -0.09627141 0.0318938 0.016288748
000320 20 9f 15 3d 6b ef ae ba 95 43 2a 3c ca 6a 05 3c
       0.036528707 -0.0013346499 0.010392089 0.008143136
000330 16 e2 83 bd ee 57 0a 3c 4f 29 3b bd 2e ab 13 3d
       -0.06439607 0.008443816 -0.04569369 0.03605192
000340 a9 ad 0e 3d 94 c8 08 3c 87 6e 9e bc 13 88 c1 bd
       0.034833584 0.008348603 -0.019339813 -0.09449782
000350 59 4d 03 bd 41 77 11 be b5 b4 0a bc 07 4b 8f 3d
       -0.032056186 -0.14205648 -0.0084659355 0.06996732
000360 76 6a 43 3c e9 e6 d5 bc 00 25 26 bc 6a 75 31 bb
       0.011927238 -0.026111083 -0.010140657 -0.002707804
000370 91 4a 14 3d 8c 5a 75 bd 65 92 71 3c 67 9c 9a bd
       0.036203925 -0.059900805 0.014744376 -0.07549363
000380 fc 45 12 3e 30 74 bc bc a0 95 40 bd 7f 70 2f bd
       0.1428451 -0.023004621 -0.047017694 -0.042831894
000390 cc e7 0a 3b ac e8 2c 3c 7d 8a 9b bf a0 7f 76 38
       0.002119529 0.01055352 -1.2151638 5.876983e-05
0003a0 86 23 70 3e e8 ca de 3d 33 a0 da 3d 56 40 91 bd
       0.23451051 0.10878545 0.10675087 -0.07092349
0003b0 2e 25 cd bc 51 d6 18 3d f9 d1 dc 3d 59 e7 85 be
       -0.025042143 0.037313763 0.107822366 -0.26153067
0003c0 89 12 89 3d fb 12 80 3d 87 21 8e 3e 42 2c 9c bc
       0.066929884 0.0625362 0.27759954 -0.019064073
0003d0 27 ac 76 bd 53 ea cb bc 77 10 e6 3c 77 9a 20 3e
       -0.06022277 -0.024892008 0.028084023 0.15683924
0003e0 ad af 10 bd b6 ed 17 3e 45 f9 04 3c f2 19 95 3d
       -0.035323787 0.14836773 0.008116071 0.07280339
0003f0 ee 4c 9a 3d 9a fd 66 bc 14 9b b1 3d 1c 12 87 be
       0.075342044 -0.014098549 0.08672157 -0.26381004

fc1.bias f4 [400]
000000 b5 72 b7 bd 38 fa 12 bd 79 aa dc 3d fd 27 8e bc
       -0.089574255 -0.03588316 0.107747026 -0.017353052
000010 57 6a 13 be 6e 4a 4c be ce 51 d2 bd bb 51 4c be
       -0.14396034 -0.19950268 -0.10269509 -0.19953053
000020 c2 3b 46 be ae 1f 5b bd 6f ad 3a 3d 59 fc ae bd
       -0.19358733 -0.05349701 0.045575555 -0.08544225
000030 31 60 3e 3d 0e f6 ec bc 57 41 15 be b6 35 17 be
       0.046478454 -0.028925922 -0.14575706 -0.14766583
000040 2b 32 c8 bd 12 0c 2d be b8 f9 80 be e0 eb be bd
       -0.09775194 -0.16899136 -0.2519052 -0.09322333
000050 98 4d f6 bd a8 1e 9a bd c3 71 e7 bd a3 2b 20 be
       -0.120265186 -0.075253785 -0.11300995 -0.15641646
000060 34 dc 02 be 26 03 e1 bd 9e cb 9c 3c 3a d3 95 3d
       -0.12779313 -0.10986929 0.019140061 0.07315679
000070 a3 b3 f6 3d ad 2d fe 3c 62 bb e1 bd 41 4d fa bc
       0.12045982 0.03102764 -0.110220686 -0.030554416
000080 ac 87 ee 3d 15 dc 86 bd 32 8b fe bd 5d 30 80 bc
       0.11646971 -0.06584946 -0.12428893 -0.015648061
000090 06 07 a7 bd 49 99 6a 3d 92 f4 df 3d 30 cf 04 be
       -0.081556365 0.05727509 0.1093532 -0.12969661
0000a0 24 ca c3 3d 12 61 8a 3d d5 00 9a 3d 0c 19 48 3d
       0.0956004 0.06756796 0.0751969 0.04885201
0000b0 c4 4a a2 bd a2 48 b4 bc ab f1 00 3e 34 ee 9e 3d
       -0.07924417 -0.02200729 0.12592189 0.077602774
0000c0 5a 17 89 3d e5 ff 93 bd 30 39 78 3c 58 47 43 3e
       0.06693907 -0.072265424 0.015150353 0.19070184
0000d0 c2 f7 f3 3d 21 be 1d 3e e2 6d ce bd cc fa 26 3e
       0.119124904 0.1540456 -0.10079552 0.16306609
0000e0 94 c4 f1 bc 53 01 90 bd 5f 3b 0a 3d 45 84 37 3e
       -0.029512681 -0.070315026 0.033748027 0.1792155
0000f0 fe 89 7c be 08 39 ae bd 88 ea 04 3e 26 33 78 bd
       -0.24662015 -0.085069716 0.12980092 -0.060595654
000100 25 da 4c be 87 05 0f be f5 7f 4b 3c 59 f7 16 be
       -0.2000509 -0.13966952 0.012420644 -0.14742793
000110 3f a9 a1 3d 77 c6 d8 3c dd 6c 3b 3d 93 1b dc bd
       0.07893609 0.026461823 0.045758117 -0.10747447
000120 dd 5e bc 3d 30 08 2d be 13 a0 70 3d cf 85 ec 3d
       0.09197781 -0.16897655 0.05874641 0.115489595
000130 7b e1 3b be 0b b8 7e bc cd d1 c4 3d bc 48 e7 bd
       -0.18347733 -0.015546809 0.09610329 -0.1129317
000140 36 d6 d3 bd 61 f2 8d bd 7b 15 0e be 45 50 df 3c
       -0.10343592 -0.06930996 -0.13875382 0.027259955
000150 15 41 54 bc df 37 84 3d 4b f6 d9 3c 7b d8 a8 3c
       -0.01295497 0.06455969 0.0266067 0.020611038
000160 1c eb 6d 3d 71 bf 37 be 91 00 35 be 14 ac 32 bd
       0.058085546 -0.17944123 -0.17675997 -0.043621138
000170 ac a6 0e 3d 6f 05 8d bd 4b 08 7e bd 60 39 a6 bd
       0.03482692 -0.06885802 -0.062019628 -0.08116412
000180 1b 44 7c bc 26 03 5e 3d 7c 31 84 bd 62 2e 34 3e
       -0.015397097 0.05420222 -0.06454751 0.17595819
000190 2b 5e af bd 3e 17 42 3e f8 ab f0 bd b5 8c 6a 3e
       -0.08562883 0.18954179 -0.117515504 0.22905238
0001a0 10 79 97 3b 1c 3f d8 3d 4e a0 b8 3d 1f 2c 3f bd
       0.004622586 0.10558912 0.09014951 -0.046672937
0001b0 d9 7d ce bd 6a 06 56 be ec 85 fa 3c 31 e4 20 be
       -0.10082597 -0.20900884 0.030581437 -0.15712048
0001c0 df f2 b2 3b d6 4e 77 3c de ca d6 3d 98 83 86 3d
       0.0054610814 0.01509448 0.104879126 0.06568068
0001d0 bf 13 57 bd de 25 fe bc a6 3f 40 be c8 d7 15 be
       -0.052509066 -0.031023916 -0.1877428 -0.14633095
0001e0 cd 24 c0 be bd 71 fa bd d8 dc 0d be 29 dd 4f 3d
       -0.37528077 -0.12228725 -0.13853776 0.050748024
0001f0 d0 91 1d be 4b 27 6f 3d 8f e9 8d 3d 44 a2 ab bd
       -0.15387654 0.058387082 0.069293134 -0.08380559
000200 ef fd 8b bd 95 4a a6 3d 4f ef 59 be ce c5 f2 3d
       -0.06835543 0.08119694 -0.21282695 0.118541345
000210 ce 7a d7 3d 1a 5d 0b 3c ca 2d 4d be 7e b2 a4 3d
       0.1052147 0.008506084 -0.20036998 0.08041857
000220 c7 f9 ac bc 72 0b e1 3c 0b b1 24 3e 1d 84 f8 bb
       -0.021115197 0.027471278 0.16083162 -0.0075841085
000230 e0 f1 40 bc 5e a8 09 be fe bf a8 bd 27 71 0b 3e
       -0.0117764175 -0.13443133 -0.082397446 0.13617383
000240 42 f8 11 be 0a 72 02 bd 7d e8 8c bd b6 8f d9 bd
       -0.14254859 -0.031847037 -0.06880281 -0.10623114
000250 12 16 6a be 09 47 21 be 10 ed bc bd de 3d d1 3a
       -0.22859982 -0.15749754 -0.092249036 0.0015963872
000260 9f 07 a0 3d 02 33 a9 be a7 c2 87 bd 5a d1 4a be
       0.078139536 -0.33046728 -0.06628924 -0.19806424
000270 68 97 5b 3e 4b 20 2b be 35 44 1f bc 4e a4 a7 bc
       0.21444476 -0.16711538 -0.009720852 -0.020464089
000280 89 2b 4e be b4 1c 74 3c bf 83 d0 3c 13 12 89 3b
       -0.20133795 0.0148994215 0.025453446 0.004183063
000290 41 85 05 3c dc 9e 62 bc 32 55 2c 3c 51 53 3e 3e
       0.008149446 -0.01383182 0.010518359 0.1858647
0002a0 39 ec 88 3b 18 11 e0 bc 57 b0 2f bd 4d 9c 3a be
       0.0041785506 -0.027351901 -0.04289278 -0.18223687
0002b0 39 4d 6a 3d 2c 70 77 bd 61 c9 19 be 63 72 d5 3d
       0.05720255 -0.06040971 -0.15018226 0.10422208
0002c0 a5 43 95 be d9 68 15 be 82 05 25 3e d4 69 18 be
       -0.2915317 -0.14590777 0.16115382 -0.1488412
0002d0 73 60 95 3d 80 3d 91 3d c3 7b 23 be c8 29 2c be
       0.07293787 0.07091808 -0.1596518 -0.16812813
0002e0 dc 85 69 ba fe eb 42 be ec 42 68 be f1 89 07 bd
       -0.0008908191 -0.19035336 -0.22681779 -0.033090536
0002f0 94 2e 9f 3d e0 c2 df 3d 3b 30 c7 bd 33 42 f2 bd
       0.07772556 0.10925841 -0.09725996 -0.11829033
000300 68 cd 5f be 8d 47 1e 3e 50 db 30 3d 2b 1d a3 3c
       -0.218557 0.15456982 0.043177903 0.01991137
000310 dd 64 48 be d5 1e ca be 70 34 e5 3d d5 c3 20 bb
       -0.19569726 -0.39476648 0.11191642 -0.0024530787
000320 d9 9a 82 bd 73 a4 00 be 68 c8 1a be a4 01 10 be
       -0.06377191 -0.12562732 -0.15115511 -0.14063126
000330 00 d7 76 be 88 bc a5 bc 0c d1 5f bd f1 55 a9 bd
       -0.24105453 -0.0202315 -0.054642722 -0.08268345
000340 9a 58 9b 3c 9d 52 26 be da 43 11 bd 22 d3 f5 3d
       0.018963147 -0.16242452 -0.0354651 0.12003161
000350 88 c8 09 be 0a 33 a0 be 0a bd 29 3d 4c b0 1c bd
       -0.13455403 -0.3128894 0.041440047 -0.038254067
000360 9d 92 25 be 5b a9 c5 bd 3d 3d 00 bd 14 a3 a1 3d
       -0.1616921 -0.096514426 -0.0313084 0.07892433
000370 a1 65 90 be f1 56 50 be f6 53 3e be d0 48 5d be
       -0.28202537 -0.20345666 -0.18586716 -0.21609807
000380 5b e6 29 3e 0f 02 9a bd d5 c4 24 3e a8 0b 62 3d
       0.1659178 -0.07519924 0.1609071 0.055186898
000390 8d a9 86 3d 81 6c 63 be 39 7c 0a 3d aa 8a ce 3c
       0.06575308 -0.2220936 0.033809874 0.025212605
0003a0 dd e6 2b bd 59 3b 74 be 04 0f 9a bd b6 02 1a 3e
       -0.041968215 -0.23850764 -0.07522395 0.15040097
0003b0 26 76 c3 bd 52 a8 ee bd 3f 1a de bd 1d a3 02 3d
       -0.095440194 -0.11653198 -0.1084485 0.03189384
0003c0 35 5b ea 3d 2a cf 3b bd 30 4e 22 3d a1 c3 00 3e
       0.114431776 -0.045851864 0.039625347 0.12574627
0003d0 b3 d3 ac bd 6e 54 06 be ec 77 31 3e d7 0d b6 3d
       -0.08438816 -0.13118145 0.17330903 0.088893585
0003e0 60 15 ea bd 00 de 9a be a7 f5 b0 bc e8 83 77 3c
       -0.11429858 -0.30247498 -0.021601511 0.0151071325
0003f0 63 aa 92 bd 32 41 a1 bd e8 26 38 3e aa 81 c4 3d
       -0.07161405 -0.07873763 0.17983592 0.09595044

fc2.weight f4 [300, 400]
000000 74 62 c8 3d 13 e1 05 3c 8a 74 65 3d a5 eb 1d bd
       0.097844034 0.008171338 0.056019343 -0.038554806
000010 94 46 98 3d 21 fb 50 bd f3 e2 3c 3e b4 05 8f 3d
       0.07435337 -0.051020745 0.1844595 0.0698351
000020 22 57 e9 bd 76 d7 88 bd 32 e6 da bd 4c bc af 3b
       -0.113935724 -0.06681721 -0.106884375 0.005363023
000030 58 21 e4 bd 95 fa ab 3d 1d 0f fc 3c df 61 5f bd
       -0.11139172 0.08397404 0.030768925 -0.054536697
000040 9a 83 29 bb 7b c8 a8 bd 06 bc c6 3d 5f 6c 21 bd
       -0.0025865794 -0.082413636 0.097038314 -0.03940999
000050 19 d7 0d 3e af 69 5b 3b 0f 4f 84 3c 37 55 a0 bd
       0.13851584 0.003347974 0.01615098 -0.078287534
000060 04 c6 85 bc df 87 24 bd bc 43 d7 bd 5b e1 3e bc
       -0.016329773 -0.04016864 -0.10510966 -0.011650409
000070 45 44 ac bc ad 11 51 3c 06 63 d9 bd ed 09 29 3d
       -0.021028647 0.012760562 -0.1061459 0.04126923
000080 08 2d 24 be 5d 79 8b bd 50 c0 31 3d 51 25 37 3e
       -0.16032803 -0.068102576 0.043396294 0.17885329
000090 c3 1c e3 3c 5d a8 d4 bd 04 d1 88 bd 30 55 5e bd
       0.027723676 -0.10383675 -0.066804916 -0.05428046
0000a0 e6 83 8e bc 0f 66 70 3d d4 76 3d bb 49 0e 50 be
       -0.017396878 0.05869108 -0.0028909938 -0.2031795
0000b0 32 9a dd bc c3 8d 1a 3e 61 a3 87 bd 24 bb d5 3c
       -0.027051065 0.1509314 -0.06622959 0.026090212
0000c0 16 3d 95 3d 43 e5 1a 3e 41 0a 9c bd 83 2e b8 3c
       0.07287042 0.15126519 -0.07619143 0.022483116
0000d0 cc ea 23 be e2 b9 88 3c 0e 39 cb bd 1e 4c e7 3d
       -0.16007537 0.016690198 -0.09922992 0.11293815
0000e0 24 2a 00 3e 36 8a 2b be a8 33 eb 3c 75 80 1c bd
       0.12516075 -0.16751942 0.028711155 -0.038208444
0000f0 6a 7c 00 3d dc 8c 9a bd ae e4 08 be 10 7d ff bd
       0.03136865 -0.07546398 -0.13368484 -0.12475026
000100 0a 95 06 be 66 41 92 3d 4a 64 b3 3c 7c dd f9 bd
       -0.13142791 0.0714138 0.021898407 -0.12200448
000110 9d 8a 97 bc bc c0 8e 3d 06 a6 89 bd 69 36 64 bd
       -0.018498713 0.06970355 -0.067211196 -0.055715952
000120 c2 b7 dc bd 4c 3e 3a bd b3 3a 3e 3d 31 e4 3e 3d
       -0.107772365 -0.045469567 0.0464427 0.04660434
000130 67 c5 9b b9 32 76 58 3e 57 c1 bc bd 93 e4 9e be
       -0.0002971098 0.21138838 -0.09216564 -0.31033763
000140 70 f0 cd bd f8 5e dd 3d cd b6 e5 bb f4 2e c7 3c
       -0.100556254 0.108091295 -0.007010317 0.024314381
000150 6b 1d 93 3c fb b7 b4 3d 41 31 fa bd d4 33 19 be
       0.017958364 0.08824154 -0.12216426 -0.14961177
000160 45 37 96 bd 90 35 47 3d a4 6f 07 bb 7a 8d 06 3d
       -0.073347606 0.048635066 -0.0020665908 0.032849766
000170 ee 9e 5b 3d cf 4b 1f be 1b 54 fd 3b 26 8a 65 bd
       0.053618364 -0.15556262 0.0077309734 -0.05603995
000180 97 e0 7e 3c b1 65 01 3e 80 82 d0 bd 28 ff ee 3d
       0.015556476 0.12636448 -0.10181141 0.11669761
000190 97 7a 94 bd 75 c4 42 3d c5 db 00 be 45 97 8b 3c
       -0.07249945 0.047550637 -0.12583835 0.017039904
0001a0 38 75 9f bd a9 2e e4 bd 4a e8 81 bd 00 64 64 3d
       -0.077860296 -0.11141712 -0.06343134 0.05575943
0001b0 aa 6b c9 bd 63 55 ff bd 7e 2b 17 bd db ac 68 3d
       -0.098349884 -0.12467458 -0.03690671 0.056805473
0001c0 e1 dd f8 3d b1 4a 85 3c 07 49 14 bd 30 04 9c bd
       0.12151695 0.016270967 -0.036202457 -0.07617986
0001d0 43 1b 98 bd 7a 6b f3 3c d4 21 de bc 90 6c a0 3b
       -0.07427075 0.029714335 -0.02711574 0.004895754
0001e0 44 ff 71 bd 0e 2c 92 3c f6 62 06 3e 02 20 bc bd
       -0.05908133 0.017843273 0.13123688 -0.091857925
0001f0 f7 4a 2d bd 2c f4 11 3e a0 3e 80 bd 4e 1e 87 bd
       -0.04230782 0.142533 -0.06261945 -0.06597577
000200 63 fb 7b 3c cd b2 0c 3e 31 e0 da 3d b2 de b2 bb
       0.0153797595 0.13740082 0.10687292 -0.0054586763
000210 1a f0 7d bd b8 2d c5 3d ad f4 4a 39 e0 1f ec bc
       -0.061996557 0.09627861 0.0001935537 -0.028823793
000220 f2 79 07 3e 4d a7 00 3e 92 b1 bc 3d e3 e7 12 bd
       0.13230112 0.1256382 0.09213556 -0.035865676
000230 ac b6 5c 3d 70 24 c7 bd 83 ba 1b 3e e8 4c 83 3d
       0.053885147 -0.09723747 0.15207867 0.06411153
000240 eb 44 11 3d 37 db 3c be 6d 2e a7 3d c0 94 67 bd
       0.035466116 -0.18442999 0.08163152 -0.056538343
000250 c6 c1 03 3e 27 84 66 bd 75 3b e3 3c 0e f6 b3 bd
       0.12866887 -0.056278374 0.027738312 -0.087871656
000260 65 b9 0d be e6 09 b1 bd 91 3b 2f bd be cf 76 3d
       -0.13840254 -0.08644466 -0.042781416 0.060256712
000270 35 3c 9f 3c c2 c5 2f 3d 05 e4 8d bd 5e f5 11 bc
       0.019437889 0.042913206 -0.06928257 -0.008908598
000280 7a 71 0c be 99 ca 64 3e 68 d3 4e 3d b8 d2 4c bd
       -0.13715163 0.2234291 0.05049458 -0.050005645
000290 2d 7a d8 bd f0 4a 15 3e 6f 03 e6 3d ae 7e 2c 3e
       -0.10570178 0.14579368 0.11231124 0.168452
0002a0 0f a7 20 bd 9e 03 73 be 3e 00 69 bc 0b bd a8 3d
       -0.03922182 -0.23731849 -0.014221249 0.08239182
0002b0 3e e6 b1 bb e0 a8 11 bd 7e 4f bf bd d0 44 86 3d
       -0.0054290583 -0.035561442 -0.09341334 0.06556094
0002c0 5f bb 49 be b2 b2 5c 3d de 6f 34 be 85 41 a2 3d
       -0.19700383 0.053881355 -0.17620799 0.07922653
0002d0 f7 ea ab bd 1d b2 57 3d d5 81 dc bc b1 11 33 be
       -0.08394425 0.052660096 -0.026917377 -0.17487217
0002e0 ca 1f ef bd ba 68 56 bd ab 9e 26 3e eb be cf 3d
       -0.11675985 -0.05234597 0.16271465 0.101438366
0002f0 0b f3 9c 3d 90 77 c2 3d bd ce 23 3d ad 73 04 be
       0.07663544 0.09495461 0.039992083 -0.12934752
000300 fa da 0b bd 41 56 9d 3d c5 c2 df bd aa f6 91 bd
       -0.03414438 0.07682467 -0.10925821 -0.071271256
000310 5e e0 9c be dc 8d 11 bd 98 31 be 3d 71 9f d3 3d
       -0.3063993 -0.03553568 0.09286803 0.103331454
000320 f6 64 1e 3c 6b 0c 90 bc ea 5f c7 3c 7c ce 92 be
       0.009667626 -0.017584046 0.024337728 -0.2867316
000330 31 50 9a bd 54 fc 0a be 81 c3 d3 3d 52 41 5d 3d
       -0.075348265 -0.13572818 0.10340024 0.054017372
000340 48 3d 03 be 82 4a ad 3d b4 54 71 3d cd 81 c3 3c
       -0.12816346 0.08461477 0.05891867 0.023865605
000350 4e 9f 94 be 96 27 66 bd b1 45 0a be 01 dc e1 3d
       -0.2902779 -0.056190096 -0.13503148 0.110282905
000360 fe 0b cb bd f9 76 d6 3d 00 33 c7 3c 24 72 c8 bd
       -0.09914397 0.10471911 0.02431631 -0.097873956
000370 46 8b 0c 3e d4 6a cc 3d 23 b6 a2 bd 86 7a b8 bb
       0.13725004 0.09981313 -0.07944896 -0.0056298403
000380 fa 14 0c be 1c e8 e3 3d a0 1f 3a 3e c6 28 fb 3c
       -0.13679877 0.11128256 0.18176126 0.03065909
000390 66 ee 99 be 89 03 59 3c 8c db 9c bd dd f9 4e bd
       -0.30064696 0.013245472 -0.07659063 -0.050531257
0003a0 88 4d 8c 3d 1a 7a c9 bd 99 05 81 3d d7 19 1d bc
       0.068507254 -0.09837742 0.06299896 -0.00958868
0003b0 8f 0c d7 bd eb 41 13 3d 0a 8d bf 3d 7a fc d7 3d
       -0.10500442 0.035951536 0.09353073 0.10546203
0003c0 5c c4 a4 3d 4f 98 44 bd 75 e4 f0 3d b6 23 e5 bd
       0.08045265 -0.047996815 0.11762325 -0.11188452
0003d0 0b fa ef 3d 66 b3 c6 be 62 43 1f bd dc 9c b7 bb
       0.11717614 -0.38808745 -0.03888262 -0.005603416
0003e0 54 ba 3b bd 39 0b 0f be f6 13 e0 3c a9 2e 8b 3e
       -0.045831993 -0.13969125 0.027353268 0.27184036
0003f0 3a 81 3b 3d 20 73 bd 3c f4 aa 65 3c 35 18 0b bd
       0.045777537 0.023126185 0.014017809 -0.033958632

fc2.bias f4 [300]
000000 fb bd 62 3d ee 8c df bb 3c ba 30 bc 0f c6 ac 3c
       0.05535696 -0.00682222 -0.010786589 0.021090535
000010 02 a8 01 3e 31 b5 d8 bc de 75 a2 3d ee 22 e1 3d
       0.12661746 -0.026453586 0.07932638 0.109929904
000020 61 29 a4 3d 5b 13 c5 3d dc 15 17 bc b6 6a 00 3d
       0.08015705 0.096228324 -0.00922152 0.031351767
000030 ac f9 2d be 3a 67 49 bd e6 2c 7c bd 55 9f ca bc
       -0.16989774 -0.04917071 -0.061566256 -0.024734179
000040 9a 7e 4b 3c 01 e3 c0 bc ab 36 f4 3d ae c8 3b bc
       0.012420321 -0.023545744 0.119244896 -0.01146142
000050 86 5f 12 3d 6e 59 4a bc 64 76 f9 3b 91 51 be bb
       0.03573563 -0.012350423 0.00761299 -0.0058080633
000060 4d 78 94 3d b3 29 72 bc a7 13 ba 3d 4f 8b 97 bd
       0.07249508 -0.01478045 0.0908578 -0.07399618
000070 6e 3a c9 3c 7e d0 02 3c dd fb 4c bd 2d 5a 3d b9
       0.024563994 0.007984279 -0.050044883 -0.00018058038
000080 8f 06 f2 3d 63 5b 97 3d 7f 7f 05 be f2 83 ba 3d
       0.11817657 0.073904775 -0.13036917 0.09107198
000090 65 9e 61 3d a6 db a6 b9 ed 71 0d 3d b4 94 e9 3d
       0.055082697 -0.00031825638 0.034532476 0.11405316
0000a0 3c a8 a5 bc 3a b6 66 3c 15 c3 e2 bd f0 89 d4 bc
       -0.020221822 0.014081532 -0.11072365 -0.02594468
0000b0 0e 00 07 3e 0f 3b 6c 3d 66 3b 1d 3d cb 39 23 be
       0.13183615 0.05767351 0.038386725 -0.15940015
0000c0 2f e0 72 bb 8d 9e 2c 3b ef 04 03 be 4b b0 f2 bc
       -0.0037059893 0.002633962 -0.12794851 -0.029625079
0000d0 8d 36 09 3d 58 8a c5 3c 14 0a d4 3c 7b 92 1e 3b
       0.03349929 0.024113819 0.025883712 0.0024196196
0000e0 31 d0 cc bd 9c 68 40 3c c8 67 98 bc 26 d9 2f bb
       -0.10000647 0.011743691 -0.018604174 -0.0026832311
0000f0 72 84 c4 3c 1e 71 99 3d 82 ec e3 bc b2 6a 90 3d
       0.023988936 0.074922785 -0.027822737 0.070516005
000100 32 9d b5 3c 2e a4 10 3d 7d 95 1b bd 76 98 b7 bc
       0.022169683 0.035312824 -0.03798436 -0.022411566
000110 f2 2a 0c 3d 81 78 82 3d 15 27 a2 3d e5 e0 c1 bd
       0.034220643 0.063706405 0.079176106 -0.09466723
000120 05 2c 8a 3d f9 95 a8 3b b9 82 39 3d ae 04 cc ba
       0.06746677 0.0051448313 0.045290682 -0.001556536
000130 3e a4 cc bc 02 d5 1f 3e 0a 1b 05 bd a8 e1 d5 bd
       -0.02498066 0.156086 -0.03249649 -0.10443431
000140 c5 a1 50 bd d1 92 04 bd 6c 88 4d bd 09 50 73 3c
       -0.050935525 -0.032366578 -0.05017893 0.014850625
000150 38 81 92 3c ce 2d 25 bc 9e 6b d3 bc 09 54 cc bc
       0.017883882 -0.0100817215 -0.025808152 -0.024942415
000160 ed 3e 65 bd 8e cd f8 3d 59 e2 33 3c 71 45 81 bd
       -0.055968214 0.121485814 0.010979258 -0.06312073
000170 f4 cd c0 3b 0d 28 4f 3d a8 6b e1 3c dc a2 93 3d
       0.0058839265 0.050575305 0.027517155 0.07208797
000180 e0 ea b5 3b db d8 d2 3d 2f 3c c5 bd c9 9d 00 bc
       0.005551681 0.10295268 -0.0963062 -0.007850119
000190 87 79 d5 3c cb 4e 12 3c f9 3e 3e bd fa d9 f6 3c
       0.026058925 0.0089299185 -0.046446774 0.030133236
0001a0 61 c2 20 3d 37 c4 02 3c 8b 5a 99 3c 39 52 31 3d
       0.039247874 0.007981352 0.018719932 0.043291304
0001b0 a5 c2 87 be 5a 43 65 bd 78 9e 7e 3d ca 12 86 3d
       -0.2651569 -0.055972435 0.062162846 0.065465525
0001c0 b2 42 b0 3d 35 d8 ba 3c 9e 1d db bc de 6e 24 bc
       0.08606471 0.022808174 -0.026747521 -0.010036198
0001d0 96 45 9b 3d 46 5a d7 3d cc e7 76 bc 89 b2 c2 3d
       0.07581632 0.10515265 -0.015069913 0.09506709
0001e0 c5 93 f6 bd 7b c1 61 bd bc 3a 95 3d 84 e3 91 bc
       -0.120399036 -0.055116158 0.07286593 -0.017808683
0001f0 c2 52 54 3d 4a 80 25 be 83 1e 4a 3d a1 ae 48 3d
       0.051836737 -0.1616222 0.049345504 0.048994664
000200 75 e0 91 3d 3a 7a 89 3d 72 75 d8 3c 12 c1 96 bc
       0.0712289 0.06712766 0.02642319 -0.01840261
000210 18 7f 4d 3d 9f 04 8e 3c 53 5f 24 3d 34 34 05 bc
       0.050170034 0.017336188 0.04012997 -0.008130122
000220 2f db a2 3c 29 12 b4 3d 12 2e 5a bd c0 83 cd 3c
       0.019879906 0.08792526 -0.053266592 0.025087237
000230 35 f8 e6 bd b5 e6 4c 3c a5 92 22 3d 49 ef c7 ba
       -0.112778105 0.012506177 0.039690632 -0.0015253808
000240 94 20 46 bd a3 ce 5a 3d 6d 5c 54 bd bc d1 0d 3c
       -0.048370913 0.05341972 -0.051845957 0.008655962
000250 28 fc 1d be 53 e6 05 3d a6 25 17 bd 33 53 9f 3d
       -0.15428221 0.032690357 -0.03690114 0.07779541
000260 e1 21 76 3d fc 0b 62 3d 4c 3e 82 3d 71 51 61 3d
       0.060090903 0.05518721 0.063595384 0.05500931
000270 02 e0 72 bc f9 e4 2f 3d 9d c1 5f bd 5a ca a3 3d
       -0.014823915 0.042942975 -0.054628003 0.0799758
000280 cd 2f aa 3d 50 39 5c 3d 15 57 22 3d 5b e6 90 3c
       0.083098985 0.053765595 0.03963383 0.017687967
000290 10 df ac bd 25 6f 60 bc 4c 30 51 3d 61 82 d3 3d
       -0.08440983 -0.013698374 0.05107145 0.10327602
0002a0 38 c5 ff bd e4 a1 c1 3c 27 37 89 bd 30 08 87 bd
       -0.12488788 0.023636766 -0.066999726 -0.065933585
0002b0 e7 9d a8 bc b8 67 ce 3c ce a1 bf 3d 8c ea 32 3d
       -0.020583106 0.025195941 0.09357034 0.043680713
0002c0 67 e1 d6 bd 1f 99 b2 3c a1 5d e7 bd cf e2 78 3d
       -0.10492211 0.02180153 -0.11297155 0.060763177
0002d0 52 26 65 3d f0 39 13 bc 0c 1e 05 3e 3b 96 21 bc
       0.05594475 -0.008985981 0.12999743 -0.009862478
0002e0 3c 18 52 3d a7 86 a4 bc 86 a4 8c 3d 1c e9 5b 3d
       0.051292643 -0.020083738 0.06867318 0.053689107
0002f0 30 05 0e 3d 6c 00 ac 3c f0 28 a8 bd e9 9b 83 3d
       0.034672916 0.020996295 -0.08210933 0.06426222
000300 aa 76 bc bc 57 50 03 3d 60 32 d0 3d fd dc 67 3d
       -0.023005802 0.03205904 0.10165858 0.056607235
000310 01 47 27 bd 8a 61 b9 bc 80 e1 f1 bd c6 92 ac 3d
       -0.0408392 -0.022629518 -0.11810589 0.08426432
000320 c6 18 0b bd de ce 6d bd 9e 22 e2 bd f1 59 2f 3d
       -0.033959173 -0.058058612 -0.11041759 0.042810384
000330 5a 50 f9 3c be cf cf 3d 0e f5 36 bc 53 55 29 3d
       0.030433822 0.101470456 -0.011166824 0.041341137
000340 e4 a6 98 bd 6d ad 71 bb 05 f7 53 3c 11 a0 a1 3a
       -0.07453707 -0.0036877051 0.012937312 0.0012331029
000350 07 3c d7 bd ef a6 39 b9 28 bb 65 bd 96 5a e4 3d
       -0.10509496 -0.00017705162 -0.05608669 0.111500904
000360 5e a3 66 3d 78 e0 4a 3c d8 04 93 3c e2 8a fc 3d
       0.056308143 0.012382619 0.017946646 0.12331177
000370 03 52 ac bd f1 2d f5 bd ee 69 9e bb f4 bb 58 bc
       -0.0841408 -0.11971653 -0.004834405 -0.013228405
000380 f7 36 a1 3c d1 a6 fa 3c 1f b5 58 bd 50 fd 0d 3d
       0.01967953 0.030597122 -0.052907106 0.034665406
000390 43 b8 c0 bc 88 5b 95 3d 08 09 85 bc 53 c2 25 bd
       -0.023525363 0.07292849 -0.016239658 -0.040468525
0003a0 a7 9c 04 be 27 20 a6 3d 19 0a 65 bd 3e e1 a9 bd
       -0.12950383 0.08111601 -0.055917833 -0.08294915
0003b0 ad bc d0 bd ac 81 1e 3d d3 e2 57 bc dc f1 40 bc
       -0.10192237 0.038697883 -0.013176638 -0.011776414
0003c0 fd 85 4d bd aa 4f 59 3d 2d cc 56 3d 81 0a 46 bd
       -0.05017661 0.05305449 0.05244081 -0.04834986
0003d0 e5 75 d5 bd fc 86 cc bd b2 39 42 3d 80 f2 a0 3d
       -0.10422877 -0.09986684 0.047418304 0.07858753
0003e0 41 cd 58 bc 5a 72 72 bc 04 07 1e 3d 35 78 a9 3d
       -0.01323253 -0.014797771 0.03858091 0.08274881
0003f0 85 00 61 3d bc b3 14 bd 23 53 b9 bd 8e 1f ca bd
       0.054932136 -0.03630422 -0.0904906 -0.098693

fc3.weight f4 [4, 300]
000000 8f 4a 06 3d 99 c5 0d 3d 9b 9c 24 bb 1b 49 82 be
       0.03278595 0.034612272 -0.0025117758 -0.254464
000010 64 6e 01 3e b3 04 6a 3e a2 31 04 be e7 6e ca be
       0.12639767 0.22853355 -0.12909558 -0.39537737
000020 4a a5 e9 be cb e1 08 be 9d 77 86 bc 04 86 6f 3b
       -0.45633918 -0.13367383 -0.016414458 0.0036548385
000030 48 f6 96 3e 4e 2e 11 3e 38 b9 15 bf aa 4e 27 3e
       0.29484773 0.1417782 -0.58485746 0.16338602
000040 a7 01 18 be a9 76 a6 3d 8c d5 98 3d 6b cf 2c 3e
       -0.1484438 0.081281014 0.07462606 0.16875999
000050 94 e1 5f be 7e 68 c6 3e 49 fd 97 bd ba 22 9e be
       -0.21863395 0.38751596 -0.07421357 -0.3088587
000060 71 37 c5 bd eb ae 67 3e 18 42 13 3d 42 34 3b 3d
       -0.09629715 0.2262532 0.035951704 0.045704134
000070 ec 34 07 be 7f 61 06 3f bf 37 35 3e 2e 7d 2c 3e
       -0.13203782 0.5249252 0.17697047 0.16844627
000080 cf 25 03 3e 8d 59 eb bc dd 13 e4 bb 8b ea 07 3e
       0.12807392 -0.028729225 -0.0069603757 0.13273065
000090 35 03 0b be 2f f8 b3 3d 7b f4 df bd 4d 31 e1 bd
       -0.13575442 0.08787572 -0.10935303 -0.109957315
0000a0 30 c9 62 be a1 9c 3e bd db 82 87 3b f9 2a 0e be
       -0.2214706 -0.04653609 0.0041354722 -0.1388358
0000b0 ff ea 04 be 15 ff 7e be 5b 16 46 3e 78 e5 aa 3e
       -0.12980269 -0.24901994 0.19344465 0.33378196
0000c0 24 54 6f bd 90 b6 d3 bd cf c3 4d 3f 88 e6 b3 bd
       -0.058429852 -0.103375554 0.80376905 -0.08784205
0000d0 5d 77 85 3e 27 ca 5d 3e a7 44 a8 be 16 c9 91 bd
       0.2606763 0.21659146 -0.32864878 -0.07118432
0000e0 e7 a9 0b be 32 ee 08 bd 57 10 7e bd 84 4b 42 3e
       -0.13639031 -0.033430286 -0.0620273 0.1897412
0000f0 9e 98 55 be c3 38 03 3d fc 7d 09 3e d0 f3 1a bd
       -0.20859 0.032036554 0.13426965 -0.037830174
000100 8d a4 ad bd 0f b9 82 3e ca 09 32 3e ea 0b cf 3c
       -0.08478651 0.25531814 0.17386547 0.025274236
000110 76 4a 44 3e 1d 07 92 3d 58 ec d4 3c 55 35 2f 3e
       0.1916903 0.07130263 0.025991604 0.17110188
000120 4c ea f8 be 4a 18 3e 3d d5 cc 35 3e d2 0c 79 3e
       -0.48616254 0.046409883 0.17753918 0.24321297
000130 96 a1 76 be fc e3 a9 3d 61 27 bf bd ca 08 16 3e
       -0.24085078 0.08295438 -0.09333683 0.1465179
000140 e3 6b 11 bd e7 09 07 3f 18 68 de 3e 99 a7 c2 be
       -0.03550328 0.52749485 0.43438792 -0.38018492
000150 82 03 31 3e a6 ff f5 be e5 fb 8f bd 4c de b6 3c
       0.17286494 -0.48046607 -0.07030467 0.022322796
000160 f3 1e 61 be 4d d4 9e bd 44 5c 26 3b e5 6f 79 3f
       -0.21984462 -0.07755337 0.0025384584 0.9743636
000170 a9 21 8b be 51 60 ca bc b9 ab 38 be 9e e6 29 bd
       -0.27174118 -0.02470413 -0.18034257 -0.0414797
000180 8e d3 9a 3e cd 94 09 be e1 ea a3 be 2f 57 24 3e
       0.30239528 -0.13435669 -0.32015136 0.16048883
000190 3b 31 15 be df 96 85 3e 39 9c 8a bd 0e fb 7c be
       -0.14569561 0.26091668 -0.06768078 -0.24705145
0001a0 1f ae 27 bf fb 69 e5 3b d4 8b 9e be ff 15 de 3e
       -0.6550006 0.0070011592 -0.30966055 0.43376157
0001b0 c3 2b 42 3f 74 9c 27 3e b5 c6 ce 3e a1 ab e8 3e
       0.75848025 0.16368276 0.40385976 0.45443442
0001c0 85 50 b8 bd 8d e8 80 3c b6 4d 2a be a3 a8 d3 be
       -0.08999733 0.015735889 -0.16631207 -0.41339597
0001d0 e2 63 74 3d 52 f5 3d bd 4e fe 9c bc 85 ea b2 bd
       0.05966557 -0.046376534 -0.01916423 -0.08736137
0001e0 91 30 08 3f 81 8b b8 be dd b2 96 ba a0 f2 da bc
       0.53199106 -0.36043933 -0.0011497397 -0.02672702
0001f0 f2 f4 03 3d ee 7e 1e 3f 8c 35 9c 3d 33 dd 1d bd
       0.03221602 0.6191243 0.07627401 -0.03854103
000200 c1 ee 97 3c 9e 29 e8 3d 4e 56 ab be fb eb 2c be
       0.018546464 0.11336063 -0.33464283 -0.16886894
000210 00 7b 54 bd 21 34 66 be 09 85 b9 bc e2 92 08 3c
       -0.051875114 -0.22480823 -0.022646444 0.008335801
000220 35 dd f2 3e 08 68 9b be 0a 70 0e bf 18 bb f1 3d
       0.47434393 -0.30352807 -0.5563971 0.118032634
000230 de bc a8 bd 42 ae 7c 3f 5b fa ba 3a d9 55 93 be
       -0.082391486 0.98703396 0.0014265286 -0.28776434
000240 57 5e e3 3e 80 a0 59 be 65 a6 1c be 54 dd 9d be
       0.44407913 -0.21252632 -0.1529785 -0.30832922
000250 9b f8 09 be 68 28 cc bd 15 62 96 be 08 83 44 3e
       -0.13473742 -0.099686444 -0.29371706 0.1919061
000260 98 7d 45 be 35 2e c3 3d a2 f6 b0 3b 5b 32 ae 3d
       -0.19286191 0.09530298 0.0054004947 0.08505698
000270 5e f8 d0 3e dc dc ec bd a0 0a a9 3e 4c 17 8d be
       0.4081449 -0.11565563 0.3301592 -0.27556837
000280 bc 7f 21 be c8 d1 f9 bd b2 5c 01 bd 9d f5 79 3e
       -0.15771383 -0.12198216 -0.03158254 0.244101
000290 e6 39 90 3e 30 37 8f bb f0 71 4b be a6 50 94 bd
       0.28169173 -0.0043705925 -0.19867682 -0.07241945
0002a0 c9 b9 2e 3c c7 d1 e1 3d 33 ef ba 3e ce 2c 52 3e
       0.010664412 0.1102634 0.3651062 0.20524904
0002b0 84 73 03 bf 78 11 49 3e b3 96 21 bf 7a b8 24 bd
       -0.5134814 0.1963557 -0.63120574 -0.040214993
0002c0 12 13 e5 3e 58 c3 13 3d 1d 21 17 3e 04 cd b6 bd
       0.44741112 0.036074966 0.14758725 -0.089258224
0002d0 89 82 5e bd 47 39 71 3e aa 70 2c bc 9c c6 8f be
       -0.054323707 0.23557006 -0.010524908 -0.28081214
0002e0 e3 bd c2 bd cd f5 10 bd 65 18 84 3f fa cd d6 3d
       -0.09508874 -0.035390664 1.0319945 0.10488506
0002f0 63 75 de be 49 fb c8 3e bd 7b 8c 3e d1 2f 5d 3d
       -0.43448934 0.39254215 0.27438155 0.05400068
000300 59 4b 37 bf 4b fa 89 bd 49 ba a2 be 55 0d 71 3d
       -0.71599346 -0.06737193 -0.3178275 0.058850605
000310 b1 c2 0d bf b7 46 25 be 81 6e fe 3c 2f 6e 80 be
       -0.553752 -0.16140257 0.031058552 -0.25084063
000320 7f 2f a2 bc f3 59 cd 3e 77 e7 d6 3e 0a 67 ab be
       -0.019798039 0.40107688 0.4197347 -0.3347705
000330 2d 02 a5 bd a5 1b b3 bb 29 60 f7 3e 01 02 a0 be
       -0.080570556 -0.005465942 0.48315552 -0.3125153
000340 80 fc 06 3e 6c fa c5 3b f5 dc 2b 3e 7f 06 f2 3e
       0.13182259 0.0060418155 0.16783507 0.4727058
000350 d8 27 20 bd ce 40 89 3c da 89 5b 3e ed 34 dd 3d
       -0.039100498 0.016754534 0.21439305 0.108011104
000360 19 fd 33 3e d1 df 9f be dd bc b1 3d 6a 82 0f 3e
       0.17577018 -0.31225446 0.08678601 0.14014593
000370 71 b7 d0 bd ec 87 b3 be 29 8b bd 3e 3a 97 de be
       -0.10191239 -0.35064638 0.37020233 -0.43474752
000380 6c 64 24 3e 3e 7b 66 bd 9b 2e 11 3e 61 c9 8c be
       0.16053933 -0.056269877 0.14177935 -0.2749739
000390 bd fb 83 3e 21 4c c4 be 80 b0 f3 3d 7a 6c 3d bd
       0.25778 -0.38339332 0.11898899 -0.04624603
0003a0 cc 1c 3d 3f 45 16 6d be 76 19 2c 3d f9 e6 b1 3d
       0.73872066 -0.23153026 0.04201647 0.08686633
0003b0 0f 59 28 be d7 5d 73 bd 3b 1f d6 bd c2 4c 41 3e
       -0.16440223 -0.059415665 -0.104551755 0.18876937
0003c0 72 69 3d bd 6c 52 2e bf 90 d0 66 bd 91 06 96 bd
       -0.04624314 -0.68094516 -0.056351244 -0.07325471
0003d0 03 1a 03 bf e4 3d 0b 3e 76 90 89 3e 3d 49 a2 be
       -0.51211566 0.13597828 0.26868027 -0.316965
0003e0 1a 54 cf be 7a 3b 06 be 2b 6e 07 3e 2e 09 09 be
       -0.40493852 -0.13108626 0.1322562 -0.13382408
0003f0 f4 e6 b6 3e 39 3b 27 3f ee 8d 6a 3e 98 11 67 3e
       0.35723078 0.6532474 0.22905704 0.22565305

fc3.bias f4 [4]
000000 bc ee 8e bd e0 f7 47 3d 76 f9 cc 3c 9e 7f 81 3c
       -0.06979129 0.048820376 0.025021296 0.015807923
